backend/workspace/weight/rtd/CNN/best_model-50d.pth (torch, 400391 bytes, 10 tensors)

conv1.weight f4 [64, 1, 3, 3]
000000 b0 e2 31 bf 58 ae d7 be 99 8a d5 be ca e8 d9 3e
       -0.6948652 -0.421252 -0.41707304 0.42560416
000010 84 ac ae 3e 78 d0 8a 3e ce 7b e9 3e d7 19 0a 3e
       0.34115994 0.27112174 0.45602268 0.1348642
000020 38 b5 46 bd 82 68 14 bf 20 7d 3f bf c1 4e ad bd
       -0.048512667 -0.57971966 -0.748003 -0.08462287
000030 8d 22 8d bd c8 fa bd 3e 8c e0 be 3e a3 50 09 3f
       -0.06891356 0.37105393 0.3728069 0.53638667
000040 c2 6b 34 3f ec 94 39 be 13 98 83 3e de d3 80 3d
       0.70476925 -0.18123215 0.2570196 0.062904105
000050 f8 d4 10 bf c3 57 3d bc 8a ee 2c be a8 26 21 3f
       -0.56574965 -0.011556569 -0.1688787 0.6294961
000060 20 a7 7c bd 2e 4b 7a be de f1 3e 3f 05 4c 27 3e
       -0.06168282 -0.24442741 0.7458781 0.16337593
000070 57 58 98 3e 31 15 1e be 70 20 c6 3d 96 96 12 bf
       0.29754898 -0.15437771 0.09674156 -0.57261026
000080 ea bf f0 3e 91 26 06 3e 6f 52 2e bf 29 7a 13 3f
       0.4702142 0.1310065 -0.68094534 0.57608277
000090 4c 5c 0d 3d 3c 61 9a 3e 57 fd ef be b1 0a 14 3d
       0.03451185 0.3015231 -0.4687297 0.03614301
0000a0 93 d5 e8 3d e8 5b 35 bd 54 1d 71 bf 67 e8 6a be
       0.11368861 -0.0442771 -0.94185376 -0.22940217
0000b0 75 e6 f2 3d 1b ce 39 3e ec 16 d7 be 23 f5 9a 3e
       0.118603624 0.18145029 -0.42009676 0.3026515
0000c0 da 02 80 be fb 6b 64 3e 56 1f bc be 66 3b 5d 3e
       -0.25002176 0.22306816 -0.36742657 0.2160469
0000d0 2c b0 72 3e c9 3b 90 be d9 ab b6 3e 8a 9c d3 be
       0.23700017 -0.28170612 0.35677984 -0.41330367
0000e0 fa 71 e3 3e 2a 1e f2 be ab 1d 04 be a6 0b b4 be
       0.44422895 -0.47288638 -0.12901942 -0.35165137
0000f0 f6 9b 3d bf 70 e7 31 3e c1 6a bc be 3b 58 d3 3e
       -0.740661 0.17373443 -0.36800197 0.41278252
000100 b6 7e 36 bf 65 0e 57 3e 53 74 96 be 85 ef 31 3e
       -0.71287096 0.21001585 -0.29385623 0.17376526
000110 3c bb 8b be bd 81 2a 3e ac 9a 71 bd 2e 76 48 3e
       -0.27291286 0.16651054 -0.058985397 0.19576332
000120 f9 14 a2 3e 03 50 fc be e6 98 0c bf 5c 68 97 bd
       0.31656626 -0.49279794 -0.54920805 -0.07392952
000130 ef fd 07 bd 57 13 c1 3e 4c aa aa bd f8 e5 28 be
       -0.033201154 0.37710068 -0.08333263 -0.16493976
000140 49 77 88 3e 15 88 b4 be 1f e0 73 3e a4 b7 2b bf
       0.26653507 -0.35260072 0.23815964 -0.6707709
000150 c6 b6 9e 3e f6 e3 c7 3d 18 d6 45 bf 73 44 95 be
       0.3099882 0.09760277 -0.77279806 -0.29153785
000160 d4 76 51 be 9b 8e 8c be ed 83 20 3e fe 0f 03 3e
       -0.20455486 -0.2745255 0.15675326 0.1279907
000170 4c 9a 45 3e bd 2a e8 3e 4e 09 87 be 51 1f 7d 3e
       0.19297141 0.45345107 -0.26374286 0.24718978
000180 6c db b4 be 59 e7 13 be 6b 1e 36 3e 17 c0 14 be
       -0.35323656 -0.14443721 0.17785041 -0.14526401
000190 6b c0 9b 3e 84 da a4 3e 9e 0c 37 be bf 4b 7b be
       0.3042024 0.32197964 -0.17875907 -0.24540614
0001a0 d4 ea bb 3e 05 2d e7 3e 3b c6 bf be 08 43 e0 be
       0.36702597 0.45151535 -0.37455925 -0.4380114
0001b0 af 61 e7 bd 50 e5 13 3e 80 24 1a bf 0d c6 a9 3e
       -0.112979285 0.14442945 -0.60211945 0.33158913
0001c0 e8 ea 6a be 4a c7 2e be c3 06 76 be fb ed c3 3d
       -0.22941172 -0.1706821 -0.24026017 0.095668755
0001d0 cc bf 67 3e c1 64 82 be a7 9d 3e be fb 12 bc 3e
       0.22631758 -0.25467494 -0.18614827 0.3673323
0001e0 c1 56 f8 be a3 68 33 3e 07 0f 7d be b1 48 81 3d
       -0.48503688 0.17520384 -0.24712764 0.06312693
0001f0 07 ab 5e bb cd 4e bb be b0 ca 00 3f cb 03 38 bf
       -0.0033976452 -0.36583558 0.50309277 -0.7188079
000200 e7 1f 03 bf f5 1c 27 be 56 84 35 bf 26 d9 cd 3e
       -0.51220554 -0.1631964 -0.70905054 0.40204734
000210 9d 66 7a bb 5d 61 a7 3e 0d 52 0c 3f 77 7e 0b be
       -0.0038208135 0.3269147 0.548127 -0.13622461
000220 cb 04 9c be f7 ed 60 bc ee c7 28 3e 4d d9 e7 3e
       -0.30472407 -0.01372861 0.16482517 0.45282975
000230 a0 e2 a9 3e b0 a8 49 be c5 52 80 be e0 c8 6c bd
       0.33180714 -0.19693255 -0.25063148 -0.057808757
000240 0b 19 64 3d b6 eb ef 3c 95 c8 01 3d e6 50 ee 3e
       0.055687945 0.0292872 0.03168543 0.46546096
000250 a9 74 59 be d9 1d 23 3f 68 1e ff be 4f 6e 08 bc
       -0.21235909 0.6371742 -0.49827886 -0.008327081
000260 63 a2 a6 be e6 74 48 3e f0 44 af bd 45 b4 42 3e
       -0.32545766 0.19575843 -0.08558071 0.1901408
000270 5e 64 24 bf 8c a9 73 be 87 0f c1 bd d4 07 cd 3e
       -0.6421565 -0.23795146 -0.0942679 0.40045035
000280 74 c1 4a 3d 68 27 7f 3d 6b ec ce bd 83 d8 ed 3d
       0.049500898 0.06229344 -0.10103687 0.11613562
000290 13 7b 03 bd 8f 0b 76 3e 61 22 de be 9d c7 90 3e
       -0.032099795 0.24027847 -0.43385604 0.28277293
0002a0 a2 dd e3 3d 8d 93 ff bd 5b a6 4d be 2f 8a 99 3e
       0.111262575 -0.12479315 -0.20082991 0.29988238
0002b0 65 28 a6 be e9 62 b5 3e 17 17 5d be 04 04 ac be
       -0.32452694 0.35427025 -0.2159084 -0.33596814
0002c0 a7 02 bf 3e 5b 0c 59 be 5e 69 fd 3e ca 7b 8b 3e
       0.3730671 -0.2119612 0.4949445 0.2724288
0002d0 0e fb ce 3e 8c e9 d6 be 38 d9 b6 3e 8c 3f 99 be
       0.40425915 -0.41975057 0.357126 -0.29931295
0002e0 67 95 69 3e 80 56 8f be fa 34 3d 3e 1d 10 f5 ba
       0.22810899 -0.27995682 0.1847724 -0.0018696819
0002f0 99 96 0c 3e 02 be b0 bd 53 09 1e 3d f0 08 b8 3e
       0.13729323 -0.08629991 0.03858311 0.3594432
000300 71 6e e3 3d 33 62 3d be 23 ab 30 be 2e ec de be
       0.111050494 -0.18494491 -0.17252783 -0.43539566
000310 88 1d 35 3e 4b 61 82 be e7 49 2b 3e 72 ce 9a be
       0.17687047 -0.25464854 0.1672741 -0.3023563
000320 28 a7 b7 3e 57 96 93 be ba 8e 46 bd 97 7f ba be
       0.35869718 -0.28825638 -0.04847596 -0.36425468
000330 0b 74 c2 3e c4 09 cb 3e 1a 88 2a be 39 cc 2b bf
       0.3797916 0.39655888 -0.16653481 -0.67108494
000340 fe 48 1c bf b3 37 15 bf 36 95 ff 3e d8 c9 3d bf
       -0.6104888 -0.58288115 0.49918526 -0.74136114
000350 c5 8b 98 3e 39 b0 6f be ac ba fc 3e 8a 89 49 3f
       0.29794136 -0.23407067 0.4936117 0.7872549
000360 be d4 25 bc 28 12 28 bd 5e 5f ef 3b 28 52 bf 3e
       -0.0101215225 -0.04103294 0.00730507 0.37367368
000370 69 2c 9a be 9e 3c ce be 13 f8 c8 be 18 05 00 bc
       -0.30112007 -0.40280622 -0.39251766 -0.007813714
000380 3e 60 db 3e 32 84 06 bf 1e a9 96 3e 1d f4 1c bf
       0.42846864 -0.52545464 0.294259 -0.6130999
000390 4b 3d e3 3e be 7e 7d bd 4d cf 3c bf ea e3 6e be
       0.443827 -0.06188845 -0.73753816 -0.2332913
0003a0 90 90 3a bf 1f e4 5b be 00 39 98 be 83 26 65 bf
       -0.72876835 -0.2147374 -0.29730988 -0.8951189
0003b0 dc d5 c6 bc f1 8e 3b bf 27 b7 ac be 0c c7 11 3f
       -0.024271898 -0.73264986 -0.33733484 0.56944346
0003c0 94 a8 c5 3e 10 b2 29 3f 8e 8c 3b 3e b6 38 30 3e
       0.38605177 0.66287327 0.18315336 0.17209134
0003d0 17 c7 fb be 2f e8 cb 3e 15 06 83 be 48 f4 55 bc
       -0.4917533 0.3982558 -0.25590578 -0.0130587295
0003e0 a8 1b 2f be 52 49 37 3e dc de 23 3e 87 49 81 bd
       -0.17100394 0.17899063 0.16002983 -0.06312852
0003f0 44 65 b7 be e8 ef a6 3e 53 0b 1b bf e3 ec d3 3e
       -0.35819447 0.3260491 -0.60564154 0.41391668

conv1.bias f4 [64]
000000 8d 8b e2 bc 54 25 3c 3e 56 88 5a bf 3c ba 6a bf
       -0.027654434 0.18373615 -0.8536428 -0.9169042
000010 40 3f 39 bf 47 0e 19 bf 30 8c 60 bf 08 0f 19 bf
       -0.72362137 -0.5978741 -0.8771391 -0.5978856
000020 eb 78 02 bf c9 6b 70 bf 37 db 23 bf 44 73 af be
       -0.50965756 -0.9391447 -0.6400637 -0.34267628
000030 ef 2d d0 be 74 0e 23 bf 99 a1 62 bf 2b 6b a1 be
       -0.40660045 -0.6369393 -0.8852783 -0.31527075
000040 6b bc e9 be d9 a3 f0 be 0c 43 6d be d1 2c 5c be
       -0.45651564 -0.47000006 -0.23170108 -0.21501471
000050 a5 09 3d bf de 18 db be 4a 37 29 bf 5c f5 75 bd
       -0.7384284 -0.4279241 -0.6609999 -0.060048446
000060 37 aa 54 be 34 91 86 bf 24 6f c5 be 3a e3 29 bf
       -0.20768057 -1.0513062 -0.38561356 -0.66362345
000070 db ea 8d bf 31 a6 13 bf 63 0b c6 3d a8 85 da be
       -1.1087297 -0.5767546 0.096701406 -0.42680097
000080 b0 eb 25 be 31 4d 92 be 1c 04 32 be cf 13 2e bf
       -0.16203189 -0.28574517 -0.1738438 -0.67998976
000090 53 ae 89 be 96 24 e5 3d 2d 94 6c bf 9f 4a b2 be
       -0.2689081 0.11188619 -0.924136 -0.34822556
0000a0 a2 31 4d be fc db d3 be cf d8 4e bf a0 7b d1 be
       -0.20038465 -0.41378772 -0.80799574 -0.4091463
0000b0 83 a2 50 bf 74 51 e9 be e1 dd 4c bf 23 93 17 be
       -0.81497973 -0.45569956 -0.8002606 -0.14802222
0000c0 bf 43 9a be 6d f5 3f bf c7 8f f3 be 25 c0 0f 3e
       -0.3012981 -0.74983865 -0.4757063 0.14038141
0000d0 46 ea 77 bf 85 1f f4 be 55 80 60 3e 35 1a 80 bf
       -0.9684185 -0.47680297 0.21923955 -1.0007998
0000e0 e4 62 e1 be 09 59 5e be 6a 30 3d be 40 c3 cb be
       -0.4402076 -0.21713652 -0.184755 -0.397974
0000f0 1c b0 13 3e cd 2f 30 bf 37 f3 e1 3d df ba 16 be
       0.14422649 -0.6882294 0.11032718 -0.14719723

conv2.weight f4 [128, 64, 3, 3]
000000 05 c0 aa bc 07 d8 89 be b7 42 8c be 10 d2 8d be
       -0.020843515 -0.26922628 -0.2739465 -0.27699327
000010 39 f1 20 be bf 5f 81 bd 8e 26 ac bc 91 28 2a be
       -0.15717019 -0.0631709 -0.021014478 -0.16617037
000020 fc 8c 0c 3d fc c2 8c bc 2f 8e 6c be d6 28 d5 be
       0.03431414 -0.01718282 -0.23101114 -0.41632718
000030 12 1b 82 be dd 68 e0 bd 07 db b2 bd 7a 25 9c bd
       -0.25411278 -0.10957501 -0.087331824 -0.076243356
000040 35 88 67 be 78 a5 41 3e bc 2a c4 ba ee 02 36 bf
       -0.22610553 0.18910778 -0.0014966349 -0.7109822
000050 69 a5 16 3e fd bd 20 bd 02 6d 85 be 98 66 84 be
       0.14711536 -0.039243687 -0.2605973 -0.25859523
000060 32 2e 1f bf fb 5d be 3d 90 4c 83 bf 1e 76 e0 bd
       -0.62179863 0.09295269 -1.025774 -0.10960029
000070 5d 81 a9 be 91 e0 13 3e f2 30 09 3e 55 76 c4 3b
       -0.3310651 0.14441134 0.13397577 0.0059955516
000080 7b 1b c6 be 27 25 05 3e 32 14 8a bc 3f f1 41 bf
       -0.3869284 0.13002454 -0.016855333 -0.7575874
000090 20 f9 03 bf 53 1d c5 be 1e 2f 8a be ba 7a e2 3e
       -0.5155201 -0.38498935 -0.26989073 0.44234258
0000a0 59 9a a3 bc b2 9b ef bc a6 7e ba be fc c9 d6 be
       -0.01997106 -0.029249046 -0.3642475 -0.41950977
0000b0 b9 b2 c7 3a e6 5b 86 be 53 c7 16 bd 44 0c 7b 3b
       0.0015235759 -0.26241988 -0.036811184 0.0038306871
0000c0 73 ee 81 be 9d 57 26 bd 64 fc 65 3e df 9f 38 3d
       -0.25377235 -0.0406109 0.2245956 0.04507434
0000d0 55 2e 59 bf 2f 4d 34 bf f5 c3 f3 be 3d 9f bf 3d
       -0.8483632 -0.7043027 -0.4761044 0.09356544
0000e0 94 1e ef 3e bc 61 cb bd 24 10 c0 bd fc 89 a1 3d
       0.46703017 -0.09930751 -0.093780786 0.078876466
0000f0 e7 72 06 3e 77 f9 b4 bd fb 91 8d 3e c4 23 df bd
       0.1312977 -0.08836644 0.27650437 -0.108954936
000100 2f fc 77 be d3 bb aa be 6b 4c 35 be ff 34 82 3e
       -0.24217294 -0.33346424 -0.17704932 0.25431058
000110 56 e4 84 bd c1 e4 c5 3e be 9b 3a 3e 54 bb 69 be
       -0.06488864 0.38651088 0.18223473 -0.22825366
000120 2b da 20 3e e6 af 62 bf 9a ea c3 3e 3a 82 fa bd
       0.15708224 -0.8854965 0.38264924 -0.1223187
000130 fc 02 bd bd 25 7b 16 be 42 ad 36 3e b6 3d 83 3e
       -0.09229085 -0.14695413 0.1783953 0.2563302
000140 ef 67 08 be d4 cf a0 3e 5b 9e b1 3b dd 30 41 bd
       -0.13320898 0.3140856 0.005420489 -0.04716574
000150 d7 b9 87 bf aa 9b 6e be 03 0a 7d 3e 19 e4 0e bd
       -1.0603589 -0.23301569 0.2471085 -0.0348855
000160 0c e3 da 3c b9 b1 b4 bc 93 4c 67 be 32 ce 6f be
       0.026719593 -0.022057401 -0.22587804 -0.23418501
000170 4f 47 c8 bd 93 da 3a bd 0a 58 3a 3e e0 8c 01 bf
       -0.09779226 -0.045618605 0.18197647 -0.50605583
000180 a3 74 82 3e a0 03 23 3e 84 1b 13 be 97 02 8c bd
       0.25479612 0.15919352 -0.14365965 -0.068364315
000190 4b 7b 63 be 6e a3 87 be b4 5d be 3e c6 64 fd bd
       -0.22215001 -0.26491874 0.37180865 -0.12372737
0001a0 e2 f7 aa bd c3 ef fc 3c ce 95 07 bf fa 10 7f bd
       -0.08348061 0.030876046 -0.5296296 -0.06227205
0001b0 e4 a2 10 3e 52 8f 02 bf 02 53 23 3e 9c 48 3a bf
       0.14124638 -0.5099994 0.15949634 -0.72767043
0001c0 79 47 28 bd df e1 5d 3e 12 c2 34 bd ec f2 ae bb
       -0.041083787 0.21668194 -0.044130392 -0.005339017
0001d0 03 ab 10 3e f6 6b 1c bf 10 f1 7a bd 02 a5 13 bd
       0.14127736 -0.61102235 -0.06126505 -0.036046036
0001e0 1b e9 99 be 11 76 45 3c dc 5d 3f 3d 2f 0b cc 3e
       -0.30060658 0.012052075 0.04672037 0.39852282
0001f0 3f b5 00 be e3 14 65 3d da 38 71 3d a8 16 76 bf
       -0.1256914 0.055928122 0.05889211 -0.9612832
000200 e8 e2 8d be b3 02 8d be 03 d0 fa bd cb 83 aa bd
       -0.27712178 -0.27541122 -0.12246706 -0.08325919
000210 28 2e bd 3e a4 ef 4d 3e 18 ad 39 bf 1b 48 93 be
       0.36949277 0.20110947 -0.72529745 -0.2876595
000220 2a 42 fa be 8f 32 01 bd bb a4 51 3e 79 e2 8b be
       -0.48878604 -0.031542357 0.20472996 -0.27321222
000230 70 44 60 3e e1 15 bd be c5 46 87 3d 87 a5 36 bf
       0.21901107 -0.36930755 0.06605295 -0.71346325
000240 62 9e ef be 20 93 bf be 91 bf 8b 3e f0 c0 8c 3e
       -0.46800524 -0.37416935 0.2729459 0.2749095
000250 ba 4c 6f 3c 2d 14 f5 3d 0b 5d 84 be fe dc dd bc
       0.014605695 0.11966739 -0.25852236 -0.027082916
000260 c2 4c 08 be eb fe 30 bf 1d e2 f1 be 55 26 ac be
       -0.13310531 -0.69138974 -0.47242823 -0.33622995
000270 16 45 82 3d 66 a2 80 be 94 e1 f3 3e ae 21 ad be
       0.06360833 -0.251239 0.4763304 -0.33814758
000280 cb 7f 43 3d b5 7d 43 be af 12 3b be 67 19 d2 bd
       0.047729295 -0.19090922 -0.18268846 -0.10258751
000290 05 88 3f be b4 b1 c5 3e 75 c3 c0 3e 2f b5 1e be
       -0.18704231 0.3861214 0.37649122 -0.15498804
0002a0 52 fe f4 3e e0 8f ab bd 63 1d 12 be 99 52 d4 3d
       0.4785028 -0.08377051 -0.14269023 0.10367317
0002b0 29 2d 6c bc 49 b1 ea be da 26 f3 3d 31 78 29 be
       -0.014415064 -0.45838383 0.11872645 -0.16549756
0002c0 0a 03 5f be 4e 53 fb be e9 3c 13 3e 0f 95 dc bd
       -0.21778503 -0.49086994 0.14378704 -0.10770618
0002d0 80 1d f5 be ee 64 11 bf 26 37 ba be bf 16 f7 bb
       -0.4787407 -0.5679463 -0.363702 -0.0075405533
0002e0 0c 86 5a 3e 28 90 81 3d 8c fc ce 3d 5c 10 fe bd
       0.21340197 0.06326324 0.10106763 -0.12405464
0002f0 17 de b6 bc 76 73 17 bd e4 19 23 3e 59 05 eb 3e
       -0.022322698 -0.036975347 0.15927845 0.45902517
000300 5c a4 99 3d e9 8f ab be 89 5c 1e bd 5c 48 6d 3e
       0.07502052 -0.33508232 -0.038662467 0.23172134
000310 8c ab c3 3e b2 77 c0 3e ea 8d 65 bd ac 88 68 3d
       0.38216817 0.3759132 -0.056043543 0.056770965
000320 79 b8 d3 be ba 66 9e bd 43 06 b3 3d c8 eb 81 3e
       -0.4135168 -0.07734437 0.08741429 0.253752
000330 2e 7a 69 be 45 d8 2d bf bd ed 12 bf 36 7a 41 3d
       -0.22800514 -0.67908126 -0.5739401 0.04723569
000340 f5 f4 8b be 16 9b 96 3d a4 d8 ae bd e4 13 80 be
       -0.27335325 0.07353799 -0.08537415 -0.25015175
000350 da 65 a9 be a8 44 e0 3d c0 7f 35 3e 06 90 da bd
       -0.3308552 0.10950595 0.17724514 -0.106720015
000360 44 c6 57 3b f6 2d 46 bf 77 98 bb 3d 48 22 83 be
       0.0032924572 -0.7741388 0.0915994 -0.25612092
000370 76 ce 43 3e 5d 54 3b bd 1e 10 3b 3f 85 72 a7 3d
       0.19121727 -0.045734752 0.7307147 0.0817614
000380 37 9b 25 3e 54 0d 9f be 7c 05 13 3e 0a 35 b2 be
       0.16172491 -0.31064856 0.14357561 -0.3480609
000390 56 ae 51 bf fd 44 c4 be e0 f8 2d 3e bc fd 12 be
       -0.8190664 -0.38333884 0.1698947 -0.14354604
0003a0 5d 9a ee 3d 90 61 a1 3d 64 78 23 bd 57 60 23 be
       0.11650536 0.07879937 -0.039909735 -0.1595472
0003b0 be 38 25 bf 16 e5 36 3a f3 a2 e9 bd ea 15 a5 bd
       -0.64539707 0.00069768855 -0.11408033 -0.080608204
0003c0 73 b2 7b bd 7e e7 1e 3e 54 5f 39 3e 98 0d 0e bf
       -0.06144948 0.15517995 0.18102771 -0.5548949
0003d0 fe 8c 73 bd aa 65 5f be cc 5f b8 3d f4 2c 96 3e
       -0.059460633 -0.21816126 0.09002647 0.29331172
0003e0 2a f6 33 3e 58 ef 1c be 0f 42 2b be b3 31 26 3e
       0.17574373 -0.15325677 -0.16724418 0.16229896
0003f0 89 2a 8a be ae 79 ac bd ef 53 af be 65 e4 49 bf
       -0.26985577 -0.08421646 -0.34243724 -0.7886413

conv2.bias f4 [128]
000000 dc bd b1 3e e4 94 34 be 8f ec 38 bf aa b2 b9 bd
       0.34715164 -0.17634922 -0.7223596 -0.090672806
000010 f6 5d 4b be d3 bb 35 3a 05 42 cc bc 67 91 e0 bd
       -0.19860062 0.000693259 -0.024933824 -0.10965233
000020 d7 c0 ec 3d b3 b8 84 be 58 73 8b bc 74 58 26 be
       0.11560219 -0.25922164 -0.017022774 -0.1624468
000030 d1 87 1b bf fe fb b7 bc 73 c9 67 3b 98 25 7c be
       -0.60754114 -0.022459026 0.0035367876 -0.24623716
000040 ff c4 fb bc 59 79 03 3c 93 51 77 3c e9 0f 3b be
       -0.030733583 0.008024537 0.015095132 -0.18267788
000050 df 31 2e bc d2 5b 03 bd ac 0b 89 bd 37 ed 2f be
       -0.010632007 -0.03206999 -0.06691679 -0.17180334
000060 42 8c 97 bd e2 7a 5d be 42 a0 bf bc 8d 2d ea be
       -0.07399799 -0.21628907 -0.023391847 -0.45737877
000070 eb 1e 85 3b 33 89 07 bf ec aa 68 bd 45 72 68 be
       0.0040625236 -0.52943724 -0.05680363 -0.2269984
000080 53 e1 74 be 34 1a e5 bc 83 38 05 bc 6f 84 80 bf
       -0.2391408 -0.027966596 -0.008131149 -1.0040416
000090 f1 5b dd be c6 4c 0b bb 25 db a7 bd b3 6d 18 3d
       -0.43234208 -0.0021255477 -0.081960954 0.037213992
0000a0 ab fb 11 bd 68 f3 06 be b7 22 8f 3c a4 39 3e 3b
       -0.0356404 -0.1317879 0.017472608 0.0029026056
0000b0 31 3d 87 bd 9d 0f 9a bb c7 6a 0f bd 04 35 86 be
       -0.06603468 -0.0047015683 -0.03501394 -0.26212323
0000c0 4e 10 02 bd f2 91 43 be 1c 54 23 bd 31 bb 86 bd
       -0.03175383 -0.19098642 -0.039875135 -0.06578673
0000d0 4f 17 ca 3c 54 ca c3 3c e2 76 14 bd cf f8 10 bd
       0.024669318 0.023900189 -0.036246188 -0.035393532
0000e0 4f cf 6e 3c 37 32 17 bf 79 97 57 bd bf 40 56 bc
       0.014575793 -0.59060997 -0.05263469 -0.01307696
0000f0 3a 9d 31 bc 4b 18 29 bd 5a e8 c8 3d 3b 49 0b 3b
       -0.010840708 -0.041282933 0.098099425 0.0021253366
000100 86 a8 1d bd e9 68 42 3c 79 ce 92 bd f6 ab 6a 3d
       -0.038490795 0.011865833 -0.07168288 0.0572929
000110 30 ff 94 bc 08 23 40 3c 15 87 90 bc c1 83 de 3d
       -0.01818809 0.011727102 -0.017642537 0.10864974
000120 dd 3c 21 bd 76 e6 9b bd d8 d4 ea bc 03 2f e3 bd
       -0.039364684 -0.07612316 -0.028665945 -0.11092951
000130 65 95 cf 3d 9c 50 3f 3b 6f e7 5c bd 1a f3 97 bb
       0.101359166 0.0029192334 -0.05393165 -0.0046371343
000140 21 f9 8a 3c f2 44 1d bd 1d 5c cd bb 33 25 99 bd
       0.016964497 -0.03839583 -0.0062670843 -0.07477798
000150 7b 79 68 bc db 45 66 bd 9a 9e 16 bd 56 b2 3c bd
       -0.014189119 -0.056218963 -0.036772348 -0.046068512
000160 1a 5f a8 bc 45 de fb 3e 33 03 0e bd f9 65 a7 bb
       -0.02055316 0.49193016 -0.03467102 -0.0051085916
000170 40 b3 36 bf 49 a1 e5 bb 05 eb 60 bd e4 28 87 bd
       -0.71367264 -0.007007752 -0.054911632 -0.06599596
000180 e4 f9 d1 bc a9 1d ed 3e f4 6d 51 bf 62 6b 7c bc
       -0.025631852 0.4631169 -0.818084 -0.015406461
000190 a8 d9 c9 bc c2 d3 51 3e 12 72 e9 3c 94 4d e7 bd
       -0.02463992 0.20490935 0.028496776 -0.11294094
0001a0 72 1e f8 bd 7f a6 70 3c 6a 49 c3 be 3c 2f 91 ba
       -0.12115182 0.014688133 -0.38141948 -0.0011076699
0001b0 e6 cb fb bb 53 bc a5 bd 6f 96 a0 bc 91 e7 3b bf
       -0.0076842187 -0.080925606 -0.019602982 -0.7340022
0001c0 b8 c6 39 bd 94 a2 ea 3d 83 70 28 bb 4d 83 00 be
       -0.04535553 0.114567906 -0.0025701828 -0.12550087
0001d0 f6 2c 32 bb 6e a0 aa 3d 2d b2 96 bd 0c db b3 be
       -0.0027187443 0.08331381 -0.07358203 -0.35128057
0001e0 d0 99 7a bd 85 61 88 bd f0 f3 d1 be 90 6d 3b bf
       -0.061181843 -0.066592254 -0.41006422 -0.73214054
0001f0 9c a5 17 bd 02 b9 42 be 51 0d 81 3c 04 a0 e0 bc
       -0.03702317 -0.19015887 0.01575342 -0.027420051

fc1.weight f4 [128, 128]
000000 d5 38 31 bf cd 29 9c bc c0 f0 fb 3c 36 af 44 bf
       -0.69227344 -0.0190629 0.030754447 -0.7682985
000010 2d be 5c 3c 38 ad 25 bd bd 78 ed bc af 8d 46 bc
       0.013473076 -0.040448397 -0.028988237 -0.012118741
000020 d9 7f 63 bd 89 7a 97 bd a3 ca b2 bd b7 09 69 be
       -0.055541847 -0.073964186 -0.08730056 -0.22757612
000030 27 ca 86 bd d3 ae 5a bc 7e 9c 97 3d 74 d4 db be
       -0.06581526 -0.013347345 0.074028954 -0.42935526
000040 ee fe 78 3d 9e 38 0a 3d 8f 27 9f 3d 37 46 c4 3b
       0.060789995 0.0337454 0.07771217 0.0059898156
000050 63 4f 5b bc 85 2c d9 3c bb c9 02 3f 47 6b 93 be
       -0.0133856265 0.026510486 0.51089066 -0.28792784
000060 6d 15 48 3e 26 5b 6c 3e e9 de f6 b9 79 42 ac be
       0.19539423 0.23081645 -0.00047086857 -0.33644465
000070 d6 2d 84 bd 17 44 4a 3e f3 a4 b2 3e b4 e9 04 be
       -0.06454055 0.19752537 0.3489147 -0.12979776
000080 b2 95 f2 3d de 2e e2 3c 34 ad 51 bd 91 9e 7b 3d
       0.11844958 0.027610239 -0.05119057 0.061430518
000090 77 59 d4 bd f2 c0 7f 3c 59 4f 84 3d 27 08 05 bd
       -0.103686266 0.015609967 0.06460447 -0.032478478
0000a0 25 76 3c bc a8 22 17 3d 22 7b 38 3d 3b 30 57 3e
       -0.011502777 0.036898285 0.045039304 0.21014492
0000b0 c1 89 91 bc ea e7 9c bc 35 cd 36 be b6 d9 cc bd
       -0.017765881 -0.019153554 -0.17851718 -0.100024626
0000c0 a2 35 c1 bd 03 33 f9 bb 5b b0 d3 bc 7e 95 28 bc
       -0.09434058 -0.007604958 -0.025840929 -0.010289548
0000d0 2a 39 03 3e eb c7 c3 bc 84 ef 4f 3d 43 ec 9c 3d
       0.12814775 -0.02389904 0.05076553 0.07662251
0000e0 50 19 d4 3d 26 fa 7e 3e 02 41 80 bd e3 f1 0e bb
       0.103563905 0.24900112 -0.06262399 -0.0021811656
0000f0 6f 65 b4 bd 48 01 1e bd 6d fa 54 be 13 c9 05 3d
       -0.088084094 -0.03857544 -0.20798655 0.032662462
000100 84 cd a8 3d af f9 c6 bd 28 d4 a1 bc 8f 4d a2 3d
       0.08242324 -0.09715592 -0.019754484 0.079249494
000110 43 a7 1a bd c2 44 53 3c 12 c2 72 3b f2 1f b8 be
       -0.03775717 0.012894811 0.0037041944 -0.35961872
000120 49 d8 a1 bd b9 9b 69 bc 9c c5 82 bc 8d d2 6a 3d
       -0.07902581 -0.014258319 -0.015963368 0.057329703
000130 bd 92 7a 3e d6 ac 2d bf a3 cd 05 be 40 d0 9f bd
       0.24470039 -0.6784185 -0.13066725 -0.078033924
000140 cf 2a 8f bc ec c9 09 bd a6 de 6a bf 43 46 46 3d
       -0.017476467 -0.033639833 -0.91745985 0.04840685
000150 97 43 41 3e bc ce 1b bc 75 4f 27 3d ed 69 b8 3c
       0.1887344 -0.009509739 0.04084726 0.022511447
000160 47 d3 2c bd 7e c9 be 3d 3e 30 95 bd f6 5f 99 bc
       -0.042193677 0.09315775 -0.07284592 -0.018722516
000170 11 d6 c3 3d a3 14 70 bd a0 16 d7 bc 11 f9 9f 3b
       0.09562314 -0.05861343 -0.026255906 0.004881986
000180 4c 4c 0e 3f b5 e9 03 bf 9a 96 ef 3b b0 59 93 bc
       0.5558517 -0.51528484 0.0073116543 -0.017987102
000190 c1 0d 38 3c 4f 6b 05 bf c5 25 9b 3d 04 f1 34 3e
       0.011233748 -0.52116865 0.07575563 0.17670065
0001a0 fa 6f d3 3d ba 69 6d bd b8 5a 3e bd ec 61 15 3d
       0.10324092 -0.057962157 -0.046473235 0.03647034
0001b0 89 9a 4c 3c 5d 8b fa 3d 1d 3b 5c bd dc c2 33 be
       0.012488016 0.12233613 -0.053767312 -0.17554802
0001c0 77 52 d2 3c 93 5d 58 3e 50 50 80 bd 43 28 69 bd
       0.025674088 0.21129446 -0.062653184 -0.056923162
0001d0 17 e7 43 bd 1f 20 7d 3d 8b 06 7c 3d 1f 64 5f be
       -0.047827806 0.06179821 0.061529677 -0.21815537
0001e0 66 1c bb bd 8e 13 4e bd da 45 2a be b1 d0 2b 3e
       -0.09136276 -0.050311618 -0.16628209 0.16778828
0001f0 c5 d2 3d 3b b5 cc 79 3b 3f 9b a4 bd fa dd 1e 3b
       0.002896474 0.00381164 -0.08037423 0.0024241195
000200 19 a8 58 3d 2c 3b 02 3b 55 12 e2 bd 0d bf 86 bd
       0.052894685 0.0019871695 -0.11038653 -0.06579409
000210 64 fc d7 bc 13 0a b8 bb 9d 95 66 bc b5 2a 92 bd
       -0.026365466 -0.0056164353 -0.0140737565 -0.07137052
000220 42 e0 d2 bd c9 90 94 bd 3f f1 78 bd c2 4c 86 3b
       -0.1029668 -0.07254178 -0.060776945 0.0040985057
000230 47 4d 0f 3d 36 f8 12 bd 46 15 a5 bd 96 6c 8e bc
       0.034985807 -0.035881244 -0.08060698 -0.017385762
000240 6d 33 27 3d d6 5a 48 bd f4 ae bf bd f5 e2 5f 3d
       0.040820528 -0.048914753 -0.093595415 0.054659802
000250 fc b4 94 bd 1f 4b 83 bd 5b 5c ab bd bf de f3 bb
       -0.072610825 -0.064108126 -0.08367225 -0.007442325
000260 56 8d 24 be 43 9d da bc ce 9f 20 3d bb 89 9c bd
       -0.1606954 -0.026686316 0.0392149 -0.076434575
000270 2e 4f 76 3d 76 5c bd bd fd ab 00 be 84 bc f9 bd
       0.060134105 -0.09246151 -0.12565608 -0.121941596
000280 1c eb ae bd f8 47 0a bc 60 b8 9c 3b 86 d3 ae 3c
       -0.08540937 -0.00844001 0.0047827214 0.021341097
000290 95 9d 5e bc 72 19 46 3b 85 27 97 3d 40 b2 bc 3c
       -0.013587375 0.003022757 0.073805846 0.023034215
0002a0 08 70 9e bd fb 5f 0b 3d 1b 7a 4e 3d a1 8b 06 bd
       -0.07736212 0.03402708 0.050409418 -0.032848004
0002b0 a2 08 f5 3c d0 fd fb bb 32 f6 75 bb 3f d8 78 3c
       0.029911343 -0.007690169 -0.0037530777 0.015188276
0002c0 14 aa a4 bc e2 77 49 bc aa 9b 18 3d 5e 04 b5 bb
       -0.02010063 -0.012296649 0.037257828 -0.0055242022
0002d0 f8 ee 7f bd 2f 50 10 3d 13 36 55 3d 16 b4 8b bd
       -0.062483758 0.03523272 0.052053522 -0.06821458
0002e0 47 2b 81 3d 89 c3 1e bd 37 23 9b 3d 01 81 60 bd
       0.063070826 -0.038760696 0.07575076 -0.054810528
0002f0 1e 1d a7 bd 30 04 db bb 57 7a 13 bd cc ee c6 bc
       -0.081598505 -0.006683849 -0.036005344 -0.02428379
000300 22 04 89 3d b3 68 b6 bd 80 c6 95 bd ca 51 91 bd
       0.066902414 -0.089066885 -0.073132515 -0.07095678
000310 53 f4 c1 bd 5c f3 ab bd 3b 6b a6 3d 2c b1 b7 3b
       -0.09470429 -0.083960265 0.08125921 0.0056058373
000320 f6 cd 85 3d 33 d2 e4 3d b0 65 03 bd 67 49 72 3d
       0.065334246 0.11172905 -0.0320794 0.059152033
000330 39 18 88 3d 77 62 84 bd 2c 57 1e 3d a0 80 4a 3b
       0.06645245 -0.06464093 0.038657352 0.003089942
000340 81 55 b2 bd de 83 96 bd 63 66 ab bc a0 db 8f bd
       -0.08707715 -0.073493704 -0.020922845 -0.07024312
000350 32 a5 5f 3c dc 68 84 3d 86 5b 8e 3d e1 97 9f 3d
       0.0136502255 0.06465313 0.069510505 0.077926405
000360 17 c2 93 bd ea 82 99 bd 61 c0 a7 bd 49 ba 98 bd
       -0.07214754 -0.07495673 -0.0819099 -0.07457406
000370 a4 e8 91 bd 18 be 42 bd 1c 24 b9 bc 8f 4b 97 3d
       -0.07124451 -0.04754457 -0.022600226 0.073874585
000380 3e 4c ca bd e0 02 f2 3c 0c 14 c0 bd cd 05 93 3d
       -0.09877823 0.029542387 -0.09378824 0.07178841
000390 a0 40 60 3c c6 a5 aa 3c 81 c8 56 bd 85 e9 84 bc
       0.013687283 0.020831 -0.05243731 -0.016224632
0003a0 59 ef 1a bd e3 ce 0c 3d cb c0 c5 bd 21 7f c6 3b
       -0.037825916 0.03437699 -0.09655913 0.0060576354
0003b0 6b 23 3c bd 1c 0f 6f bd d6 bc 69 bd 8d 07 6d 3d
       -0.045932215 -0.05836402 -0.057064854 0.05786853
0003c0 40 fd 66 3c 27 91 d8 bc 11 2f 1e bc 87 74 5b bd
       0.014098465 -0.026436402 -0.009654776 -0.053577926
0003d0 cf 76 a8 3d 10 b8 01 3c b4 dd 94 bd 98 0e fe bc
       0.08225786 0.007917419 -0.07268849 -0.031012818
0003e0 00 ce d2 ba 4a 4b 36 bd b6 67 a2 bd f2 d2 75 bd
       -0.0016083121 -0.044505395 -0.079299375 -0.060015626
0003f0 a4 66 24 bd 52 d1 a8 bd d8 6d d8 bd e7 c4 8c bd
       -0.04013695 -0.0824305 -0.10567826 -0.06873494

fc1.bias f4 [128]
000000 38 91 45 3e 8d 42 48 bd 43 0f 61 be a3 56 8c bd
       0.19293678 -0.048891593 -0.21978478 -0.06852462
000010 c6 c1 0c bb bd b1 90 be 97 bf da bd c6 cd 22 3e
       -0.0021477803 -0.28260604 -0.10681074 0.15898809
000020 13 a4 12 3e a9 c0 f1 bc 57 95 d3 bb 32 15 81 be
       0.14320402 -0.029510813 -0.0064570117 -0.25211483
000030 a3 08 06 be c0 a1 a1 3d 1f ea 9c bd 53 a9 2d be
       -0.13089232 0.078921795 -0.076618426 -0.16959123
000040 73 a4 46 3d b5 be 7c be 50 60 26 bd 21 1f 18 be
       0.048496675 -0.24682124 -0.040619195 -0.14855625
000050 74 24 34 be 25 25 58 3e 16 75 2e 3e cb a0 c9 be
       -0.17592031 0.2110792 0.17036852 -0.39380488
000060 24 d0 db bd 0e 09 f2 3d d9 a1 fe bd 84 27 a4 bd
       -0.10733059 0.11818133 -0.12433214 -0.080153495
000070 26 5d eb bd 35 39 71 3e 80 da 32 be ac a3 f4 bd
       -0.11492376 0.23556979 -0.17466164 -0.119452804
000080 dc 26 f5 bd 27 bc 1a be 89 83 2a 3d fc d0 a3 bc
       -0.119703025 -0.15110837 0.041629348 -0.019997112
000090 22 ac 89 bd 22 a0 16 be 7c d1 99 bd 2b 58 00 be
       -0.06722285 -0.14709523 -0.07510659 -0.12533633
0000a0 d6 63 97 bd c1 b1 21 be c7 bc 38 bd 80 83 02 be
       -0.07392089 -0.15790464 -0.045101907 -0.12745476
0000b0 48 72 cb bd f1 18 de bc fc 22 6b be e1 a0 20 be
       -0.09933907 -0.027111502 -0.22962564 -0.1568637
0000c0 ad bf 08 be 04 37 f6 bd db 04 12 be 8c 3a 08 3b
       -0.13354369 -0.12022212 -0.14259665 0.002078685
0000d0 16 d3 d2 3d 93 03 0a be d4 26 cd bc 8d 34 31 3e
       0.10294168 -0.13477926 -0.025042929 0.17305203
0000e0 ed 57 39 bd 48 7c c3 be b7 6a 07 be ab 64 29 be
       -0.04524987 -0.38180757 -0.13224302 -0.16542308
0000f0 95 07 f7 3c 71 4b bb bd ef bb 3d 3e 93 dd 8d bd
       0.030154983 -0.09145249 0.18528722 -0.069270276
000100 0f 0f c7 bd 2e 61 16 be e0 c5 87 be de c5 5a 3e
       -0.09719669 -0.14685509 -0.26518154 0.21364543
000110 be ae 0b be e0 f1 69 3e c9 74 4c 3d 54 25 6f 3e
       -0.13640878 0.22846174 0.049916063 0.23354083
000120 40 90 0f 3e 5a 83 50 be 9f af 4a 3e 8c 03 7e 3e
       0.14019871 -0.20362607 0.19793557 0.2480604
000130 54 7d 3d 3e e6 42 3f bd a8 79 dd bd d3 04 47 bd
       0.1850484 -0.04669466 -0.1081422 -0.048588585
000140 ad 08 26 3d 19 ff a9 bd 7d 1b ce bd 85 49 07 be
       0.040535618 -0.08300609 -0.10063837 -0.13211639
000150 b2 9b 87 3e cf f3 96 3c 6d b5 9b bd e1 42 1e 3e
       0.26485974 0.018426804 -0.076029636 0.154552
000160 d2 f7 32 be e3 df ca bd 70 f8 6c bd be 4f 74 be
       -0.17477348 -0.09905984 -0.057854116 -0.23858544
000170 a4 0e 5f be ed ef 75 bd b5 65 3a 3d e1 c4 54 bd
       -0.21782929 -0.060043264 0.04550715 -0.05194557
000180 07 bb 05 be 32 18 c7 bd 42 4f 4f 3e 93 11 0d be
       -0.13059627 -0.09721412 0.20245078 -0.13776235
000190 c5 9f 6c bd bc b1 00 3e 89 22 de 3d 9d 02 77 3d
       -0.057769556 0.125678 0.10846431 0.060305227
0001a0 e8 f7 de bd 12 ae bf bd 04 86 01 be 4f 71 23 be
       -0.10887128 -0.09359373 -0.12648779 -0.15961193
0001b0 ff 37 c2 bd 8c 9e 4c be 14 ba 4d 3e 26 5c d8 bd
       -0.09483337 -0.19982356 0.20090514 -0.10564451
0001c0 d7 48 00 be e8 d0 d5 3d 87 3c 19 3e 99 2a b0 bd
       -0.12527786 0.10440236 0.14964496 -0.08601875
0001d0 d9 7a 57 3e 44 f3 4c 3e 72 7c 2d bd 1b 83 62 bd
       0.21042956 0.20014673 -0.04235501 -0.055300813
0001e0 68 06 68 be b5 97 3f 3e 86 d1 37 bd 9e bc 71 bd
       -0.22658694 0.18710215 -0.04487755 -0.05901777
0001f0 e9 c8 da bd e8 e5 63 be d9 56 e1 3d a2 5a b0 be
       -0.10682852 -0.22255671 0.11002893 -0.34444147

fc2.weight f4 [64, 128]
000000 a7 d6 d8 bf e4 6c 06 3d ee 98 6d 3d ea 04 4c 3e
       -1.6940507 0.03281869 0.058007173 0.1992375
000010 84 4c 25 bf 30 1d d0 3d a2 84 bc 3d bd 47 55 bf
       -0.6456988 0.10161817 0.09204985 -0.8331259
000020 01 b9 54 bf 87 8d 9e be 42 3b bb be 06 76 b2 3e
       -0.83094794 -0.30967352 -0.36568648 0.3485567
000030 b9 e8 b1 bd 55 58 2e bf 3c 49 aa bd ba e8 b0 bd
       -0.086869664 -0.68103534 -0.083147496 -0.08638139
000040 cc 98 38 bf 01 82 08 3f 79 7d 82 bc 6f c4 9a 3e
       -0.7210815 0.5332337 -0.01592897 0.30227992
000050 97 c5 ea bc f7 90 71 bf d8 79 5b bf f2 2c 1e 3e
       -0.028658671 -0.94361824 -0.85732794 0.15446833
000060 bc dc 9f bc b2 4d 34 3d 11 3b e7 bd 18 f1 2b 3d
       -0.019514434 0.04401941 -0.11290563 0.04197797
000070 7e 1d 1d 3d 78 5f 5e bf d9 80 91 3e e8 12 93 3d
       0.038358204 -0.86864424 0.28418615 0.071813405
000080 16 9c d3 3c 8a c2 b6 3d c9 50 5c bf 21 2b 59 3b
       0.025831264 0.08923824 -0.8606077 0.003313728
000090 54 b1 5a 3d ed 11 6b 3e 4a 0b e6 3d 78 b5 88 3e
       0.05339177 0.22956057 0.11232622 0.2670095
0000a0 ee 73 f9 bc 89 5f cc 3d 2c fc 91 3e 6b 01 8a bd
       -0.030450787 0.099791594 0.28512704 -0.06738552
0000b0 3b 90 a0 bc 06 9e d2 3d 9e e7 9a 3e a4 de 70 3d
       -0.019600024 0.10284047 0.30254835 0.058806077
0000c0 b7 1f 9b bd 77 73 71 3d 41 34 08 be e1 0e 67 3c
       -0.075744085 0.058948006 -0.13301183 0.0141026685
0000d0 fb aa 39 bf a5 1d 27 3d 84 40 1c 3d 37 e1 ab be
       -0.7252652 0.040799756 0.038147464 -0.33570263
0000e0 a8 d5 92 bb 20 40 7e bd 89 df 20 3c 13 fb b4 bd
       -0.004481036 -0.062072873 0.00981892 -0.08836951
0000f0 a7 a1 0d bf 71 85 03 3f 8c 4f 62 bf fa 8e 01 bd
       -0.55324787 0.5137549 -0.8840263 -0.031630494
000100 b4 8b b6 bc 90 4f 6b 3d 27 ae 57 3e 9f 67 86 bf
       -0.022283413 0.057448924 0.21062528 -1.0500373
000110 21 46 3d 3e 9f cb c7 bf a9 e3 77 3d 7f 3e b6 bf
       0.18483783 -1.5609015 0.060519848 -1.4237822
000120 92 58 ab be 13 12 7f bd 12 01 1f bf 62 c3 81 bf
       -0.3346601 -0.062273096 -0.6211101 -1.0137751
000130 ca a8 90 bf 91 ed 8a ba 96 8f 5f bd 8e d0 0c bd
       -1.130151 -0.0010599365 -0.054580294 -0.03437858
000140 26 be 8a bf 12 3a 29 3b 94 70 9e 3e fc d4 77 bd
       -1.0839279 0.0025821966 0.30945265 -0.060505852
000150 fd 3d d7 bd 7e 25 67 3e 4a 29 46 3d 86 37 0c bf
       -0.1050987 0.22572896 0.04837922 -0.5477222
000160 7f f7 59 3e 1f ab 10 3e 9d 31 19 3d f4 84 47 be
       0.21285819 0.14127778 0.03740083 -0.19484311
000170 d6 b7 0c 3f 60 62 c5 3d e1 ac 67 3d a7 68 2a 3d
       0.5496801 0.09637904 0.056561355 0.04160371
000180 bb 04 de 3e f1 d9 27 bd 61 0e 2f bf 6b 40 2a bd
       0.43362984 -0.04097933 -0.68381315 -0.04156534
000190 a1 7b da bc dd 27 64 bf a8 05 7e bf de d0 7b be
       -0.026670279 -0.89123327 -0.9922738 -0.24591395
0001a0 2f 5b 07 be 21 b0 52 3e 46 48 21 3e 8f 77 17 3a
       -0.13218378 0.20575 0.15750226 0.00057780085
0001b0 92 cf 89 bc 48 44 90 3e c1 08 08 bf a6 6a 0d bd
       -0.01682261 0.28177094 -0.5313836 -0.034525536
0001c0 64 f6 c5 3d 1c 30 09 3d 8b 2e 31 bf a2 d5 ff 3d
       0.09666136 0.033493146 -0.69211644 0.12491919
0001d0 56 0f 0f bf 9f be ab be dd 25 c4 3e b0 ef 5d bc
       -0.55882776 -0.3354387 0.38310137 -0.0135459155
0001e0 36 8c 33 3f be 90 16 bf 37 1b 89 3d ef e6 69 3c
       0.7013582 -0.5881461 0.06694644 0.01427625
0001f0 a9 09 cc bd c7 1f 27 be 42 2a 62 bf 40 08 d8 bc
       -0.0996278 -0.16320716 -0.8834573 -0.026371121
000200 2b 1d 90 3d 83 19 3f 3d 0c 01 29 bf 4a d0 d8 3d
       0.07036813 0.04665519 -0.6601722 0.10586603
000210 0a d6 d5 3f 74 18 57 be 04 03 f4 bc a9 db b3 3f
       1.6705945 -0.21005422 -0.029786594 1.405141
000220 d2 52 94 3f b1 22 83 bd e6 a8 87 3f b7 66 1c be
       1.1587775 -0.06403101 1.0598419 -0.15273558
000230 de e0 89 bc 9d f8 a2 3f 40 d2 83 bd b7 d2 5f 3e
       -0.016830858 1.2732121 -0.064365864 0.21857725
000240 59 b2 a8 3f b5 53 c8 3d fc aa 26 bc 1b 3f 4a 3e
       1.3179427 0.09781591 -0.010172602 0.19750635
000250 5a f3 6e bd 07 f6 a1 3f 27 08 8e 3d 42 d4 90 be
       -0.058337547 1.2653207 0.06935149 -0.2828694
000260 ee 5b c0 3d 04 f0 bf bd b4 ba a8 bd 0b a6 e7 bd
       0.09392534 -0.09371951 -0.08238736 -0.11310967
000270 ea 4f 08 be c5 cb cf 3f 25 65 fd bd 48 e5 bf bc
       -0.13311735 1.623406 -0.123728074 -0.02342476
000280 df 85 ba bd 79 0b 93 bd 89 3b ae bd dd d8 82 bd
       -0.09107565 -0.071799226 -0.08507449 -0.0638902
000290 fd b1 a8 3c 56 ac 79 3d 20 a5 19 bc 48 4e da bd
       0.020592684 0.060955368 -0.009377748 -0.10659462
0002a0 40 cb 3d be 3b a9 6e be ee 12 87 be c7 77 2b bd
       -0.18534565 -0.23306744 -0.2638163 -0.041862275
0002b0 58 11 b5 bd a1 7d 89 3d e2 d6 21 be 0d 7d 8c bc
       -0.08841199 0.06713415 -0.15804628 -0.017149473
0002c0 04 e9 bc be a8 ee c7 bd 30 80 ab 3d c7 55 32 bd
       -0.36896527 -0.09762317 0.08374059 -0.043538835
0002d0 62 68 12 3e 01 9a a5 be 6f ba 2b 3c df 11 a4 3f
       0.14297631 -0.32344058 0.010481461 1.2817954
0002e0 fa 6b 4a 3c 8b 22 81 3d 1c 88 b9 bd 80 ee ee 3d
       0.012354845 0.06305417 -0.09059164 0.11666584
0002f0 d5 a4 73 3f 2f c9 00 bf 8c 85 00 40 00 40 97 38
       0.9517339 -0.5030698 2.008151 7.212162e-05
000300 5b 07 d1 3c 29 47 80 3c cf a5 d5 bd 74 b0 a1 3e
       0.025516203 0.015658932 -0.10432016 0.31579936
000310 32 f4 23 be 76 6a e3 3c e0 ed 18 3e 0c cd ea 3c
       -0.16011122 0.027760725 0.14934492 0.028662227
000320 4f ba a5 3f 28 9e 03 bf 38 e6 d0 3f 1f e3 07 3e
       1.2947482 -0.514132 1.6320257 0.13270234
000330 35 e9 9b 3d 1d 9b 2f be 22 7b 41 ba fe d6 52 bd
       0.0761284 -0.17149015 -0.0007380714 -0.051474564
000340 e2 1c 58 3e 97 0e 53 be ad 83 63 be 50 04 c3 bd
       0.21104768 -0.20611034 -0.22218199 -0.09522307
000350 e7 a3 a7 3f 6f 63 0e 3d b3 d4 cf bc 47 8a 93 3f
       1.3096894 0.034762796 -0.025369978 1.1526574
000360 c3 4c da bc 9a 67 0e 3d 1d 19 5f 3b c6 07 c2 bd
       -0.026647931 0.03476677 0.0034042068 -0.09474139
000370 81 57 5c be b2 26 b2 bc 04 4a 78 3e 79 b1 7c bd
       -0.21517755 -0.021746967 0.24246985 -0.06169269
000380 04 01 b7 be d3 b1 34 3d c5 d0 98 3f b7 9e 14 be
       -0.35742962 0.0441149 1.1938711 -0.1451367
000390 82 e4 4b be 25 b9 87 3f a1 b4 f2 3d a0 f0 93 3e
       -0.19911388 1.0603377 0.118508585 0.2889452
0003a0 6b 6a 5f be d6 6b cc be 0a cf 12 be 2b 1b d5 be
       -0.21817939 -0.39926022 -0.14336792 -0.4162229
0003b0 c9 e4 87 3c fa 36 1e bc e4 e4 ce 3f dd ae b0 bd
       0.016588585 -0.009656662 1.6163602 -0.086271025
0003c0 6c 00 45 3e b2 78 7e bd 20 c4 56 3f 26 5c 35 bd
       0.19238442 -0.062126823 0.83893013 -0.044277333
0003d0 ac 48 99 3f 17 c4 8b 3f de 67 29 be f1 7d 80 3d
       1.1975303 1.0919217 -0.16543528 0.062740214
0003e0 41 04 05 3c 17 98 97 3f c4 4a c0 bd 20 27 1c bd
       0.00811869 1.1843289 -0.093892604 -0.03812325
0003f0 f4 97 d8 be 1b ed 30 be 65 c2 1b 3f 5a c9 12 be
       -0.4230343 -0.17277949 0.608435 -0.14334622

fc2.bias f4 [64]
000000 8b 61 b4 3e 6d 43 a8 3e cd af 0a bd c1 71 af 3e
       0.3523067 0.32863942 -0.033859063 0.34266475
000010 4c da b8 3e 8f f7 5b bd 79 57 a4 3e c5 83 c9 3e
       0.36104047 -0.053702887 0.32097986 0.39358345
000020 3e 3a bf 3e 0a 53 b7 3e 52 40 bb 3e d0 7e c7 3e
       0.37349123 0.3580554 0.3657251 0.38963938
000030 d7 af d8 3e 41 e7 b0 3e 4f 8d be 3e 18 fd a5 3e
       0.42321655 0.34551433 0.37217185 0.32419658
000040 a4 49 5f bd c6 43 b9 3e e5 00 97 3e 1f bc 1a be
       -0.05451359 0.3618452 0.2949287 -0.15110825
000050 0a a3 f5 3e 6f d5 3c 3e 77 bd bf 3e 2c 71 e2 3e
       0.4797595 0.18440793 0.37449238 0.44226968
000060 dd fd cc 3e 88 03 88 3e 29 23 a9 3e a6 e1 b9 3e
       0.40037432 0.26565194 0.33034638 0.3630497
000070 44 30 1f be 9c ca 58 bd 37 cc 4d be f5 63 f1 bd
       -0.15545756 -0.0529276 -0.20097433 -0.117866434
000080 69 12 c1 3e 32 8f c8 3e 10 68 75 3e 76 ec af 3e
       0.37709358 0.3917175 0.23965478 0.34360093
000090 e6 e2 d8 3e fc a3 9e bd bf 72 04 bc 5d fe 95 3e
       0.4236061 -0.07746121 -0.008083998 0.29295626
0000a0 fc a8 99 3e d2 78 ec 3e 29 e0 d5 3e 0b 2e 6a bd
       0.30011737 0.4618593 0.41772583 -0.057172816
0000b0 2a 0d d4 3e 3d b4 96 3e b6 d5 32 3e 39 cf 8f 3e
       0.41416293 0.29434386 0.17464337 0.28087786
0000c0 54 b9 6c 3e b1 a2 cf 3e 41 44 e0 bc 11 6b 94 3e
       0.23117572 0.4055381 -0.027376296 0.28987935
0000d0 b8 a5 bd 3e 86 73 26 3e e9 fe b9 3e 37 98 35 3e
       0.37040496 0.16255006 0.36327294 0.17733847
0000e0 ad c3 a3 3e 3f cb 84 3e be 2a cd 3e 83 05 67 bd
       0.31985226 0.25936314 0.40071672 -0.05640174
0000f0 e9 49 b5 3e b0 88 cc 3e 6c df d3 3e fc 92 60 3e
       0.3540795 0.39948034 0.41381395 0.2193107

classifier.weight f4 [2, 64]
000000 17 57 97 bd ee 02 f0 3d 54 c9 c7 bd bc 09 1c bd
       -0.07389658 0.11719309 -0.09755197 -0.03809522
000010 d6 f0 1c 3e 2a 6d 79 be 5f 8d ae 3d 54 67 77 bd
       0.15326247 -0.24358049 0.08523058 -0.060401276
000020 ca 24 a3 bd 6c 4e 15 bd 60 20 ce bd b4 a2 4c bd
       -0.07966001 -0.036451742 -0.10064769 -0.049959853
000030 32 ed 47 bd e3 ee 28 3e 64 8b 52 3d 5b c5 e1 3d
       -0.04881019 0.16497378 0.051402465 0.11023971
000040 6f 8b 63 be 66 e1 92 bd e1 90 d5 bd 73 df 64 bd
       -0.22221158 -0.071718976 -0.10428024 -0.05587716
000050 f9 18 16 be 62 9a c0 ba 93 4e 35 3e cc 42 6e bc
       -0.14657964 -0.0014694447 0.17705755 -0.014542293
000060 fb d1 7a bd 12 3e ff 3d eb 7f 02 3e a1 a9 0b bd
       -0.06123541 0.12463011 0.1274411 -0.034097318
000070 6b 61 99 3d 8f 96 89 be c4 89 91 bd 7b 29 5d 3d
       0.07489284 -0.2687268 -0.07106355 0.053994637
000080 0b f6 59 3e d5 af a0 bd b3 e6 c1 bc 30 7d 56 3d
       0.21285264 -0.07846037 -0.023669576 0.05236548
000090 22 8b b1 bd 5d bf ff bd c7 06 57 be fb 4e da 3d
       -0.086691156 -0.124876715 -0.20998679 0.106595956
0000a0 e2 7c a4 bc bd 03 3c bd 1d 47 69 bb 5d f0 81 be
       -0.02007908 -0.045902003 -0.0035595365 -0.25378695
0000b0 a6 17 0c be fe fd d2 3d 0e 1c 8a be 20 24 af 3d
       -0.13680896 0.103023514 -0.2697453 0.08551812
0000c0 0c 1a f4 3d 35 a6 b4 bd fb f2 99 be be a6 59 bb
       0.119190305 -0.08820764 -0.30068192 -0.0033210958
0000d0 54 35 40 bd 0b f1 af 3d f7 75 4e bc a8 27 08 be
       -0.046925858 0.08590897 -0.012601367 -0.13296378
0000e0 09 bd da 3a ab ad c4 3d 64 00 01 be 69 e8 f0 bd
       0.0016688417 0.09603437 -0.12597805 -0.11763079
0000f0 6b d8 67 3d 2e 80 17 3e a5 8b d5 3c 5c 72 4b bc
       0.056602877 0.1479499 0.026067564 -0.012417402
000100 d3 ec d7 3d 09 c0 19 be d0 35 d3 3d 5d c3 27 3d
       0.105432175 -0.15014662 0.10312998 0.040957797
000110 1d 46 68 be 9b 3f 6f 3e f7 f6 76 be a5 c9 a3 3d
       -0.22682996 0.23364107 -0.24117647 0.07997445
000120 88 06 26 3e 31 27 d2 3d 5d 6e b1 3d 3b a7 15 3d
       0.16213429 0.102613814 0.08663628 0.036536437
000130 48 7c 01 3e ce 5d 8d bd 7e b0 de 3d d7 82 3a be
       0.12645066 -0.069026574 0.10873507 -0.18213974
000140 67 2e ca 3c ff e7 6f 3d 95 ef bb 3d 85 ee 92 3c
       0.02468033 0.058570858 0.09176556 0.017936
000150 eb ef b9 3d 2a f6 99 3d 44 1d c7 bd 0e 48 8b 3d
       0.09078964 0.07517655 -0.09722379 0.06800853
000160 b1 f3 93 3d 49 a1 a3 bd cd a3 46 be 0b 0d 8e 3d
       0.07224215 -0.07989747 -0.19398423 0.069360815
000170 90 92 7b 3d f7 b0 94 3d 02 70 f7 bd 5c a1 a1 3d
       0.06141907 0.07260316 -0.12081911 0.07892105
000180 4a 9d 45 bd 1b 00 4d 3d 55 f4 09 be 05 f0 17 be
       -0.048245706 0.05004893 -0.13472112 -0.14837654
000190 40 c5 c9 3d ff a5 e7 3d 8a 3a be 3e 93 3c cc bd
       0.098520756 0.11310958 0.37154037 -0.09972491
0001a0 82 e8 2e be c3 64 4b 3e cc 0d a4 3d df 60 8d 3e
       -0.17080882 0.19862656 0.08010444 0.2761297
0001b0 01 bb 81 3b 48 f1 07 be 98 31 56 3d 2d 95 35 be
       0.00395906 -0.13275635 0.05229339 -0.17732687
0001c0 f5 02 05 bd b9 00 86 3d 07 77 4b 3e 87 98 17 be
       -0.032473523 0.065431066 0.19869624 -0.14804278
0001d0 7a 9f d9 3d e0 ad f3 bd 36 0a 94 3d da ed d2 3d
       0.10626121 -0.118983984 0.0722851 0.10299273
0001e0 36 ed 4f be f4 68 86 bd f2 fe dc 3d d8 c2 78 3e
       -0.20305333 -0.06562987 0.107908145 0.24293077
0001f0 df 65 1b 3e 4f ae 4c be c4 11 12 3e b9 ad 82 bd
       0.1517558 -0.19988368 0.1426459 -0.06380791

classifier.bias f4 [2]
000000 9a a6 bf 3e 6d 55 cb be
       0.37431794 -0.39713612
