backend/workspace/weight/r/DTL/best_model.pth (torch, 201339 bytes, 13 tensors)

weight f4 [3, 50, 50]
000000 49 52 c8 3b e8 a2 18 3c 94 c4 07 3d 3d ea ca 3b
       0.006113325 0.009316184 0.033146456 0.006192474
000010 f3 07 08 3d 99 c1 26 3d e4 74 17 3c 58 0b 39 3d
       0.033210706 0.040711973 0.0092441775 0.045176834
000020 68 a1 d6 bc 7d 7d 2b 3d 87 04 ea 3c 3d e9 53 bd
       -0.026200011 0.04186772 0.028566612 -0.051736105
000030 93 c7 a4 3c e5 07 46 bb 5e 61 f2 bc ca 5d ff bc
       0.020114696 -0.0030217108 -0.029587444 -0.031172652
000040 6b 67 b3 3d 86 88 83 3b 99 43 bb 3c 88 d0 17 3d
       0.0875996 0.0040140776 0.022859382 0.037064105
000050 c4 13 4e bd ff 0c 64 3a b9 eb f6 bb 36 dc 11 b9
       -0.05031182 0.00086994463 -0.0075354245 -0.00013910313
000060 be 6a 94 3c 81 af 70 3a 45 c4 30 bb 24 f5 01 3c
       0.018117305 0.00091814256 -0.0026972455 0.007931981
000070 d8 d8 c4 bc 3e 03 77 3c ac 7f ab 3d 3e 4c c3 3c
       -0.02402918 0.015076457 0.08373961 0.023840066
000080 2a e7 73 bc 14 e4 0d bd c4 70 c6 3c 7d b0 e1 3b
       -0.014886657 -0.03464134 0.024223693 0.006887494
000090 b4 3a 61 3c ab c9 19 bc ca 2f 07 3c e6 7a ea 3a
       0.013746906 -0.00938646 0.00825114 0.001788941
0000a0 1e 31 93 3b 43 ae 0a bc a3 54 59 bc 1d 1e d6 3c
       0.004491939 -0.008464399 -0.013264808 0.026137406
0000b0 d9 88 f3 bb 53 b4 2c bc e1 4d 9e 3c a0 3f 56 bc
       -0.007432085 -0.0105410395 0.019324245 -0.013076693
0000c0 f8 5b 25 3b 42 ca a6 bd 09 75 d7 3c ec 78 25 bd
       0.002523182 -0.08144046 0.026300924 -0.040398523
0000d0 17 ce ee bd 6e d7 95 bb 3c d0 0c bc b2 25 b6 bd
       -0.11660402 -0.0045728004 -0.008594569 -0.088939086
0000e0 84 3c 31 3d fe 93 20 3c 45 ba 13 bb 42 cd c8 3b
       0.043270603 0.009800909 -0.0022541445 0.0061279843
0000f0 2a c2 84 3c 2f d8 4a bd 2e 52 49 3c 87 b4 f3 3c
       0.016205866 -0.049522575 0.01228766 0.029749168
000100 4e 5e 35 bd 2c 58 59 3d 6e 59 1a be 03 74 76 bd
       -0.04427939 0.053062603 -0.15073177 -0.06016923
000110 d6 26 83 bd 46 77 9c bc ad 2b 91 3d 7b 9b 3a 3d
       -0.06403892 -0.019099843 0.070884086 0.045558434
000120 3b 1d cc bd 30 ae 19 3d d3 2b 8f 3c ea 3a 86 bc
       -0.09966513 0.037519634 0.017476952 -0.016385514
000130 f3 15 e7 bc 9b 96 0e bd 9e 63 95 3d 3b 70 a3 3c
       -0.028208708 -0.034811597 0.07294391 0.019950977
000140 b6 22 b0 3c 0a 02 04 bd 8d a3 e0 bb fc 55 a0 bd
       0.021500926 -0.032228507 -0.0068554343 -0.078289
000150 98 eb 1b ba ff 4b ae bc 12 d1 a1 bc d3 37 22 3d
       -0.0005947887 -0.021276472 -0.019753013 0.03960402
000160 5c cc a6 3c ed a8 4d 3d 49 c7 be 3c fa 0a 27 3c
       0.020361118 0.05020993 0.023288386 0.010195488
000170 fa dd 42 bc 62 81 e3 bc 7f 16 3b bd 79 95 c6 3c
       -0.011893744 -0.027771655 -0.04567575 0.024241196
000180 83 cc c7 bc c0 76 5e bd 48 f4 a9 3c d9 e1 dd 3d
       -0.024389511 -0.054312468 0.020746365 0.10834093
000190 6d 9f da 3c 07 4c 09 3d cb 9e d4 bb 17 bd dc 3c
       0.026687348 0.03351977 -0.006488656 0.026945634
0001a0 90 ac 12 3d 21 14 fc 3c 60 85 17 bd 4f 29 1f bd
       0.0358091 0.030771317 -0.03699243 -0.038857754
0001b0 27 5a eb 3c b3 6b 37 bd 22 33 59 3c 68 69 fa bc
       0.028729511 -0.044780444 0.01325682 -0.03056784
0001c0 f7 0d fc 3b 4b ae 70 bc 6a b0 c4 3c f7 72 1f 3c
       0.0076920944 -0.014689992 0.024009902 0.009732
0001d0 9b 88 77 3d 9f 8c 3f bc 17 47 10 3d 3e d8 5c bc
       0.06043301 -0.0116912415 0.035224047 -0.0134792905
0001e0 b5 9d b8 3c ff 39 a4 bc a9 89 f7 3c 09 8f 99 bc
       0.022536138 -0.020047186 0.030217009 -0.018744962
0001f0 58 dc 2e 3c ba 19 a7 3c 11 d5 b1 bc e1 b5 38 3a
       0.010672651 0.02039801 -0.021708043 0.0007046145
000200 ef a7 84 bc 67 a9 2a 3b e4 1d 23 bd 3b 54 14 3c
       -0.016193358 0.0026040913 -0.039823428 0.009053285
000210 d3 20 70 bc a4 6a 98 3d 64 be ed 3a af 10 59 3d
       -0.014656263 0.07442215 0.0018138406 0.052994426
000220 6d 43 00 3d e3 73 9b bc cd 2f 23 bc 13 2b 88 3c
       0.031314302 -0.018976158 -0.009960127 0.016622102
000230 e3 bf 93 b9 77 4d e4 3c e6 88 3d bd 43 5f 71 3d
       -0.00028180992 0.02786897 -0.046273135 0.05892874
000240 04 30 04 bd fe 8a 9b bc 56 8a a6 3c d1 3b 7b bc
       -0.032272354 -0.018987175 0.020329636 -0.015334086
000250 82 fa c9 bb b0 7a 92 3c 27 2e c1 bc 3b 20 57 3d
       -0.006163896 0.017880768 -0.023581577 0.05252097
000260 48 d2 87 bc cc 1b ef 3b c4 78 c3 bc 31 08 aa 3c
       -0.016579762 0.007297015 -0.023861296 0.02075586
000270 e9 09 17 bb 0e be 80 bd 05 b8 74 3d fd 11 a5 bd
       -0.0023046678 -0.0628625 0.059745807 -0.080600716
000280 e7 51 c7 3c a2 69 37 bc f8 c3 f7 bc 1f fc 81 3c
       0.024331046 -0.011194618 -0.030244812 0.015867291
000290 91 56 d6 3d 8c 8b 72 3d 11 15 9b bc b9 1b 88 bd
       0.1046573 0.059215114 -0.018930944 -0.06645913
0002a0 53 a4 18 bd 4c 86 61 bd 74 c4 ca 3a 04 cd b8 bc
       -0.037266087 -0.055059716 0.0015469925 -0.022558697
0002b0 b7 55 25 3d f9 60 09 bc 49 e9 02 3d 33 f8 3e 3d
       0.040364947 -0.0083849365 0.03196076 0.04662342
0002c0 55 08 e2 b9 95 d9 8a 3c aa 34 0b bc eb 8f d0 bb
       -0.00043112287 0.016949454 -0.008496443 -0.0063648126
0002d0 12 f7 09 be b2 58 c5 3c 9f c8 8b 3c 1b ba 0b bd
       -0.13473156 0.024090145 0.017063437 -0.03411303
0002e0 ab fd 6a bb 0c 17 c6 3b d0 9c 70 3d 04 fa 87 3c
       -0.0035856764 0.006045228 0.058743298 0.016598709
0002f0 ac 05 15 3a c2 7d c6 3b 6d e4 26 3d 88 33 e1 3c
       0.0005684744 0.006057472 0.040745188 0.027490392
000300 04 3d 06 3c 48 fe a3 bc 5e 37 32 3d 37 da 54 3d
       0.008193258 -0.020018712 0.043509834 0.05196592
000310 4a d3 24 bc f6 72 d4 3c 39 eb 0e bd 37 bb 10 3d
       -0.010060141 0.025933724 -0.034892295 0.035334792
000320 a7 70 25 3d 18 b6 02 bd da c7 a0 3d e1 4a 75 bb
       0.040390637 -0.03191194 0.07850619 -0.0037428665
000330 35 b0 f0 3c e3 28 a8 bc 5b c8 09 3d c8 74 92 bc
       0.029380897 -0.020527309 0.03363834 -0.017877951
000340 c5 1d af bb d1 cc 63 3d cc 3c 57 3c 13 c0 08 3e
       -0.005344125 0.05561525 0.013137054 0.1335452
000350 d9 ea 63 bc 88 24 b7 bc 89 0f 9c bd 1e 8f 48 bd
       -0.0139109725 -0.022356287 -0.076201506 -0.048964612
000360 1b a2 18 3d 87 41 7d 3c 46 a6 2d bc 6c f8 21 3d
       0.03726397 0.0154575175 -0.010598725 0.039543554
000370 b4 5d 1f 3d c3 a4 d7 3c 60 52 19 3d 6e 7f 44 bb
       0.03890772 0.026323682 0.037432075 -0.002998318
000380 ef d2 95 bc 07 2e 09 3c 04 fb 03 3c 76 fb ac bb
       -0.018289058 0.00837279 0.008055452 -0.005279
000390 4b 89 c5 3c f1 a0 a6 3b d0 5f 08 bc 9d ae 9a bd
       0.024113318 0.0050851037 -0.008323625 -0.07552836
0003a0 82 88 ae bc 8d a2 52 bd 7d 82 75 3c d7 61 84 bb
       -0.021305326 -0.05142455 0.014984724 -0.0040399837
0003b0 31 81 b9 3c 54 b7 38 3b de 01 ff bb b5 26 ef bb
       0.022644611 0.0028185444 -0.007782205 -0.0072983154
0003c0 68 40 a2 bc 89 f1 a8 bc 9e 77 b1 bc 64 6c 72 3d
       -0.019806102 -0.020622985 -0.021663483 0.0591854
0003d0 25 a6 3b bc dc d3 9f ba dc af fa bb 47 c4 2f 3c
       -0.011453186 -0.0012193876 -0.0076503586 0.0107279485
0003e0 a8 c8 ae 3c 00 02 17 3d 78 77 57 3d 11 27 54 3d
       0.021335915 0.03686714 0.05260417 0.05179507
0003f0 5f 71 e0 bb 5f 44 34 bc e9 c8 25 bc 19 71 1d ba
       -0.0068494524 -0.011002629 -0.0101187015 -0.00060059276

weight_ih f4 [150, 50]
000000 71 6e a6 3b 8f 70 f2 3b b8 26 8d bc db 75 22 3c
       0.0050790836 0.007398672 -0.017230377 0.009915794
000010 ba cf c6 3c ac 0a 83 3c d5 60 8a 3c cf 38 a9 3c
       0.024268974 0.0159963 0.016891876 0.020656971
000020 eb eb b8 3b 97 b4 68 b9 96 3f 84 bc ca 1a 99 bc
       0.005643358 -0.00022192519 -0.016143601 -0.018689532
000030 6b e0 5c 3c 9f b6 f9 bb 3b aa 51 3c 54 30 92 3b
       0.01348124 -0.007620647 0.012796934 0.0044613276
000040 74 4c 90 3c ec 8b d9 3c fb f2 2d bc 96 07 39 3c
       0.01761458 0.026555978 -0.010617013 0.011293313
000050 7f c8 7b b8 3d 1f 45 3b 49 b7 22 bc af f0 0c 3c
       -6.002979e-05 0.0030078434 -0.009931394 0.008602305
000060 56 b7 f5 3b 16 ea bf bb 75 8d ab bb 0e 5e fc bb
       0.007498662 -0.0058567626 -0.005235369 -0.007701642
000070 e0 93 6d bc 84 85 8a 3c 82 bb 12 3c fe c2 c7 3c
       -0.014500588 0.016909368 0.008955838 0.024384972
000080 79 5b 1d bc 2f 2c 13 3d 2d 5c a4 b7 13 e5 23 3b
       -0.009604328 0.03593081 -1.9593246e-05 0.0025008365
000090 4b 9c 8b bc c4 15 93 b9 78 cb 4b bb 82 d3 02 3c
       -0.0170423 -0.00028054242 -0.0031096619 0.007984998
0000a0 9c 2e 93 3b 25 55 d1 ba dc 8b 5d bc 20 83 a7 bc
       0.0044916403 -0.001597081 -0.013522115 -0.020448267
0000b0 99 87 3c bc 08 36 31 3b 09 03 46 bc e5 b3 1e bc
       -0.011506938 0.0027040262 -0.012085685 -0.009686445
0000c0 ff 64 19 bc 90 d6 08 3c 32 f7 ec 3a fa 56 35 3b
       -0.009362458 0.008351937 0.0018079041 0.002767025
0000d0 01 20 fc ba e4 77 ea ba 3a 0c 34 3c 37 18 95 bc
       -0.0019235612 -0.0017888513 0.010989243 -0.018200023
0000e0 56 06 55 bc 19 58 d2 bb ce a4 92 3c d1 23 3d 3b
       -0.013001999 -0.0064191935 0.01790085 0.002886046
0000f0 fa ec 78 bb 0b f1 6d 3c db 91 72 bb 60 1d 22 bc
       -0.0037983046 0.014522801 -0.0037013206 -0.009894699
000100 d1 75 10 3c 67 07 1e 3c 07 ad a6 bc 24 68 19 bc
       0.008817152 0.00964532 -0.020346178 -0.009363208
000110 04 d8 bb ba 80 49 72 bc 61 15 b8 3c 2b 11 d2 3c
       -0.0014331345 -0.014788032 0.022471132 0.025642952
000120 d2 cd 80 bc 53 c4 89 bc 3c 76 01 3c 47 29 ea bb
       -0.015723143 -0.016817247 0.007901724 -0.007146034
000130 d4 c9 14 bc 20 37 34 bc 32 b0 8c b9 db cf 5e 3c
       -0.009081323 -0.010999471 -0.00026834157 0.013599361
000140 61 08 ad bb a7 7d da bb 59 0f 17 bb 30 58 7c bc
       -0.00528054 -0.006667811 -0.002304992 -0.015401885
000150 b1 ca 70 bc c3 e8 af bc 1f 29 b5 bb 79 9b 60 3c
       -0.014696763 -0.021473294 -0.0055285837 0.013708943
000160 88 16 ae bb be 5d 64 3c 77 ef 2c 3c 97 4d d3 3b
       -0.0053127445 0.0139383655 0.01055514 0.0064484584
000170 a2 65 9e bc ca 8d d2 bb 36 f3 19 bb 1b 64 59 3c
       -0.019335572 -0.006425594 -0.0023490912 0.013268496
000180 7e 0a 66 3b be ca 0e bc 4e de a2 bc 37 f8 3e 3c
       0.0035101469 -0.00871533 -0.019881394 0.011655859
000190 aa 0f 77 3b 82 20 f5 3c 95 23 79 3c b6 ef 3d 3c
       0.0037698545 0.029922727 0.015206237 0.011592796
0001a0 11 ef b9 bc cf f5 4a bc 70 85 29 ba 7e 85 1e bd
       -0.022697004 -0.012387707 -0.0006466722 -0.038701527
0001b0 ac 32 1b 3c 34 3b b7 bc 26 a4 65 3c 5c 35 cb 3c
       0.00947253 -0.022367097 0.014016187 0.024805717
0001c0 b8 a1 33 3a aa ac d5 bb 16 36 6e 3d e2 c9 04 bb
       0.0006852406 -0.0065208273 0.05815705 -0.0020261933
0001d0 bf f6 96 bc a9 b4 00 3b c8 8c 1e 3c 83 ad 97 bc
       -0.018428205 0.0019638932 0.00967712 -0.018515354
0001e0 92 c9 82 bc b2 88 f9 bb 0c c5 f5 3c 79 4f 3e bc
       -0.015965257 -0.0076151723 0.030001186 -0.011615627
0001f0 4a e0 01 3a 4a 76 f9 3c 99 ee 87 3b d8 93 32 bc
       0.0004954381 0.030451912 0.004148316 -0.0108995065
000200 cd e7 ab bb b8 0b 83 bb 31 19 c3 bc c8 46 68 bb
       -0.0052461387 -0.0039991997 -0.023815723 -0.003544258
000210 82 9e a7 3b 94 32 16 3c 4b 6b d2 bb c2 8d 7c 3c
       0.005115331 0.009167332 -0.0064214817 0.015414657
000220 66 49 21 3d 0e aa b2 bb 39 87 13 3c 38 e7 98 3b
       0.03937664 -0.005452401 0.009004408 0.0046662353
000230 41 91 96 3b 93 a2 8f 3c 0c 1b 38 3c a3 93 ff 3c
       0.0045949523 0.017533576 0.011236917 0.031198328
000240 0b 04 bc 3c f0 fd cf 3b 4d 24 24 3c b1 04 fe 3b
       0.022951147 0.0063474104 0.01001842 0.007752024
000250 58 fe 79 bc 63 1c 6f bc 0a 0e a0 3c ae 4d 04 3c
       -0.015258394 -0.01459417 0.019537944 0.008075161
000260 5e 3d 76 bc fa fc 92 bc e7 e9 c0 3c e1 d6 2b bd
       -0.0150292795 -0.017942894 0.023549033 -0.04195297
000270 ce 99 36 bd f4 90 ad 3c 91 5b 02 bd 95 97 07 bd
       -0.044580273 0.021187283 -0.031825606 -0.033103544
000280 53 e5 18 bd d8 2f 68 3d 6a ec 8f bb ea b3 40 bc
       -0.037328076 0.056686252 -0.0043921964 -0.011761645
000290 b7 33 97 3d 4e c3 22 bd 80 47 ac bb 60 44 5e bc
       0.07382911 -0.03973704 -0.005257547 -0.013566107
0002a0 f6 46 d0 bb 3f f5 81 3c d4 3e 2c 3c fe b5 db bc
       -0.0063561155 0.015864013 0.010513026 -0.02682018
0002b0 d0 7c fb 3c d4 75 1a bc f6 c0 d7 3b 06 94 7e 3b
       0.030699164 -0.0094275065 0.006584282 0.0038845553
0002c0 0c 73 84 3c 3d 95 62 3b 24 89 a3 3c 6d 0c eb ba
       0.01616814 0.0034573816 0.019962855 -0.001793278
0002d0 d5 e7 47 3d 00 a5 47 bc d6 73 4e bc c4 2e 80 3c
       0.048805077 -0.012185335 -0.01260086 0.0156473
0002e0 09 4c 18 3c 93 e3 3a 3d 49 1e 3e 3c 8c 53 c6 bc
       0.009295472 0.045627188 0.0116039 -0.02420976
0002f0 1b d5 0b bc e0 b2 ec 3a d3 17 d5 bc 65 89 a6 3b
       -0.008534695 0.001805868 -0.026012337 0.0050822967
000300 5a 15 31 3c ff 1d 34 3c 90 46 aa 3c 23 19 50 bb
       0.010808313 0.01099348 0.0207856 -0.0031753264
000310 fc 42 fd 3c e4 76 6b bc a1 e2 ac 3c a8 8a 6d bc
       0.03091573 -0.014371607 0.021104159 -0.01449839
000320 9a 28 22 3a fd c5 8c 3b 49 b2 59 3c 65 fc 23 bc
       0.00061858597 0.004296063 0.013287135 -0.010008906
000330 b7 38 0f 3b 1c aa 7d bc d6 7f 8a 3c 2d 36 e5 ba
       0.0021853873 -0.015482452 0.01690666 -0.0017487459
000340 de e9 b5 3b bf 2d bf bb 69 37 33 bc c2 2b de 3c
       0.005551561 -0.005834311 -0.010938504 0.027120475
000350 3c a1 70 3b 51 6a d2 3b de 9c 03 3d e2 4f d9 bb
       0.0036717197 0.0064213653 0.032132022 -0.006631837
000360 4a b6 9f bc e7 a8 54 ba 0d a3 37 bb c0 e8 51 3b
       -0.019496102 -0.00081123266 -0.002802077 0.00320296
000370 04 c0 0a 3c b0 e7 21 3a fd 48 c4 bb b8 08 5d bc
       0.008468632 0.0006176187 -0.005990146 -0.013490848
000380 80 03 27 3c 96 bf ac 3c f0 8c a7 3c 8c 72 a6 3b
       0.010193706 0.021087449 0.020452946 0.005079573
000390 c2 44 a3 3a e0 d3 45 3c d8 d3 1c bc 8c 33 3b 3b
       0.0012456405 0.012074441 -0.009571992 0.002856466
0003a0 3e c1 8a bc b9 41 8f bc c1 69 4c 3c a4 42 22 bc
       -0.016937848 -0.017487394 0.012476386 -0.009903584
0003b0 2f 59 60 3c 9e 5a d0 3b 00 8b e7 bb c6 b5 fd ba
       0.013693138 0.0063584587 -0.0070661306 -0.0019356541
0003c0 00 77 89 3c db 60 7a bb a2 a4 c0 3a 07 7d bb bb
       0.016780376 -0.0038204703 0.0014697502 -0.0057216915
0003d0 0d 59 04 bc 95 c6 ef ba d1 da 2e bc eb 86 a8 ba
       -0.008077872 -0.0018293435 -0.010672287 -0.0012857592
0003e0 30 1f 70 bb 03 28 93 bb 47 0f 0d 3c 28 ed 1c bc
       -0.0036639683 -0.0044908538 0.008609599 -0.009578027
0003f0 af ed 91 bc 6a b5 b6 3a 88 18 89 3c 32 08 e0 bb
       -0.017813532 0.0013939564 0.01673533 -0.0068369145

weight_hh f4 [150, 50]
000000 29 7a cf bb a5 aa 3c ba ed ad 4d bd 47 d6 ed bc
       -0.0063317013 -0.0007197059 -0.050214697 -0.02903284
000010 69 54 b2 b8 f2 c1 48 3d d4 10 b2 3c 94 3a fe 3c
       -8.503424e-05 0.049013086 0.02173654 0.031033792
000020 7d 51 d1 bb 53 8f 94 3c 3f b8 a7 bb 01 16 52 3c
       -0.006387888 0.018134749 -0.0051183994 0.012822629
000030 7e 84 5f 3b a7 22 0a 3d 8f ce b8 38 9d 0c 1e 3c
       0.003410607 0.033724453 8.812278e-05 0.009646562
000040 e4 83 27 3d 8f d7 63 bc 39 11 27 bc 03 8c 2c bb
       0.040897265 -0.013906374 -0.010196977 -0.002632857
000050 69 98 6c bc e0 b1 dd 3c bf 11 37 bc 56 56 e2 bc
       -0.014440634 0.027062356 -0.011173665 -0.027629059
000060 ca 39 b6 bc 48 be 88 3d 13 00 06 3c 98 fa 83 3b
       -0.022244353 0.06676918 0.008178729 0.004027676
000070 37 18 f8 bc 2c ac 17 3d 4a 67 b2 bd 9f 8d 97 bb
       -0.030284984 0.03702943 -0.08711107 -0.004625037
000080 d7 e0 cd bb e6 6d bf 3c c6 0e 82 bc a5 44 d2 bb
       -0.0062829065 0.023367833 -0.015876185 -0.0064168745
000090 89 2f ac bc 68 60 a8 3c 4f 99 f8 3c a0 11 a1 bb
       -0.02101876 0.020553783 0.03034654 -0.004915431
0000a0 43 ec c5 bc c9 bd 01 3d b1 22 90 bc a9 f4 36 bc
       -0.02416051 0.031675134 -0.017594667 -0.01116673
0000b0 4a 2c 0b 3d 2a 8d bb 3c 75 ae 57 bc e1 4a 1a bd
       0.033977784 0.02289446 -0.013164152 -0.037669066
0000c0 e1 c7 74 bc 33 0b 85 bc eb 3c 23 3c 11 5c 66 ba
       -0.014940233 -0.016240692 0.009963254 -0.00087875227
0000d0 7f 36 04 3d b7 a1 0e bc 28 3b d5 3c 06 4e 8b bc
       0.032278534 -0.008705548 0.026029184 -0.017004978
0000e0 ba 40 c8 bb 10 55 e7 bb 96 a1 19 3b fe 14 fd bb
       -0.0061112316 -0.007059701 0.002344226 -0.0077234497
0000f0 3e 73 27 bb ff 53 be 3c 2b f6 8d ba ee 18 94 bb
       -0.0025550867 0.023233412 -0.001083081 -0.0045195734
000100 bf af 0d 3c 65 8a bb bb 38 01 bb bc 1c 79 30 bc
       0.008647858 -0.005723285 -0.02282773 -0.010771062
000110 95 26 4d bc 03 77 3d bd 8d 72 d3 3c 2b 2b 21 bc
       -0.012521406 -0.046256077 0.025811458 -0.009836952
000120 b9 b3 c8 3c 47 af db 3c 63 e4 ac bb 5d bb 10 bd
       0.024499761 0.026816977 -0.0052762493 -0.035334934
000130 22 69 8c bc 48 0b cd ba a3 3c c9 ba de 46 25 bb
       -0.017139975 -0.0015643621 -0.0015353154 -0.0025219242
000140 96 ab 0e bc 30 b2 fd 3b 0b 77 4b bb b9 cf 35 bb
       -0.008707901 0.007742189 -0.0031046297 -0.002774222
000150 e2 ea a8 3b 01 6e 3f bc fa 4e bf ba 14 dc 4e bc
       0.0051549533 -0.011683942 -0.001459568 -0.012625713
000160 9e a0 6c bb 7a c4 81 bb 70 9a 8a 3c 71 34 a9 3c
       -0.0036106477 -0.0039601894 0.016919345 0.020654889
000170 0d 8d 45 3b dc 90 8c 3a 0b 81 5a bc 95 d2 89 3c
       0.0030143887 0.0010724324 -0.01333643 0.016824046
000180 f4 52 50 3c 00 47 00 3c 7d 75 46 ba 74 fd 73 3c
       0.01271509 0.007829428 -0.00075706077 0.014891971
000190 13 d3 10 3d 4b 96 f0 bc 4b 88 e5 3c 96 34 23 bc
       0.035357546 -0.02936854 0.028019091 -0.009961268
0001a0 47 80 2f 3d 15 91 32 3c ae 70 78 3c 86 6b 4f 3c
       0.042846944 0.010898848 0.015163584 0.012659913
0001b0 04 c9 65 3d 51 49 02 3d ce c8 64 3d bd 31 9f 3d
       0.056099907 0.0318082 0.055855565 0.07773159
0001c0 16 81 b3 3c 29 8e 51 3d cb 39 44 3d 17 5a 3b 3d
       0.021912139 0.051160965 0.04790668 0.045740213
0001d0 d3 1b c7 bd 5a 63 5b bc 91 93 3e 3c 67 e4 03 bd
       -0.09722104 -0.0133903865 0.011631862 -0.032200243
0001e0 cc fc 61 3d 30 ea 0b bc aa 78 34 3b bb a9 70 3d
       0.055172727 -0.008539721 0.0027537742 0.058755618
0001f0 1f 0b 37 bb cd 84 79 3c ef b1 76 bd 89 1b a7 bc
       -0.0027930213 0.015229416 -0.060228284 -0.020398872
000200 30 76 f3 3a e9 e3 75 bd e8 d9 2d bd e4 77 40 bc
       0.0018574651 -0.060031805 -0.04244414 -0.011747334
000210 49 f4 57 bd 83 b7 92 bc 80 43 df bc e1 f1 2b 3c
       -0.052723203 -0.01790977 -0.027253866 0.01049468
000220 6d 7c 84 3c 97 49 92 bb 8c 54 86 bd 9a 3e d3 3c
       0.016172612 -0.004464339 -0.06559095 0.025786687
000230 98 30 c4 bc 5d f1 9c 3d b6 4d 78 bc 9f 33 50 3d
       -0.023948953 0.07663224 -0.0151552465 0.05083048
000240 d9 9d 35 bd 5a bb 9f bc d6 28 04 3d be 79 3e 3d
       -0.04433999 -0.019498516 0.032265507 0.04650282
000250 7a 04 02 3d da ce 21 3d 27 25 b3 3d 20 7e 89 3b
       0.03174255 0.03950391 0.087473206 0.0041959435
000260 e4 79 b6 3d 69 2f 05 be a5 4b 65 3e 09 d9 ce 3d
       0.089099675 -0.13006367 0.22392137 0.1009999
000270 27 73 5e 3d 4b a3 74 3d a7 06 35 3d 30 03 48 bb
       0.054309037 0.05972604 0.044195797 -0.0030519478
000280 3f 3d b6 3d 9c 4e 2f 3e a4 3d e0 3c d7 9e c8 3c
       0.088984005 0.17119831 0.027373143 0.024489803
000290 6b 6c 83 3d 74 65 46 3d 9a 24 8f bd 25 1e 0b be
       0.064171635 0.048436597 -0.06989403 -0.13585718
0002a0 8f e2 01 3c 13 fc d9 bd 7b 71 aa 3d ab 1d 96 3c
       0.007927551 -0.106437825 0.08322426 0.018324694
0002b0 5d 6b b7 3c 11 a8 37 3d b0 1c 01 be a0 ff 07 be
       0.022390062 0.044838015 -0.126086 -0.13281107
0002c0 2b c6 03 be 57 7b 4f bd 6b 7b 4b 3d 88 a4 18 bd
       -0.12868564 -0.050654735 0.049678247 -0.037266284
0002d0 9a ec 57 3e 8b 9a be bd 67 e1 0e be 67 44 a2 bd
       0.2108635 -0.093068205 -0.13953172 -0.07923203
0002e0 a7 f8 8c 3d 14 92 88 3d 47 a4 9a 3c b4 5d 19 bd
       0.06883364 0.06668487 0.018877162 -0.037442878
0002f0 4b 7f 4e 3c 91 05 30 3c 25 0c 0e 3b 98 e6 a4 3d
       0.012603591 0.010743515 0.002167472 0.08051795
000300 7a 23 0b 3b dc 89 ae 3d 53 5b 43 3d 73 5f 6e 3d
       0.0021230862 0.08522388 0.047694515 0.058196496
000310 49 f2 87 3d d7 32 0e bc 21 47 af 3d 6f ec 52 3d
       0.06638009 -0.008679113 0.08558489 0.051495012
000320 36 8b 13 3d 3d b2 b2 bc 87 09 a4 3b 41 ca 83 bd
       0.036021434 -0.021813506 0.0050060186 -0.06435061
000330 9b 94 9c bc 25 61 23 3d b7 a4 6a bd de f1 1b 3d
       -0.01911383 0.039887566 -0.05728599 0.03807246
000340 29 09 87 3d ec 8f d7 3c e2 65 26 3d 96 93 87 3d
       0.06593544 0.026313744 0.040624507 0.06619947
000350 e7 64 1a 3d 35 57 d1 bc b9 02 e5 3c c8 1f c1 3c
       0.037693884 -0.025554279 0.0279554 0.023574725
000360 f2 8b 57 bd a9 3a 77 3c 02 fb 5c 3c 7c 27 05 bd
       -0.052623697 0.015089669 0.013487579 -0.03250836
000370 ff 7f 0b 3d 1c 50 2a bc 75 c5 05 3d ba 08 31 3d
       0.034057613 -0.010395076 0.032659013 0.043221213
000380 5c d2 cb 3c 8a 26 08 3c 41 95 32 bd a9 93 dc bc
       0.02488058 0.00830997 -0.04359937 -0.026925879
000390 8d 47 32 bd 3b f9 38 bd b8 a8 9c 3d 3d cf 42 bc
       -0.043525267 -0.04515956 0.07649368 -0.01189023
0003a0 a6 36 39 bd 04 ee 33 bd ec dd 16 bd 31 26 7f 3c
       -0.045218132 -0.04392816 -0.036832735 0.01557307
0003b0 e7 f5 55 3c 87 6f ed 3c 96 2f 52 bd b1 3b 03 3d
       0.013059116 0.028983844 -0.051314913 0.032039348
0003c0 98 f2 55 3b eb ca 16 3d 75 70 a1 b8 5c 63 d1 3c
       0.0032645818 0.03681461 -7.698025e-05 0.025560074
0003d0 80 f9 ee 3c a2 62 5e bc 50 54 f9 3c 87 c1 03 3c
       0.029171705 -0.013573321 0.030435711 0.008041746
0003e0 d1 39 35 3c 7e af 4c 3d 44 8e 8d 3c 2b 93 e8 3b
       0.011061148 0.04997205 0.017279752 0.007097622
0003f0 c4 28 c7 3c 81 a3 8c 3b 7d b1 56 3c 41 81 b4 bb
       0.02431143 0.004291952 0.01310384 -0.0055085723

bias_ih f4 [150]
000000 13 f7 e2 3b 2a 1d e7 3c 7a 24 88 3d 64 75 65 3d
       0.006926426 0.028212149 0.06647582 0.056020156
000010 c0 f4 87 3d b1 21 ff 3c 6c 5d da 3c 46 d7 48 bd
       0.06638479 0.031143995 0.026655875 -0.049033426
000020 d6 a7 47 3d 17 c4 6c 3c 6f 84 c5 3c b7 93 05 3e
       0.048744045 0.014451048 0.024111 0.1304463
000030 7a 8b ec 3b 0e f0 64 3d a2 48 bd 3c 51 12 1a 3d
       0.0072187753 0.055892996 0.023105923 0.037615124
000040 cb 0d fd 3c a8 10 c2 bc 98 5f c0 bb 85 9e bb 3c
       0.030890366 -0.023689583 -0.0058707707 0.022902736
000050 dc 23 0e 3d 17 46 fa bb 89 cf 2f 3d db f5 0b 3d
       0.034702167 -0.00763775 0.04292253 0.034170013
000060 d0 a3 08 3e fb b2 bb 3d e6 d0 09 3c f0 c6 53 bc
       0.1334374 0.09164997 0.008411622 -0.012925848
000070 07 e2 b0 3d b8 e0 c8 bb 8b 12 33 3c 6f 10 28 3c
       0.08636861 -0.006130304 0.010929714 0.010257824
000080 d5 49 3d 3d d3 9a 28 3a 98 f4 49 3d a6 57 6f 3c
       0.04621299 0.0006431762 0.04930553 0.014608299
000090 03 11 13 3c f1 2a 20 3c e7 b8 ce 3d 3c 01 92 3c
       0.008976224 0.009775863 0.10093861 0.017822854
0000a0 f6 9a 71 3c 92 69 1a 3d fe 05 35 3c ac 87 40 3c
       0.014746418 0.037698336 0.011048792 0.011751097
0000b0 da 5e 08 3d dd a0 70 3c b8 84 16 3d d4 04 f7 3b
       0.033293582 0.01468679 0.036747664 0.0075384174
0000c0 c9 d4 bd 3c 13 12 6c 3c bf 1c 9b bd 08 92 d4 bd
       0.023172753 0.014408606 -0.07573842 -0.10379416
0000d0 ff 1e 4c bd 75 7e e9 3c 8d 6b 17 bd 0d b6 ab bd
       -0.049834248 0.028502682 -0.036967803 -0.08384333
0000e0 6d 72 12 be 87 88 c3 3b 9f 6a 61 3d d7 53 f3 bd
       -0.14301462 0.005967203 0.055033322 -0.118812256
0000f0 91 6b ee 3c ce a4 4d bc 56 47 cf bd fe 39 84 bd
       0.029104026 -0.0125514995 -0.10121028 -0.06456374
000100 9f 98 01 be 20 ed e7 bd 43 5a a9 bd aa 09 64 3d
       -0.12655877 -0.11324525 -0.08269169 0.05567328
000110 69 aa cc bd 47 a3 ce bd ca fa 07 be e1 d8 1e be
       -0.09993441 -0.100897364 -0.13279262 -0.1551242
000120 c0 f1 01 be 2a bd 4d bd 83 38 56 bd 8a f7 b4 3b
       -0.12689877 -0.05022923 -0.052299988 0.005522673
000130 27 4b 35 bc 74 b8 d4 bd c0 cd 28 be a8 50 75 bd
       -0.011065281 -0.10386744 -0.16484737 -0.059891373
000140 d8 ac 15 be 2b 1a 19 be cd b4 3b 3d aa 19 09 3c
       -0.14616716 -0.14951389 0.045826722 0.008367935
000150 df d0 0d be 7b 1a d8 bd 8b 74 ca bd 7e da 58 bd
       -0.13849209 -0.10551926 -0.0988551 -0.052942745
000160 70 ff c5 3c ed a3 a6 bd a3 2e 81 bd e5 9f e1 bd
       0.024169654 -0.08136735 -0.063077234 -0.110168256
000170 65 6c ef bd ed 10 ef bd a3 c7 f3 bd d3 f0 8f bd
       -0.116905965 -0.1167315 -0.11903312 -0.070283554
000180 b9 02 9b bd 17 49 9f bd ac fb 9d bd 5e c3 c7 bd
       -0.07568879 -0.07777613 -0.07714018 -0.0975406
000190 ea ad a8 3d 1f 80 af 3d c1 3c 98 3c e7 cc 31 be
       0.082362965 0.08569359 0.018583657 -0.1736332
0001a0 4f 3b 1f be 47 74 e4 3d 0e df 87 bd 77 8e c8 3d
       -0.15549968 0.11154991 -0.06634341 0.09792798
0001b0 b6 ae ab 3c 35 03 a0 3d f3 f6 16 bd 87 77 97 bc
       0.020957332 0.07813112 -0.036856603 -0.018489612
0001c0 da 1d 70 3d b4 0e b2 bd 87 44 70 3b 47 0a 81 3d
       0.05862222 -0.08694211 0.003666194 0.063007884
0001d0 65 a8 4d bd 8f 46 f2 bd 06 51 9a bd 8b 8b fd bc
       -0.05020942 -0.11829864 -0.07534985 -0.030950328
0001e0 ea ff c8 bc f5 ec ba bd 71 1b aa 3c 3b 05 5e 3b
       -0.024536092 -0.09127227 0.020765038 0.003387763
0001f0 20 4a 84 bc 56 b6 0f 3e 55 86 a0 ba 4d d8 6f 3d
       -0.016148627 0.140344 -0.0012247065 0.05855589
000200 ab 35 5a 3c a5 ea 50 bc 79 06 54 bd eb 5a 16 be
       0.0133184595 -0.012751256 -0.051763985 -0.1468312
000210 db ca f1 bc d2 e3 49 bd d9 74 0a 3d 84 1b 38 bd
       -0.029515674 -0.049289532 0.03380284 -0.044948116
000220 05 fd 17 bd 72 e9 9b 3c fc 94 93 3c 24 09 d4 3d
       -0.037106533 0.019032214 0.018015377 0.10353306
000230 83 04 1f bd da 2f ff 3d 91 0a e3 bd c4 52 a2 3d
       -0.038822662 0.12460299 -0.11086 0.079259425
000240 a6 aa 95 3c 25 88 c2 bd 76 4c 8f 3d 5d 82 92 bd
       0.018269848 -0.09498624 0.06997006 -0.07153771
000250 0d cc 64 3d 40 69 9e 3d
       0.05585866 0.077349186

bias_hh f4 [150]
000000 9c 95 e0 3b fc be db 3c f7 8e 99 3d 12 94 e4 bc
       0.0068537723 0.026824467 0.074979715 -0.027902637
000010 b5 43 de 3a a5 21 ff 3c 8b 6f db 3c 5e f0 91 bd
       0.0016957434 0.031143973 0.026786586 -0.071259245
000020 68 32 92 3b 62 85 79 3c 27 ea 51 3d 88 e1 99 3d
       0.0044615753 0.015229555 0.051248696 0.0751372
000030 b7 53 03 3b 54 2e 7b 3d 71 cd d4 3c 27 fe 19 3d
       0.0020038912 0.06132348 0.025976868 0.037595894
000040 25 e6 f9 3c dd 0e 15 bc ef df c7 bb 38 96 c1 3c
       0.03050525 -0.009097782 -0.006099693 0.0236312
000050 02 2f 11 3d 4f c2 04 bc 9b 29 2f 3d a5 a5 28 3d
       0.03544522 -0.008102967 0.042764287 0.041173596
000060 06 4b 67 bc 01 52 e3 3d 99 84 04 3d 5d f5 55 bc
       -0.014117008 0.110996254 0.032353017 -0.013058987
000070 09 9e ab 3d e0 6f c8 bb 27 04 80 3c 40 49 c5 ba
       0.08379752 -0.006116852 0.01562698 -0.0015051737
000080 8d 24 5a 3d b9 57 ae 3b d5 a3 74 3d a2 cf 6e 3c
       0.053257514 0.005320516 0.059726555 0.014575871
000090 a7 45 11 3c 74 f5 3c 3c 37 06 d9 3d 19 9f 94 3c
       0.008866704 0.01153313 0.105968885 0.01814227
0000a0 56 22 85 3c 8e 53 1d 3d 69 69 3a 3c c0 14 49 3c
       0.016251724 0.038409762 0.011377671 0.012273014
0000b0 3c 9f 38 3d fb ce 71 3c ce 14 19 3d 77 2a f7 3b
       0.045073733 0.014758821 0.037373357 0.007542904
0000c0 08 42 9a 3c 06 aa 7f 3c 0c 7b a3 bd b4 9a 21 bd
       0.018830314 0.015604502 -0.07982454 -0.039454177
0000d0 ff 70 a2 bd 0b 61 6d 3d b8 93 41 bd 48 18 81 bd
       -0.079317085 0.057953876 -0.047260016 -0.063034594
0000e0 5d 54 e8 bd 5c 85 46 bd f2 6b 2a bd 86 d6 dc bd
       -0.11344216 -0.048467025 -0.04160685 -0.107831046
0000f0 9d 67 99 3c cd fe 72 3d 8e 05 b4 bd 67 3a b2 bd
       0.018726164 0.05932503 -0.08790122 -0.087025456
000100 04 94 01 be 37 d7 e5 bd 21 d3 b7 bd 6e 88 a3 bc
       -0.1265412 -0.112226896 -0.089758165 -0.019962516
000110 bc e1 d6 bd 9d 21 c1 bd 71 17 c8 bd 80 b7 17 be
       -0.10492274 -0.09430239 -0.09770096 -0.14816093
000120 a8 5a 0b be 6e 45 b5 bd 88 96 9e 39 a3 c7 6f bd
       -0.13608801 -0.08851133 0.00030248263 -0.058539998
000130 9e fe ec bd c7 e2 9f bd 61 a3 a3 bb 1f 55 18 bd
       -0.11572002 -0.07806926 -0.0049938415 -0.037190553
000140 68 2f ff bd df 56 86 3d a2 ad 45 3c e7 76 00 3c
       -0.12460214 0.06559538 0.012065323 0.0078408485
000150 4e e5 04 be 25 a1 d9 bd ba 97 0d be 2b 37 51 bd
       -0.12978098 -0.10626439 -0.1382741 -0.051078003
000160 f1 0c c5 3d 36 af 3d bd 3e 38 53 bd c0 7e e4 bd
       0.09621609 -0.046309672 -0.05156731 -0.11156988
000170 66 ed ec bd c5 77 03 be 58 f8 0c be f8 5a 8c bd
       -0.11568718 -0.12838657 -0.1376661 -0.068532884
000180 98 f7 7e bc c3 42 a1 bd ca 91 eb bc 1d 6f ca bd
       -0.015561961 -0.07874062 -0.028756041 -0.098844744
000190 7f 84 eb bb 1a ff 1d bd ab 15 65 bd b8 e5 a1 3d
       -0.0071874256 -0.038573362 -0.055928867 0.079051435
0001a0 dd f4 b0 3d 43 ee b9 3a 96 2c 51 3c 74 ef 50 bd
       0.08640454 0.0014185387 0.012766978 -0.05100961
0001b0 f3 e4 01 bd b2 56 2d bd 99 16 fe 3c 30 e1 15 3e
       -0.031712484 -0.042319007 0.031016635 0.14636683
0001c0 00 64 6a 3d ac 41 dd 3d 81 56 fd 3d ea 92 cf 3d
       0.057224274 0.108035415 0.12370015 0.101354435
0001d0 cb b6 f9 3c 34 4a 03 be a1 ab 62 3b f7 c5 36 bc
       0.03048267 -0.12821275 0.0034587162 -0.011155597
0001e0 22 b6 93 3d c8 a8 d0 3d 66 9b 95 3d 08 bd 74 bc
       0.072124735 0.101884425 0.073050305 -0.014937647
0001f0 74 fe 33 3d bc 05 27 3d c0 c2 b2 bc 4f 9d 67 bc
       0.043943837 0.040776953 -0.02182138 -0.014136626
000200 4e 11 15 be 78 3d e0 bd 8b d3 40 bd 82 65 47 3d
       -0.14557382 -0.10949224 -0.047076743 0.04868079
000210 45 0b 88 bd 2f 5b 59 3d 1c a6 34 be cd c3 7b 3c
       -0.066427745 0.053065475 -0.1764149 0.015366507
000220 22 bf 5e bd ce 08 e8 3d 2c 50 ce bc ff 09 f5 3b
       -0.054381497 0.11329804 -0.025184713 0.0074779983
000230 de 68 0e bd f1 f2 5b bd f8 ea db 3d f1 e0 16 bd
       -0.034767978 -0.053698484 0.10738176 -0.036835615
000240 52 1e ad 3d 5e 89 bf bc d0 5c 1a 3e fb 0f b4 bc
       0.08453049 -0.023380931 0.15074468 -0.021980276
000250 af d3 d1 3d ed 2b 73 bd
       0.102454536 -0.059368063

weight f4 [1, 50]
000000 6b 14 62 bd 06 43 18 3d fb b5 36 3e 37 a3 16 be
       -0.055195253 0.037173294 0.17842858 -0.14710699
000010 40 17 61 be ee 41 f5 bc 69 1e 36 3d f6 65 0c 3e
       -0.21981525 -0.029938664 0.044462595 0.1371077
000020 92 12 96 bd 66 ae 0e 3c c7 ca 01 3d 69 c4 5d 3b
       -0.07327761 0.008708572 0.031687524 0.0033838993
000030 7d 3d b6 bd 1e 4c fb 3d 04 06 a8 bd 47 7d 64 3e
       -0.08898447 0.122703776 -0.082042724 0.22313415
000040 41 b2 87 3c ac 15 5b bd 87 52 a3 bb 61 1c f9 3d
       0.01656449 -0.053487465 -0.0049842033 0.12163616
000050 1d a5 54 be cc fa 58 bd 4a b1 29 3d 8b a2 53 3c
       -0.2076611 -0.052973554 0.04142884 0.012917171
000060 d9 fb 04 be 06 1d 57 bd 7b e4 85 bd 69 48 c3 3c
       -0.12986697 -0.052517913 -0.0653772 0.023838239
000070 23 11 90 bd 63 b2 28 be 2c 8a fa bd a4 ec c7 bd
       -0.070345186 -0.16474299 -0.122333854 -0.097619325
000080 29 e8 41 3e 77 d1 af bd e3 8f 4c bd 94 8d 99 3d
       0.18936218 -0.08584874 -0.04994191 0.07497707
000090 ce 4e bc 3d 91 c5 81 3e da 66 41 3d d1 dc 83 ba
       0.09194718 0.25346044 0.047217228 -0.0010060315
0000a0 e7 ac d0 3d d6 de c7 bc 01 b9 47 3c 3d c5 49 3e
       0.101892285 -0.024398249 0.012190104 0.19704147
0000b0 74 bd 03 3d 3c 55 87 be d7 5e 3f 3d 2d 02 d5 bd
       0.0321631 -0.26432216 0.046721306 -0.104008056
0000c0 ac 5c c9 3d 51 4e 1b 3d
       0.09832129 0.037916485

weight f4 [3, 50, 50]
000000 46 e4 e7 3d 48 e5 1a 3d 56 cf 3b bd 00 32 2d ba
       0.113228366 0.037816316 -0.045852028 -0.0006606877
000010 aa 71 cb 3d 2e 93 b4 bd 44 19 d2 3d 08 2e 26 3d
       0.09933789 -0.08817135 0.10258725 0.040571243
000020 61 ff e4 bd 96 b1 f1 bd 1a 49 ee 3d 28 bb b2 bd
       -0.11181522 -0.1180145 0.11635037 -0.087271035
000030 5e a1 77 bd fa 65 bc 3d 80 f0 f0 bc c0 8a dc bd
       -0.060456626 0.09199138 -0.029411554 -0.10768652
000040 b0 bc f8 3c b8 b9 04 be 00 3f c6 bb 50 64 03 bd
       0.03036341 -0.12961471 -0.0060499907 -0.032078087
000050 9d 15 04 be a0 c1 d5 bb ec 70 99 3d 62 c1 dc 3d
       -0.1289887 -0.006523326 0.07492241 0.10779072
000060 18 c2 d9 3d a4 d5 d9 3d 14 dc 6d 3d c2 b8 ae 3d
       0.106327236 0.10636452 0.05807121 0.085313335
000070 b2 14 f2 bd 6e 1b ee 3d 00 44 da 3a c6 5c ab bd
       -0.118203536 0.116263255 0.0016652346 -0.083673045
000080 38 39 de bc 62 42 09 bd d0 12 4c bc ee 69 b4 bd
       -0.027126893 -0.033510573 -0.012455657 -0.08809267
000090 20 0a 02 3d 30 f8 7b 3d 52 dc 28 bd d0 b9 cf 3c
       0.031747937 0.061515987 -0.04122574 0.025357157
0000a0 d0 7d 0b bd f2 34 fb 3d 08 ba 9b 3d a0 60 68 3d
       -0.03405553 0.12265958 0.07603842 0.056732774
0000b0 d8 bc 42 3d 84 2b a7 3d 6d 97 af bd 86 21 fa 3d
       0.047543377 0.08162597 -0.08573804 0.12213425
0000c0 e8 d7 ed 3c cc c7 49 bd 50 10 54 3c 14 b4 8a bc
       0.029033616 -0.049262807 0.012943342 -0.016931571
0000d0 48 0e 77 3d 40 e2 8e 3c de 16 ed 3d 98 89 b5 3c
       0.060316354 0.017441869 0.11576627 0.022160336
0000e0 9a bc 2c bd 6e 43 91 bd 2c fc 48 3d 34 1e 74 3d
       -0.042172052 -0.07092939 0.049068615 0.059599116
0000f0 44 da 40 3d c0 85 02 bd 9e 7a b4 bd 58 7a e0 bd
       0.047083154 -0.031865835 -0.0881245 -0.10960835
000100 a6 f7 04 bd f0 71 99 bc 40 9b 1c bc 38 8b 78 3d
       -0.03246274 -0.018731087 -0.009558499 0.060679644
000110 80 2c b8 3c be cb f5 3d e4 1d 6c 3d 13 e4 f2 bd
       0.022482157 0.12001751 0.057645693 -0.11859908
000120 6d 97 0c be ec 77 2e bd 00 54 a8 3d d6 67 ef bd
       -0.1372964 -0.042594835 0.08219147 -0.11689727
000130 44 20 66 3d bc c8 03 3d c2 04 c1 3d c6 21 cf bd
       0.056183115 0.032173857 0.094247356 -0.10113864
000140 1a 7c 9e bd ae b8 e4 bd 61 28 08 be 5e ca a3 bd
       -0.07738514 -0.11168037 -0.13296653 -0.07997583
000150 74 64 dc 3d 40 23 6c bd 00 1d 97 bd a8 b0 c8 3d
       0.107613474 -0.057650805 -0.07378578 0.097993195
000160 98 68 fd bc 00 4c b1 bd 8b 2c 07 3e 1c 3d 46 bd
       -0.030933663 -0.08657074 0.13200586 -0.048398122
000170 a9 44 ce bd 14 a5 dd bc 3e f6 82 3d 98 d5 78 3d
       -0.1007169 -0.027056254 0.06394623 0.060750574
000180 a8 ef e8 3c b6 f0 46 bd 79 02 84 bd e0 8c a0 3c
       0.02843459 -0.048569404 -0.06445784 0.019598424
000190 2a f9 34 bd 64 fc 39 3d 36 d3 ae bd 25 4e 01 3e
       -0.044182934 0.045406714 -0.08536379 0.12627466
0001a0 0a ce e7 3d 9c f1 aa bd 2c 10 0f 3d 4b 21 f0 bd
       0.11318596 -0.083468646 0.034927532 -0.117251
0001b0 94 71 15 3d 00 b8 c6 ba 58 e5 ca 3c 30 94 14 bc
       0.03648527 -0.0015161037 0.024767563 -0.009068534
0001c0 94 30 06 bd aa 80 99 bd f0 2c d9 bc 04 4e da 3d
       -0.03276117 -0.07495244 -0.026510686 0.106594115
0001d0 0c 52 41 3d 50 55 a5 bd 38 14 b6 3c b0 58 50 3c
       0.047197387 -0.08072913 0.022226438 0.012716457
0001e0 22 5a b3 bd 8c ca b0 bc 18 a4 48 bd cc 4c ea bc
       -0.08757426 -0.021580957 -0.048984617 -0.028601073
0001f0 2a 8e 93 3d 84 d3 cc bd c8 6a 4e 3d 5e 9f 73 bd
       0.0720485 -0.10001281 0.050394803 -0.059478156
000200 40 3d b7 3d e8 4e a2 bc 84 84 e2 bc a4 2f 70 bd
       0.089472294 -0.019813016 -0.027651079 -0.058639184
000210 28 52 68 3d 29 20 07 3e 14 4b 53 3d 1e 5f f7 3d
       0.056718975 0.13195862 0.051585272 0.12078689
000220 d0 ed c5 3c 02 0c fe 3d f6 3e cc bd 8c f2 6b bd
       0.02416125 0.12404634 -0.09972946 -0.057604358
000230 0c 6d 8b 3d 99 cf c4 bd a0 6b 28 3c b0 c1 88 bd
       0.068079084 -0.096099086 0.010279566 -0.06677568
000240 00 bf 07 3b 32 64 7d bd 22 62 bb 3d 22 4c ff 3d
       0.002071321 -0.06186313 0.09149577 0.12465693
000250 79 f1 e9 bd a8 2e 8b 3d c8 13 30 3d ca 75 cb bd
       -0.114230104 0.06796008 0.042987615 -0.09934576
000260 fe da ab 3d 1c f9 a6 bd 10 94 e5 bc da 99 f7 3d
       0.08391379 -0.081529826 -0.028024703 0.12089892
000270 45 c1 ee bd 7c be 47 3d f0 37 79 3d 72 c2 f9 3d
       -0.11657957 0.048765644 0.06084436 0.121952906
000280 12 46 e3 3d 24 e9 57 bd f2 78 0f bd 44 73 e5 bd
       0.11097349 -0.052712575 -0.03502745 -0.11203626
000290 06 49 0e be 20 f4 54 3d 80 0e 9d 3b 34 97 13 3d
       -0.13895044 0.05199063 0.0047929883 0.03603287
0002a0 f8 cc df bc 08 b4 90 3c 88 da a0 3d a5 90 99 bd
       -0.027319416 0.01766397 0.078541815 -0.07498292
0002b0 74 05 09 3d d2 61 ce 3d 0c b9 7f bd 0c 56 8b 3d
       0.033452466 0.100772515 -0.062432334 0.068035215
0002c0 57 84 bd bd 5d 7a 08 3e 9f 64 a1 bd 00 5e 22 bc
       -0.092537574 0.13327928 -0.0788052 -0.009910107
0002d0 94 86 49 3d 50 21 1f 3d 70 07 1b bc e0 78 bd bc
       0.04920061 0.03885013 -0.009462222 -0.023128927
0002e0 9f 59 e8 bd 68 a6 a8 3c 72 5d f1 3d 90 fa 02 3c
       -0.11345219 0.020587161 0.117854014 0.007994309
0002f0 ee 33 88 3d d8 d7 c0 bd fc 6e 93 3d 6a 14 36 bd
       0.0665053 -0.09416169 0.07198903 -0.044453062
000300 9f b0 b3 bd a8 b2 f0 bd 78 74 ef 3c b4 e6 7f bd
       -0.08773922 -0.11752826 0.029230341 -0.062475875
000310 4d 1f 0e be fb 99 0c 3e b4 93 b9 bd 10 5d 4f 3c
       -0.13879128 0.13730614 -0.09061375 0.012656465
000320 20 01 d2 bc 80 c4 1c 3d 5e 12 d9 bd 90 f4 71 bd
       -0.025635302 0.038273335 -0.105992064 -0.059071124
000330 94 43 9e bd e0 1a 4f bc 01 80 c2 bd e0 86 ef 3c
       -0.07727733 -0.012640685 -0.09497071 0.029239118
000340 d4 93 75 3d 8a 0c f9 3d 00 50 da 3c a2 6d 8b 3d
       0.059955433 0.12160595 0.026649475 0.0680802
000350 60 57 13 3d ee 99 b7 3d e0 cb 61 bc 88 0d 5d bd
       0.035972 0.08964907 -0.013781518 -0.053967983
000360 62 5d b4 bd 12 e9 b7 3d 52 82 f2 3d 26 31 ac 3d
       -0.08806874 0.089800015 0.11841263 0.08407812
000370 9a 16 f3 3d 54 75 8b bd 00 fc 0b 3a b4 3a c0 3d
       0.11869545 -0.06809488 0.000533998 0.09386197
000380 9e bf 78 bd 82 84 b0 bd ac 38 c2 3d fe a9 fc 3d
       -0.060729615 -0.08619024 0.094834656 0.12337111
000390 3c c3 69 3d 28 d9 5b bd 5e 17 9f 3d 84 eb 0a bd
       0.057070956 -0.053673893 0.07768129 -0.03391601
0003a0 36 b6 3e bd 14 e0 a4 3d f6 a0 e2 3d 88 63 89 3d
       -0.04656049 0.08050552 0.11065857 0.06708437
0003b0 9e 91 a1 3d b6 c0 7a bd 20 95 d0 3c 9e b6 d9 bd
       0.078891024 -0.06121894 0.025461733 -0.106305346
0003c0 80 c9 8b 3d 7f 89 0b 3e f0 ed d0 bd c8 21 e2 bd
       0.068255424 0.1362667 -0.10201633 -0.110415995
0003d0 e8 0a f9 bd 6a 07 ea 3d 3a 57 80 3d 61 1c 99 bd
       -0.12160283 0.11427195 0.06266637 -0.07476116
0003e0 6c 18 59 bd d8 9b 2f 3d b4 0c 07 be 66 3c 2b bd
       -0.053001806 0.042873234 -0.1318844 -0.041805647
0003f0 38 0b b4 bd 52 af 9f bd 6a fc 8c 3d 80 07 3a bd
       -0.08791202 -0.077971116 0.06884082 -0.04541731

weight_ih f4 [150, 50]
000000 11 90 0c be 00 7b 78 3b e0 43 d1 3c 92 aa dc bd
       -0.13726832 0.003791511 0.02554506 -0.10774721
000010 f0 84 4a 3d de 5f 96 bd 6f 34 02 3e 3a c1 e0 bd
       0.049443185 -0.07342504 0.12715314 -0.10974355
000020 92 0c 37 bd bc 5f 34 3d 20 0c 36 3c 10 03 c5 3c
       -0.044689722 0.044036612 0.011111289 0.024049312
000030 1c e0 b9 bd cf 1d d3 bd ac 77 08 bd b4 d1 3a 3d
       -0.090759486 -0.1030842 -0.033317253 0.045610145
000040 e8 41 86 bd 40 ed b6 bb 89 d1 97 bd fc 1a 43 3d
       -0.06555539 -0.0055824816 -0.074130125 0.047633156
000050 dc dc 7d 3d d7 4b 05 3e 67 37 03 be ee 63 94 3d
       0.061978206 0.13017212 -0.12814103 0.072456226
000060 24 8d b3 bd e8 6b 6e bd 38 5b 09 be 51 23 01 3e
       -0.08767155 -0.058208376 -0.13413703 0.12611128
000070 70 f5 e4 3c be a7 fb 3d 00 22 72 3b b0 1b b3 3d
       0.027949065 0.12287854 0.0036946535 0.08745515
000080 21 42 85 bd 18 98 41 bd ea 69 b9 bd 5a 02 f4 3d
       -0.06506754 -0.04726419 -0.09053405 0.11914511
000090 61 c8 01 be df ea 02 3e d2 bd 03 be 29 42 06 be
       -0.12674095 0.12784909 -0.1286538 -0.13111176
0000a0 be 17 44 bd 06 09 98 3d 09 c1 0a be e3 99 05 3e
       -0.047874205 0.07423596 -0.135502 0.13046984
0000b0 c3 1c 0e 3e ee 64 0a be 36 58 fd 3d 8d 96 05 be
       0.13878159 -0.13515064 0.123703405 -0.13045712
0000c0 8a 71 30 bd 6a b4 11 bd b0 31 71 3c 08 01 59 bd
       -0.04307703 -0.035572447 0.014721319 -0.0529795
0000d0 7d 0a e9 bd 14 df 7c 3d 14 d6 e1 bd be 78 f0 3d
       -0.113789536 0.06173618 -0.1102716 0.1174178
0000e0 9c 59 1c 3d 53 ff b2 bd bc 2e 24 3d 80 8f cc bd
       0.038171396 -0.087401055 0.040083632 -0.09988308
0000f0 8a 6c a6 bd 4a 48 9e 3d 68 30 c0 bd 05 07 a0 bd
       -0.08126171 0.07728632 -0.09384233 -0.07813839
000100 1c 69 92 3d 96 c6 d2 3d f4 b3 95 bd fe 78 a8 bd
       0.07148954 0.102917835 -0.07309714 -0.082262024
000110 20 ad f4 bb 74 13 c2 bc 08 23 c7 3d 40 c6 c9 3c
       -0.007466927 -0.023690917 0.097234786 0.024630666
000120 c2 7f 89 3d 8a 01 b3 3d 08 ca 86 3c 88 51 e0 bd
       0.06713821 0.08740528 0.016453758 -0.10953051
000130 ba 8e c2 3d 44 f1 58 3d 80 99 14 bb d4 45 12 3d
       0.09499879 0.052964464 -0.00226745 0.035711125
000140 90 72 d9 3d 20 d4 4f bc 8c 2f ab bc 14 68 26 bd
       0.10617554 -0.012684852 -0.020896696 -0.0406266
000150 5a d6 ee bd 12 33 81 3d 7a 85 b0 3d a8 1c da 3c
       -0.11661978 0.06308569 0.08619209 0.026624992
000160 aa 63 f1 3d b4 bd 94 bd b0 cc 53 bc aa 1d c4 bd
       0.117865875 -0.072627455 -0.012927219 -0.095759705
000170 11 29 d7 bd 08 1b 90 bc 44 69 03 3d e0 46 31 bc
       -0.1050588 -0.017591015 0.03208281 -0.010820121
000180 02 50 ec 3d 68 5e 97 3d b0 77 4b 3c 60 fa 46 3c
       0.11538698 0.073910534 0.012418672 0.012144655
000190 cc 7b 97 3d 36 4c ec 3d cc 4f c5 bd f2 f2 ad 3d
       0.07396659 0.115379736 -0.09634361 0.08493604
0001a0 80 89 9b 3a 9c 29 08 bd 30 2d 3d 3c 00 b0 8b 3a
       0.001186654 -0.033242807 0.011546418 0.001065731
0001b0 d0 6d 2f bc 34 03 79 3d 8e c5 68 bd 50 eb d9 3c
       -0.010707334 0.06079407 -0.056829028 0.026601464
0001c0 aa 67 97 bd 73 43 8e bd 50 0e ea bd 0a b0 3a bd
       -0.07392819 -0.06946459 -0.11428511 -0.04557804
0001d0 98 36 ce 3d 11 30 07 be 38 f5 17 bd f7 87 04 3e
       0.10069007 -0.1320193 -0.037099093 0.12942491
0001e0 0c 45 0b be 68 60 95 3d 78 75 81 3d f6 d6 e5 3d
       -0.13600558 0.07293779 0.063212335 0.11222641
0001f0 70 c7 75 3c 56 71 ec 3d 1e 53 89 3d 76 83 0f be
       0.015001163 0.115450546 0.067053065 -0.14014992
000200 88 4d 92 3c 90 29 7b 3d 20 3f cb 3c 2a bb 5b bd
       0.017859235 0.061318934 0.024810374 -0.05364529
000210 e8 88 b2 bc 80 58 0b 3c 2e 88 ee bd 46 c9 3f bd
       -0.021793798 0.008504987 -0.11647068 -0.04682281
000220 20 da a7 3b 7a 26 d5 3d d8 5c c6 3c 00 b0 91 3c
       0.005122438 0.104077294 0.024214193 0.017784119
000230 95 fb 03 3e 46 ea 34 bd 9e ab fc 3d 52 07 e0 bd
       0.1288894 -0.044168733 0.12337421 -0.10938896
000240 05 95 bc bd 60 4b b7 3c 78 1b d4 3d 18 ea ca 3d
       -0.09208111 0.022374809 0.10356802 0.09907931
000250 ff 3e d6 bd 10 6a 3d bc 51 bf 84 bd b0 98 05 3c
       -0.10461234 -0.011560932 -0.06481803 0.008154079
000260 19 13 0c 3e 0c 15 3f bd 20 70 14 3c 35 47 02 3e
       0.1367916 -0.04665093 0.009059936 0.12722476
000270 d4 fb c5 3d 3e 50 14 bd 95 41 04 be c0 1e a2 bc
       0.09667173 -0.036209337 -0.12915643 -0.019790053
000280 36 b8 d0 bd 00 6b 77 ba 14 3f 5d 3d 9c de d2 bd
       -0.101913854 -0.00094382465 0.054015234 -0.102963656
000290 00 a8 50 bd fc a2 19 3d 7c 4d 5d 3d d2 75 9a bd
       -0.050941467 0.03750895 0.054028973 -0.07542004
0002a0 63 e1 01 be ff 8b 05 be 6a 50 ba 3d 98 0d 13 3d
       -0.12683634 -0.13041686 0.09097369 0.035901636
0002b0 aa ef a1 3d 02 76 ff 3d 00 7a ce bd c8 7f a1 3d
       0.079070404 0.1247368 -0.100818634 0.078857005
0002c0 90 01 28 bc 20 ae ab 3b 66 14 9d 3d 28 86 98 bc
       -0.010254279 0.005239263 0.07669906 -0.018618658
0002d0 4e 19 ea 3d 77 b4 d5 bd 64 de 03 bd 78 56 80 3d
       0.11430608 -0.104348116 -0.03219451 0.062664926
0002e0 4e e7 6b bd f6 19 0c bd a5 aa 00 3e f0 79 29 3d
       -0.057593636 -0.034204446 0.12565096 0.041376054
0002f0 f8 c6 cd bd 89 e1 0c 3e 82 cc b4 bd 9d 3d 08 3e
       -0.10047716 0.1375791 -0.08828069 0.13304754
000300 2c 37 01 be fc 0a 49 3d 42 9a a2 3d cc 69 4d 3d
       -0.12618703 0.04908274 0.079395786 0.050149724
000310 80 1f 30 bb d8 8c d3 bd f0 de 25 bc d6 fe e8 3d
       -0.0026874244 -0.10329598 -0.010123953 0.11376731
000320 a6 d0 fc 3d ac e9 84 bd 98 6b c8 3d 00 80 cb 37
       0.12344484 -0.06489882 0.09786147 2.425909e-05
000330 ec 00 9e 3d c5 ec c9 bd 06 67 a6 3d 68 3f a2 3d
       0.077150196 -0.09859613 0.08125119 0.0792225
000340 9e c3 79 bd 10 7a 6b 3d 14 d8 5c 3d 00 01 37 ba
       -0.06097757 0.057489455 0.053917006 -0.0006981045
000350 2c ec 26 3d c0 5b 0c 3d 26 a2 d7 3d 46 55 88 bd
       0.040752575 0.034267187 0.10528974 -0.066568896
000360 12 bf e3 3d bc 0b 7d 3d 02 fa f0 3d f8 34 11 3d
       0.11120428 0.06177877 0.11766435 0.035450906
000370 62 a3 24 bd 67 e7 01 3e a7 e9 9a bd 26 0f 9a bd
       -0.040194876 0.12685929 -0.07564097 -0.075224206
000380 83 30 07 be 2e f4 f4 3d 00 5c e9 3a 70 7e 7b 3c
       -0.132021 0.11960636 0.0017803907 0.015349969
000390 ec 98 d5 bd 3c fc d0 bd 20 ac 69 3c 30 c7 6e 3d
       -0.10429558 -0.1020436 0.014262229 0.05829543
0003a0 28 77 19 3d fa d6 82 bd fe df bb bd ce d4 7b bd
       0.037467152 -0.0638866 -0.091735825 -0.061482243
0003b0 9c 3a 8c bd f0 91 76 bc 1a 76 df bd 78 31 ce bd
       -0.06847116 -0.015049443 -0.10911198 -0.10068029
0003c0 71 f1 0e be fa dc a3 3d 00 6f a0 3a e0 f5 f0 bd
       -0.1395929 0.08001132 0.0012240112 -0.11765647
0003d0 7c 30 a5 bc 0c 2e 09 3d 86 6f cb bd 88 4a c1 3c
       -0.02016472 0.03349118 -0.09933381 0.02359511
0003e0 60 b5 be 3d c2 91 ea 3d 3c 4e 6f 3d 92 4c cd bd
       0.09311938 0.11453582 0.05842422 -0.1002437
0003f0 4c 73 a0 bd 06 70 c2 bd c0 73 7d 3b 40 a5 20 3b
       -0.07834491 -0.09494023 0.0038673729 0.002451256
