backend/workspace/weight/rt/DTL/best_model.pth (torch, 201339 bytes, 13 tensors)

weight f4 [3, 50, 50]
0	0x3aae7ef7	0.0013312985
1	0x3cb7e097	0.02244596
2	0x3d539b24	0.051661626
3	0xbbd9fbe0	-0.0066523403
4	0x3db4df9b	0.08831712
5	0x3c13b335	0.009014894
6	0x3aaa1929	0.0012977469
7	0x3bedd2e9	0.0072578085
8	0xbc4fac92	-0.012675421
9	0x3b35aa3f	0.0027719883
10	0x3a6f49b1	0.00091281073
11	0x3be14717	0.0068749296
12	0x3cb19512	0.021677528
13	0xbb7c2223	-0.0038472496
14	0xbc2190cb	-0.0098611815
15	0xbd6a6234	-0.05722256
16	0x3dc21825	0.094772615
17	0xbad08e5b	-0.0015911566
18	0xbb81dd89	-0.0039631766
19	0x3bd52706	0.006504896
20	0xbd38957c	-0.045064434
21	0x3cc5c17e	0.024140116
22	0xbb0f61d8	-0.0021878388
23	0xbc0be5a4	-0.008538637
24	0x3cf1c568	0.029513076
25	0x3b30914c	0.0026942072
26	0xbd66b8ee	-0.056328706
27	0x3c04b260	0.008099169
28	0x3b84fede	0.004058703
29	0xba415d93	-0.00073763094
30	0x3cba94ed	0.022776091
31	0xbc893818	-0.01675038
32	0xbb11646e	-0.0022185105
33	0x3ca6e474	0.020372607
34	0x3c77d3c8	0.015126176
35	0x3aeec647	0.001821705
36	0x3bef532b	0.0073036156
37	0xbd48e333	-0.0490448
38	0x3d281649	0.041036878
39	0xbd1f7f89	-0.038939986
40	0x3bf74e4c	0.0075471755
41	0xbb5ae5a0	-0.0033401027
42	0x3a2ad18c	0.000651621
43	0xbc2d61e8	-0.010582425
44	0x3c33efbf	0.010982453
45	0xb902e54d	-0.00012483187
46	0xbc100c9a	-0.008792067
47	0xbb7bb69f	-0.0038408411
48	0x3b81a35f	0.003956243
49	0xbd0ef980	-0.03490591
50	0x3c5b6002	0.013389589
51	0xbc3991bf	-0.0113262525
52	0xbd8cd2ab	-0.06876119
53	0x3ade881d	0.0016977821
54	0xbe001b8b	-0.12510507
55	0x3c38ce07	0.0112795895
56	0x3cd7e4b8	0.026354179
57	0xbcd3e12f	-0.025864212
58	0x3cc6544f	0.024210123
59	0xb9e645e6	-0.00043921097
60	0x3c87dad2	0.016583834
61	0xbb8d05ab	-0.004303654
62	0xbd09ab7b	-0.033610802
63	0x3d02c2a8	0.03192392
64	0xbd04744e	-0.03233748
65	0x3d7bd169	0.061479006
66	0xbe0dbd98	-0.13841856
67	0xbd745b4e	-0.059657387
68	0xbb9cfd81	-0.004790962
69	0x3c62faa6	0.013853705
70	0x3d51127f	0.05104303
71	0x3c2e2558	0.010629021
72	0x3ba7ca1e	0.00512053
73	0x3ccb6100	0.024826527
74	0xbc5415fe	-0.0129446965
75	0xbc939e7e	-0.01801991
76	0x3cc10ec4	0.023566611
77	0xbccff286	-0.025384199
78	0xbd8d6c65	-0.0690544
79	0x3cfcf1bc	0.030876987
80	0xbc3a983e	-0.011388836
81	0xbcbb40ab	-0.022857985
82	0xbb865d39	-0.0041004685
83	0xbe1b3e42	-0.15160468
84	0x3b96f9ad	0.0046074004
85	0x3cd1951d	0.025583798
86	0xba4269e4	-0.00074162916
87	0x3d7c1cef	0.06155103
88	0x3dc118c2	0.0942855
89	0x3d52f8d3	0.05150683
90	0x3ce97a66	0.028500747
91	0x3b1124ad	0.0022147105
92	0xbc8647a0	-0.016391575
93	0x3c4d6869	0.0125371
94	0xbc85a0ed	-0.016312087
95	0x3d50bfab	0.05096404
96	0xbba864d5	-0.0051389732
97	0xbc7b9812	-0.015356081
98	0x3c930565	0.017946908
99	0x3d330af7	0.04371163
100	0x3c8ee8af	0.017444937
101	0x3d022fe4	0.031783953
102	0xbc995bae	-0.018720474
103	0x3c1136b5	0.008863141
104	0x3d14bb58	0.036311477
105	0x3c19872c	0.009370606
106	0xbcd231d5	-0.025658527
107	0xbd20e67f	-0.03928232
108	0xbbf1a7cd	-0.0073747397
109	0xbc565e12	-0.013083952
110	0xbb6378ac	-0.0034709377
111	0x3a748c77	0.0009328792
112	0x3b8eff24	0.004363911
113	0x3ace2199	0.0015726566
114	0x3b67910f	0.0035334264
115	0xbcb6bb22	-0.022306029
116	0x3d963cbd	0.07335804
117	0xbc96a81e	-0.018390711
118	0xbb8b06ea	-0.0042427676
119	0xbc848b4a	-0.0161797
120	0x3cdeada8	0.027182415
121	0xb9c163e8	-0.00036886265
122	0x3b8a3bdb	0.004218561
123	0xbc856dcb	-0.016287705
124	0xbd0473dd	-0.03233706
125	0x3ce64fdd	0.028114254
126	0xbd8c3bc8	-0.0684734
127	0xbb8b521f	-0.004251733
128	0xbca373db	-0.019952705
129	0xbbc6fedd	-0.0060728625
130	0x3c8053be	0.015664931
131	0xbd326ef4	-0.043562844
132	0x3b55eddb	0.0032642994
133	0x3daa30c9	0.08310086
134	0xbb49ed95	-0.0030811776
135	0x3d350ca0	0.044201493
136	0x3c7a02a9	0.015259423
137	0x3c6ba29f	0.014382034
138	0xbbdc33a5	-0.0067200237
139	0x3ca829f8	0.020527825
140	0x3cb61075	0.022224644
141	0xbb9837ba	-0.004645315
142	0xbd355300	-0.044268608
143	0x3cb56abd	0.022145623
144	0xbd174f85	-0.03694107
145	0xbcbe5bb8	-0.023237094
146	0x3ba96c48	0.005170379
147	0xbd19aebe	-0.037520163
148	0xbcfb39ab	-0.030667147
149	0x3beecc17	0.007287513
150	0x3c11335e	0.008862345
151	0x3c245026	0.0100288745
152	0xbd2fff5f	-0.04296815
153	0x3c40c67a	0.0117660705
154	0xbcfeee86	-0.031119596
155	0x3cdca00e	0.026931789
156	0xbce4d7d8	-0.027934954
157	0x3c5a81e1	0.01333663
158	0x3c38ae9d	0.0112721
159	0x3c04a7b7	0.008096627
160	0x3c6f02f1	0.014588104
161	0xbcd36831	-0.025806518
162	0xbc1ee73f	-0.009698688
163	0x3d05d9dc	0.03267847
164	0x3c44c903	0.012010816
165	0x3cf63b6e	0.030057635
166	0x3d5b391c	0.05352126
167	0xbc74cc1f	-0.014941244
168	0x3c072c0a	0.008250246
169	0xbb653195	-0.003497218
170	0x3d07892c	0.0330898
171	0xbcaa4fbe	-0.020789977
172	0xbb1b2e07	-0.0023678557
173	0xbc0a1629	-0.008428135
174	0x3cd6af43	0.026206618
175	0xbcafb717	-0.021449609
176	0x3adf13d1	0.0017019456
177	0x3b85e2c5	0.004085871
178	0x3b4e7f1d	0.003150887
179	0x3cfc3826	0.030788492
180	0xbc380676	-0.011232009
181	0x3d63a653	0.05557854
182	0x3ca9d852	0.020733032
183	0xbc5727f9	-0.013132089
184	0x3b815293	0.003946611
185	0x3aabbebc	0.0013103108
186	0x3bd57e91	0.006515332
187	0xbb873cb5	-0.00412711
188	0x3d050780	0.032477856
189	0x3d143b5e	0.03618943
190	0x3c257a66	0.010099983
191	0x3bf45a4c	0.0074570533
192	0xbb7b3d23	-0.0038336
193	0x3bbae30f	0.005703337
194	0xbc0e5152	-0.00868638
195	0x3c2cef00	0.010555029
196	0x3c401559	0.01172384
197	0xbb4a0106	-0.0030823364
198	0x3c6dfb17	0.0145251965
199	0x3ce326f2	0.027728532
200	0x3af0128c	0.0018316074
201	0x3c792176	0.015205732
202	0x3d8ccbba	0.06874795
203	0xbb630126	-0.0034638136
204	0x3db5bd2c	0.08873972
205	0xbc6b16f8	-0.014348738
206	0xbcddb345	-0.027063021
207	0xbcb03934	-0.021511652
208	0xbc5125d2	-0.012765365
209	0x3b84769b	0.004042459
210	0x3b7824fe	0.0037863846
211	0x3cec4d91	0.02884558
212	0x3c250e98	0.01007428
213	0xbc8ad734	-0.01694832
214	0xbaba5aeb	-0.001421777
215	0xbc9b9126	-0.01899011
216	0x3ca5da49	0.020245688
217	0xbbdcef2a	-0.0067423778
218	0xba9320dc	-0.0011225003
219	0xbc2798a7	-0.010229266
220	0xbd4c83d3	-0.049930405
221	0x3ca240e2	0.01980633
222	0x398266e1	0.00024872183
223	0xbb730f5b	-0.003708801
224	0xbc637815	-0.01388361
225	0x3c9a7fe5	0.018859813
226	0xbc919ce9	-0.017775016
227	0xbac7bd55	-0.001523892
228	0x3d249ef4	0.040190652
229	0xbd05833e	-0.032595865
230	0x3bccfbd0	0.0062556043
231	0xbde0682e	-0.10957371
232	0x3b83d345	0.004022988
233	0x3d42825e	0.04748761
234	0xbb81477d	-0.0039452896
235	0xbb1493b8	-0.0022671055
236	0xba82a3a5	-0.0009966983
237	0x3d09ff1b	0.033690553
238	0x3a8350a9	0.0010018545
239	0xbd14c54f	-0.03632098
240	0x3c90fb29	0.017697887
241	0x3c779607	0.015111453
242	0xbc3ab41f	-0.011395483
243	0x3b29e9c4	0.0025926689
244	0x3b182b1a	0.002321905
245	0x3b34a84d	0.0027566135
246	0x3af4ed30	0.001868641
247	0xbc455aac	-0.012045544
248	0xbd48742c	-0.048938915
249	0xbd1deb4d	-0.03855448
250	0x3bfa5a9f	0.0076401974
251	0x3b8b988d	0.004260129
252	0xbd2abb16	-0.041682325
253	0x3bc4fd14	0.0060116146
254	0x3c84f24e	0.016228821
255	0x3cd26726	0.02568395

weight_ih f4 [150, 50]
0	0x3a2f078b	0.0006676844
1	0xbb91850f	-0.0044409106
2	0xbba7f23e	-0.005125313
3	0xb940ea84	-0.00018397911
4	0x3b4ad31e	0.003094859
5	0xb9c3f48b	-0.00037375497
6	0x3c1deaf0	0.009638533
7	0x3aab8c47	0.001308807
8	0x3af37b84	0.0018576239
9	0x3b3492e2	0.002755337
10	0xba5fbd20	-0.0008534957
11	0xbc3bdfc2	-0.011466922
12	0xbaff9049	-0.0019497956
13	0xbbe9b8ad	-0.007132611
14	0x39eeed7d	0.0004557184
15	0xbbb27563	-0.0054461225
16	0x3b83c386	0.004021111
17	0xbb1eb284	-0.002421529
18	0x383e47a0	4.5366236e-05
19	0x3922d429	0.0001552856
20	0x3b0c2a7a	0.0021387623
21	0x3a4d766b	0.0007837775
22	0xbab21d13	-0.0013588987
23	0xbb302e0c	-0.0026882915
24	0x3a71b964	0.0009221046
25	0xb8750c49	-5.8423993e-05
26	0x3acca05c	0.0015611756
27	0xbb135dd2	-0.0022486341
28	0x3bbaa8a4	0.005696373
29	0x3c040aa1	0.008059175
30	0x38e29a26	0.00010805232
31	0x3a3d989e	0.00072325196
32	0xbb1a9ac2	-0.0023590778
33	0xba590bc9	-0.0008279649
34	0xbb0d42b2	-0.0021554646
35	0x3a836a16	0.0010026123
36	0xbb126ba7	-0.0022341998
37	0x3aeb3fbe	0.0017948074
38	0xbb554050	-0.0032539554
39	0xbb4a3da5	-0.0030859497
40	0x3a836680	0.0010025054
41	0xba3e24e8	-0.0007253424
42	0xba9b56e6	-0.0011851459
43	0x3a35b59c	0.0006931664
44	0xb9940cad	-0.00028238204
45	0xbb2891b9	-0.0025721623
46	0x3a2af76f	0.0006521856
47	0x3ac40018	0.0014953641
48	0xbb3f5e0d	-0.0029200346
49	0x3c30b10f	0.010784402
50	0xba4e385a	-0.00078666734
51	0x3bb803eb	0.0056157014
52	0x3abc15e1	0.0014349782
53	0x3b046403	0.0020201213
54	0xbb64831d	-0.0034868189
55	0x3b2006b9	0.002441807
56	0xbb97e50a	-0.004635458
57	0xba928c19	-0.0011180668
58	0xba9b6f9a	-0.0011858821
59	0xbaa9e985	-0.0012963271
60	0x3af42c7e	0.0018628982
61	0x3b3a8fe5	0.0028467115
62	0xba81258b	-0.0009853108
63	0x3b837761	0.004012034
64	0x3b21a6ef	0.002466615
65	0x3baf2576	0.005345042
66	0xbc74befd	-0.014938113
67	0xbb2ebbcb	-0.0026662226
68	0xba84cfbe	-0.0010132713
69	0xb9b46461	-0.00034407064
70	0xbb37d1f4	-0.0028048726
71	0xbacefdc2	-0.0015792178
72	0x38d0eac4	9.9619414e-05
73	0x3b1a3c3c	0.0023534438
74	0x3a2c8286	0.0006580729
75	0xba44f117	-0.0007512732
76	0xba199de8	-0.00058600167
77	0x380a62c6	3.2993754e-05
78	0xbc58c3c4	-0.013230268
79	0x376d6001	1.41486535e-05
80	0xbb0df84e	-0.0021662894
81	0x3b16dc39	0.0023019447
82	0x3b2d5198	0.0026446339
83	0xba95b4c3	-0.0011421669
84	0x3b0909c9	0.0020910373
85	0xbb2692b7	-0.0025417039
86	0x3baeb2c0	0.0053313673
87	0x3ba22b5e	0.0049490174
88	0x3bacb34e	0.005270398
89	0xba887b0f	-0.0010412651
90	0x3b641461	0.0034802186
91	0xbb1a5a46	-0.0023552342
92	0xb9db5fe6	-0.00041842385
93	0x39b1e10f	0.00033927753
94	0x378ae94b	1.6559517e-05
95	0x3ba035dc	0.004889233
96	0xbb0440cc	-0.0020180224
97	0x3b543f50	0.003238637
98	0x3a1c9cbd	0.00059742836
99	0xbb8075bf	-0.0039202864
100	0x3a18bcd5	0.0005826478
101	0x39805313	0.00024475958
102	0x3c11f71b	0.008909012
103	0x396be7b3	0.00022497661
104	0x3b28b97b	0.002574532
105	0x3964915c	0.00021797925
106	0xbb7f9979	-0.003900139
107	0xba0f9c96	-0.000547835
108	0x3ad24720	0.0016042925
109	0x39874261	0.00025798663
110	0x39dfecfc	0.00042710442
111	0x3bf1995f	0.0073730196
112	0xbb11f27b	-0.0022269774
113	0xbb0fa066	-0.0021915673
114	0x3a748dc5	0.00093289866
115	0xbc23123f	-0.009953081
116	0xbb33d1ef	-0.0027438363
117	0xbad3734d	-0.0016132385
118	0x39ae3cc0	0.00033233128
119	0xba0a7eba	-0.0005283166
120	0x3ab146ae	0.0013525093
121	0x3a80aa89	0.0009816448
122	0xb97067c0	-0.00022926833
123	0xb843fb0e	-4.6725436e-05
124	0xbab793f4	-0.0014005885
125	0xb9fedba5	-0.00048610303
126	0x3a8736e0	0.0010316037
127	0xbadd0122	-0.00168613
128	0x3b60680e	0.003424171
129	0x3b066792	0.002050851
130	0xba69445a	-0.000889843
131	0xbc0714ba	-0.008244688
132	0x3aaab253	0.0013023115
133	0xbbb5e195	-0.005550573
134	0xba957bd4	-0.0011404702
135	0xb8b8aebc	-8.8063505e-05
136	0x3a4ba9ef	0.00077691575
137	0xbb2d94f9	-0.00264865
138	0xba0d3acb	-0.0005387484
139	0xbb0eda27	-0.002179751
140	0x3b24da22	0.0025154431
141	0xb9e5da94	-0.00043841137
142	0xbb037e54	-0.002006431
143	0x39f20f63	0.000461693
144	0xba01b533	-0.000494796
145	0x3abbcb54	0.0014327564
146	0xbb07dc23	-0.0020730577
147	0x3996c42d	0.00028756392
148	0xbb2ce5ef	-0.0026382168
149	0x3b666418	0.0035154875
150	0x3b0bcb77	0.0021330991
151	0xbbb26cd6	-0.005445103
152	0xbc4dd2f5	-0.012562503
153	0x3b2fdda8	0.0026834998
154	0xbc7ee502	-0.015557529
155	0x3bacc5c5	0.0052725994
156	0x3c660244	0.014038626
157	0x3b85e82b	0.0040865145
158	0x3bd78210	0.006576784
159	0x3b97605d	0.0046196417
160	0x3ab52bde	0.0013822278
161	0xbc91b556	-0.017786663
162	0xbc0a2f50	-0.008434132
163	0x3a830273	0.0009995237
164	0x3b003305	0.001956166
165	0x3c5965f2	0.013268935
166	0x3c552e98	0.013011597
167	0x3be8b432	0.007101559
168	0x3b16e9a2	0.002302744
169	0xb8849848	-6.322615e-05
170	0x3c0d7729	0.008634367
171	0xbac5f86a	-0.001510394
172	0xbacad4c2	-0.0015474784
173	0x3a5101dd	0.0007972995
174	0x3b38efdf	0.0028219146
175	0xbba09e5f	-0.004901692
176	0x3ad9d1bd	0.0016618293
177	0xbbb2ec10	-0.0054602697
178	0x3b5fbe8a	0.003414067
179	0x3c08f331	0.008358763
180	0xbb2762e1	-0.0025541114
181	0x3c6ed7b0	0.014577791
182	0x3b4517b6	0.0030073947
183	0x3bd764cd	0.0065732957
184	0xbbd59e02	-0.00651908
185	0x3ae4167b	0.0017401719
186	0xbb88fe9e	-0.0041807434
187	0xbc712e3e	-0.014720498
188	0x3be8ef22	0.007108585
189	0x3bfc3b7d	0.0076975212
190	0x3a925c88	0.0011166492
191	0x3b43ce14	0.002987747
192	0x39fb0fd1	0.00047886235
193	0x3b5eb6f2	0.0033983556
194	0xbb36de1e	-0.0027903388
195	0xbb5edfa0	-0.0034007803
196	0x3a9e64ba	0.0012084462
197	0x3a405a88	0.0007337709
198	0x3b615600	0.0034383535
199	0x3c86a457	0.016435785
200	0xbad106b8	-0.0015947437
201	0xbbe93eae	-0.0071180677
202	0x3b7825a0	0.0037864223
203	0xbb0ba3ab	-0.002130727
204	0x3c854bdf	0.01627153
205	0xbbd2df5f	-0.0064353193
206	0x3bacf3e8	0.0052780993
207	0xbb93b6c2	-0.0045078704
208	0x3a9268f6	0.0011170197
209	0x3b275927	0.0025535317
210	0xbb9e2e4c	-0.0048272964
211	0x3b91349f	0.0044313218
212	0xba11f532	-0.0005567848
213	0xbc8a9fa6	-0.01692183
214	0x3b410c77	0.0029456893
215	0xbc9a829a	-0.018861104
216	0xbbc15ac8	-0.0059007145
217	0xbc16849c	-0.00918689
218	0xbaf9f4b1	-0.0019070116
219	0xbb436844	-0.0029816786
220	0x3bb21e44	0.005435737
221	0x3c337c33	0.010954904
222	0xbb5986e6	-0.0033191978
223	0xbb9babe7	-0.004750717
224	0x3b881f3d	0.0041541145
225	0x3bdaf6ef	0.006682269
226	0x3b24b6f6	0.0025133467
227	0xbb8e87d7	-0.0043496895
228	0x3baa2a40	0.005193025
229	0x3b9e7902	0.0048362026
230	0x3b192fd7	0.0023374462
231	0xbc74aeed	-0.014934284
232	0xbabced6f	-0.0014414022
233	0xbc088de5	-0.008334612
234	0xbb57a036	-0.003290189
235	0xba86d8b6	-0.0010287974
236	0xbb32eeca	-0.0027302974
237	0x3bf093d7	0.0073418426
238	0xbc402cc0	-0.011729419
239	0xbc84decc	-0.01621952
240	0x3b3bab1d	0.0028635927
241	0xbb35816f	-0.0027695557
242	0x3a02fc11	0.0004996667
243	0x398f9db9	0.00027392598
244	0xbb1d6c98	-0.0024021026
245	0xbb757fb8	-0.003746016
246	0xbbb05e9f	-0.0053823735
247	0x3bac05e8	0.0052497275
248	0xbc37090c	-0.011171591
249	0x3c12afea	0.008953074
250	0x3a3eb56e	0.000727496
251	0x3b9f96fe	0.0048702946
252	0x3ac6e384	0.0015174006
253	0x39f0ae3e	0.00045906188
254	0xba9f56ac	-0.0012156568
255	0xbb8e798c	-0.0043479856

weight_hh f4 [150, 50]
0	0x39fec851	0.00048595903
1	0x3c538611	0.012910382
2	0xbcf6f835	-0.030147651
3	0xbc5db40c	-0.013531696
4	0x3cab0c4b	0.020879885
5	0xba19f602	-0.0005873145
6	0xbd03088b	-0.03199057
7	0x3ba6b7d8	0.005087834
8	0x3c7f03e7	0.015564895
9	0x3c63c4c7	0.013901896
10	0x3bf28541	0.007401139
11	0xbc22289d	-0.009897378
12	0x3bcc8cfc	0.0062423926
13	0xbc6d7cf0	-0.014495119
14	0x3b048393	0.0020220026
15	0x3b92f4fe	0.0044847718
16	0x3d32a499	0.043614004
17	0xbbe1a9f3	-0.0068867146
18	0xbb96b20e	-0.0045988625
19	0xbc5396c5	-0.012914364
20	0x3bba457d	0.005684553
21	0x3ce6de72	0.028182242
22	0x3b07ebc7	0.00207399
23	0xbd42e613	-0.047582697
24	0xbb015264	-0.0019732947
25	0xbc660382	-0.014038922
26	0x3befe06f	0.0073204557
27	0xbc860c26	-0.016363215
28	0xbb057a8c	-0.0020367233
29	0xba873f45	-0.0010318538
30	0x3ae194a3	0.0017210435
31	0x3d1b5457	0.03792223
32	0xbc82a520	-0.015947878
33	0x3b4c7481	0.0031197371
34	0xbc117ec0	-0.008880317
35	0x3bf1a232	0.0073740715
36	0xbab53f80	-0.0013828129
37	0x3cbc41dc	0.022980623
38	0x3c5323ea	0.012886981
39	0xbb1155c8	-0.0022176374
40	0x3b86ffad	0.0041198344
41	0x3ba96c0d	0.0051703514
42	0x3a6a5b99	0.0008940041
43	0xbcc53ed7	-0.024077816
44	0x3cbace71	0.022803517
45	0xbada30e7	-0.0016646654
46	0xbcf6ff7b	-0.03015112
47	0x39f00964	0.00045783364
48	0xbc5f4dff	-0.013629436
49	0xbce62c7d	-0.028097386
50	0x3b9946f4	0.0046776477
51	0x3d496ac5	0.04917409
52	0x3d0dd9b0	0.03463143
53	0x3d0da1b1	0.03457803
54	0x3c1d8936	0.009615233
55	0xbd0dbf6b	-0.03460638
56	0xbcc9bdc3	-0.024626618
57	0xbc26092c	-0.010134023
58	0x3bc9350e	0.006140358
59	0xbc5bb549	-0.013409921
60	0x3b73a701	0.00371784
61	0x3cb5369d	0.022120768
62	0x3a0c453b	0.00053508923
63	0xbc9e4fa2	-0.019325081
64	0xbbc8c7b8	-0.006127324
65	0xbc12919d	-0.00894585
66	0xbced182d	-0.028942192
67	0x3c877645	0.016535887
68	0x3bbf8791	0.005845018
69	0xbc87e411	-0.016588243
70	0x3ce7fa6d	0.028317655
71	0xbc709873	-0.014684784
72	0x3ccf0943	0.025272971
73	0x3cc0b4a1	0.02352363
74	0x3b87c890	0.004143782
75	0xbd81d455	-0.06339327
76	0x3c06fe68	0.008239366
77	0xbcea0108	-0.028564945
78	0x3c3b8e33	0.011447477
79	0xbd6fb222	-0.05851949
80	0xbcbdf3a3	-0.023187464
81	0x3c7af2d9	0.015316688
82	0xbbeb0259	-0.0071719107
83	0xb9086816	-0.00013008746
84	0xbc4a9e9f	-0.01236692
85	0xbc9f0e0f	-0.019415883
86	0x3a7fcf14	0.0009758335
87	0xbcb381f1	-0.021912547
88	0x3bcbcc1b	0.0062193996
89	0x3cb6ac25	0.022298882
90	0x3cb7a603	0.022418028
91	0xbcb26b87	-0.021779789
92	0x3cee46ea	0.029086549
93	0x3c7e2132	0.015510844
94	0xbcd501cf	-0.026001839
95	0x3b8724f7	0.0041242796
96	0x3cc97f60	0.02459687
97	0x3d0ee682	0.034887798
98	0x3bb13da6	0.0054089604
99	0x3cb573c9	0.022149937
100	0x3c6196df	0.013768881
101	0x3b502fcc	0.003176677
102	0x3cd9fe17	0.026610417
103	0x3c38b62c	0.011273902
104	0x3cab0562	0.02087659
105	0x3c1bfe8c	0.009521138
106	0xbccbb5cb	-0.02486696
107	0xbc79e81a	-0.015253091
108	0x3cb3d4fb	0.021952143
109	0x3c4b21b9	0.012398177
110	0x3c43dd6b	0.011954646
111	0x3c6e4f6d	0.014545304
112	0xb9c0e26c	-0.0003678979
113	0xbc83eaf2	-0.016103242
114	0x3d04a555	0.032384235
115	0x3c4cf186	0.012508756
116	0xbc9a3559	-0.018824266
117	0xbcb7193e	-0.022350904
118	0xbc098873	-0.008394348
119	0xbd51fd79	-0.05126712
120	0x3d012307	0.031527545
121	0xbc732158	-0.014839493
122	0x3c84bd4c	0.016203545
123	0x3b2be4de	0.0026228945
124	0xbbdfa235	-0.0068247565
125	0xbd2c80ac	-0.0421149
126	0xbcb52da3	-0.022116488
127	0xbcbbf056	-0.02294175
128	0x3d06cf0f	0.03291231
129	0xbc27f0d8	-0.010250293
130	0x3d14da00	0.036340714
131	0x3c9f6d70	0.019461364
132	0xbca4fe18	-0.020140693
133	0xbacadf59	-0.001547794
134	0x3bc64252	0.0060503865
135	0xbc8c8a13	-0.017155683
136	0x3c322fc2	0.010875644
137	0x3b7a7d9b	0.003822184
138	0xbb2051a4	-0.0024462724
139	0xbbea88a7	-0.0071574035
140	0x3c56babe	0.013106046
141	0x3bd80aeb	0.0065930984
142	0x3c2f5fec	0.010704022
143	0x3c4a39fe	0.012342928
144	0xbbc71f2f	-0.0060767154
145	0x3bdaf6f3	0.0066822707
146	0xbaa8b802	-0.0012872221
147	0x3cf7cd4e	0.030249264
148	0x3be1223b	0.0068705357
149	0x3ca4d035	0.020118812
150	0x3c96a1b2	0.01838765
151	0xbd24df17	-0.040251818
152	0x3c374585	0.011186008
153	0xba34383e	-0.0006874836
154	0x3bb759d3	0.0055954247
155	0xbc9145a6	-0.017733406
156	0x3c43ab4a	0.011942694
157	0x3c9f5efa	0.019454468
158	0xbbdd2e27	-0.0067498866
159	0x3cbddd41	0.023176791
160	0x3a26ae26	0.00063583476
161	0x3ca569e1	0.020192089
162	0x3bb53483	0.0055299415
163	0xbcc069ce	-0.023487952
164	0x3c9ada0b	0.0189028
165	0x3b00d3fe	0.0019657607
166	0xbcb426a1	-0.021991076
167	0x3c2800a1	0.010254056
168	0x3bec0950	0.0072032586
169	0xbd4ca74d	-0.049964238
170	0x3cc6a074	0.024246432
171	0x3b99a760	0.004689142
172	0x3cb4ab74	0.022054411
173	0xbbc08949	-0.0058757407
174	0xbc877be1	-0.016538562
175	0xbca6d6b8	-0.020366058
176	0xbb188a2b	-0.0023275714
177	0xbd28c8e4	-0.04120721
178	0xbb87a53c	-0.0041395705
179	0xbb4715a5	-0.0030377891
180	0x3d736fa2	0.059432633
181	0x3bbab14e	0.005697406
182	0xbd086abd	-0.03330492
183	0xbc477018	-0.012172721
184	0xbb79770a	-0.0038065338
185	0x3bbad3ea	0.0057015317
186	0x3aad36b8	0.001321516
187	0x3a143a85	0.0005654472
188	0xbc753e97	-0.014968536
189	0xbc875d3c	-0.01652395
190	0x3c8a3f68	0.016875938
191	0x3c8d0873	0.017215943
192	0x3b169d40	0.0022981912
193	0x3bace831	0.005276703
194	0xbbc27e79	-0.005935487
195	0x3c6d8a23	0.014498266
196	0xbbf7ce9c	-0.0075624716
197	0x3d1cf134	0.038315967
198	0xbb8124c2	-0.0039411495
199	0x3cd887eb	0.026431998
200	0x3c689ed5	0.014198025
201	0xbb23b417	-0.0024979168
202	0xbb8f3563	-0.004370378
203	0xbc0bae1c	-0.008525398
204	0xbc3cb1fb	-0.011517043
205	0xbc86ee84	-0.016471155
206	0xbc9f4c7a	-0.019445647
207	0x3c9469db	0.018116882
208	0x3b704b95	0.0036666144
209	0x3cb1e288	0.021714464
210	0xbc25e2ef	-0.010124906
211	0xbc324c1f	-0.0108824065
212	0x3c4cc228	0.012497462
213	0xbc87c951	-0.016575487
214	0x3c2ef460	0.010678381
215	0x3aa61ba5	0.0012673034
216	0x3c14130c	0.009037744
217	0xbb71544b	-0.0036823924
218	0xbab40e77	-0.0013737221
219	0xbceef723	-0.029170578
220	0x3cc84254	0.02444569
221	0xbbb97120	-0.0056592375
222	0x3b166ea5	0.0022954133
223	0xbc28795a	-0.010282839
224	0xbb4bc553	-0.0031092956
225	0x3aab457e	0.0013066975
226	0xbc2ada30	-0.0104279965
227	0xbc3339b9	-0.010939055
228	0xbb883477	-0.004156645
229	0xbb7b0769	-0.0038303977
230	0xbd1055fd	-0.035238255
231	0x3d402e06	0.04691889
232	0xba8ae3e8	-0.0010596486
233	0x3c7e7784	0.015531424
234	0xbc8389b8	-0.01605688
235	0x3ba80a6f	0.005128197
236	0xbba274ef	-0.004957787
237	0x3c885625	0.01664264
238	0xbc4b01eb	-0.012390594
239	0xbbc73dc2	-0.00608036
240	0x3bf2dbdb	0.0074114627
241	0x3c207df7	0.009795657
242	0x3b47a6d2	0.0030464423
243	0xba8ec2c4	-0.0010891785
244	0xbb332f5e	-0.0027341465
245	0x3b5832cf	0.0032989269
246	0xbc4e9cdb	-0.012610639
247	0x3d00d68c	0.031454608
248	0xbb6256ed	-0.0034536675
249	0xbb3f2aa8	-0.0029169712
250	0xbb2ce698	-0.0026382562
251	0xbcc0c757	-0.023532553
252	0x3ba923a8	0.0051617213
253	0xbacfe091	-0.0015859773
254	0x3c347e3d	0.011016426
255	0x3be2a13a	0.0069161924

bias_ih f4 [150]
0	0x3c36f9e2	0.011167975
1	0x3d809d95	0.062800564
2	0x3b8f2e73	0.004369551
3	0x3ccd4472	0.025057051
4	0x3c87fea4	0.016600914
5	0x3b8f86a3	0.0043800636
6	0x3bb11403	0.005403997
7	0x3ccb778f	0.024837283
8	0x3c867565	0.0164134
9	0xbd00b794	-0.031425074
10	0x3ca29049	0.019844191
11	0x3d023c77	0.031795945
12	0xbc5d4f22	-0.013507636
13	0x3d06bb05	0.0328932
14	0x3c43787f	0.011930584
15	0x3a81d550	0.0009905491
16	0x3cde04be	0.02710187
17	0x3d33d386	0.043902896
18	0xbb863d17	-0.004096638
19	0x3cf311fa	0.029671658
20	0x3bc4ede1	0.0060098027
21	0x3cb8d1e7	0.022561027
22	0x3d0dfa19	0.03466234
23	0x3c3883f1	0.011261926
24	0x3cfe2a71	0.031026097
25	0x3cd841b7	0.026398523
26	0xbbbbc32f	-0.005730055
27	0xbbec0715	-0.0072029927
28	0x3cdf51dc	0.027260713
29	0xbbe728a4	-0.0070544053
30	0x3c645d6f	0.013938292
31	0xbb100d08	-0.0021980423
32	0x3a37b026	0.0007007144
33	0x3c63507d	0.01387417
34	0x3cbe567b	0.023234596
35	0x3d155001	0.03645325
36	0xbbad2e75	-0.005285079
37	0x3b32dd27	0.0027292462
38	0x3c2a1dab	0.01038305
39	0xbb7e2afa	-0.003878294
40	0x3d090ade	0.03345763
41	0xbbfb7ad4	-0.0076745544
42	0xbc1fc091	-0.009750501
43	0x3c3dbfe5	0.011581396
44	0xbcc116b1	-0.02357039
45	0x3a7cb082	0.0009639339
46	0x3ca06402	0.019578937
47	0xbd4f0d96	-0.050550066
48	0xba5f940c	-0.00085288356
49	0xbcd4c345	-0.025972018
50	0xbdc2e864	-0.09516981
51	0xbe054d5c	-0.13017792
52	0xbcaec94b	-0.021336218
53	0xbce0fb0f	-0.027463464
54	0xbd663aa5	-0.05620827
55	0xbd173be1	-0.03692234
56	0xbe0a90a0	-0.13531733
57	0xbd94c968	-0.07264978
58	0xbc86a7b6	-0.016437393
59	0xbd5fbce9	-0.05462352
60	0xbcc4a91d	-0.02400642
61	0xbe0eaf7a	-0.13934126
62	0xbd6d6057	-0.057953205
63	0xbd5424ce	-0.051792912
64	0xbda58339	-0.08081669
65	0xbdbc86ca	-0.092053965
66	0x3bb302b2	0.005462968
67	0xbd107fde	-0.035278194
68	0xbdcfff80	-0.10156155
69	0xbd4dbeb0	-0.050230682
70	0xbde6209f	-0.11236691
71	0xbdd10cdc	-0.10207531
72	0xbdf7ae81	-0.12093831
73	0xbd43bc95	-0.047787268
74	0xbdabfcc9	-0.08397824
75	0xbdf3cb46	-0.11904006
76	0x3c8f0d34	0.01746235
77	0xbdcb46c2	-0.09925605
78	0xbe1e37b9	-0.15450944
79	0xbbf101fa	-0.007354972
80	0xbdf92f17	-0.12167185
81	0xbe0a88e6	-0.13528785
82	0xbd0e66c5	-0.034765977
83	0x3bb74760	0.0055932254
84	0xbd88e90a	-0.06685074
85	0xbd985e0a	-0.074398115
86	0xbdb1636e	-0.08661543
87	0xbd74eefa	-0.05979822
88	0xbd8f51a7	-0.06997996
89	0xbdd5a337	-0.104315214
90	0xbd946edf	-0.072477095
91	0x3d67d293	0.056597304
92	0xbd69402c	-0.056945965
93	0xbddadebe	-0.10687016
94	0xbd7715b6	-0.06032344
95	0xbd9e5dc1	-0.07732726
96	0xbcd78c3e	-0.02631199
97	0x3c9e2103	0.01930285
98	0xbd8b1ce2	-0.06792618
99	0x3bcd3fe7	0.0062637213
100	0x3db6a3c9	0.08917958
101	0x3d92b1a1	0.07162786
102	0x3c0a6d26	0.008448875
103	0xbe141b0f	-0.14463447
104	0xbdd2a386	-0.10285096
105	0x3d68c360	0.05682695
106	0xbd5b8ba5	-0.053599972
107	0x3da7a1f0	0.08185184
108	0xbd1c0bd3	-0.038097214
109	0x3d7af886	0.061272167
110	0xbd048d5b	-0.03236137
111	0xbcf3cac9	-0.029759781
112	0x3da2f2c2	0.07956459
113	0xbd6a8dce	-0.05726414
114	0x3c2908e8	0.010317065
115	0x3d635579	0.055501435
116	0xbd1c6629	-0.038183365
117	0xbdc6619c	-0.09686586
118	0xbd8f947d	-0.07010744
119	0x3ca6eb76	0.020375948
120	0xbcc3ccef	-0.02390143
121	0xbcdf4bb0	-0.02725777
122	0x39c39274	0.00037302414
123	0x3cc5a973	0.024128651
124	0x3c71ef13	0.014766472
125	0x3c3d420f	0.011551394
126	0x3d3a933e	0.045550577
127	0x3d78a1e6	0.060701273
128	0x3d961ab1	0.0732931
129	0x3d8acb3a	0.06777044
130	0xbd38c9d8	-0.04511437
131	0xbd7d9635	-0.061910827
132	0x3b02aa32	0.001993787
133	0xbd04e312	-0.032443114
134	0x3d7721a0	0.0603348
135	0xbc3be675	-0.011468519
136	0xbc86e55d	-0.01646679
137	0xbd068e7d	-0.03285073
138	0x3d2fecb0	0.042950332
139	0x3da4dc55	0.080498375
140	0xbd233150	-0.03984195
141	0x3da52601	0.08063889
142	0xbdfc74aa	-0.123269394
143	0x3d7d2662	0.061804183
144	0xbd85ffb1	-0.0654291
145	0xbc8f358b	-0.017481586
146	0x3c7e936d	0.015538079
147	0xbd15fe05	-0.036619205
148	0x3d29133d	0.041278113
149	0x3d378563	0.044804942

bias_hh f4 [150]
0	0x3c2944f6	0.010331383
1	0x3d78a1cf	0.060701188
2	0x3c67f20d	0.0141568305
3	0x3c8dd357	0.017312689
4	0xbbc62d84	-0.0060479064
5	0x395377d3	0.00020167166
6	0x3bb24636	0.0054404987
7	0x3cc26cb8	0.023733482
8	0x3bd91678	0.006624993
9	0xbcfe20c2	-0.03102148
10	0x3ccf9be9	0.025342898
11	0x3cb71278	0.022347674
12	0xbc656b01	-0.0140025625
13	0x3d2b47e0	0.041816592
14	0x3c45ea80	0.012079835
15	0x3a26ef25	0.0006368033
16	0x3cc14a42	0.02359498
17	0x3d3a1c6f	0.045437273
18	0xbb8e7c4c	-0.0043483134
19	0x3cf6a3ec	0.03010746
20	0x3bc513eb	0.0060143373
21	0x3cab3339	0.020898448
22	0x3d0dc572	0.034612127
23	0x3c3a2e89	0.011363634
24	0x3c802204	0.01564122
25	0x3cd84581	0.02640033
26	0xbb93125b	-0.004488272
27	0xbccd06e2	-0.025027696
28	0x3cdb2f46	0.02675594
29	0xbbe5d2c2	-0.0070136497
30	0x3c715b17	0.01473119
31	0xbbe54e9f	-0.0069978978
32	0x3a3ea5c1	0.0007272624
33	0x3c8f9c7f	0.017530678
34	0x3ce548ba	0.02798878
35	0x3d0be120	0.034150243
36	0xbbb6ce15	-0.005578766
37	0x3b58a847	0.0033059285
38	0x3c2b1311	0.0104415575
39	0xbb581aa0	-0.0032974854
40	0x3d091edc	0.033476695
41	0xbbc5aa70	-0.0060322806
42	0xbc194e68	-0.009357072
43	0x3c87de19	0.016585397
44	0xbc0c221e	-0.008553056
45	0x3b3b0ab5	0.0028540317
46	0x3ca3692f	0.019947616
47	0xbd3b1c69	-0.04568139
48	0xba88ac84	-0.001042739
49	0xbcc463c9	-0.023973363
50	0xbdcd5498	-0.100259006
51	0xbc91d5f7	-0.017802222
52	0xbd7f9682	-0.062399395
53	0xbbf350b2	-0.007425391
54	0xbd72c671	-0.05927128
55	0xbc79dcce	-0.015250398
56	0xbd930c6a	-0.07180102
57	0xbdd2bef5	-0.102903284
58	0xbda64010	-0.08117688
59	0xbca2809e	-0.01983672
60	0xbd265ac9	-0.040613923
61	0xbdf326ab	-0.1187261
62	0xbcd643c6	-0.026155364
63	0xbda3944a	-0.07987268
64	0xbda10555	-0.07862345
65	0xbdbad937	-0.09123462
66	0xbbf98a2a	-0.0076153474
67	0xbda08b48	-0.07839066
68	0xbdd7e393	-0.10541453
69	0xbd159eca	-0.036528386
70	0xbda63149	-0.08114869
71	0xbdbeb750	-0.09312308
72	0xbe050f62	-0.1299415
73	0xbd8ec593	-0.06971278
74	0xbd11445c	-0.035465583
75	0xbe16b9bd	-0.14719291
76	0xbdae4cb5	-0.085107245
77	0xbd819bde	-0.063285574
78	0xbd74a381	-0.059726242
79	0x3d7afd5d	0.061276782
80	0xbddb8113	-0.10717978
81	0x3d483449	0.048877988
82	0xbd852f30	-0.06503141
83	0x3ba3fda2	0.0050046006
84	0xbd481d17	-0.048855867
85	0xbd9a2cd7	-0.07528084
86	0xbdcb2037	-0.09918254
87	0xbd71bd62	-0.0590185
88	0xbd244888	-0.040108234
89	0xbdadf4a7	-0.08493929
90	0xbd86a48c	-0.065743536
91	0x3d61cabe	0.05512499
92	0xbd3fe634	-0.0468504
93	0xbdeda966	-0.11604576
94	0xbda885a1	-0.08228613
95	0xbd9dac74	-0.076989084
96	0xbc6d11d0	-0.014469579
97	0x3c69cedc	0.0142705105
98	0xbd5c5857	-0.053795185
99	0x38843b8a	6.3053405e-05
100	0xbc6c532c	-0.014424127
101	0xbd558949	-0.05213288
102	0xbd8ecf0c	-0.06973085
103	0x3db85d8b	0.09002217
104	0x3deee2ed	0.116643764
105	0xbd39f19d	-0.045396436
106	0x3d104aa1	0.03522742
107	0xbd5dd964	-0.054162398
108	0xbdb856ae	-0.09000908
109	0xbd7bc2a2	-0.061464913
110	0x3d154f80	0.03645277
111	0x3dc978ef	0.098375194
112	0x3d83b753	0.06431451
113	0x3e0c1845	0.13681133
114	0x3df20f88	0.118193686
115	0x3dad4d5d	0.084620215
116	0x3d32d2d0	0.043658078
117	0xbddcbcd9	-0.10778207
118	0xbb45114c	-0.0030070124
119	0x3d1e7ba0	0.038692117
120	0x3d8b628c	0.06805906
121	0x3e24052d	0.160176
122	0x3d5c06e3	0.053717505
123	0x3b9735c3	0.004614563
124	0x3d84b682	0.06480123
125	0xbd884c14	-0.06655136
126	0x3d0f210d	0.03494363
127	0xbc7430b1	-0.014904187
128	0xbdad730b	-0.08469208
129	0xbd10baf6	-0.03533455
130	0xbd1400e1	-0.03613365
131	0x3dfe09a1	0.1240418
132	0xbcbc29b8	-0.022969112
133	0x3d87a9a4	0.06624153
134	0xbe0d62c0	-0.13807201
135	0x3d5908d7	0.052986946
136	0xbcfbc2f6	-0.030732613
137	0x3d863595	0.06553189
138	0x3bb3d647	0.0054881903
139	0xbc72ec3f	-0.014826833
140	0xbd2205ae	-0.039556198
141	0xbdc31d37	-0.09527057
142	0x3dd4e28b	0.10394772
143	0xbd80fe39	-0.06298489
144	0x3b830d42	0.003999383
145	0x3d370a5b	0.04468761
146	0x3da321bd	0.079654194
147	0x3ba3a32f	0.0049938182
148	0x3d97f1b6	0.074191496
149	0xbdb56894	-0.08857837

weight f4 [1, 50]
0	0xbdb1cdba	-0.08681817
1	0xbd800618	-0.06251162
2	0x3e41b292	0.18915775
3	0xbdfc1f33	-0.12310638
4	0xbe324478	-0.17408931
5	0xbdcd8aa2	-0.10036208
6	0x3d03095d	0.03199135
7	0x3dedd57c	0.116129845
8	0xbd71fb5a	-0.0590776
9	0xbd29fac2	-0.041498907
10	0xbc6fe8f5	-0.014642944
11	0x3c100d9b	0.008792306
12	0xbdc8d59c	-0.09806368
13	0x3dbe5ccf	0.092950456
14	0xbd9524a7	-0.072823815
15	0x3dfc250e	0.12311755
16	0x3d59e945	0.05320098
17	0xbe290986	-0.16507539
18	0x3c0c023c	0.008545455
19	0x3964c4a1	0.00021817024
20	0xbd7f6e24	-0.062360898
21	0x3d016017	0.03158578
22	0xbbd456fe	-0.006480097
23	0x3cae08ae	0.021244373
24	0xbe44146e	-0.19148418
25	0x3da75e73	0.08172312
26	0xbe51ff92	-0.20507649
27	0x3d436518	0.047703832
28	0xbd6b75c0	-0.057485342
29	0xbd951747	-0.072798304
30	0xbd7693e6	-0.06019964
31	0x3b219327	0.002465436
32	0x3dd3e144	0.103457004
33	0xbe13291d	-0.14371152
34	0xbd9a5f2d	-0.075376846
35	0x3e26f958	0.16306055
36	0x3df4f092	0.11959948
37	0x3d91b8b2	0.07115306
38	0xbdc6ad78	-0.09701055
39	0xbd0823c7	-0.033237245
40	0x3d904ca9	0.07045872
41	0xbdbc7540	-0.09202051
42	0x3d00b604	0.031423584
43	0xbbd05e78	-0.006358918
44	0xbcfc8087	-0.030823005
45	0xbdc4b201	-0.09604264
46	0x3e0f8e83	0.14019208
47	0xba32272b	-0.00067959976
48	0xbc5da928	-0.0135290995
49	0x3d064bab	0.032787006

weight f4 [3, 50, 50]
0	0x3de7e446	0.113228366
1	0x3d1ae548	0.037816316
2	0xbd3bcf56	-0.045852028
3	0xba2d3200	-0.0006606877
4	0x3dcb71aa	0.09933789
5	0xbdb4932e	-0.08817135
6	0x3dd21944	0.10258725
7	0x3d262e08	0.040571243
8	0xbde4ff61	-0.11181522
9	0xbdf1b196	-0.1180145
10	0x3dee491a	0.11635037
11	0xbdb2bb28	-0.087271035
12	0xbd77a15e	-0.060456626
13	0x3dbc65fa	0.09199138
14	0xbcf0f080	-0.029411554
15	0xbddc8ac0	-0.10768652
16	0x3cf8bcb0	0.03036341
17	0xbe04b9b8	-0.12961471
18	0xbbc63f00	-0.0060499907
19	0xbd036450	-0.032078087
20	0xbe04159d	-0.1289887
21	0xbbd5c1a0	-0.006523326
22	0x3d9970ec	0.07492241
23	0x3ddcc162	0.10779072
24	0x3dd9c218	0.106327236
25	0x3dd9d5a4	0.10636452
26	0x3d6ddc14	0.05807121
27	0x3daeb8c2	0.085313335
28	0xbdf214b2	-0.118203536
29	0x3dee1b6e	0.116263255
30	0x3ada4400	0.0016652346
31	0xbdab5cc6	-0.083673045
32	0xbcde3938	-0.027126893
33	0xbd094262	-0.033510573
34	0xbc4c12d0	-0.012455657
35	0xbdb469ee	-0.08809267
36	0x3d020a20	0.031747937
37	0x3d7bf830	0.061515987
38	0xbd28dc52	-0.04122574
39	0x3ccfb9d0	0.025357157
40	0xbd0b7dd0	-0.03405553
41	0x3dfb34f2	0.12265958
42	0x3d9bba08	0.07603842
43	0x3d6860a0	0.056732774
44	0x3d42bcd8	0.047543377
45	0x3da72b84	0.08162597
46	0xbdaf976d	-0.08573804
47	0x3dfa2186	0.12213425
48	0x3cedd7e8	0.029033616
49	0xbd49c7cc	-0.049262807
50	0x3c541050	0.012943342
51	0xbc8ab414	-0.016931571
52	0x3d770e48	0.060316354
53	0x3c8ee240	0.017441869
54	0x3ded16de	0.11576627
55	0x3cb58998	0.022160336
56	0xbd2cbc9a	-0.042172052
57	0xbd91436e	-0.07092939
58	0x3d48fc2c	0.049068615
59	0x3d741e34	0.059599116
60	0x3d40da44	0.047083154
61	0xbd0285c0	-0.031865835
62	0xbdb47a9e	-0.0881245
63	0xbde07a58	-0.10960835
64	0xbd04f7a6	-0.03246274
65	0xbc9971f0	-0.018731087
66	0xbc1c9b40	-0.009558499
67	0x3d788b38	0.060679644
68	0x3cb82c80	0.022482157
69	0x3df5cbbe	0.12001751
70	0x3d6c1de4	0.057645693
71	0xbdf2e413	-0.11859908
72	0xbe0c976d	-0.1372964
73	0xbd2e77ec	-0.042594835
74	0x3da85400	0.08219147
75	0xbdef67d6	-0.11689727
76	0x3d662044	0.056183115
77	0x3d03c8bc	0.032173857
78	0x3dc104c2	0.094247356
79	0xbdcf21c6	-0.10113864
80	0xbd9e7c1a	-0.07738514
81	0xbde4b8ae	-0.11168037
82	0xbe082861	-0.13296653
83	0xbda3ca5e	-0.07997583
84	0x3ddc6474	0.107613474
85	0xbd6c2340	-0.057650805
86	0xbd971d00	-0.07378578
87	0x3dc8b0a8	0.097993195
88	0xbcfd6898	-0.030933663
89	0xbdb14c00	-0.08657074
90	0x3e072c8b	0.13200586
91	0xbd463d1c	-0.048398122
92	0xbdce44a9	-0.1007169
93	0xbcdda514	-0.027056254
94	0x3d82f63e	0.06394623
95	0x3d78d598	0.060750574
96	0x3ce8efa8	0.02843459
97	0xbd46f0b6	-0.048569404
98	0xbd840279	-0.06445784
99	0x3ca08ce0	0.019598424
100	0xbd34f92a	-0.044182934
101	0x3d39fc64	0.045406714
102	0xbdaed336	-0.08536379
103	0x3e014e25	0.12627466
104	0x3de7ce0a	0.11318596
105	0xbdaaf19c	-0.083468646
106	0x3d0f102c	0.034927532
107	0xbdf0214b	-0.117251
108	0x3d157194	0.03648527
109	0xbac6b800	-0.0015161037
110	0x3ccae558	0.024767563
111	0xbc149430	-0.009068534
112	0xbd063094	-0.03276117
113	0xbd9980aa	-0.07495244
114	0xbcd92cf0	-0.026510686
115	0x3dda4e04	0.106594115
116	0x3d41520c	0.047197387
117	0xbda55550	-0.08072913
118	0x3cb61438	0.022226438
119	0x3c5058b0	0.012716457
120	0xbdb35a22	-0.08757426
121	0xbcb0ca8c	-0.021580957
122	0xbd48a418	-0.048984617
123	0xbcea4ccc	-0.028601073
124	0x3d938e2a	0.0720485
125	0xbdccd384	-0.10001281
126	0x3d4e6ac8	0.050394803
127	0xbd739f5e	-0.059478156
128	0x3db73d40	0.089472294
129	0xbca24ee8	-0.019813016
130	0xbce28484	-0.027651079
131	0xbd702fa4	-0.058639184
132	0x3d685228	0.056718975
133	0x3e072029	0.13195862
134	0x3d534b14	0.051585272
135	0x3df75f1e	0.12078689
136	0x3cc5edd0	0.02416125
137	0x3dfe0c02	0.12404634
138	0xbdcc3ef6	-0.09972946
139	0xbd6bf28c	-0.057604358
140	0x3d8b6d0c	0.068079084
141	0xbdc4cf99	-0.096099086
142	0x3c286ba0	0.010279566
143	0xbd88c1b0	-0.06677568
144	0x3b07bf00	0.002071321
145	0xbd7d6432	-0.06186313
146	0x3dbb6222	0.09149577
147	0x3dff4c22	0.12465693
148	0xbde9f179	-0.114230104
149	0x3d8b2ea8	0.06796008
150	0x3d3013c8	0.042987615
151	0xbdcb75ca	-0.09934576
152	0x3dabdafe	0.08391379
153	0xbda6f91c	-0.081529826
154	0xbce59410	-0.028024703
155	0x3df799da	0.12089892
156	0xbdeec145	-0.11657957
157	0x3d47be7c	0.048765644
158	0x3d7937f0	0.06084436
159	0x3df9c272	0.121952906
160	0x3de34612	0.11097349
161	0xbd57e924	-0.052712575
162	0xbd0f78f2	-0.03502745
163	0xbde57344	-0.11203626
164	0xbe0e4906	-0.13895044
165	0x3d54f420	0.05199063
166	0x3b9d0e80	0.0047929883
167	0x3d139734	0.03603287
168	0xbcdfccf8	-0.027319416
169	0x3c90b408	0.01766397
170	0x3da0da88	0.078541815
171	0xbd9990a5	-0.07498292
172	0x3d090574	0.033452466
173	0x3dce61d2	0.100772515
174	0xbd7fb90c	-0.062432334
175	0x3d8b560c	0.068035215
176	0xbdbd8457	-0.092537574
177	0x3e087a5d	0.13327928
178	0xbda1649f	-0.0788052
179	0xbc225e00	-0.009910107
180	0x3d498694	0.04920061
181	0x3d1f2150	0.03885013
182	0xbc1b0770	-0.009462222
183	0xbcbd78e0	-0.023128927
184	0xbde8599f	-0.11345219
185	0x3ca8a668	0.020587161
186	0x3df15d72	0.117854014
187	0x3c02fa90	0.007994309
188	0x3d8833ee	0.0665053
189	0xbdc0d7d8	-0.09416169
190	0x3d936efc	0.07198903
191	0xbd36146a	-0.044453062
192	0xbdb3b09f	-0.08773922
193	0xbdf0b2a8	-0.11752826
194	0x3cef7478	0.029230341
195	0xbd7fe6b4	-0.062475875
196	0xbe0e1f4d	-0.13879128
197	0x3e0c99fb	0.13730614
198	0xbdb993b4	-0.09061375
199	0x3c4f5d10	0.012656465
200	0xbcd20120	-0.025635302
201	0x3d1cc480	0.038273335
202	0xbdd9125e	-0.105992064
203	0xbd71f490	-0.059071124
204	0xbd9e4394	-0.07727733
205	0xbc4f1ae0	-0.012640685
206	0xbdc28001	-0.09497071
207	0x3cef86e0	0.029239118
208	0x3d7593d4	0.059955433
209	0x3df90c8a	0.12160595
210	0x3cda5000	0.026649475
211	0x3d8b6da2	0.0680802
212	0x3d135760	0.035972
213	0x3db799ee	0.08964907
214	0xbc61cbe0	-0.013781518
215	0xbd5d0d88	-0.053967983
216	0xbdb45d62	-0.08806874
217	0x3db7e912	0.089800015
218	0x3df28252	0.11841263
219	0x3dac3126	0.08407812
220	0x3df3169a	0.11869545
221	0xbd8b7554	-0.06809488
222	0x3a0bfc00	0.000533998
223	0x3dc03ab4	0.09386197
224	0xbd78bf9e	-0.060729615
225	0xbdb08482	-0.08619024
226	0x3dc238ac	0.094834656
227	0x3dfca9fe	0.12337111
228	0x3d69c33c	0.057070956
229	0xbd5bd928	-0.053673893
230	0x3d9f175e	0.07768129
231	0xbd0aeb84	-0.03391601
232	0xbd3eb636	-0.04656049
233	0x3da4e014	0.08050552
234	0x3de2a0f6	0.11065857
235	0x3d896388	0.06708437
236	0x3da1919e	0.078891024
237	0xbd7ac0b6	-0.06121894
238	0x3cd09520	0.025461733
239	0xbdd9b69e	-0.106305346
240	0x3d8bc980	0.068255424
241	0x3e0b897f	0.1362667
242	0xbdd0edf0	-0.10201633
243	0xbde221c8	-0.110415995
244	0xbdf90ae8	-0.12160283
245	0x3dea076a	0.11427195
246	0x3d80573a	0.06266637
247	0xbd991c61	-0.07476116
248	0xbd59186c	-0.053001806
249	0x3d2f9bd8	0.042873234
250	0xbe070cb4	-0.1318844
251	0xbd2b3c66	-0.041805647
252	0xbdb40b38	-0.08791202
253	0xbd9faf52	-0.077971116
254	0x3d8cfc6a	0.06884082
255	0xbd3a0780	-0.04541731

weight_ih f4 [150, 50]
0	0xbe0c9011	-0.13726832
1	0x3b787b00	0.003791511
2	0x3cd143e0	0.02554506
3	0xbddcaa92	-0.10774721
4	0x3d4a84f0	0.049443185
5	0xbd965fde	-0.07342504
6	0x3e02346f	0.12715314
7	0xbde0c13a	-0.10974355
8	0xbd370c92	-0.044689722
9	0x3d345fbc	0.044036612
10	0x3c360c20	0.011111289
11	0x3cc50310	0.024049312
12	0xbdb9e01c	-0.090759486
13	0xbdd31dcf	-0.1030842
14	0xbd0877ac	-0.033317253
15	0x3d3ad1b4	0.045610145
16	0xbd8641e8	-0.06555539
17	0xbbb6ed40	-0.0055824816
18	0xbd97d189	-0.074130125
19	0x3d431afc	0.047633156
20	0x3d7ddcdc	0.061978206
21	0x3e054bd7	0.13017212
22	0xbe033767	-0.12814103
23	0x3d9463ee	0.072456226
24	0xbdb38d24	-0.08767155
25	0xbd6e6be8	-0.058208376
26	0xbe095b38	-0.13413703
27	0x3e012351	0.12611128
28	0x3ce4f570	0.027949065
29	0x3dfba7be	0.12287854
30	0x3b722200	0.0036946535
31	0x3db31bb0	0.08745515
32	0xbd854221	-0.06506754
33	0xbd419818	-0.04726419
34	0xbdb969ea	-0.09053405
35	0x3df4025a	0.11914511
36	0xbe01c861	-0.12674095
37	0x3e02eadf	0.12784909
38	0xbe03bdd2	-0.1286538
39	0xbe064229	-0.13111176
40	0xbd4417be	-0.047874205
41	0x3d980906	0.07423596
42	0xbe0ac109	-0.135502
43	0x3e0599e3	0.13046984
44	0x3e0e1cc3	0.13878159
45	0xbe0a64ee	-0.13515064
46	0x3dfd5836	0.123703405
47	0xbe05968d	-0.13045712
48	0xbd30718a	-0.04307703
49	0xbd11b46a	-0.035572447
50	0x3c7131b0	0.014721319
51	0xbd590108	-0.0529795
52	0xbde90a7d	-0.113789536
53	0x3d7cdf14	0.06173618
54	0xbde1d614	-0.1102716
55	0x3df078be	0.1174178
56	0x3d1c599c	0.038171396
57	0xbdb2ff53	-0.087401055
58	0x3d242ebc	0.040083632
59	0xbdcc8f80	-0.09988308
60	0xbda66c8a	-0.08126171
61	0x3d9e484a	0.07728632
62	0xbdc03068	-0.09384233
63	0xbda00705	-0.07813839
64	0x3d92691c	0.07148954
65	0x3dd2c696	0.102917835
66	0xbd95b3f4	-0.07309714
67	0xbda878fe	-0.082262024
68	0xbbf4ad20	-0.007466927
69	0xbcc21374	-0.023690917
70	0x3dc72308	0.097234786
71	0x3cc9c640	0.024630666
72	0x3d897fc2	0.06713821
73	0x3db3018a	0.08740528
74	0x3c86ca08	0.016453758
75	0xbde05188	-0.10953051
76	0x3dc28eba	0.09499879
77	0x3d58f144	0.052964464
78	0xbb149980	-0.00226745
79	0x3d1245d4	0.035711125
80	0x3dd97290	0.10617554
81	0xbc4fd420	-0.012684852
82	0xbcab2f8c	-0.020896696
83	0xbd266814	-0.0406266
84	0xbdeed65a	-0.11661978
85	0x3d813312	0.06308569
86	0x3db0857a	0.08619209
87	0x3cda1ca8	0.026624992
88	0x3df163aa	0.117865875
89	0xbd94bdb4	-0.072627455
90	0xbc53ccb0	-0.012927219
91	0xbdc41daa	-0.095759705
92	0xbdd72911	-0.1050588
93	0xbc901b08	-0.017591015
94	0x3d036944	0.03208281
95	0xbc3146e0	-0.010820121
96	0x3dec5002	0.11538698
97	0x3d975e68	0.073910534
98	0x3c4b77b0	0.012418672
99	0x3c46fa60	0.012144655
100	0x3d977bcc	0.07396659
101	0x3dec4c36	0.115379736
102	0xbdc54fcc	-0.09634361
103	0x3dadf2f2	0.08493604
104	0x3a9b8980	0.001186654
105	0xbd08299c	-0.033242807
106	0x3c3d2d30	0.011546418
107	0x3a8bb000	0.001065731
108	0xbc2f6dd0	-0.010707334
109	0x3d790334	0.06079407
110	0xbd68c58e	-0.056829028
111	0x3cd9eb50	0.026601464
112	0xbd9767aa	-0.07392819
113	0xbd8e4373	-0.06946459
114	0xbdea0e50	-0.11428511
115	0xbd3ab00a	-0.04557804
116	0x3dce3698	0.10069007
117	0xbe073011	-0.1320193
118	0xbd17f538	-0.037099093
119	0x3e0487f7	0.12942491
120	0xbe0b450c	-0.13600558
121	0x3d956068	0.07293779
122	0x3d817578	0.063212335
123	0x3de5d6f6	0.11222641
124	0x3c75c770	0.015001163
125	0x3dec7156	0.115450546
126	0x3d89531e	0.067053065
127	0xbe0f8376	-0.14014992
128	0x3c924d88	0.017859235
129	0x3d7b2990	0.061318934
130	0x3ccb3f20	0.024810374
131	0xbd5bbb2a	-0.05364529
132	0xbcb288e8	-0.021793798
133	0x3c0b5880	0.008504987
134	0xbdee882e	-0.11647068
135	0xbd3fc946	-0.04682281
136	0x3ba7da20	0.005122438
137	0x3dd5267a	0.104077294
138	0x3cc65cd8	0.024214193
139	0x3c91b000	0.017784119
140	0x3e03fb95	0.1288894
141	0xbd34ea46	-0.044168733
142	0x3dfcab9e	0.12337421
143	0xbde00752	-0.10938896
144	0xbdbc9505	-0.09208111
145	0x3cb74b60	0.022374809
146	0x3dd41b78	0.10356802
147	0x3dcaea18	0.09907931
148	0xbdd63eff	-0.10461234
149	0xbc3d6a10	-0.011560932
150	0xbd84bf51	-0.06481803
151	0x3c0598b0	0.008154079
152	0x3e0c1319	0.1367916
153	0xbd3f150c	-0.04665093
154	0x3c147020	0.009059936
155	0x3e024735	0.12722476
156	0x3dc5fbd4	0.09667173
157	0xbd14503e	-0.036209337
158	0xbe044195	-0.12915643
159	0xbca21ec0	-0.019790053
160	0xbdd0b836	-0.101913854
161	0xba776b00	-0.00094382465
162	0x3d5d3f14	0.054015234
163	0xbdd2de9c	-0.102963656
164	0xbd50a800	-0.050941467
165	0x3d19a2fc	0.03750895
166	0x3d5d4d7c	0.054028973
167	0xbd9a75d2	-0.07542004
168	0xbe01e163	-0.12683634
169	0xbe058bff	-0.13041686
170	0x3dba506a	0.09097369
171	0x3d130d98	0.035901636
172	0x3da1efaa	0.079070404
173	0x3dff7602	0.1247368
174	0xbdce7a00	-0.100818634
175	0x3da17fc8	0.078857005
176	0xbc280190	-0.010254279
177	0x3babae20	0.005239263
178	0x3d9d1466	0.07669906
179	0xbc988628	-0.018618658
180	0x3dea194e	0.11430608
181	0xbdd5b477	-0.104348116
182	0xbd03de64	-0.03219451
183	0x3d805678	0.062664926
184	0xbd6be74e	-0.057593636
185	0xbd0c19f6	-0.034204446
186	0x3e00aaa5	0.12565096
187	0x3d2979f0	0.041376054
188	0xbdcdc6f8	-0.10047716
189	0x3e0ce189	0.1375791
190	0xbdb4cc82	-0.08828069
191	0x3e083d9d	0.13304754
192	0xbe01372c	-0.12618703
193	0x3d490afc	0.04908274
194	0x3da29a42	0.079395786
195	0x3d4d69cc	0.050149724
196	0xbb301f80	-0.0026874244
197	0xbdd38cd8	-0.10329598
198	0xbc25def0	-0.010123953
199	0x3de8fed6	0.11376731
200	0x3dfcd0a6	0.12344484
201	0xbd84e9ac	-0.06489882
202	0x3dc86b98	0.09786147
203	0x37cb8000	2.425909e-05
204	0x3d9e00ec	0.077150196
205	0xbdc9ecc5	-0.09859613
206	0x3da66706	0.08125119
207	0x3da23f68	0.0792225
208	0xbd79c39e	-0.06097757
209	0x3d6b7a10	0.057489455
210	0x3d5cd814	0.053917006
211	0xba370100	-0.0006981045
212	0x3d26ec2c	0.040752575
213	0x3d0c5bc0	0.034267187
214	0x3dd7a226	0.10528974
215	0xbd885546	-0.066568896
216	0x3de3bf12	0.11120428
217	0x3d7d0bbc	0.06177877
218	0x3df0fa02	0.11766435
219	0x3d1134f8	0.035450906
220	0xbd24a362	-0.040194876
221	0x3e01e767	0.12685929
222	0xbd9ae9a7	-0.07564097
223	0xbd9a0f26	-0.075224206
224	0xbe073083	-0.132021
225	0x3df4f42e	0.11960636
226	0x3ae95c00	0.0017803907
227	0x3c7b7e70	0.015349969
228	0xbdd598ec	-0.10429558
229	0xbdd0fc3c	-0.1020436
230	0x3c69ac20	0.014262229
231	0x3d6ec730	0.05829543
232	0x3d197728	0.037467152
233	0xbd82d6fa	-0.0638866
234	0xbdbbdffe	-0.091735825
235	0xbd7bd4ce	-0.061482243
236	0xbd8c3a9c	-0.06847116
237	0xbc7691f0	-0.015049443
238	0xbddf761a	-0.10911198
239	0xbdce3178	-0.10068029
240	0xbe0ef171	-0.1395929
241	0x3da3dcfa	0.08001132
242	0x3aa06f00	0.0012240112
243	0xbdf0f5e0	-0.11765647
244	0xbca5307c	-0.02016472
245	0x3d092e0c	0.03349118
246	0xbdcb6f86	-0.09933381
247	0x3cc14a88	0.02359511
248	0x3dbeb560	0.09311938
249	0x3dea91c2	0.11453582
250	0x3d6f4e3c	0.05842422
251	0xbdcd4c92	-0.1002437
252	0xbda0734c	-0.07834491
253	0xbdc27006	-0.09494023
254	0x3b7d73c0	0.0038673729
255	0x3b20a540	0.002451256
