backend/workspace/weight/rtd/PU/PU_1.pth (torch, 197051 bytes, 13 tensors)

ggnn.weight f4 [3, 50, 50]
00000000: 2b0c 14bd e159 68bd 9709 093b 8e8f e43d
00000010: 5395 c2bd 082d 1bbe 5fbf b93c 96a7 59bd
00000020: b898 13bd d18c 36bd fcf2 593d 4ca3 d53d
00000030: d3ce 3fbd 5b15 073c ea27 e53c e2fa f23c
00000040: 67ca 503d e4d5 6ebd ebcf 013c 88aa c53d
00000050: c425 cdbd 4019 91bd e8be 03be 23a4 433d
00000060: 8af0 93bd ff64 c53d 9c88 d8bd e55d 86bd
00000070: e3d3 573d 30d6 4b3d 5a2f e2bd a76c 3f3d
00000080: f5da 1b3d 2ed3 dc3c 508d adbc 1f3f bebd
00000090: 373c 9a3c a2da c53d 6d5f ecbd f8f6 95bd
000000a0: ce3a 483d 93a3 a33d 4aaa 1cbe 612a 893d
000000b0: 26e7 d53d a732 573d d0b4 37b9 e3fc de3d
000000c0: 9d3b bcbd 73cb f7bb f70c 00bc 8412 b63d
000000d0: cde9 e83c 204b 2cbe a724 123d da27 a43c
000000e0: 6e2a d63d 683a a13d 1536 c9bd bb52 b8bd
000000f0: 22b3 f4bd 8a8d 1ebd ebe0 e4bd a753 f8bd
00000100: f4c5 0bbe a5b4 b5bd 0dff 70bd 9b13 05be
00000110: eba5 cabc 08fe 14be 81cb 1ebd 1a48 d1bc
00000120: 252f d1bd 47bd afbc 167c 203e b5a4 0d3d
00000130: a582 eb3d 7f97 13be 5139 cbbd c7a5 04be
00000140: 89ec 80bd ee86 bf3d 7a01 173d 6856 4039
00000150: eaa3 a23d 419b c1bc 8010 46bc f278 0e3d
00000160: d0a5 e03d 7c7e 663d 013b 523d 2d17 993d
00000170: ea4a 38bd fd78 31bd af49 943d 47cc f2bd
00000180: 7aa6 26bd fea1 aabd c71c 9c3d 1084 123b
00000190: ab0e 423d 8acb d33c af4d 8d3c 2994 b4bd
000001a0: a1b0 aebd 1187 d33b 3704 90bd edab dd3d
000001b0: 92c4 94bd 16ef fd3d 40af 9cbc 09a2 efbc
000001c0: c37b ad3d df5f b1bd 10e8 93bc a046 e33d
000001d0: ac6e 2f3d 3e05 0a3c 09fc debd aa2f 953d
000001e0: badf f43d 8a34 73bd 2280 74bd 6386 033d
000001f0: 088b cb3d 431a 573d 3b60 923d 4c4a 033d
00000200: 60f1 b03d 6205 ae3c db85 79bd 9ddb 463d
00000210: d034 54bc 4538 973d 3507 dbbd a6fa 71bc
00000220: b304 b8bc fc4b 113b 8eed cc3d 06dd b83d
00000230: b63f 02bd 890c 88bd bad6 bf3c 5366 0bbe
00000240: 5aa7 2cbd 5c7f b43d 1fdd eb3d 8fc8 c0bd
00000250: c320 c93d af81 b03d defc a1bd ddc7 8abb
00000260: dc28 19be 52c6 82bd 1b63 a5bd 733a 663d
00000270: 530b 6cbd 34b1 57bd dd48 a73b 26a3 d3bd
00000280: 30d7 9bbd 2cd2 bcbc 1916 8cbc 41d2 843d
00000290: 4e37 ab3c 19e7 23bb 0f78 d8bc 9000 a93c
000002a0: 60c4 e73c 93c7 203d 76d4 dbbc b20e 873d
000002b0: 4bf5 2e3d cc43 7cbd 55fb 8b3c d1fa 58bd
000002c0: df29 fd3d 9350 9dbd b068 4dbd 850b eebd
000002d0: e52b 173c ed31 f63c 4f28 bc3c 0fca 3fbd
000002e0: 0f56 d4bc 99ce 733d 6c32 cfbc f853 0bbd
000002f0: c1a5 2dbc cf68 9a3d b746 9ebd 6882 653c
00000300: 6678 8e3d d73c 903d 5c0d c33d df46 c13b
00000310: 9e7d d73b f6fb f43d baa2 72bd 99d9 bcbd
00000320: 4b4c 6bbd bbe8 3c3d c009 d4bd 58cb 9938
00000330: 51c3 9a3c 3b6d f3bc 38af 583d b759 b43d
00000340: 1577 b23b 4fb0 533d c75e df3d d713 43bd
00000350: 9796 23bc b52c dcbd 6a53 173d 9ec2 093e
00000360: 9a1c 14bd 27f0 b4bd a062 9fbc 80ec c73b
00000370: cb3d 8a3d a1f7 c13d b238 023d 2196 e63c
00000380: 6d30 363d 32ad dc3d 9d28 f4bc 2460 ee3d
00000390: 33bf 60bd fed4 1a3e fb09 5ebc c59f e4bd
000003a0: 474f c7bd 28b7 c13d 7489 82bd eb07 aabd
000003b0: cedc 03bc 8f42 8dbd afb7 f1bd 5948 71bd
000003c0: bb7b 803c 4f88 a63c 1ade f9bc 9f95 37be
000003d0: b8d0 adbd 8cc6 49bc fe64 42bd d18f 15bd
000003e0: 69f4 fd3d 8a28 1dbe 7c6a 8cbd 5676 5bbc
000003f0: 22b2 2ebc 82d8 f93c b63e 8c3d 7568 a7bd
-0.036144417 -0.05672634 0.0020910257 0.111601934 -0.095011376 -0.15153897 0.02267426 -0.053138338
-0.036034316 -0.044567887 0.053210244 0.10431537 -0.046828102 0.008244838 0.027973134 0.029660646
0.050974276 -0.05830945 0.007923107 0.09651667 -0.10016969 -0.07084894 -0.12865794 0.047763955
-0.072236136 0.09638404 -0.10572931 -0.06560878 0.052692305 0.049764812 -0.11044188 0.04673448
0.03805061 0.026956167 -0.021185547 -0.09289383 0.01882754 0.096608415 -0.115416385 -0.07322496
0.048884206 0.07990184 -0.15299335 0.06697536 0.10444479 0.05253854 -0.00017519598 0.10888078
-0.09191058 -0.007562095 -0.007815591 0.0889025 0.028431797 -0.16825533 0.035679486 0.020038534
0.104573116 0.07872468 -0.098247685 -0.090001546 -0.11948229 -0.0387092 -0.11175712 -0.121253304
-0.13649732 -0.08872346 -0.058836985 -0.1299576 -0.024737319 -0.1455003 -0.038768295 -0.025547076
-0.1021407 -0.02145256 0.15672335 0.034580905 0.11499528 -0.1441326 -0.099230416 -0.12953864
-0.062951155 0.09351908 0.036866643 0.00018342736 0.079414204 -0.023633601 -0.012088895 0.03478331
0.10969126 0.05627297 0.0513258 0.074751236 -0.04499332 -0.043328274 0.072406165 -0.11855369
-0.04068611 -0.08331679 0.07622676 0.0022356547 0.04737727 0.02585389 0.017248956 -0.08817322
-0.08529783 0.00645531 -0.07032054 0.10823808 -0.07264055 0.12399118 -0.019126534 -0.02925207
0.08470871 -0.08660864 -0.018054992 0.11097455 0.042830154 0.008424101 -0.10887916 0.07284482
0.11956735 -0.059376277 -0.05969251 0.032110583 0.099386275 0.05251528 0.07147261 0.032053277
0.08639789 0.021242801 -0.06091867 0.048549283 -0.012952045 0.073837794 -0.10694734 -0.014769232
-0.022463178 0.0022170534 0.100062475 0.09026532 -0.03179904 -0.06643016 0.02341782 -0.13613252
-0.042151786 0.088133544 0.11516785 -0.094132535 0.09820702 0.08618485 -0.07909559 -0.0042352513
-0.14956993 -0.06385483 -0.080755435 0.056208085 -0.057627987 -0.05265923 0.0051051215 -0.103338525
-0.07609403 -0.023049437 -0.01710038 0.06485415 0.020900395 -0.002500957 -0.026424436 0.020630151
0.028291881 0.03925283 -0.026834708 0.065946 0.0427144 -0.061588094 0.017087618 -0.052973572
0.12361502 -0.07681384 -0.050148666 -0.11623291 0.009226774 0.030053103 0.02296844 -0.046823557
-0.025919942 0.0595232 -0.025292598 -0.034015626 -0.010598601 0.07539522 -0.077283315 0.014008142
0.06956558 0.07042854 0.095240325 0.005898341 0.006576254 0.1196212 -0.05923722 -0.09221191
-0.057445806 0.046120387 -0.10353422 7.333484e-05 0.018891962 -0.029715171 0.052901477 0.08806174
0.0054463246 0.051681813 0.10906749 -0.047626343 -0.009984634 -0.10750715 0.036944784 0.13453147
-0.03616009 -0.08834868 -0.019456208 0.006101191 0.06750067 0.094710596 0.03179235 0.028147759
0.044479776 0.10775222 -0.029804522 0.11639431 -0.05486984 0.15120313 -0.013552184 -0.11163286
-0.09731918 0.094587624 -0.06373873 -0.083022915 -0.008048249 -0.06897461 -0.11802613 -0.058906887
0.015684 0.020328669 -0.030501414 -0.1792817 -0.084870756 -0.012315404 -0.047459595 -0.036514107
0.12400133 -0.15347496 -0.06856248 -0.013394913 -0.010662587 0.030498747 0.06847899 -0.081742205

ggnn.rnn.weight_ih f4 [150, 50]
00000000: 9d8e f5bc 6bd0 fa39 3c1b aa3c d0f5 1d3c
00000010: e8c9 343b f934 2bbc 595b aab9 5523 edbc
00000020: 8389 f4bb d671 d93c 105d cb3b 073f 7dbc
00000030: 2552 90bc 667b 483c 05d3 133c f621 6bbc
00000040: 54dc 66bc 9def 253b 946c aa3a bf72 4bbb
00000050: b3aa 5b3a a387 da3b b996 7ebb 7a91 c53c
00000060: 1e75 0b3d e911 49bc 27f2 2f3c f064 fdbc
00000070: 6c55 2ebc fbac 413b 6436 7dbc efa9 c339
00000080: cdca 663c 2193 543c 17d1 e4bc 441a a33c
00000090: d8ef ce3b 8003 093c bdbb ad3c 9cd5 0e3c
000000a0: ef6a f0ba 984a e03c 7661 95bc bcc6 3a3c
000000b0: 7b8d 12bd c79c a3bb ad60 9439 29a1 24bd
000000c0: 8ce3 5b3b 0e1c b1ba 487f 57bd fcfd f4bc
000000d0: 2c36 b73d 9043 5f3c 3ac7 e5bc f3a6 bf3d
000000e0: b2f8 e7bc 04f0 b63d 5259 2a3c 4128 473d
000000f0: 79bc 063d b7c7 8b3c 9c0d 543c 817b df3d
00000100: 05cf 9c3c 83ca e13c 1e29 86bd bb7a 943c
00000110: 43a1 b1bc 71e1 33bd 37c3 1a3c cb64 b5bd
00000120: 481e c8bc 8488 c63c 0210 363d 4c4b 59bd
00000130: fd5e 083c c4b0 b7bd c741 2a3c 28e1 2f3c
00000140: b88f 94bc a1f8 c1bd 2357 4b3d 178f b33d
00000150: f993 6ebd ebab 9b3c 7915 79bd 663f 2f3c
00000160: 4d21 983d 5760 933c d60b 83bd 50c2 a93d
00000170: 17c4 56bd d3ec 03bb 191c 7f3d 1cd9 873c
00000180: d141 783d cc78 603d 0e63 aa3d 93fb 2fbd
00000190: a5e6 4f3d 4ce8 f3bc 1454 8b3d 1d76 7d3d
000001a0: 136b 21bd 24fd a53c f989 4dbc 656a 633d
000001b0: 8321 c7bc 0d1b 243d 8a65 98bb 4cb1 5ebc
000001c0: 9a26 de3c 111c 6fbc dce9 98bc 7366 89bc
000001d0: 27a3 e2bc 036f 5a3d ec06 7dbc 9793 783d
000001e0: a4fe b43a 17f6 ab3c 70ed 643b 39c9 5f3c
000001f0: 0a2d 483d df01 1bbd 2074 2b3d 90a3 11bd
00000200: d940 68bd aa91 08bd 1ec9 0fbd 174e 0c3c
00000210: 5fb6 503d 30a4 6abd 24e2 22bd 43c4 8b3d
00000220: dff5 683c 53e8 46bd 3ffa 6c3a 830e bcbc
00000230: bba6 ea3c ad8e 703d d1ee bbbb 7f2a e23c
00000240: 261a 1d3c 3945 2dbc cbaf 0a3d 8255 0dbc
00000250: 97ba 1fbc 098d 06bd af90 17bd 131b 4bbc
00000260: 6cdc ae3d 937a 9c3b caa5 e8bb 6121 963c
00000270: 1942 9dbc 949a 2d3d 6612 2a3c dd68 a7bd
00000280: 9d30 e93b 9883 893c 07e2 853c c590 bcbd
00000290: ba71 bb3c 50c8 b0bc fa1a 47bc 20c1 4b3b
000002a0: 6833 193b 077c d53c bb08 e1bc 3031 b83c
000002b0: f0ef 4ebc 36b7 adbc 8906 183d 8c95 c13c
000002c0: cb45 ba3c 0849 883c ba45 2c3d 47f0 843c
000002d0: 47f5 813c fa08 1f3c bc4c 163b 73fc 863d
000002e0: 0533 a1bd 248b ce3c c913 42bd b55e 15bc
000002f0: 598e c63d 6c0e 38bc 0f21 43bd a520 023d
00000300: 3c9c be3c dbae d63b 783e 1dbd 8e0c b03b
00000310: fc95 1dbd bc71 86bd 7e2c 1c3b 5293 f5bb
00000320: e413 61ba d303 1a3b 8c89 edbb 4950 41bc
00000330: d06f c53b 9b60 c2bc 96c5 b13a 861f 2c3c
00000340: 46c5 3eb9 d43e c4bc bd6d 6dbc 2ab8 09bc
00000350: 5304 96bc 955b 79bd 719e bf3c a1a2 9d3b
00000360: cdbc 84bc 82b9 f0ba 6f85 b2bc 380e 01bc
00000370: df8f 17bc 6842 403c 75f4 cc3b bbb7 083a
00000380: 29d0 663c b434 923c 51a5 04bc d060 cd3c
00000390: 47e1 21bb e801 403d ba20 57bd 3d8b 69bd
000003a0: 2ba8 853c 374d 793d 37b7 89bd a349 6abc
000003b0: 3e7a 16bd 1a48 db3c 2313 223c e4ff 5c3d
000003c0: 045b e9bb 57de 663d 6751 79bd c63c 1d3d
000003d0: 96c7 aabd 5cc9 83bc a553 073c cbe1 d1bc
000003e0: 7160 bd3c f62d de3c 9b81 f4bc 0059 a83b
000003f0: 5906 3bbd ed0e 093c d324 3d3c b816 2cbd
-0.02997523 0.00047839 0.02076494 0.009641126 0.0027586166 -0.010449641 -0.00032492986 -0.028947512
-0.0074626817 0.026543539 0.0062061623 -0.015456921 -0.017617295 0.012236452 0.009022479 -0.014351359
-0.014090616 0.0025319823 0.001300233 -0.0031043736 0.0008379623 0.006669001 -0.0038847162 0.02411722
0.03404724 -0.0122723365 0.010738886 -0.03093192 -0.010640483 0.0029552567 -0.015454862 0.0003731991
0.014086437 0.012974531 -0.027931733 0.019909985 0.0063152127 0.008362651 0.021207685 0.008717921
-0.0018342416 0.02737932 -0.01823495 0.011399921 -0.035779458 -0.0049930546 0.0002830079 -0.040192757
0.0033552377 -0.0013512389 -0.05261162 -0.029906265 0.08945879 0.013626948 -0.0280491 0.09358015
-0.02831683 0.08932498 0.010397272 0.048622373 0.032894585 0.017063005 0.012942698 0.109122284
0.019141683 0.027562385 -0.06550811 0.018124929 -0.02168334 -0.04391617 0.009445957 -0.08857115
-0.024428502 0.024235018 0.04444886 -0.053050324 0.008323428 -0.08969262 0.010391659 0.010734834
-0.018134937 -0.0947125 0.049643647 0.087675266 -0.058246586 0.019002875 -0.060811494 0.010696268
0.074282266 0.017990274 -0.06398742 0.08289015 -0.0524331 -0.0020130172 0.062282655 0.016583018
0.060609642 0.0548027 0.083196744 -0.04296453 0.05075707 -0.029773854 0.06803146 0.06188022
-0.039408755 0.020262308 -0.012545102 0.055521388 -0.024307972 0.04006486 -0.0046507763 -0.013592076
0.027118016 -0.014594094 -0.0186662 -0.016772484 -0.027665688 0.053328525 -0.015443545 0.060687628
0.0013808799 0.020991368 0.0034931563 0.013658815 0.048871078 -0.03784358 0.041858792 -0.035556376
-0.05670247 -0.03334204 -0.03510391 0.00856354 0.050955173 -0.057285488 -0.039766446 0.06824543
0.0142187765 -0.048561405 0.0009039975 -0.022956138 0.028643956 0.058729816 -0.0057352562 0.027608154
0.009588754 -0.010575586 0.033859055 -0.008626344 -0.009749076 -0.032849345 -0.037003215 -0.012396592
0.08538136 0.004775354 -0.0070998417 0.018326463 -0.019196557 0.042383745 0.010380363 -0.08174298
0.007116391 0.016786382 0.01634313 -0.092073 0.022881377 -0.021579891 -0.012152428 0.0031090453
0.0023376588 0.026060117 -0.027469983 0.022484392 -0.012630448 -0.021205526 0.037115607 0.02363088
0.022738358 0.016636387 0.042058684 0.016227854 0.015864028 0.00970673 0.002293392 0.065911196
-0.07871059 0.025212832 -0.04738215 -0.009116818 0.096951194 -0.011233907 -0.04763895 0.031769414
0.023267858 0.006551606 -0.038389653 0.0053725904 -0.038473114 -0.06564662 0.002383023 -0.0074943686
-0.0008586033 0.0023500815 -0.007249063 -0.011798927 0.006025292 -0.023727706 0.0013562914 0.010505563
-0.00018193302 -0.02395574 -0.014491496 -0.008405725 -0.018312609 -0.060878355 0.02339098 0.0048106466
-0.016203308 -0.0018365833 -0.021792142 -0.007876925 -0.00925061 0.0117345825 0.0062547275 0.0005215366
0.014087715 0.017847396 -0.008096055 0.025070578 -0.0024700926 0.046876818 -0.052521445 -0.057017554
0.01631554 0.060864653 -0.067243986 -0.014299783 -0.036737673 0.02676778 0.009892258 0.053954974
-0.0071214456 0.056364384 -0.060868647 0.038388036 -0.08338849 -0.016087227 0.0082596885 -0.025620362
0.023117276 0.027121525 -0.029846957 0.0051375628 -0.04566035 0.008365375 0.011544424 -0.042013854

ggnn.rnn.weight_hh f4 [150, 50]
00000000: 210a 92bc d18e c2bc 2fbe 47bd 888d 9f3c
00000010: 0cbd c33c a4e7 ce3c 209a 823c e6de 50bc
00000020: 5a3c 30bc 5231 973d 5cba 77bd 3e74 e0bb
00000030: f383 b23d 84c8 5bbc 34fc 94bb 7dc2 26bd
00000040: 4f20 123d 63dd 8bbc 445e 39bd 5db6 423d
00000050: d69b 153c b012 113d 135a a0bc 70c2 9dbc
00000060: 27db 67bd 9455 d83c a967 0d3d 7203 283d
00000070: 82dd d5bc 3210 813b c772 8f3b dfac 083c
00000080: d8b0 0c3b b848 a8bc 45ec c83c 6f09 55bc
00000090: 9f17 3fbc 9923 793d 1fc0 26bb ca85 88bc
000000a0: e4b6 8bbd 6e48 e83c f375 543c 0947 c6bc
000000b0: 65f9 0cbd c2af 0ebd 0264 b83c af9a aa3d
000000c0: 7897 8f3c db74 353d 95f9 f33d da29 07be
000000d0: e59e cc3d 124f 2c3b e6ad 10bd ab12 05be
000000e0: 6ca1 1abd 5013 6dbd 1b78 a9bc eb48 08bd
000000f0: 835b 0dbd 13f6 e63d 4627 49bb a3b7 0e3d
00000100: e532 c93c c69b e0bc 9c0c a13d 9420 52bd
00000110: 4223 323d a496 84bd c919 d23d 8746 0a3d
00000120: 3566 f03d df90 adbd f68c 62bc d926 3fbc
00000130: d9ea d43d 3cab 293d c5f5 9c3d 833e 1ebd
00000140: 0a43 e0bd 7450 bf3d eb55 ea3d 8cbc 473d
00000150: 0518 1fbe e24c c23c c07c e4bc 8824 bebd
00000160: 9dcb 6e3d f607 9cbc 2e8e 9f3d 3f02 f03d
00000170: 8f59 6abc 14de 83bd 4b2a e73d 9c21 08be
00000180: 0f60 3b3d 9af9 003e 68ba c6bd e23b 81bd
00000190: d0d8 92bd 3d93 8cbd e9e8 ac3c 63ac 42bc
000001a0: c911 4abc a880 533c c236 1bbd 7665 92bd
000001b0: 1772 2a3d 8fab 893d a6e7 4cbd 3d74 863c
000001c0: 3d0b b23d 86c4 513d e56c cdbc c447 b1bd
000001d0: fcde c8bc 7f0a cf3c 6ff4 c83c f1f2 a53d
000001e0: 1e6f dbbc 293b 7b3d d343 7d3c 46c4 8a3b
000001f0: d3ea aa3b cf96 fa3d 18de 333d 0092 a0bc
00000200: 0dc9 2fbd 2b91 e2bc bda2 aebd 5da9 7bbd
00000210: 2db8 883d dcab 813d 2f0b b93d 32f2 ebbc
00000220: 3c87 693d 1749 503d fc9f 5c3d e94f 6b3c
00000230: cc86 f03c e1b9 373d 119b c5bc aaed 213d
00000240: 7436 a23c d44d 65bd 98e1 d83d 3583 07bd
00000250: 7cef 9cbd 5dfe 893b 0eb0 afbd fffd e7bd
00000260: a193 b6bd 8810 4a3d a1dd d43d 19a7 1a3d
00000270: 1c82 313d b256 26bc c3bd 46bd 61ce 643d
00000280: d980 8cbd ea89 a33c 7c8a 663d 675c 8bbd
00000290: 062d c8bc 3c31 34bd 9d93 55bc e96f da3d
000002a0: 3326 733d 00a5 b93d ae56 993d b4fd b03d
000002b0: 4785 313c 30af c8bc d98f 23bd 6b89 c53d
000002c0: 253c 823d faf7 c23d c358 863d 1378 9abd
000002d0: f8ec 3e3d 3d07 0d3c d78f 34bd 66e7 133d
000002e0: e4e1 10bd c03e a5bc ed9c 213d cd40 90bd
000002f0: fd49 b63d b42c 14bd 4ce8 27bd a3db 563e
00000300: 9f52 083c 386b df3b 6c36 233d 1ed0 afbd
00000310: 39ef 7d3d bbcd 453d b8a9 f43c fbf6 87bd
00000320: c20b 1dbd f90c 3d3c f32b 02be f3bb 5bbd
00000330: ebaa 00bc 3bbb c03d 55c9 19bd 951d 983d
00000340: 91e7 17bd f5eb 973d 6665 ecbc b926 133c
00000350: 6c6e b83c 86af 80ba a091 553d cd8b 85bd
00000360: fe5d 153c b984 0d3d 2cb5 66bc 5065 813d
00000370: 68ac e3bd 447b 20bc 0725 0dbc e74f bb3d
00000380: 77b8 5bbd 4eac 9d3d 80f6 043d 5a57 8d3d
00000390: 580a 25bd df82 893d d39d 083d 093d 49bd
000003a0: b54d b1bc ccdd 8b3c 3256 f6bc b896 7c3c
000003b0: 2d72 65bd 6125 a93d 9dfe c73d ceaf 2abc
000003c0: 0879 69bd 9e57 053d 1674 9ebc 79b9 ba3d
000003d0: c037 6abc 9dac 80bd 3d0d 85bc 734b 8a3d
000003e0: 8b83 943c 1c4a 3c3d fc98 ebbc 7da9 3abd
000003f0: 1958 adbc 0927 12bd 1ebf 293d 010a a7bc
-0.017827095 -0.02374974 -0.048765358 0.019476667 0.023893856 0.02525694 0.015942633 -0.012748456
-0.010756576 0.07382454 -0.06048046 -0.0068497946 0.087165736 -0.013414506 -0.0045466665 -0.040712822
0.035675343 -0.017073339 -0.045255914 0.047537196 0.009131392 0.035418212 -0.0195742 -0.019257754
-0.056605484 0.026407994 0.034522686 0.04101891 -0.0261066 0.003938698 0.004377696 0.008341997
0.0021467712 -0.020542488 0.024526725 -0.013002737 -0.011663347 0.060824964 -0.0025444103 -0.016665358
-0.06821993 0.02835485 0.012967574 -0.024203794 -0.03441753 -0.034835584 0.022508625 0.08330285
0.01752828 0.044300895 0.11912838 -0.13199559 0.09991244 0.0026292247 -0.035322092 -0.12995403
-0.0377516 -0.057879746 -0.020687154 -0.033272665 -0.0345111 0.11277404 -0.0030693575 0.0348431
0.024560401 -0.027418029 0.07863733 -0.0513006 0.043490656 -0.06474045 0.102588244 0.033758666
0.117382444 -0.084748976 -0.013827553 -0.011666977 0.10396356 0.041423067 0.07664064 -0.038633835
-0.10950287 0.09341517 0.11442169 0.048763797 -0.15536506 0.023718301 -0.027891517 -0.092843115
0.05829965 -0.019046765 0.077907905 0.117191784 -0.014303579 -0.064388424 0.112873636 -0.13294071
0.045745905 0.12595215 -0.09703523 -0.0631025 -0.0717026 -0.06864021 0.021107154 -0.0118819205
-0.012333342 0.012909092 -0.037894018 -0.071482584 0.04161271 0.06722175 -0.050025605 0.016412849
0.0869355 0.05121281 -0.025076339 -0.08656266 -0.02452039 0.02527356 0.024530618 0.08102978
-0.026786383 0.061335716 0.015458065 0.0042348234 0.0052159815 0.12235796 0.043912977 -0.019600868
-0.042916346 -0.027657112 -0.085271336 -0.061440814 0.06675754 0.06331608 0.09035336 -0.028802011
0.057013735 0.050850954 0.05386351 0.014362314 0.029361151 0.044855002 -0.024121793 0.039533295
0.019801356 -0.055982426 0.105899036 -0.033084113 -0.076628655 0.0042112307 -0.08578502 -0.11327743
-0.08914877 0.04933217 0.10393835 0.037757013 0.043336973 -0.010152506 -0.048520815 0.05586088
-0.06860513 0.019963223 0.056284413 -0.06804734 -0.024435531 -0.043992266 -0.013035682 0.106658764
0.0593626 0.090646744 0.07487236 0.0864214 0.010834998 -0.024497598 -0.039932106 0.09645351
0.06359128 0.09519954 0.06559899 -0.075424336 0.04661271 0.008607683 -0.04408249 0.03610935
-0.035371676 -0.020171523 0.039456297 -0.0704361 0.08900831 -0.036175445 -0.04099302 0.20982222
0.00832048 0.0068182014 0.039846823 -0.08584617 0.06199572 0.048291903 0.029866084 -0.06638905
-0.03834129 0.011538737 -0.12712078 -0.05364604 -0.00785325 0.094107114 -0.03754552 0.07427517
-0.037086073 0.07418052 -0.028856944 0.0089814 0.02251359 -0.0009817935 0.052140832 -0.065208055
0.009116648 0.034550402 -0.014081281 0.06318152 -0.11116868 -0.009795014 -0.008614785 0.091460995
-0.053642716 0.0769888 0.032461643 0.069014266 -0.040293068 0.06714415 0.033353638 -0.049130473
-0.021643499 0.017073534 -0.030070398 0.0154167935 -0.05601709 0.082590826 0.097653605 -0.010417892
-0.05700019 0.03255426 -0.019342463 0.09117407 -0.014295518 -0.06282923 -0.016241664 0.06752672
0.01812913 0.045969114 -0.028759472 -0.045571793 -0.021160172 -0.035681758 0.04144203 -0.020390512

ggnn.rnn.bias_ih f4 [150]
00000000: f044 7abc ec1f 8ebc 96cc 8ebd 97de 2fbd
00000010: df81 45bc ce15 493c 6f6c adbd c1f9 48bd
00000020: 0856 63bd a4c2 eabc bdc9 553d b720 bebd
00000030: 0ada c0bd 23f1 a8bd 1dd6 623d a270 0b3e
00000040: faec f4bc 2312 fbbc e2e2 f3bb 070c ce3d
00000050: 6187 afbb afea a7bd e990 5cbd 4598 d33d
00000060: 6838 66bc 38eb 793d 9806 18bc bdc9 b2bd
00000070: cc40 b2bd fcc0 e63c b4b9 b0bc 8180 593d
00000080: 8d59 eabc 71cb d63b 6693 f9bd 291a efbd
00000090: 1f1b 8bbd a351 4dbd 24af 34bd 34e8 37bd
000000a0: 3b85 92bd 9e85 adbd 18e3 49bd 2861 5bbd
000000b0: 4b8b 883d c1e1 19bd ac1e f1bd 606a b4bd
000000c0: 4715 07bd 90ee 0ebe 3572 d4bb 377a 843d
000000d0: a689 86bd d855 b3bd c14e 01bd 685e 8bbc
000000e0: 0218 24be d25d f8bc 6b76 f7bd 11a9 d7bd
000000f0: 4e7e c7bd 90ca 15be 12d8 a5bd ff7f dabd
00000100: 7a2f dcbd fac9 243d 1ce9 d83b ba3f 253c
00000110: 6046 913b 96af cabd 4c53 0cbe 653d 37be
00000120: 2605 ae3d 3fa4 3cbb 456b dcbd 31bb 743c
00000130: 863c 06bd a6c8 f4bd d464 2bbd 2c19 dcbc
00000140: c1fb 20bd 8b6d b5bd 4bc1 f7bc d962 9c3d
00000150: 49b3 0cbe 9cc4 2ebd ffff 37be 5d35 8dbd
00000160: 7637 1ebd 7da7 1bbd 83a0 cbb9 fd99 01be
00000170: ce09 ae3d c761 213d 3f9d 59bc 1906 84bd
00000180: f48c 393d 92a8 bd3d d333 24bd a34c 4c3d
00000190: 54f7 3f3c 1ebf 9b3c 4ddd 85bd 98de be3c
000001a0: fa57 c9bd 2d57 5b3c a056 c2bd 2983 00be
000001b0: 3223 273d 6fbc 053d f140 37bc 0a5a c6bd
000001c0: a5be 4e3d f2cc 173d 25b7 553d 3681 c13d
000001d0: 1a4d 823d 49f2 563d 204d 31bd 4b48 a3bd
000001e0: 1b48 7dbc 1f83 babd c4b6 3fbd e249 03be
000001f0: 917d d4bc 3696 e03d 3796 d63d 239f a43c
00000200: 8e43 453c 5d0f c03d bb44 b23c e8f9 ed3a
00000210: b975 c1bd d5e0 bebd 1a66 d23c 3075 afbd
00000220: 45be 673d 5414 9c3d 9c2e bdbd aa57 cf3d
00000230: 8519 c7bd 6dcd b9bd a962 f8bc 33a0 e7bc
00000240: 5fb3 1f3e 868e 513d d078 4c3c 4285 c6bd
00000250: 198b 843d 1466 173d
-0.015275225 -0.017349206 -0.069726154 -0.042936888 -0.012054889 0.012273265 -0.08467948 -0.04906631
-0.055501968 -0.028657265 0.052194346 -0.092835836 -0.09416588 -0.08249118 0.055379976 0.13617185
-0.029898155 -0.030648297 -0.007442818 0.10060888 -0.0053567146 -0.08199059 -0.053849135 0.103317775
-0.014051534 0.061015338 -0.009278916 -0.08729885 -0.08703765 0.028168194 -0.021572925 0.053101066
-0.028607154 0.006555014 -0.12186317 -0.116749115 -0.06792282 -0.050126683 -0.04411234 -0.04489918
-0.07154318 -0.08472751 -0.04928884 -0.053559452 0.06667193 -0.03756881 -0.11773428 -0.08809352
-0.032979276 -0.13958192 -0.006483341 0.06468623 -0.06569223 -0.08756608 -0.031569246 -0.01701279
-0.16024783 -0.030318175 -0.12083133 -0.10530294 -0.097408876 -0.14628053 -0.08097853 -0.106689446
-0.10751243 0.040231682 0.0066195857 0.010085994 0.004433438 -0.098967716 -0.1370365 -0.17894514
0.08497076 -0.0028784422 -0.107626475 0.014937208 -0.032772563 -0.11952333 -0.041844204 -0.026867472
-0.03930259 -0.08858784 -0.030243536 0.07636041 -0.13740267 -0.04266797 -0.17968749 -0.06894944
-0.03862711 -0.038001526 -0.00038838768 -0.12656398 0.08497964 0.03939989 -0.013282119 -0.064464755
0.04530044 0.09260668 -0.040088486 0.049877774 0.011716682 0.01901203 -0.065363504 0.0232995
-0.09831233 0.013387484 -0.09489179 -0.12550034 0.04080505 0.032650407 -0.011184917 -0.09685142
0.05047478 0.037060685 0.052176613 0.09448473 0.06362362 0.052477155 -0.043286443 -0.07972773
-0.015459086 -0.091070406 -0.04680516 -0.12821153 -0.025938781 0.109661505 0.1047787 0.020095414
0.012040032 0.0937793 0.021761289 0.0018156143 -0.09446282 -0.09320227 0.025683451 -0.085672736
0.05657794 0.07621065 -0.09237406 0.101241425 -0.09721664 -0.09072385 -0.030320482 -0.028274631
0.15595768 0.05116131 0.012479976 -0.09693386 0.06471843 0.036962584

ggnn.rnn.bias_hh f4 [150]
00000000: d669 a7bd 203c 233d 933a bbbd b3d4 0cbe
00000010: 8716 40bc ef62 8fbd e1cc 7c3d ca1a 89bc
00000020: 05e4 a6bd 89c9 08be 4016 a2bd a1eb 013d
00000030: 9822 123d 6395 603d 6f39 893d b30c 7fbd
00000040: 0b3b a03b 0681 bdbd 7a2a 6c3c 2a76 bbbd
00000050: 453b 6e3c 33ec adbd dfe5 94bd 650f 45bd
00000060: c196 bebd d316 a8bd d21f c4bd f7f9 acbc
00000070: c394 b3bd f954 b63c f332 e93d 0e14 dabc
00000080: 076a eaba 8161 2f3d 7f47 953b 93be 80bd
00000090: 3650 c93c 2d5d 5a3d d635 f63d a54f 0c3c
000000a0: 9298 c8bc 1afc 743d 187c d6bc 7900 453d
000000b0: 8d6c d1bd c34f aebd 85b6 c9bd 9bcc 23bd
000000c0: 9391 6e3d 8c99 723c a0e4 14be 9c75 23be
000000d0: e6fe 1ebe 26b7 183c e7d7 0abc ba87 c6bd
000000e0: 99d3 5cbd 33fd a93c cd23 89bc 0390 0b3d
000000f0: c571 b1bb cc7e 303d eb47 e03d 9289 6fbd
00000100: 6d92 3dbd 6e3e 0ebd e66e 53bd 9a4d 623c
00000110: 2b84 f7bd 229f 8b3d b441 453d 7ab1 6dbb
00000120: bcd3 773d ebb2 943c a6d1 fcbc ece0 28be
00000130: 4d24 bdbd 818c 2dbe 3708 9d3c 8015 23be
00000140: fe31 963d e287 0b3d aef4 40bd bbc9 863b
00000150: 6a78 19be be64 49be ae2f 33bb a623 e1bc
00000160: 9135 1ebe a479 83bd 6e05 3ebd 7a36 c43c
00000170: 1015 33bd 5b09 11bc c3a5 5abd 399c 373d
00000180: b365 22be f871 4ebd 9233 c2bd 6dbe f1bd
00000190: 9f43 b53d 8e29 823b 2821 6b3d a238 0c3d
000001a0: 6950 a9bd bd41 ecbd 5afa 403d c54a ab3d
000001b0: bf06 8a3c a9a0 f3bc 81f5 693d a96e d63c
000001c0: 2d34 96bb 51a1 db3d 447c 10bd 8c9f 05be
000001d0: 9941 e5bb 2962 24ba bc1a 21bc 8624 2b3e
000001e0: c784 b4bd c84c e63d 5ba9 6ebd 534c 713d
000001f0: 5d93 e93b 9764 053c 49cf 02be 6b48 b1bd
00000200: 3e54 7fbc 8cc2 743d 42b6 c0bd 9416 0a3d
00000210: 3207 b63d a099 003e 0047 0c3d 9f6a 86bd
00000220: 6503 f6bc 48f4 153d e106 063d c827 47bd
00000230: ba46 99bd 9211 f43b e7a4 fdbd 67c8 6abc
00000240: 5625 d2bd 50e0 03be f75e acbd 31b7 d43d
00000250: cfc0 d63c 5a8c ec3d
-0.081744835 0.03985226 -0.091420315 -0.13753013 -0.011724121 -0.07001292 0.061718825 -0.016736407
-0.0814896 -0.1335813 -0.079144 0.031718854 0.035677522 0.054829966 0.06700408 -0.06226797
0.004889851 -0.09253125 0.014414424 -0.091533974 0.014540498 -0.08492317 -0.07270407 -0.048110384
-0.09306098 -0.082074784 -0.09576382 -0.021115286 -0.087686084 0.022257315 0.11386671 -0.026620891
-0.0017884382 0.042817596 0.004555642 -0.06286349 0.02457438 0.053311516 0.12021987 0.008563911
-0.024486814 0.059810735 -0.02618222 0.048096154 -0.102257825 -0.08511307 -0.09849266 -0.03999005
0.0582443 0.014807116 -0.14540339 -0.15962833 -0.15526924 0.00932101 -0.008474327 -0.096938565
-0.053912733 0.020750618 -0.016740704 0.034072887 -0.0054151737 0.043089673 0.10951217 -0.058480807
-0.04628222 -0.034727506 -0.051619433 0.013812447 -0.12085756 0.068174616 0.048158363 -0.0036269114
0.06050466 0.018151721 -0.030861687 -0.16492051 -0.092354394 -0.16948129 0.019168956 -0.1592617
0.07333754 0.034065135 -0.047108345 0.0041134036 -0.1498734 -0.19667336 -0.0027341652 -0.027482819
-0.15450121 -0.064196855 -0.046391897 0.023951758 -0.04372126 -0.008852328 -0.05338074 0.04482672
-0.15859108 -0.050401658 -0.094824925 -0.11803899 0.08850788 0.003972239 0.057404667 0.034233697
-0.0826729 -0.11535976 0.047113754 0.083638705 0.01684892 -0.029739695 0.057118896 0.026175814
-0.0045838566 0.10724128 -0.03527476 -0.13049144 -0.0069963452 -0.00062707305 -0.009833034 0.16713151
-0.08814388 0.112451136 -0.05826698 0.05891068 0.007128163 0.008141658 -0.12774386 -0.08656391
-0.01558405 0.059755847 -0.09409763 0.03371294 0.08888091 0.12558603 0.0342474 -0.06563305
-0.030030916 0.036609918 0.032721404 -0.048621923 -0.07484193 0.0074483836 -0.12384968 -0.014330006
-0.102610275 -0.12878537 -0.084165506 0.103865035 0.026214985 0.115502074

soft_attention.gate_nn.weight f4 [1, 50]
00000000: d526 12be 89ff af3d a6b3 323d 2f42 01bd
00000010: 8856 c8bd 6320 4a3d 7a59 a63b 2da2 353e
00000020: 4f14 aebd d3b3 f73d 200c 69bd 4045 a33d
00000030: 57ea 0cbe 5a9d 823d eb26 c23d fc71 f03d
00000040: d4dc 393e 62cd a83c 88f8 d53c 57cd 203d
00000050: 31f5 bebd 1c23 93bd 59fc fcbd 316b 77bd
00000060: 809a 6abc 1454 5b3d a7d2 09be 3183 18bd
00000070: 0a6b 35be b202 003e 7c28 ffbc 33d3 093d
00000080: 4b13 fb3d 8086 83be 3cd1 92bb 99db d3bd
00000090: c274 06be 5ca8 07be 206c 743d 2e85 95bd
000000a0: c4ef cfbb 5dfa af3c cb66 35be 663e 753d
000000b0: 7d58 423e f14d c5bd bf2c 2e3e 8031 0dbc
000000c0: 9a9f 49bd 61ec 3c3e
-0.14272626 0.08593661 0.043628357 -0.03155726 -0.097821295 0.049347293 0.0050765844 0.17737646
-0.08499967 0.120948456 -0.05689633 0.07972193 -0.13761269 0.06377669 0.09480079 0.11740491
0.18150645 0.020605747 0.026119485 0.039258327 -0.0932411 -0.07184431 -0.12352819 -0.06040496
-0.014319062 0.05354698 -0.13459264 -0.03723449 -0.17716613 0.12501028 -0.031147234 0.03364868
0.12259539 -0.25688553 -0.004480509 -0.10344619 -0.13130477 -0.13247818 0.05967343 -0.07300793
-0.006345721 0.021481687 -0.17714994 0.05987396 0.18979068 -0.09634007 0.17009257 -0.008617759
-0.049224474 0.18449546

ggnn_2.weight f4 [3, 50, 50]
00000000: 5c97 bdbc d62c 9a3d c624 7cbd c0e3 6dbb
00000010: 9582 91bd 185b 443d be92 08be ce75 c33d
00000020: 5675 0abd 8048 bcba b077 e4bd 763e 913d
00000030: 142b d73d 769f e2bd 20a0 533d b7e7 e9bd
00000040: 00c2 733a 1042 18bd b03e 5e3c a78c 07be
00000050: b724 10be cb79 96bd e08b 033d e81b fe3c
00000060: c4b7 edbc b83e 8dbd ed91 9dbd e06a 503d
00000070: 943f 833d d0e4 333c 58fe 5ebd a86d ffbd
00000080: dcb1 85bd b163 e4bd dc20 aebc 70b5 ecbd
00000090: b605 e83d 66c6 05be 0c4d 10be 2d13 033e
000000a0: 957e ccbd 309a 26bc 90c7 2cbd 2d6e 0dbe
000000b0: b060 dbbd 5664 d73d 0001 e63a 19da b9bd
000000c0: 0491 873d 9869 813c 4a55 07be feec ce3d
000000d0: bf4d 0fbe 9ed8 3bbd bcf0 ddbc ded4 41bd
000000e0: c3e7 9bbd 20e0 eb3b 14fc 2bbd 70df 4a3d
000000f0: 5c77 5e3d 1297 08be adae 053e 66ff 07be
00000100: 8a49 e2bd 4988 85bd 9050 9c3c 769c 67bd
00000110: 88e3 663d 64bf ddbc 4124 e6bd c070 e43c
00000120: a093 b0bb 603e 4d3c 62a4 c53d b1be 103e
00000130: 927e b83d 2dfa 80bd 1011 223c 8046 ce3b
00000140: 5a6f ff3d e2df c0bd ec6a f0bd d40f 193d
00000150: c935 093e 92cb f6bd 225e 44bd c7ba bdbd
00000160: 8897 ddbd 5adb da3d 1001 63bc 1481 6b3d
00000170: bce5 a8bd 348a acbd 09b5 cfbd 602e 3f3d
00000180: 78eb 3d3d 92a5 ee3d c215 d43d b0ee 2b3d
00000190: 66e4 a23d 064a 07be 8b7d 0b3e 808c 1dbc
000001a0: 4265 de3d e8f1 603d 36a1 cb3d 4463 7f3d
000001b0: 6cf4 9d3d 42cd f43d e676 c53d bc04 9dbd
000001c0: 40dd 4f3c d874 633d c0a3 ad3c 93e8 093e
000001d0: 3aa5 cf3d 7c68 2dbd 8307 0cbe 4fe3 98bd
000001e0: 809d dd3a 78e5 04be 1866 debd 5422 7f3d
000001f0: 5362 0a3e c004 df3b 8216 d1bd 805c 31bb
00000200: 5698 c43d c18e 0dbe 44b9 d4bc 8b17 06be
00000210: f43a c93d bbcf fabd 10ef b93c f376 0a3e
00000220: f6b1 c3bd 803a 33bb 6124 09be 5039 093d
00000230: 2598 e2bd 603b c7bb 5aef 863d daf5 f33d
00000240: 544a 7c3d f8a1 f1bd 0cf3 74bd 7611 b23d
00000250: f809 23bd 94ed 3e3d 427a d7bd a610 0abe
00000260: c27a c43d e4a0 493d 80cc fe3b 6a80 8c3d
00000270: ece3 0a3d a84d 34bd 3ea7 c63d 28a0 243d
00000280: 52d7 c53d ba40 26bd 30df b1bd 640b dc3d
00000290: 6241 e93d 60ea ddbb 2631 28bd 646e 8c3d
000002a0: 22f6 a2bd 0084 cf3d 55cc 06be c04f 703b
000002b0: e862 cdbd 9e67 0ebe 3a3b fc3d a004 febb
000002c0: bcec 27bd b49e 91bc c7a2 c0bd 2857 2fbd
000002d0: c375 04be fd9e e9bd c042 503b a085 01bc
000002e0: 21b6 073e 7e2b bfbd 4af4 e03d d0e8 233d
000002f0: ae8d 01bd 668f c93d ec3b f4bd 7020 7c3d
00000300: 34d9 2e3d 7c47 9ebc 4452 36bd ca24 d5bd
00000310: 381e 4cbd 7e66 d0bd e4ce 5bbd 54b5 093d
00000320: 7c93 bbbd 7678 8fbd 4c1f 4c3d 20b2 b93c
00000330: 700d 0a3c 16b8 e2bd 0070 983b 382b f33c
00000340: f9a4 0a3e 0fab e4bd dedb 06be 84b8 60bd
00000350: aa97 ea3d 32c8 dd3d a89a 4f3d 14f0 583d
00000360: 9b05 043e 9095 b43d 93cb e7bd 7eff 05be
00000370: 5ca7 3cbd 905e 5e3c 8b72 07be c8c7 47bd
00000380: 0063 723c 0860 e5bc 357d 93bd 3056 483c
00000390: c27f a9bd 2a8b f03d 322e ed3d 8024 2cbc
000003a0: 3897 fcbc 0cb3 85bd 20cc cabd dcb5 f0bd
000003b0: 6092 4dbd e26a e93d 527d eb3d d08a 40bc
000003c0: 95a9 0b3e a6cc b13d 9ca9 253d 08cc 263d
000003d0: 2b94 8abd de93 2dbd 801e fcbb 058c 003e
000003e0: 0856 36bd 3423 243d 3b75 e1bd 4e61 e53d
000003f0: 0a12 20bd 78d6 153d d375 0d3e 00a0 c53d
-0.023143463 0.07528083 -0.061558507 -0.003629908 -0.07104985 0.047938436 -0.13337228 0.09543954
-0.033803307 -0.0014364868 -0.11155641 0.070919916 0.105062634 -0.11065571 0.05166638 -0.11421149
0.00092986226 -0.037172377 0.013564751 -0.13237248 -0.14076506 -0.07347449 0.032115817 0.031019166
-0.02901829 -0.06896728 -0.07693849 0.050883174 0.06408611 0.010979846 -0.05444178 -0.12472087
-0.065280646 -0.11151827 -0.021255903 -0.11558044 0.11329214 -0.13063964 -0.14091891 0.12800284
-0.09985081 -0.010168597 -0.042182505 -0.1381156 -0.10711801 0.105171844 0.0017547905 -0.09074802
0.066194564 0.015797421 -0.13216129 0.101037964 -0.13994502 -0.04586088 -0.02709233 -0.047322147
-0.076125644 0.0071983486 -0.041988447 0.049529493 0.05431305 -0.13338879 0.13054915 -0.1328102
-0.11049183 -0.06520135 0.019081384 -0.056545697 0.056369334 -0.027068801 -0.11237384 0.027885795
-0.005388692 0.012527078 0.09650494 0.14135243 0.09008516 -0.06297717 0.009891763 0.0062950253
0.124724105 -0.09417702 -0.11739144 0.03736861 0.13399424 -0.12050547 -0.047941335 -0.092641406
-0.10819918 0.10686369 -0.013855234 0.057496145 -0.08246943 -0.08424798 -0.101419516 0.046675086
0.04636714 0.11652674 0.103557125 0.041975677 0.0795372 -0.13211831 0.1362211 -0.009616017
0.10859157 0.0549182 0.09942858 0.062350526 0.077126354 0.11953212 0.09641819 -0.07666919
0.012687027 0.055531353 0.021196246 0.13467626 0.10138936 -0.042335972 -0.1367474 -0.07465231
0.00169079 -0.1297816 -0.108593166 0.062288597 0.1351407 0.006805986 -0.10209371 -0.002706319
0.09599368 -0.13823988 -0.025967248 -0.13094918 0.098256975 -0.12246653 0.022697002 0.13521938
-0.09555428 -0.00273481 -0.13392784 0.033501923 -0.110641755 -0.006080076 0.065886214 0.11912127
0.061594322 -0.11798471 -0.0598021 0.08694737 -0.03980443 0.04661329 -0.10521366 -0.13482913
0.09593727 0.049225703 0.007775843 0.068604305 0.03390877 -0.04401937 0.09699868 0.0401918
0.0966021 -0.04058907 -0.08685148 0.1074436 0.11389424 -0.0067723244 -0.041062497 0.06856993
-0.07957102 0.10132599 -0.13163884 0.0036668628 -0.100286305 -0.13906714 0.12315984 -0.007752016
-0.040997252 -0.01777587 -0.09406047 -0.042807728 -0.12935548 -0.11407278 0.0031778067 -0.007905394
0.1325307 -0.09334467 0.109840944 0.04001695 -0.031629257 0.09841804 -0.11925492 0.061554372
0.04268761 -0.019321196 -0.04451205 -0.104074076 -0.049833506 -0.10175799 -0.053664103 0.033620194
-0.0915899 -0.07005398 0.049834535 0.022667944 0.008426055 -0.11070268 0.0046520233 0.029683694
0.13539495 -0.11165439 -0.1316981 -0.054863468 0.11454709 0.108292 0.0506846 0.05296333
0.12892763 0.08817589 -0.113181256 -0.13085744 -0.046058044 0.01357235 -0.13227288 -0.04877451
0.014794111 -0.027999893 -0.07201616 0.01222758 -0.08276321 0.117452934 0.11581077 -0.010506749
-0.030833825 -0.06528291 -0.09902215 -0.11753437 -0.050188422 0.113973394 0.11498512 -0.0117518455
0.13638909 0.08681612 0.040444955 0.040721923 -0.06766542 -0.042377345 -0.0076940656 0.12553413
-0.04451564 0.040072635 -0.11008688 0.112002 -0.039079703 0.036581486 0.13814478 0.09649658

ggnn_2.rnn.weight_ih f4 [150, 50]
00000000: 4835 5abd ee50 af3d 8074 bc3b 4292 2bbd
00000010: e0a8 273d aa7b d03d aa77 9c3d 54f9 483d
00000020: ff5c e9bd 5069 a73d a093 ef3c 1eb7 b6bd
00000030: 108e e23c aab9 eabd 3830 c33c 50d4 12bc
00000040: 0ecc 49bd 6455 2bbd 465a a93d 8456 eebd
00000050: 44cf 9dbd fe50 953d 6b1a 083e ba7e d4bd
00000060: b5f4 0ebe 3239 66bd c474 403d 483b 55bd
00000070: 1656 5abd becb f03d af44 07be 3eba a2bd
00000080: 22af d0bd 50ca 723d 0074 343d 12ed a9bd
00000090: 68c6 edbd 2392 00be 0456 363d 48bb c33c
000000a0: 83d9 0d3e e868 793d 6b4c 10be 3afc ad3d
000000b0: 84b6 d2bd 52c5 fe3d d6ab 76bd 929c ad3d
000000c0: 0c33 b33d dc77 1e3d a443 373d 4746 0c3e
000000d0: c92b 84bd 603e fcbc 6808 a43d 67d6 aebd
000000e0: 037b 96bd d92d ccbd aa17 76bd 0c48 74bd
000000f0: d862 8fbd 2ac0 f53d 2095 03bc 30be 6e3c
00000100: 8355 08be 728b 93bd 3cd0 bbbd 6808 c13d
00000110: 3ad3 d23d 76b4 07be b629 e23d 98a7 ac3c
00000120: 94af 233d 3c38 e4bd cfd8 95bd 8cbc 513d
00000130: cc67 3e3d c02e b93d 59fe 073e 2343 a7bd
00000140: fced b33d 80cc f43b 20b8 983c e012 503d
00000150: 5ac9 f43d c05f 00be 4026 413b c0df fc3b
00000160: 3e2e a5bd 7230 e43d 6839 7cbd fc5f 0d3d
00000170: 62b5 de3d 20ac 2dbc a06e babd 44f1 0fbe
00000180: 2036 c73d 1c74 933d 2cc6 243d 78e4 303d
00000190: 10e9 e0bc def8 fb3d 00af f03b 9086 eabc
000001a0: 5a44 f63d fdd0 073e d238 813d d090 4cbc
000001b0: 5e66 a7bd 7154 dfbd e2b1 02be 84ce 053d
000001c0: 821b ccbd fd00 0bbe d89c 023d f98c e1bd
000001d0: de27 ac3d f068 dd3d 9ba8 103e 064f b6bd
000001e0: 3cab 31bd c473 243d 5ea6 f33d e8ea 8abc
000001f0: 0784 0c3e 00af bd3c a4fb 1b3d b407 a7bc
00000200: a0fe 99bc 8078 cbbb 4a3b be3d f058 1fbc
00000210: f83a 213d c56c 85bd 0802 ca3c 8082 cf3b
00000220: 40ab 643d 2097 98bc 69d5 84bd 00e8 4739
00000230: fea6 e53d cc7a cfbd 2a9a e53d deab c5bd
00000240: 43a9 0bbe 80a8 143d f96e ebbd 0619 823d
00000250: bee4 a73d bb20 8cbd 867e e8bd a478 01bd
00000260: dc73 b1bc 3aaa df3d 54f1 033d bedf 60bd
00000270: 6c5c d53d 10fb bdbd 16da 983d 1ca2 a8bd
00000280: 5501 0f3e 02d0 bbbd f8ca e4bc daf2 f43d
00000290: 8a23 05be 3009 01bc 1455 78bd 94ad febc
000002a0: cabd 52bd f454 b2bd 9867 c73c 1c57 d3bd
000002b0: dc2b 3d3d 8031 0dbe ca65 37bd b414 acbd
000002c0: 3042 86bc 7a3e f33d 495a 08be 3a72 09be
000002d0: 5643 983d b99d 053e bbc7 013e fde5 0e3e
000002e0: 129a f8bd a18c 103e 6c03 b9bd 6efd be3d
000002f0: 00b4 293c 205b 46bd ad8c 013e 50c7 cc3c
00000300: 3c15 d13d c4d4 e9bc 0d43 98bd 487d 06be
00000310: 40ff a5bb d853 8bbc d7b6 01be 03be b3bd
00000320: 063b b9bd f0fc 6dbc d1fe 8abd c89b a8bd
00000330: 6084 593c c07f b5bd f8ad e3bc fde2 e5bd
00000340: b87d c1bc c8a4 dd3d 2480 013d c97d 03be
00000350: ddfc e1bd ec3f a1bd 3a65 f33d 0088 27bb
00000360: 743f efbd 7e14 61bd 5698 7cbd 8c73 753d
00000370: dbce 033e 2ae2 fdbd b6bc fd3d 0037 783d
00000380: e57c 03be c044 523d 9490 983d 7c86 463d
00000390: 803c 96ba 7268 73bd e688 933d 6096 1a3c
000003a0: 2eb1 13bd c438 02be 5673 02be 3285 10be
000003b0: 238b 9ebd f218 03be 5013 023c 7e83 84bd
000003c0: 0402 42bd 44a3 693d a0c5 8b3b 443b 543d
000003d0: 20c6 6abc 9803 d93c a45b 46bd 04b9 25bd
000003e0: 13e7 a2bd e6e8 9ebd 9772 8bbd 589f 1ebd
000003f0: 1cd2 323d ae01 65bd a4e0 82bd 6a70 d9bd
-0.05327347 0.08560358 0.0057511926 -0.04188753 0.040932536 0.10179837 0.076400116 0.049065903
-0.11394691 0.08174384 0.029245198 -0.089216456 0.027655631 -0.11461194 0.023826703 -0.008961752
-0.049266867 -0.04182948 0.082691714 -0.11637595 -0.077055484 0.07290839 0.13291328 -0.10375734
-0.13960536 -0.05620689 0.046986356 -0.052058488 -0.053304754 0.11757611 -0.13209794 -0.07945679
-0.10189654 0.05927497 0.04405594 -0.08297171 -0.116101086 -0.12555747 0.044515625 0.023893014
0.13852505 0.060891062 -0.14091651 0.08495374 -0.10288718 0.124399796 -0.06022247 0.08477129
0.08749971 0.038688526 0.04474224 0.13698684 -0.06453664 -0.030791461 0.08009416 -0.08536988
-0.073476814 -0.09969682 -0.06008116 -0.05963902 -0.07001275 0.11999543 -0.00803116 0.014571711
-0.1331387 -0.072043315 -0.09170577 0.094254315 0.102941945 -0.13252434 0.11043112 0.021076009
0.039962366 -0.11143538 -0.073167436 0.051205203 0.046485707 0.0904212 0.1328062 -0.08167102
0.08785626 0.0074706674 0.018642485 0.05079925 0.11952467 -0.12536526 0.0029472262 0.0077171028
-0.080654606 0.11142053 -0.061578184 0.034515366 0.1087444 -0.01060012 -0.09103131 -0.1405688
0.097271204 0.071998805 0.040228054 0.043186635 -0.027454883 0.12303327 0.0073450804 -0.028628618
0.12024756 0.13263316 0.06309666 -0.012485698 -0.08173822 -0.10904778 -0.1276317 0.03266765
-0.09966184 -0.13574596 0.03188786 -0.110132165 0.084060416 0.10811031 0.14126818 -0.08901791
-0.043376192 0.040149465 0.118969664 -0.016957715 0.1372224 0.023154736 0.03808178 -0.020389415
-0.018798172 -0.006209433 0.09288652 -0.009725794 0.039362878 -0.06514887 0.024659172 0.0063326955
0.05582738 -0.01862675 -0.06486017 0.00019064546 0.11213492 -0.101308435 0.11211045 -0.09651922
-0.13638787 0.036293507 -0.11495776 0.06352429 0.08197926 -0.0684218 -0.113522574 -0.031609192
-0.021661691 0.1092114 0.03221257 -0.054900877 0.10418019 -0.09276402 0.074634716 -0.08234045
0.13965352 -0.09170534 -0.027928814 0.11960383 -0.13001838 -0.007875726 -0.06062801 -0.031088628
-0.05145053 -0.0870761 0.02434139 -0.10319349 0.046184406 -0.13788414 -0.044774808 -0.08402386
-0.016388983 0.11877151 -0.13315691 -0.1342248 0.07434718 0.13048448 0.12673847 0.13954921
-0.121387616 0.14116146 -0.09033856 0.093256816 0.010357857 -0.048426747 0.1265132 0.024997383
0.10209128 -0.028543837 -0.07434664 -0.13133729 -0.0050658286 -0.017007753 -0.12667404 -0.08776476
-0.09044461 -0.014525637 -0.067868836 -0.08232838 0.01327619 -0.08862257 -0.027792916 -0.11224935
-0.023619518 0.10822445 0.031616345 -0.12840952 -0.11034558 -0.0787352 0.11884542 -0.002556324
-0.116820246 -0.054951183 -0.061668716 0.059924647 0.12871878 -0.12396653 0.123895094 0.060599327
-0.12840612 0.051335096 0.07449451 0.048468098 -0.0011462122 -0.05942578 0.07203846 0.009435266
-0.036057644 -0.12716967 -0.1273931 -0.1411331 -0.07741382 -0.12802485 0.007939175 -0.06470393
-0.047365203 0.057040468 0.004265502 0.051814333 -0.014329463 0.026490971 -0.04842724 -0.040459648
-0.0795423 -0.077592656 -0.06808966 -0.03872618 0.043657407 -0.055909805 -0.06390503 -0.106171444

ggnn_2.rnn.weight_hh f4 [150, 50]
00000000: 0167 083e 00b1 9cba 3066 a1bd 7c1f 81bd
00000010: d087 773d 6650 98bd f0d5 973d 8008 87bd
00000020: ee38 d23d 7ad2 823d 040a c33d c068 603c
00000030: a2bd 9a3d 10b2 b93c b8f9 eb3c 5699 1abd
00000040: 5d59 06be e096 843d 7052 2c3c 3146 0ebe
00000050: dc19 913d 6365 86bd 4819 49bd 006e 02be
00000060: 0181 0c3e 99b9 083e f3c9 073e 12d0 35bd
00000070: d3d9 f9bd 2cd6 83bd 7a78 77bd 3ac6 1bbd
00000080: 6487 adbd 071b 82bd b0a1 7f3c e879 893d
00000090: 74f5 25bd 0abc 933d 80d8 7f3c e09c 5ebc
000000a0: 7430 8f3d 62e5 f3bd 92f2 cf3d 300c b1bd
000000b0: fae5 6bbd 2e08 b03d 1ee1 c1bd a4c0 c6bd
000000c0: 7cb9 603d ac2a 2c3d 94f7 f5bd 0850 173d
000000d0: 80a8 3d3c eced 7d3d e88c 9c3c 0062 13ba
000000e0: 9c47 cfbd e281 ee3d fbc8 0c3e 3fbb dfbd
000000f0: a619 b93d a0fa 013d 5a25 0bbe 107c 0b3c
00000100: 5ae3 04bd 0161 84bd 2081 4b3d 367e eb3d
00000110: 727b f63d 1012 72bd 6036 6cbc 525f f23d
00000120: 4484 833d ae97 ae3d 1d00 0abe 440b c13d
00000130: dd02 c4bd 5120 89bd 9445 d3bc f0d3 61bd
00000140: 40db 9d3d e841 4f3d 0895 80bd e664 db3d
00000150: 4041 963d f814 643d 9231 56bd a8b2 33bd
00000160: 7816 de3d 5099 1d3d d0b6 81bd 803a 2fbc
00000170: 4666 ea3d 571e c7bd aea0 9bbd 6c19 33bd
00000180: 6e36 f13d bfb2 03be 98ff 9a3d 6af0 8e3d
00000190: 40e6 c03c 249c 93bd ad04 04be 662c d6bd
000001a0: 20cd 3c3d 0083 233b 4478 dcbd 24c3 1a3d
000001b0: b073 2a3c 6d5e 093e 2a48 c63d a67a 8ebd
000001c0: fa67 c83d da80 ba3d b0da b03d 8428 133d
000001d0: 0074 0f3b 7f9a e1bd e03f 7f3d 68ef c5bd
000001e0: b808 673d 00c0 51bc ee6b c2bd 80c0 7f3c
000001f0: 20fe a93b 76dd fd3d 840d efbc 7866 a43c
00000200: 2321 0b3e 987b f8bd 5cd0 4f3d 6931 0d3e
00000210: 83d4 a2bd c8f8 303d 7ca1 35bd a4e2 bfbc
00000220: fcd3 333d b43a b33d 127d 58bd 2d56 10be
00000230: 0bbd 04be ccfe fabd 5872 453d a832 cebd
00000240: 9c50 4f3d 18b7 c0bc 41d8 0e3e e4b5 b4bd
00000250: 0255 7bbd 1d6b bdbd bae5 33bd dc8d 0a3d
00000260: aed7 f03d c049 fd3c c1f4 c6bd 0c5a dfbd
00000270: ae62 b5bd 44b9 02bd 323a 813d 9e03 01be
00000280: 400a 18bb 8c29 713d 29af 083e 6cbc 393d
00000290: d84b d13c c0df 92bd 27bf cabd 94d4 26bd
000002a0: a855 8c3c e0f9 db3c d2f2 a4bd 5ea0 b63d
000002b0: bfe7 0fbe a095 333d fe79 ccbd 20ae be3b
000002c0: ce47 b9bd acac 72bd 644d 923d 54bc 803d
000002d0: 509f 33bd 7ea1 22bd e998 103e 723b b0bd
000002e0: fc39 65bd 67cf 0cbe c012 62bb 92ff 7abd
000002f0: 4eff 10bd e802 bd3c 7caf 493d 6a33 8b3d
00000300: e855 bf3d c688 afbd 905a 08bc 4a95 eabd
00000310: dc15 5c3d a4e7 3d3d 9d5e 09be a2ea 4dbd
00000320: 9041 7dbc dc82 993d a607 b63d de4f da3d
00000330: 0ed3 ea3d c83a d73d 73c9 8abd 5933 0a3e
00000340: 2c31 b83d 00e0 de3b cf2e fabd e481 cabd
00000350: 4806 b33d f48f 363d 402a 5ebc 8455 05bd
00000360: 5c90 143d ec91 653d 60c6 643d 2924 083e
00000370: f844 41bd 002d cebb 82c7 eb3d 9958 f3bd
00000380: 0cd4 8bbd 3cd4 eabc d7e3 06be 376b e4bd
00000390: 2697 8e3d 00c0 ea38 3e79 b5bd 16a6 26bd
000003a0: 20aa 8e3d a8d5 c63c ea99 7fbd 44c1 9c3d
000003b0: ac3a 573d 9dae 083e 6e7a b53d 2a1c 8c3d
000003c0: f022 b13d 00d4 6a3b 6c9c 363d 02d7 823d
000003d0: 9a4c 1bbd 2418 133d 062f 63bd a6c3 ebbd
000003e0: a861 853d 657d 073e 303e 00be 30d4 2abd
000003f0: f709 9dbd f29c ebbd b285 8c3d d000 6d3c
0.13320543 -0.0011954606 -0.07880819 -0.06304833 0.060432255 -0.0743721 0.07413852 -0.06593418
0.10264765 0.063878015 0.09523395 0.013696849 0.07555701 0.022667915 0.028805599 -0.03774389
-0.13120027 0.064740896 0.0105177015 -0.13893963 0.070850104 -0.06562307 -0.049096376 -0.12737274
0.13721086 0.1335205 0.13260631 -0.044387884 -0.1219975 -0.064373344 -0.06041763 -0.03803084
-0.08473089 -0.06352811 0.015602514 0.06712705 -0.040517285 0.072136 0.0156155825 -0.013587207
0.069916636 -0.11908986 0.101536885 -0.08644903 -0.05759237 0.0859531 -0.09466766 -0.09704712
0.05486439 0.042032883 -0.120101124 0.036941558 0.011575818 0.061994478 0.019110158 -0.0005622208
-0.1012108 0.11645867 0.13748543 -0.10924386 0.09038095 0.031733155 -0.13588467 0.0085134655
-0.03244338 -0.064638145 0.04968369 0.11498682 0.12035264 -0.059099257 -0.014417261 0.11834587
0.06421712 0.08525024 -0.13476606 0.09425977 -0.09570859 -0.06695617 -0.025790013 -0.05513376
0.07707834 0.050599962 -0.062784255 0.10712604 0.07336664 0.05568406 -0.052293368 -0.04387155
0.10844129 0.03847629 -0.06333697 -0.0106951 0.11445288 -0.09722584 -0.075990066 -0.043725416
0.1177796 -0.12861155 0.07568282 0.06979449 0.023547292 -0.07207516 -0.12892409 -0.10457687
0.04609406 0.0024949908 -0.10765126 0.037783757 0.010403559 0.13414927 0.09681733 -0.06956987
0.09785457 0.09106608 0.08635461 0.03592731 0.002188921 -0.11015796 0.062316775 -0.09664804
0.0564048 -0.012802124 -0.09493242 0.01560986 0.0051877648 0.12395756 -0.02918125 0.020068392
0.1358686 -0.12132949 0.050735816 0.1378838 -0.0795069 0.043206006 -0.044343457 -0.0234235
0.043903336 0.08751431 -0.05285365 -0.14095373 -0.12962739 -0.1225563 0.04820475 -0.10068256
0.050613984 -0.023524806 0.13949682 -0.088237554 -0.061360367 -0.09248946 -0.043920256 0.033826694
0.11759888 0.030918956 -0.09714652 -0.10905847 -0.08856712 -0.031914964 0.06309928 -0.12599036
-0.002319947 0.058877513 0.13348068 0.04534571 0.02554886 -0.07171583 -0.09899741 -0.040730074
0.017130688 0.026852548 -0.08054127 0.08917306 -0.14053248 0.043843865 -0.09984206 0.005819097
-0.09046899 -0.059246704 0.07143667 0.06285921 -0.043853104 -0.039704792 0.1412083 -0.08605088
-0.0559635 -0.13750993 -0.003449604 -0.061278887 -0.035399728 0.023072675 0.04923962 0.06796916
0.09342557 -0.08571009 -0.008322373 -0.11454256 0.053731784 0.046363488 -0.13414998 -0.05027259
-0.015457526 0.074956626 0.088881776 0.10659765 0.11466037 0.105092585 -0.06776705 0.1349615
0.08993754 0.006801605 -0.12215959 -0.09888056 0.087414324 0.04457088 -0.013559878 -0.032552257
0.036270484 0.056047365 0.055853248 0.13295044 -0.047184914 -0.0062919855 0.115126625 -0.11882133
-0.06827554 -0.028665654 -0.13172852 -0.11153262 0.06962423 0.00011193752 -0.08861016 -0.040685736
0.069660425 0.024271801 -0.062402643 0.0765405 0.05254619 0.1334786 0.08861242 0.06841309
0.08649242 0.0035831928 0.04458277 0.06388666 -0.03791485 0.035911694 -0.055464767 -0.11511926
0.06512767 0.13231428 -0.12523723 -0.041706264 -0.07667916 -0.11504544 0.06861438 0.014465526

ggnn_2.rnn.bias_ih f4 [150]
00000000: 0090 35b8 d098 7a3d 78b1 39bd a00c 9bbc
00000010: d065 233c 803e 20bb 30bc 66bd 0085 683a
00000020: 20b4 8fbb 5e7a c9bd 2a62 4dbd 0051 55bc
00000030: 0ed5 d7bd 269b fb3d 4d8e 01be c0b5 1bbc
00000040: d09b 19bc 90c4 523d 052f 87bd a3e4 9ebd
00000050: b1ae 0fbe 365a c53d 2c28 203d 4845 94bd
00000060: 362f d23d 5a5d 6dbd 082e 533d ba1f 04be
00000070: 1898 703d a670 02be 50db dfbd 9103 0fbe
00000080: c4cd 9cbd 0749 103e ecbb 5dbd b42c 543d
00000090: 19c7 0abe 8002 e83c 2176 c6bd 9e93 8fbd
000000a0: 2c5a de3d 5835 c33d 3063 79bd 3c89 d6bd
000000b0: aaf5 3dbd 4853 b03c 9692 3cbd 6706 053e
000000c0: 56dc ea3d 91a0 e2bd 144c febd 46c5 ad3d
000000d0: 0455 ecbc 6697 f9bd 3503 04be 0098 45bb
000000e0: 725e b23d 694c 0d3e 0450 57bd 1080 eabd
000000f0: be94 80bd d85a 27bd b295 ff3d 66ac cd3d
00000100: 7064 45bd 4d4b 0a3e 049c 60bd 6c23 a13d
00000110: 2458 bbbd 02d9 903d e057 d93c 6000 ecbc
00000120: fa9a d13d 8065 6bbb 820d 5fbd 4a9e dcbd
00000130: 9ad8 d3bd d0bc 56bc 817f 07be 2e9e e0bd
00000140: 400b 853c 1680 a03d 00d0 933c 908e fb3c
00000150: 505f 613d aaac c23d 1ad6 05be a0e9 d93b
00000160: e2a5 b03d a0aa 143d 6069 16bd 8915 91bd
00000170: 0bdb 063e 2cff 813d 06d6 fbbd e0ca f2bd
00000180: 10e4 813c 863f ed3d 860a bd3d de80 fa3d
00000190: c292 b2bd 02f4 f63d 263c ccbd f4bd d43d
000001a0: 2e46 e03d 905c 2abc 1c75 4c3d 9a6c 90bd
000001b0: d844 73bd a086 543d edd0 aabd 059b fdbd
000001c0: b64f 0fbe 00c0 963d a89d 82bc 40c5 10be
000001d0: ccad c2bd 44b6 03be 04a3 55bd c830 2d3d
000001e0: 6848 dbbd c551 04be c861 a33c 78f1 a23c
000001f0: 642e a9bc 8240 f7bd c821 dbbd e7cb 053e
00000200: d088 3d3c b086 33bc 0ee2 27bd 6045 d33b
00000210: 3c2c 053d 24d7 cb3d 700b 23bc be23 f43d
00000220: 2d0a cbbd 3cb3 9a3d 9e4e e53d 00fa 12bc
00000230: 9a07 fb3d 9e84 39bd 661a 64bd 6ea7 2abd
00000240: 7099 48bc 7412 973d c0f8 aebb 6057 2ebc
00000250: 094e 0ebe a0a0 053c
-4.3287873e-05 0.06118089 -0.045335263 -0.018926919 0.009973004 -0.0024451315 -0.056331813 0.0008869916
-0.0043854862 -0.09837793 -0.050142445 -0.0130198 -0.10538684 0.122854516 -0.1265194 -0.009503782
-0.0093755275 0.051456988 -0.06600765 -0.07758453 -0.14031483 0.09636347 0.03910081 -0.07239777
0.10262911 -0.057950355 0.05155757 -0.12902728 0.058738798 -0.12738284 -0.109305024 -0.13966204
-0.07656434 0.14090358 -0.054134294 0.051800445 -0.13552512 0.028321505 -0.096905 -0.070105776
0.10857043 0.09531659 -0.06088561 -0.10475394 -0.04637686 0.021524087 -0.046038233 0.12990724
0.11467807 -0.11065782 -0.124168545 0.084848925 -0.028849132 -0.1218708 -0.12891848 -0.0030150414
0.0870942 0.1379868 -0.052566543 -0.11450207 -0.0627837 -0.04085812 0.12479724 0.10042648
-0.048191488 0.13505287 -0.054836288 0.07868084 -0.09147671 0.07072641 0.02653116 -0.028808773
0.102346376 -0.0035918653 -0.05445624 -0.10772379 -0.10344048 -0.01310654 -0.13232233 -0.109676704
0.016240716 0.078369305 0.018043518 0.030707628 0.055022538 0.09505589 -0.13069955 0.0066501647
0.0862539 0.036295533 -0.036721587 -0.07084186 0.13169496 0.06347498 -0.12296681 -0.118551016
0.015855819 0.11584382 0.09230523 0.12231611 -0.08719398 0.120582595 -0.0997241 0.10387793
0.10950886 -0.010398045 0.04991637 -0.07051964 -0.059391826 0.0518862 -0.08340631 -0.12383083
-0.13995251 0.0736084 -0.015944317 -0.14137745 -0.095058054 -0.12862498 -0.052157417 0.04228285
-0.1070717 -0.12921818 0.019944087 0.019890532 -0.020652004 -0.12072851 -0.10699803 0.13066064
0.011568263 -0.010957405 -0.040987067 0.006447479 0.03251289 0.09953144 -0.009951457 0.1192088
-0.0991405 0.075537175 0.11196636 -0.008970737 0.12257309 -0.04529249 -0.055689238 -0.04166358
-0.012243614 0.073765665 -0.005339712 -0.010640949 -0.13896956 0.008155972
