backend/workspace/weight/rtd/PU/PU_2-SAGE.pth (torch, 326904 bytes, 14 tensors)

conv1.lin_l.weight f4 [50, 50]
000000 2e bb d3 bb c0 5b cf 3d a4 5d 86 3d 2e 11 d7 3d
       -0.0064615225 0.10124922 0.06560829 0.10501324
000010 6a a2 05 be 0b 47 84 bb eb 42 0c 3e b2 28 64 3d
       -0.13050237 -0.0040367893 0.13697402 0.055702873
000020 98 3d dd bd 11 d5 27 3e 51 3f 95 bd 55 5b 30 3d
       -0.10802764 0.16389872 -0.07287467 0.04305585
000030 60 11 68 3d 75 6e 0d be 34 0a 77 bd a2 28 bc bd
       0.056657195 -0.13811667 -0.060312465 -0.091874376
000040 ee 64 13 be 34 67 a9 bb 6e ea 17 3e e5 1b 0d 3c
       -0.1439397 -0.0051697735 0.14835522 0.008612608
000050 be 2d 6b 3d 46 92 99 3d c3 3c 84 bd 7e 02 47 3d
       0.05741667 0.074986026 -0.06456902 0.04858636
000060 61 e9 f7 bd 82 a8 0b 3e 69 7b 23 3d 82 7b 03 be
       -0.1210506 0.136385 0.039912615 -0.12840083
000070 3e b1 e1 bd 29 82 f0 ba ff ca 97 ba f4 ae 94 3d
       -0.110201344 -0.0018349338 -0.0011580883 0.07259932
000080 ef 64 33 bd a2 10 df 3d f0 f6 e7 bd f2 c0 ea bd
       -0.04379743 0.10891844 -0.113263965 -0.11462583
000090 06 3d 66 bd a0 5f 0e bd 03 6a bb bd 04 24 a3 3c
       -0.05621054 -0.034759164 -0.091510795 0.019914635
0000a0 c4 72 b5 bd 37 13 ed 3d 72 c4 f4 3d bb c9 a8 bd
       -0.088597804 0.115759306 0.119515315 -0.08241602
0000b0 e2 e8 86 bd bc 39 9c 3c c8 f7 01 be 33 ef a6 3c
       -0.065873876 0.019070499 -0.12692177 0.020377731
0000c0 46 cf 1d 3d d7 c0 0a 3e ae a8 04 bd d2 68 c1 3b
       0.03852775 0.13550125 -0.032387428 0.005902388
0000d0 bf 25 f1 bd 12 2d 44 3c 0e 01 b7 bd 59 54 8b bd
       -0.117747776 0.011973636 -0.08935748 -0.068031974
0000e0 b5 f9 d3 3b 4e 0c 10 be bb 21 a0 3d ac 56 01 3e
       0.0064689764 -0.14067194 0.078189336 0.12630719
0000f0 98 9e 39 3e a9 cc c1 3b fd 83 e9 bd f4 de 3c bd
       0.18126905 0.00591429 -0.11402128 -0.046111062
000100 36 6b 18 be 1b 09 c2 bc 5b 2b 72 3d ac 2f 82 bd
       -0.14884648 -0.023685982 0.05912338 -0.06356749
000110 4f 44 9a bc dc 59 8a bc e4 e6 bb bc 29 d7 09 3e
       -0.0188314 -0.016888551 -0.022937246 0.13460983
000120 09 5b 37 be f4 a9 99 3b 73 fb 38 3c c7 ed 13 3d
       -0.17905821 0.0046894494 0.011290419 0.036115434
000130 56 5f b3 3c b8 14 97 bd dd 6c 02 3b 3c 4b 77 3d
       0.021896046 -0.07376999 0.0019901313 0.060374483
000140 dc e1 2d 3d 0f 3b 70 3d a1 5c b0 3d 7e ba a2 3d
       0.042451724 0.058650073 0.086114176 0.07945727
000150 0a 9e d2 bd 70 af 4a be c8 54 40 bc ba 85 e3 3d
       -0.1028405 -0.19793487 -0.011738963 0.11109491
000160 71 9c e1 bd e9 cb f0 3c ad d4 e1 3c 07 8e b2 bd
       -0.11016167 0.029394107 0.027567232 -0.08718496
000170 68 a0 87 bd 2c 28 94 bd 03 02 44 3e 84 1d 10 bd
       -0.06622392 -0.07234225 0.19141392 -0.0351844
000180 cb 5a f0 bd 85 e2 69 be 29 03 6f 3c 60 ab 4c be
       -0.117360674 -0.22840317 0.014588156 -0.1998725
000190 68 45 c2 bd dd 99 e0 bc 89 a5 02 be 04 7a 6b bd
       -0.094858944 -0.027417118 -0.12758459 -0.05748941
0001a0 0d 38 8d bd 64 f5 53 3e bb d1 76 3b ff 58 ae 3d
       -0.068954565 0.20699078 0.003766163 0.085130684
0001b0 df b8 85 bd ac 02 cc bd 6b 8b 27 be 0a c3 39 be
       -0.06529402 -0.09961447 -0.16361777 -0.18140808
0001c0 a7 1a 52 3e 4a c4 70 3e cc 2a 89 bc 77 3d 29 3e
       0.2051798 0.23512378 -0.01674404 0.16527353
0001d0 a2 3c 11 3c bb 7e bc bd 97 35 ad bc 96 b7 32 3e
       0.008864554 -0.092038594 -0.021143718 0.17452845
0001e0 d1 d7 0e be 19 ac 52 3d 13 fc 5e 3e 02 51 b0 bd
       -0.13949515 0.051433656 0.21775846 -0.08609201
0001f0 4f 71 cb bd 86 21 c0 3d f5 b1 9e 3c 62 33 99 3d
       -0.09933721 0.09381394 0.019371966 0.074805036
000200 14 39 ff 3d cd b5 4d 3e 6e 02 47 3d bc 1f 7f be
       0.12462059 0.20088883 0.0485863 -0.2491445
000210 23 6e 8b be 19 40 1e be 89 f4 1a be 54 55 38 be
       -0.27232465 -0.15454139 -0.15132345 -0.180013
000220 6e 42 2f 3e 18 d2 85 bd fe 48 98 bd 4b 87 e3 3d
       0.17115185 -0.06534213 -0.07435797 0.111097895
000230 36 81 23 3d 2d 98 2b be 4f 99 32 3d be 8a 82 bc
       0.039918147 -0.16757269 0.043603238 -0.015935298
000240 a3 8e f4 bc aa 22 c3 bd aa 68 14 bd f5 cc fd 3d
       -0.02985317 -0.09528096 -0.036232628 0.12392608
000250 00 7f 38 3d 9f 2e 4a 3e 95 f6 a0 bc 28 bd 0e bd
       0.04504299 0.19744347 -0.01964883 -0.034848362
000260 a2 a1 19 be 78 be 01 3d 4c 73 ca bd db 41 36 3e
       -0.15003064 0.031675786 -0.098852724 0.1779856
000270 a9 a7 56 3e b4 4e de 3d 37 93 29 3c 35 5c ba bd
       0.20962395 0.10854855 0.01035004 -0.09099618
000280 f7 b0 4c 3e 1d 83 bf 3d 70 fd 18 3e 8f ff d0 3d
       0.19989382 0.0935118 0.14940429 0.10204994
000290 31 8f 9a 3d c6 a3 50 3e c9 d6 43 bd d0 33 cc 3d
       0.07546843 0.20374975 -0.047812257 0.0997082
0002a0 bd 93 dc 3c ec 85 1d be 55 00 9c 3d 85 50 1f bd
       0.026925916 -0.15383118 0.07617251 -0.03889515
0002b0 21 0c c3 3d 27 dd b9 3d c2 c5 27 3c 3d 0d ea bc
       0.09523798 0.090753846 0.01024002 -0.028570766
0002c0 6d dd 6c be 38 3a 5c bd bb d0 82 bd 86 92 32 be
       -0.23131342 -0.05376646 -0.063874684 -0.17438707
0002d0 b9 7d bd 3c 68 12 67 3d 64 d8 3f bd 04 69 32 3d
       0.023131238 0.056414038 -0.046837226 0.043557182
0002e0 bb e3 7a 3e 65 d7 23 be 63 d8 46 3e e9 e4 16 3d
       0.24500935 -0.16000135 0.19418482 0.0368394
0002f0 f1 25 7e bd 37 66 5e bd a4 f2 10 3d e9 9d 55 3e
       -0.062047902 -0.0542967 0.03538765 0.20861019
000300 c0 00 f1 3c cc 11 bc bc 57 7f 7e 3c 6e 05 9c 3e
       0.029419303 -0.022957705 0.01553329 0.30472893
000310 c7 7b 4b bd 49 e8 53 3d 03 ad 8c bd a5 36 d0 bb
       -0.04967859 0.051735196 -0.06868937 -0.0063541704
000320 3b 3c 10 be 38 fc a6 3d 76 6d 10 3d 22 46 b3 bb
       -0.14085476 0.08153576 0.03526064 -0.005471007
000330 a7 cd 30 3d e4 40 eb bc ae d3 6e 3e 02 ce 2f 3e
       0.043164875 -0.028717466 0.23322937 0.1716843
000340 56 f1 e8 bc f0 25 80 bd 06 02 fb 3c c3 c2 03 be
       -0.02843539 -0.06257236 0.030640613 -0.12867264
000350 ef 58 65 3e 77 a7 63 be cd 88 10 3e 87 60 20 3b
       0.22397207 -0.22231852 0.14114685 0.0024471597
000360 bd 35 c6 bd e9 3d 03 be 7e 07 f5 bd e9 c8 11 3d
       -0.096782185 -0.12816586 -0.1196432 0.035591993
000370 e3 18 ac bd f5 d7 3a be 45 ed a0 bc b0 18 af 3d
       -0.08403184 -0.18246444 -0.019644389 0.08549631
000380 13 ab 12 3e b4 8e 12 3d 02 d1 d0 3c d9 4f 01 be
       0.14323072 0.035780624 0.025490288 -0.12628116
000390 51 97 a1 3d 86 fc 99 3d f7 90 0f bb a9 bb c6 bd
       0.078901894 0.07518868 -0.0021906474 -0.09703762
0003a0 bc bc 93 bd 5c 9b 40 3e 9b 48 0d 3e ae 02 7a be
       -0.072137326 0.18809265 0.13797228 -0.24415085
0003b0 19 4a b3 3d 63 c0 21 be e6 72 63 be a5 27 a2 3e
       0.087543674 -0.15796046 -0.22211799 0.3167087
0003c0 1f 4b 81 3d 5f de 46 be 8e 86 80 3b 11 db bd 3d
       0.06313156 -0.19420765 0.00392229 0.09270299
0003d0 86 1a bb 3d a0 db b8 3d ed 86 aa bc 7e d5 c2 3d
       0.09135918 0.09026265 -0.02081629 0.09513377
0003e0 cc 4d 6a 3e 52 1e 23 3e 95 f3 38 3d f1 84 f3 bb
       0.2288124 0.15929535 0.045154173 -0.0074316193
0003f0 ff d4 9c 3d 6f fd 81 bd 89 23 0f 3e e0 70 eb bc
       0.07657813 -0.06347167 0.139784 -0.028740346

conv1.lin_l.bias f4 [50]
000000 ee 48 1f 3d 74 56 e1 bc a8 15 6c bc b2 52 03 be
       0.03888791 -0.027507044 -0.01440946 -0.12824515
000010 03 38 cb 3d ef c8 d4 bb e0 cf 78 3c f1 36 01 be
       0.09922793 -0.0064936797 0.01518628 -0.12618615
000020 3d b8 60 bd e0 c2 bc bd da 9f 5b bd ef 5a 49 ba
       -0.054863203 -0.09216857 -0.053619243 -0.00076810917
000030 bd 6d 3a 3e 42 4b 2d be af 65 07 3e ca 39 94 3d
       0.18205924 -0.1692324 0.13222383 0.07237585
000040 f1 43 59 bd 10 0e d7 3c c4 7b 67 3d 13 1f 9c bd
       -0.05304331 0.026251823 0.056514516 -0.076231144
000050 f1 69 2b bd 2b 76 94 3d 8b 67 b4 bd 43 b4 dd bc
       -0.04184908 0.07249101 -0.08808812 -0.027063495
000060 ee 3d 4b be 29 8e 32 bc 4f 74 24 bd ec 31 87 3d
       -0.19847843 -0.010898151 -0.040149983 0.06601319
000070 4f 8f 3e 3d 9b a6 33 3b 79 1d ff bd 18 de 45 3d
       0.04652339 0.0027412537 -0.12456793 0.04830751
000080 fe 1e 56 3d 95 d0 37 bd 17 01 d0 3b 8e b2 10 3d
       0.05227565 -0.044876654 0.006347786 0.035326533
000090 66 b4 15 be b3 03 c3 bd 4e 18 12 3e 1d ff 8f bc
       -0.14619598 -0.0952219 0.14267084 -0.017577702
0000a0 fa a9 2f be 93 d6 b6 bc 4c 3e 19 be 21 bd 57 be
       -0.17154685 -0.022319114 -0.1496517 -0.2106824
0000b0 c7 85 82 3d b9 57 31 3e 4d 09 00 3e 0b df da bd
       0.06373172 0.1731862 0.12503548 -0.10687073
0000c0 3d 1a 74 bd 2e 05 23 be
       -0.059595335 -0.15919945

conv1.lin_r.weight f4 [50, 50]
000000 9e c4 04 be ba 73 89 3c 32 e6 f8 3c d7 87 0c be
       -0.12965629 0.016778816 0.030383203 -0.13723694
000010 b4 0f 7f 3c 85 e2 2b 3d 49 a9 57 3e 8f 8f 0f 3e
       0.015567709 0.041964073 0.21060671 0.14019607
000020 51 d4 38 3d 56 70 0d 3d 13 1d 8b 3d 3b d0 43 3d
       0.045124356 0.03453096 0.06792655 0.047806006
000030 25 5d 70 3d 00 a2 15 be 2a e3 59 3d 9b 87 8b 3b
       0.05868258 -0.1461258 0.053195156 0.004258109
000040 cb 30 0c be a1 4e 29 be bc 88 0d bd fe 3d 2c 3e
       -0.13690488 -0.16533901 -0.03455423 0.16820523
000050 64 34 74 bd 7f f8 de bd 08 51 db bc ad 8d d4 3d
       -0.059620276 -0.108872406 -0.026772037 0.10378585
000060 19 3c 00 bd 6d 56 26 3e 42 91 f1 3d cf 24 5a bc
       -0.031307314 0.16243906 0.11795284 -0.01331444
000070 34 30 57 3c 07 75 bb 3d 62 ee c1 bd 83 f8 ca 3d
       0.013134051 0.091531806 -0.09469296 0.09910681
000080 6c 72 e5 bd d3 51 1c 3e c8 31 77 bb 1b 46 b6 bd
       -0.11203465 0.15265588 -0.003771888 -0.0890009
000090 7a 41 e8 3d 3a c8 bd 3c 01 a4 6a bd 3a 36 1b 3e
       0.11340614 0.023166765 -0.057285313 0.15157405
0000a0 8e d3 17 be 62 d0 91 be bf c8 3c 3e dd ca 81 bc
       -0.14826795 -0.28479296 0.18435954 -0.015843803
0000b0 f6 46 c2 bd 50 66 ad bd 0c 42 01 be c3 b8 48 3d
       -0.09486191 -0.0846678 -0.12622851 0.049004328
0000c0 6b 00 ab bd 66 b3 07 3e 80 65 94 3c 57 96 09 3c
       -0.08349689 0.13252029 0.018114805 0.00839766
0000d0 dd d3 d9 3d e7 4e 24 be df c3 ed 3d 6d be 42 be
       0.10636113 -0.16045724 0.11609625 -0.19017954
0000e0 86 b3 d7 bd f8 20 01 b9 67 68 c7 3d e9 a5 ff 3d
       -0.10532288 -0.0001231468 0.0973671 0.12482817
0000f0 d7 09 42 3e 0e 2b 4f 3d ee f2 0a 3e c4 56 60 be
       0.18949066 0.05057817 0.13569233 -0.21908098
000100 95 1e 1c be 2e 07 2f be 09 c4 94 bd ab e1 68 3d
       -0.15246041 -0.17092583 -0.07263953 0.05685584
000110 5d b9 7d 3d 04 e3 f3 bc ae 90 66 be 84 08 7c be
       0.061944354 -0.029771335 -0.22516128 -0.24612623
000120 c4 24 57 be 3c 32 87 bd 99 09 ae bd 43 68 a5 bc
       -0.21010119 -0.06601378 -0.08497924 -0.020191317
000130 10 a6 3f be ef 19 9c 3c f5 1a a6 3d 21 b6 b0 b8
       -0.18715692 0.019055335 0.081106104 -8.426258e-05
000140 76 2c 50 3d ae 90 50 3e e0 c3 3e b9 b4 cc 0f bc
       0.05082365 0.20367691 -0.00018192781 -0.008776832
000150 a5 33 70 3e 6f 17 70 3e 64 1b fe bc 7b 83 9f 3d
       0.23457201 0.23446439 -0.03101892 0.0778875
000160 ac 03 c1 bd d2 d3 07 bd 47 c7 5c bd d5 89 c6 3c
       -0.094245285 -0.033160992 -0.053900983 0.024235645
000170 76 a8 d8 bd ce 6a de bd 1d 01 22 3e 26 be 68 3d
       -0.105790064 -0.10860215 0.15820737 0.056821965
000180 cf 3c d8 bd fc b0 5a be e0 7f c7 3c 04 06 80 bd
       -0.10558473 -0.21356577 0.024352968 -0.062511474
000190 16 23 f1 3d 3a df 66 bd 4d 06 ab 3b 3a 1a 0e 3e
       0.1177427 -0.05636523 0.005219257 0.13877192
0001a0 cd 50 bf 3d 30 45 55 3e 58 fc ea 3c d0 99 4b 3d
       0.093415834 0.20827174 0.02868478 0.049707234
0001b0 1a b4 ba bd d0 76 c6 3d 49 3e 9d 3d 3b 0a 23 be
       -0.09116383 0.096906304 0.076778956 -0.15921871
0001c0 a8 eb 9f be a3 a5 33 3e 37 dd 48 3d 5c 5e ad 3d
       -0.3123448 0.17543654 0.049039092 0.08465263
0001d0 7b d3 4b 3e ec a0 23 bd d2 d7 d9 3c 6d 73 4d 3e
       0.19904892 -0.03994839 0.026592169 0.20063563
0001e0 9d 7a dc 3c f6 7b 93 3e 2e fb 1e 3d f7 c2 6b bd
       0.026913935 0.28805512 0.038813762 -0.05755898
0001f0 3b f2 5d 37 2d 7b c4 bd dd a9 6f 3c eb 39 02 3e
       1.3229025e-05 -0.095938064 0.014627901 0.12717406
000200 e2 b9 5f bd 33 10 de bd 95 f6 70 3d a9 07 4d be
       -0.05462063 -0.108429335 0.05882891 -0.20022453
000210 28 c2 ec bb b8 29 08 be 1f 95 7b be 6d 09 26 3d
       -0.0072252937 -0.13297164 -0.24568604 0.040536333
000220 37 ea 9b 3d 7a 97 70 bd 41 d8 e8 3b 50 ce 8d 3d
       0.07613032 -0.05873821 0.0071058576 0.069241166
000230 bb 1b 6f 3d ad 86 4b 3d 39 59 e6 3a 9a 55 33 3e
       0.058376055 0.049688984 0.0017574198 0.17513123
000240 45 5c 4f 3d bb 55 0c be 35 d6 bd 3d dd 33 00 3d
       0.050625104 -0.13704579 0.092693724 0.03129946
000250 a0 ba 51 3d c6 64 65 be 68 d3 23 be 15 b4 03 be
       0.05120337 -0.22401723 -0.15998614 -0.12861665
000260 bc 86 db 3d 3e 9c 3e 3b f9 4b 03 be c1 a7 81 3d
       0.10719058 0.0029084827 -0.1282195 0.06330825
000270 6f 7c 84 3d f7 c3 73 3d 9e c0 08 3c d0 e1 af 3d
       0.06469046 0.05951306 0.008346705 0.08587992
000280 a8 99 35 be 28 68 b7 3b 80 73 23 3e f1 36 95 3d
       -0.17734396 0.005597133 0.15962029 0.0728587
000290 08 0d d5 3d 52 1d 33 be 01 71 e2 bd 00 fa 23 3e
       0.10402876 -0.17491654 -0.1105671 0.16013336
0002a0 42 0b e7 bd df 69 d0 3d 16 c3 19 be 64 09 0c be
       -0.11281444 0.10176443 -0.15015826 -0.13675457
0002b0 05 b7 77 bd 9c 06 ab bd fd de 36 3c 3f fc 4b 3e
       -0.060477275 -0.0835087 0.011161563 0.19920443
0002c0 bc be 9c bc 8d a0 c5 3d 33 4a 5c 3b b7 74 1d 3e
       -0.019133918 0.09649763 0.0033613562 0.15376554
0002d0 e4 dc 8d 3d 8e 1d 6f bc 9c 6d 57 3e 1e be b2 3e
       0.06926897 -0.014594449 0.21037906 0.34910673
0002e0 46 9e af 3d 19 e8 24 3d 76 2d 01 3d 30 a9 96 3c
       0.0857511 0.040260408 0.031537496 0.018391222
0002f0 94 92 71 bd b3 06 2c be 8f b7 40 3d 0a 1c 2e bd
       -0.05897768 -0.1679943 0.047050055 -0.04250721
000300 5d d3 d3 3d d7 85 a8 3d 36 0f e3 3d 78 45 70 bd
       0.10343049 0.08228653 0.11086886 -0.05866
000310 7f f4 72 3d c8 e0 8c 3d 16 90 40 3d f5 63 1b 3e
       0.0593152 0.06878811 0.04701241 0.1517485
000320 2f af 0f be 58 71 b2 bd 43 fd cb bc 81 78 3d 3d
       -0.14031671 -0.08713025 -0.024901038 0.0462575
000330 1a 5d a3 3d 75 c5 50 3b ff 2a 16 3e 8c d3 9e 3d
       0.07976742 0.0031855975 0.14664839 0.07755193
000340 ae 4d 84 3d 50 c6 44 3d bf 22 2e bd b1 62 9f 3d
       0.06460129 0.048040688 -0.042513605 0.07782496
000350 da 55 96 3e 3b e6 f4 bd 3e 8f 82 3d 53 5d e7 bd
       0.29362375 -0.119579755 0.063749775 -0.11297097
000360 fe c4 ca 3d 61 2d 0a be 52 14 22 3d fb eb a6 3d
       0.099008545 -0.13493873 0.03957016 0.081504785
000370 88 46 dc 3d 66 17 af bb 00 47 83 3c 07 c2 50 3d
       0.1075564 -0.0053433655 0.016025066 0.05096629
000380 58 a9 e4 3d e7 66 a5 3c 01 e1 1f 3c 89 96 cb 3d
       0.11165112 0.02019067 0.009758235 0.09940822
000390 4e f1 59 3d 72 d8 ed 3d 57 8e 35 be 4c 85 26 3e
       0.05320864 0.11613549 -0.1773008 0.16261786
0003a0 8b ac 59 bd 5d d4 21 3e 65 66 de 3d cb 2c 1f be
       -0.053143065 0.15803666 0.10859374 -0.15544431
0003b0 95 05 3b 3c 8c ce 1b be f6 f1 01 3e 6c 50 48 bd
       0.011414905 -0.1521551 0.12689957 -0.04890482
0003c0 2e 8c c2 bc a2 fd 4a be 92 bc b5 3a 5e f1 00 3e
       -0.023748484 -0.19823316 0.0013865402 0.12592074
0003d0 a7 0f ba bd 96 3c e5 bd e5 f3 c5 3d 60 52 60 3d
       -0.09085017 -0.111931965 0.0966566 0.05476606
0003e0 c5 cb 1f 3d f1 9b fd bd 98 8d 3a bd b7 6f 3a 3d
       0.03901269 -0.12383259 -0.04554519 0.045516696
0003f0 d0 c5 f1 3c a7 20 6d 3d 76 0e 3b 3d 06 65 45 3d
       0.02951327 0.057892468 0.045668088 0.048192047

conv2.lin_l.weight f4 [100, 50]
000000 cf 92 4d 3d 3a 01 5f bd 71 3a 72 3d 69 37 bc bc
       0.050188836 -0.05444453 0.059137765 -0.02297564
000010 a0 61 f3 3d e6 66 ef bd a2 ff 6b 3e 4f 14 47 be
       0.11883855 -0.11689548 0.23046735 -0.19441341
000020 e3 e7 29 bd e4 ec 31 3e 92 2a d9 bd cf e9 82 bb
       -0.04148091 0.17375523 -0.10603823 -0.0039951573
000030 9a c0 bf 3d 46 6d 0d bc 27 43 d6 bd ad 2a 2f 3e
       0.09362908 -0.00863201 -0.10462027 0.17106123
000040 bc b3 fb ba d7 34 b2 bd 14 24 12 bd a2 f8 e6 bd
       -0.0019203345 -0.08701485 -0.035678938 -0.11277892
000050 fc 13 22 3d 13 24 4b 3d fc 8d 76 bd 7e f1 2d be
       0.03956984 0.04959495 -0.060194 -0.16986653
000060 94 4e d4 3d 20 72 99 bd 24 11 24 3d 9a b8 b7 bd
       0.1036655 -0.07492471 0.04005541 -0.08970757
000070 ed 1e 28 bc 83 5a 49 bc 3f 01 fa bd 98 6c 3e 3c
       -0.0102612795 -0.012289646 -0.12207269 0.01162257
000080 31 e6 02 be c5 a5 49 3e ca 83 5a 3e 5c d9 a8 3d
       -0.12783124 0.19692142 0.21339336 0.08244583
000090 81 3a 8a 3c f4 32 03 3d 9f 0b 4f bd 63 1d b9 bd
       0.0168736 0.032031015 -0.050548192 -0.09038808
0000a0 04 ca 07 3e b7 21 cc 3d 86 96 2d be 04 35 82 bd
       0.13260657 0.09967368 -0.16951951 -0.06357768
0000b0 b8 ab 1f bd 49 67 c2 bd ee fb aa bd 3a 3d e4 3d
       -0.038982123 -0.09492356 -0.08348833 0.111444905
0000c0 b1 b5 09 3e dd b3 6a bd 25 54 d0 3d ad 0d 9d bb
       0.13448216 -0.057300437 0.10172299 -0.00479289
0000d0 2d d1 b2 3d 5a 6f 1c be 3d 33 a8 bd 9d 1a 44 3e
       0.08731303 -0.15276852 -0.08212898 0.19150777
0000e0 fb 17 31 3d 34 87 70 bd 9b c4 aa 3c ec e6 c2 3d
       0.04323576 -0.05872269 0.020845702 0.09516701
0000f0 0b 76 4f bc 91 00 69 3d 89 bd fe bd 88 af 55 bd
       -0.012662421 0.056885306 -0.12438495 -0.052169353
000100 4e 54 4f bd 8f 97 66 3d c1 d1 18 bd 8e c6 e2 3d
       -0.05061751 0.05629688 -0.037309412 0.110730276
000110 19 8c af bd bb 1e 26 3d 02 1d 37 3e 3a ed 9a 3d
       -0.085716434 0.04055665 0.1788216 0.075647786
000120 f3 f7 31 be 6d 4b c7 bd aa 6b 19 3d f1 1c c7 3a
       -0.17379741 -0.09731183 0.037456192 0.001519112
000130 fe 3f 54 bc fb 09 a1 bd ba 74 c9 3d 43 e7 00 bd
       -0.01295471 -0.07863232 0.09836717 -0.03147055
000140 7e d3 aa bd 07 d0 a1 3d eb 20 57 3b c4 09 20 3e
       -0.0834112 0.07901006 0.0032826017 0.15628725
000150 81 bf d7 3c 93 b9 b3 3c ab 7d a5 bd f3 af d3 bb
       0.026336433 0.021939075 -0.0808061 -0.0064601838
000160 f8 c3 1f bd 03 4f 47 bd 0e f6 31 3d e0 01 2c 3e
       -0.03900525 -0.048659336 0.043447547 0.1679759
000170 77 38 e0 3d 57 00 40 3e 9c 5c 1a bd f8 19 22 3d
       0.1094827 0.1875013 -0.037685975 0.039575547
000180 40 cc 28 bc 3d c1 99 3e e5 7d 16 be ed aa cc bd
       -0.010302603 0.30030242 -0.14696462 -0.09993539
000190 34 e0 f9 3c 8c dc 2c 3e 5c 42 a8 bd e9 15 7e bd
       0.030502416 0.16881007 -0.08215782 -0.062032614
0001a0 75 54 06 be 49 01 65 3e 05 f5 66 3e fd 5e 0b be
       -0.13118155 0.22363771 0.22554405 -0.13610454
0001b0 95 7d e0 bd da a6 22 3e ca e7 c9 bd 87 29 90 bc
       -0.10961453 0.15883961 -0.098586634 -0.017597927
0001c0 65 52 f9 3c 0a 43 0c 3e 8b b4 d6 bd df dd 88 bd
       0.030434797 0.13697448 -0.104836546 -0.066829436
0001d0 78 02 77 bd a2 bb 2b bd 32 7f 49 be 28 f5 51 3c
       -0.06030509 -0.041926987 -0.19677427 0.012814797
0001e0 3c da 24 3d ca 24 cf bc c1 ae b1 bc 29 f9 b8 bc
       0.040247187 -0.025286097 -0.021689774 -0.022579746
0001f0 88 0b 61 3d ca 9e ed 3d 5c c3 6b 3d 63 1a 36 3d
       0.054942638 0.11602552 0.057559356 0.044458758
000200 49 ce b8 bd 9c 73 30 3e 50 04 f5 bd ea 17 c8 bb
       -0.09023721 0.17231601 -0.11963713 -0.0061063664
000210 f6 97 81 bc 30 de a7 3e 69 ce 52 3e 0f b2 9b bb
       -0.015819531 0.32786703 0.20586552 -0.004751451
000220 d8 ff 12 be df 07 ed 3c e9 b5 c9 bd 76 aa 6a 3c
       -0.14355409 0.028934417 -0.0984915 0.014322868
000230 69 09 33 3e 03 20 06 3e fd 94 4c bd bc a4 5f bd
       0.17484058 0.13098149 -0.049946774 -0.054600462
000240 29 71 34 bd 6b 53 f4 3c 1f fa 48 be 42 b3 7c 3d
       -0.04405323 0.029824933 -0.19626664 0.06169439
000250 7d 11 c0 3d 34 e3 7a 3d 3d ea a6 3d 7f 91 cd bd
       0.093783356 0.061251834 0.08150146 -0.10037517
000260 51 19 39 be 37 e7 97 bd cb ba 02 bd 52 ec b3 3c
       -0.18076064 -0.074171476 -0.03191642 0.021963272
000270 5b 71 4f 3e fe 88 f6 3d 98 36 c3 3d 52 0b 47 3e
       0.20258085 0.12037848 0.09531897 0.19437912
000280 ac 81 8b 3d df 24 a4 3d 47 77 b9 3b 7d c9 8e 3d
       0.06811842 0.08014845 0.005659971 0.069720246
000290 27 10 6a 3c 69 ee f0 3d 09 35 a3 3d 01 ab 6b bd
       0.014286078 0.11764223 0.079691 -0.05753613
0002a0 8a d1 23 be 91 1b 8f bc e8 05 19 be 2e b0 28 3d
       -0.15997902 -0.0174692 -0.1494366 0.041183643
0002b0 1c f8 7d 3b f6 b4 33 be 74 a5 0c be 5c 68 07 bb
       0.003875262 -0.175495 -0.1373499 -0.0020661568
0002c0 fa ac 24 bb 60 34 12 bd 28 19 1a 3e d9 7f 55 3d
       -0.0025127516 -0.03569448 0.15048659 0.05212388
0002d0 0d c9 dd bd 23 6b c8 3b 2e b9 22 3d 10 c5 15 3e
       -0.10829363 0.0061162873 0.039727382 0.14625955
0002e0 36 4f 37 3e 09 44 10 bd 96 44 da bd 4f a3 8e bc
       0.1790131 -0.035221133 -0.10657613 -0.017411856
0002f0 a3 df 0c be 55 a8 8c bd d8 c4 10 3e 59 ce e9 3d
       -0.13757186 -0.06868044 0.1413759 0.11416311
000300 c6 f9 9a 3d 40 e3 e5 3d 9c ac ab 3d d0 c0 04 3e
       0.07567172 0.11224985 0.08382532 0.12964177
000310 fe 10 0d be 2c e0 71 3e 8c f6 dd bd b5 f8 d8 bd
       -0.13776013 0.23620671 -0.10838041 -0.10594312
000320 af ab 41 3d 90 43 8c bd 06 f2 be 3d 59 3b 23 be
       0.04728287 -0.06848824 0.09323506 -0.15940608
000330 c8 60 06 3d e1 b2 67 3e 49 27 f3 bd 62 43 02 be
       0.03280714 0.2262683 -0.118727274 -0.12721017
000340 7a 07 ac bd 85 b8 c6 bd d4 45 0e bd 85 cf bb bd
       -0.083998635 -0.09703163 -0.034734562 -0.091704406
000350 76 d1 2d be 74 dd 3f 3e 3f 8e 5d be 72 c2 a8 3c
       -0.16974434 0.18736821 -0.21636294 0.020600531
000360 cf 5d 1d be d9 40 c6 bc ad 3f 13 bd cc 65 c2 3c
       -0.15367816 -0.024200844 -0.035949398 0.023730181
000370 dc 53 d5 3d bc d7 c8 3c e3 4a 9c bc dc 01 db bc
       0.104163855 0.024516933 -0.019078678 -0.026734285
000380 64 57 0c 3e db 20 4a 3d b6 c8 8f be 7e f8 b2 bc
       0.13705212 0.04934774 -0.28082818 -0.021847006
000390 aa 35 8e ba ce 82 0b 3e b3 4d f5 3c 6b 79 27 3d
       -0.0010849733 0.13624117 0.029944276 0.040887278
0003a0 3a 2c 35 bd bf 1c 57 3d 2a eb 1c 3d 5f 1a 53 3e
       -0.04423163 0.05251765 0.038310207 0.20615529
0003b0 33 37 bb bc b2 ab 65 3e b6 34 96 bd f3 8f fb 3d
       -0.02285347 0.22428778 -0.073342726 0.122833155
0003c0 87 c6 2e be 09 a5 0f be 7f 17 e1 bd 3a 29 2a 3d
       -0.1706792 -0.140278 -0.1099081 0.041543223
0003d0 15 df 2c 3e 40 08 d3 bd ab 0b 0c 3e 9d 52 0f be
       0.16881974 -0.10304308 0.13676326 -0.13996358
0003e0 9e 2b 10 be 8c 37 cb bd 3a b9 f6 3d ea a0 d6 bd
       -0.14079139 -0.09922704 0.12047048 -0.10479911
0003f0 a7 65 46 3c b3 f2 a9 bd 68 59 42 bd 6d e4 7e 3e
       0.012109197 -0.08298244 -0.047448546 0.24891825

conv2.lin_l.bias f4 [100]
000000 83 97 f2 bc 39 52 98 3b 32 82 c6 3b 30 9f 96 3c
       -0.029613262 0.0046484736 0.006058001 0.018386453
000010 dd 55 ca bd 82 a0 2d be 98 64 14 bd 2b 43 7d bd
       -0.09879658 -0.1695576 -0.036228746 -0.061831634
000020 54 94 80 3d 60 2d 04 be 45 b6 9a 3d 3f a5 bf 3d
       0.06278291 -0.12907934 0.075542964 0.0935769
000030 f4 a9 93 3d e3 04 b1 bd 24 92 cb 3d 29 40 bd bb
       0.0721015 -0.0864351 0.099399835 -0.0057754708
000040 7a d3 77 bd 0b 52 39 bb 7e 26 59 bd b7 e0 5a bd
       -0.060504414 -0.0028277661 -0.053015225 -0.05343696
000050 9d 14 97 bd 92 cf 2f bd 83 56 1d be 15 a1 c2 3c
       -0.073769785 -0.042922564 -0.15365033 0.02375845
000060 1a 68 a5 3d cb 7a 45 bd 8d e1 9d bd 49 10 d4 bd
       0.080764964 -0.048212808 -0.07709036 -0.10354669
000070 5d 5b e4 3d 2e 61 05 be f1 6f ef bd 48 9b 41 bd
       0.11150239 -0.13025352 -0.11691273 -0.04726723
000080 d6 47 2b 3e 70 91 0e be 14 c2 bf 3d 02 d3 90 bd
       0.16726622 -0.13922668 0.09363189 -0.070714965
000090 2c 8f b9 3d e8 1c f7 bd bf 57 c0 bd 87 d3 14 be
       0.09060511 -0.1206606 -0.09391736 -0.14533816
0000a0 f0 0c 89 3d 89 2e 85 bc 4f 64 fd bc 98 ae dd 3d
       0.06691921 -0.016257541 -0.03093162 0.10824317
0000b0 e0 fa f1 bd 85 af 32 bd 0b e2 15 3d ae 22 1b be
       -0.11815429 -0.04362442 0.036592524 -0.15149948
0000c0 35 50 1a 3c bd 1b 10 be cf b2 3f 3c 3c d0 33 bd
       0.009418537 -0.14073081 0.011700346 -0.04389976
0000d0 67 64 1d bd e3 6a d0 bd f5 a9 21 3e 5e 3f c1 3d
       -0.03842583 -0.10176637 0.1578749 0.094359145
0000e0 52 5d b3 bd 6a fe 64 3d 15 3c 82 bd f0 dd 4b be
       -0.08758034 0.05590669 -0.06359116 -0.19908881
0000f0 c8 2f 66 3d c3 5a 96 bd b7 7c 4a 3b ba e9 be 3b
       0.05619791 -0.0734153 0.003089709 0.005826202
000100 8a 51 1f 3d b7 c8 0b bd 2a 7f ba 3d e0 48 ae 3d
       0.03889612 -0.034126963 0.09106286 0.085099936
000110 98 b2 0e bd 0f d1 ae 3d 57 ff 81 3d 2c e9 09 3c
       -0.03483829 0.085359685 0.0634753 0.008417409
000120 7f 94 dd 3d 39 d9 5b bc 4f e6 4a bd 39 0e 26 bd
       0.10819339 -0.013418489 -0.049536046 -0.040540908
000130 ff 19 f1 3c 28 52 21 3d 96 d8 5f bd b1 b8 13 bd
       0.029431341 0.03938499 -0.05464991 -0.036064807
000140 13 5c af 3d 50 f5 3c 3d de 79 1c bd 72 0c f1 bb
       0.08562484 0.046132386 -0.03820216 -0.00735622
000150 99 7c 27 be 55 cf 94 3d 6f f6 c8 3c c6 33 d3 3d
       -0.16356124 0.07266108 0.024531571 0.103126094
000160 26 4a fe 3d 00 ef 1f 3e 73 1f ab bc 72 5b 8c bd
       0.124164864 0.15618515 -0.02088902 -0.06853379
000170 04 1d c8 3c d9 2d b1 bd f4 ce 50 bd 47 cc 15 3d
       0.024427898 -0.08651323 -0.050978616 0.036571767
000180 17 ae ef 3d 73 49 0d be 36 05 37 3d a8 bd 7c bc
       0.11703127 -0.1379755 0.044682704 -0.015426077

conv2.lin_r.weight f4 [100, 50]
000000 97 a5 40 be 4e 48 29 bd 50 db 22 3c 33 5d 1d bd
       -0.18813168 -0.04132872 0.0099399835 -0.03841896
000010 c3 f4 39 3d 4f 4e 95 3d 47 99 61 3e 67 f9 31 be
       0.04539944 0.07290327 0.22031127 -0.17380296
000020 f2 48 00 3b 74 f6 72 3e fa ed e8 3d 0d 9f b5 be
       0.0019574729 0.23726827 0.113735154 -0.3547291
000030 f1 14 76 be e6 15 08 bd 5a 49 1d be 18 ca d1 3d
       -0.24031426 -0.03322401 -0.15360013 0.102436244
000040 ec c5 86 3d 7d d3 21 bd b7 14 f9 bd f6 b4 ee bc
       0.06580719 -0.03950833 -0.12162154 -0.029139023
000050 4d 8a 54 be 3f a1 15 3e ef 67 ff bd f5 fb 5a 3d
       -0.20755883 0.14612292 -0.12470996 0.05346294
000060 5c 01 e6 bd 86 dc 83 be 70 9f f3 3c 90 62 40 bd
       -0.11230728 -0.25754184 0.029739112 -0.046968997
000070 99 c9 36 be b7 83 2f 3d fe 16 2c be 59 3c b9 3d
       -0.17850341 0.042850222 -0.16805646 0.090447135
000080 a8 8b 43 be 24 15 c3 bd db 65 8d 3e 60 53 1d 3e
       -0.19096243 -0.09525517 0.27616772 0.15363836
000090 a2 31 17 3e c0 19 8a be 23 3e 28 be 00 ef b3 bc
       0.14765027 -0.2697277 -0.16429953 -0.02196455
0000a0 5e 89 64 3e 86 d8 f4 bd a2 23 b8 bc 08 cc a7 3d
       0.22318026 -0.11955361 -0.022477929 0.08193213
0000b0 a5 e5 a5 3d ea 92 94 be e5 ab ba 3c 8c 54 9d 3e
       0.08100442 -0.29018337 0.022787044 0.30728567
0000c0 c8 87 76 3b eb 69 d4 bd 3e 0f 38 be 45 32 bf bd
       0.0037617553 -0.10371765 -0.17974564 -0.0933576
0000d0 a0 37 a6 3d 63 ea 2b 3d 12 fa 97 be 24 04 15 3e
       0.081160784 0.041971575 -0.29682976 0.14552361
0000e0 1b 02 a0 3e 2b c8 a0 3c 7f c2 19 3d 84 60 ff 3d
       0.31251606 0.019626698 0.037539 0.12469581
0000f0 3a ea 9b 3d 39 3d 0d be f2 b3 9e bd 6f f8 7b 3d
       0.076130345 -0.13792886 -0.077491656 0.06151622
000100 ca 0f 56 be 4b 34 13 3e 92 41 3e bd f5 1b d2 bd
       -0.2090446 0.14375417 -0.04644925 -0.10259239
000110 07 1e ee bb e6 d6 ab bd 90 69 ae bd 18 9d f0 3d
       -0.007266763 -0.08390598 -0.08516228 0.11748713
000120 2f 20 c6 bd d6 fc 6b be df 67 b5 bd 24 b6 1c be
       -0.09674107 -0.23045668 -0.088577025 -0.15303856
000130 be 1f 86 3d 47 4f 55 bd 53 0d 75 3d 9f 88 33 3e
       0.06549023 -0.052077558 0.05982716 0.17532586
000140 25 a6 37 bd ae a9 24 be f1 ae d6 bd dd f2 81 3c
       -0.044836182 -0.16080353 -0.10482586 0.015862877
000150 c7 ad f0 3d c4 3a a2 bc e0 40 af 3d ca 1a e1 bd
       0.117518954 -0.019803412 0.08557296 -0.10991438
000160 ec a9 2b be b8 52 8c bd 7f de 3d 3d 91 d9 b9 3d
       -0.16764039 -0.06851715 0.046354767 0.090747006
000170 67 f4 01 bd c4 a2 e5 3d 47 3a f4 3d ad 89 f7 3b
       -0.03172722 0.11212686 0.11925178 0.007554254
000180 b7 e1 3f bd 9a e6 a9 3e ec a8 a1 3d 7b f3 61 bd
       -0.046846118 0.33183748 0.078935474 -0.05516384
000190 ae af b5 bd 0e 8c ac 3c 41 86 3e 3e c6 f7 ed bd
       -0.08871399 0.021062877 0.18605901 -0.11619525
0001a0 3a 7b 22 be e5 b0 88 bd 10 7f a7 3e 0e d4 c9 bd
       -0.1586732 -0.06674365 0.32714128 -0.09854899
0001b0 57 f4 6d 3c 81 3d 7c 3e 3d 76 f9 3d b5 9a 46 be
       0.014523587 0.24632837 0.12180755 -0.19394954
0001c0 63 db 9a bd 70 df 97 3d f4 05 48 bc 69 fc 87 3d
       -0.07561376 0.07415664 -0.012208451 0.0663994
0001d0 83 f3 d3 3c a2 1d f7 3d f9 54 43 3c fb a3 4d be
       0.025872951 0.12066199 0.0119221145 -0.20082085
0001e0 70 c3 3b be ed 9c f6 bd c9 50 87 be a6 f8 23 be
       -0.18336272 -0.1204165 -0.26428822 -0.1601282
0001f0 a1 7d e4 bc 6a f3 8a bd ff d1 da bc 14 59 2e 3d
       -0.027891936 -0.06784709 -0.026711462 0.04256542
000200 30 40 81 3d f9 3d 0b 3c d3 61 e6 3d 24 7f 08 3d
       0.06311071 0.008498662 0.11249127 0.033324376
000210 fc 85 37 be ac bc 05 be d0 c7 2e 3e c4 d7 31 bd
       -0.17922205 -0.13060254 0.1706841 -0.04341866
000220 14 b6 e6 3d f5 c9 37 bd de 21 77 3c a4 4d be 3d
       0.112651974 -0.044870336 0.015083758 0.092921525
000230 77 da 56 3e f0 2a 3e be 03 13 c6 3d 1f b7 3f 3e
       0.20981775 -0.18571067 0.09671595 0.18722199
000240 5b ad 96 3d 36 22 09 be 6b 15 28 be ca 02 8c 3d
       0.07357284 -0.13391957 -0.1641442 0.068364695
000250 9f c9 93 38 e1 58 1a be 08 10 4d be e2 03 42 be
       7.047061e-05 -0.15072967 -0.20025647 -0.18946794
000260 09 3d 72 3d 5b e5 3e 3a 97 78 e1 bd 01 c1 ca bc
       0.05914024 0.00072821014 -0.11009329 -0.024750235
000270 d4 3d a1 3e 1e d1 3b bd 01 6e fe bd e5 7d 9a 3e
       0.31492484 -0.045853727 -0.12423325 0.30174175
000280 e4 06 0b 3d 3f be 94 be 13 3f 14 be 77 8b dd 3d
       0.03394212 -0.29051396 -0.14477186 0.108176164
000290 e5 60 3c bd eb d5 07 3e 7f 1d 08 be 29 d8 f4 3d
       -0.045990843 0.13265197 -0.13292502 0.11955292
0002a0 ec 9d d7 bd b7 78 c1 bd 77 3c 29 be 66 ff 7d bd
       -0.10528168 -0.09446853 -0.16526972 -0.062011145
0002b0 17 51 52 be d9 c2 88 3d cb 98 54 bd 88 36 d4 bd
       -0.20538746 0.06677789 -0.051903527 -0.103619635
0002c0 13 98 38 3d 6d 77 4c be f6 d9 4f be bf 22 47 bd
       0.045066904 -0.19967432 -0.20297989 -0.04861712
0002d0 3d 9d a4 be 04 28 01 bc db 2a f6 bd e7 2a 01 3e
       -0.32151213 -0.007883076 -0.12019893 0.12614022
0002e0 da 54 2e 3e 06 73 70 bd ef fc 8f bc da f3 6c be
       0.17024556 -0.058703445 -0.017576663 -0.23139897
0002f0 56 d1 ba bc 58 b0 48 bd e3 02 0e 3e 53 88 44 be
       -0.022804897 -0.0489963 0.13868289 -0.19192629
000300 7a 82 d1 bb 83 a2 3c 3e 25 2f 76 3e 80 f7 57 bd
       -0.006393728 0.18421368 0.24041422 -0.05272627
000310 ee 7e ea bd 3d 1d 74 3e 44 40 30 3e a2 ba 26 be
       -0.11449991 0.23839279 0.17212015 -0.16282132
000320 37 95 01 3d 0c d1 d5 bd b9 9f dc 3b 5b cf d2 3d
       0.031636443 -0.10440263 0.0067329076 0.10293456
000330 85 da 23 bc 25 dc 84 bd 3d b0 3a be 60 3a 05 3e
       -0.01000083 -0.06487302 -0.18231292 0.1301055
000340 45 55 82 3d b8 57 42 bd ce 15 13 3e 9e e7 24 3b
       0.0636392 -0.047446936 0.14363787 0.0025162469
000350 bc 26 fc bd 36 22 9d 3d a9 3f 8d bd 7f ac 6a bc
       -0.123120755 0.07672541 -0.06896908 -0.014323353
000360 77 1b c9 bc 9d 70 2a be e2 d2 db bd 51 b9 04 3c
       -0.02454923 -0.16644521 -0.10733582 0.0081008235
000370 c5 b4 fe bd 86 d8 cb bd 79 e8 8a bc 87 47 2c be
       -0.12436823 -0.09953408 -0.016956555 -0.1682416
000380 0b 3e 63 3d ea 62 04 be 4a a6 cc bd 0a 89 93 3d
       0.05547909 -0.12928358 -0.099926546 0.072038725
000390 ca 56 42 3d 59 06 29 3e b2 7b d8 bd 67 61 54 3c
       0.04744605 0.16506328 -0.10570468 0.012962676
0003a0 b8 b9 35 3e 56 c6 66 bd f3 11 9e bd ea 58 b3 bd
       0.17746627 -0.05634149 -0.07718267 -0.087571934
0003b0 e9 c6 5f be 8c fe 50 3e c0 b0 5e be 45 43 0a be
       -0.21853222 0.20409602 -0.21747112 -0.13502224
0003c0 cf 6d 63 bd 0f cf 48 ba 9e 3b a5 3d 56 17 c0 3d
       -0.055524644 -0.00076602487 0.08068012 0.09379451
0003d0 a4 2c 67 3d 9e 32 f4 bd 4f 0e b6 bc 6c ba 61 bc
       0.056439057 -0.11923717 -0.02222362 -0.013777357
0003e0 86 eb ed bd 6c 60 a9 bd 0e 29 43 bd 23 75 44 be
       -0.11617188 -0.08270344 -0.047646575 -0.19185309
0003f0 76 7f b7 bd 88 51 82 bd 8f ef d0 3d e6 96 68 3e
       -0.08959858 -0.06363207 0.10201942 0.22713813

conv3.lin_l.weight f4 [200, 100]
000000 51 8f 0a bd a8 80 fb bd 97 a9 e7 bd c1 8f b3 bd
       -0.033828083 -0.122803986 -0.113116436 -0.08767653
000010 28 1f ec bd dd 54 0a be cb 96 bc bd 7f 3d 95 bc
       -0.1152938 -0.13508935 -0.09208449 -0.0182178
000020 33 11 94 bd 98 4f 0c 3d ec 3d 2f 3d ce bb 4f 3b
       -0.07229843 0.034255594 0.042783663 0.0031697634
000030 2f d6 ec bc 44 ae 73 bc 9e bc e3 bc e7 3e 7c bc
       -0.028910724 -0.014873091 -0.0277999 -0.015395856
000040 32 ca c8 bc e1 e2 25 bd eb b8 a4 bd 09 65 32 be
       -0.024510477 -0.04049957 -0.08043083 -0.17421354
000050 c5 55 be bd e1 9d 14 3d f3 50 9e bc 27 0d 6e bc
       -0.09293703 0.036283378 -0.019325709 -0.014529503
000060 17 0c e6 bd 33 68 92 3d 13 00 f2 bc 2c c9 b6 bd
       -0.11232775 0.07148781 -0.029541051 -0.08925089
000070 bc df c8 39 c8 1e 82 bd 0d a2 7b 3c 0e 7d 18 be
       0.00038313668 -0.06353527 0.01535846 -0.14891455
000080 29 7d d4 3b 63 5f 99 3d 12 b2 a8 bd 52 f6 05 3c
       0.006484647 0.07488897 -0.08237089 0.008176403
000090 cc 94 85 bd 69 1a 10 bd f6 e1 bc bc 5d e6 e4 3d
       -0.065225214 -0.035181437 -0.023056965 0.11176751
0000a0 57 94 77 bb ce 21 32 3c 62 77 f4 bd ec ec 9c bd
       -0.0037777626 0.0108723175 -0.11936833 -0.07662377
0000b0 c3 c0 4c 3d 16 88 0f be 45 e8 b1 3c 1b 83 93 bd
       0.04998852 -0.14016756 0.0217172 -0.07202741
0000c0 d7 24 8a bd 27 fb 32 3d 5f 73 40 3d 79 1a d8 ba
       -0.06745308 0.04369655 0.046985026 -0.0016487382
0000d0 41 3e 6c 3c d0 83 0b 3d a4 b1 0c be bb 69 bc bc
       0.014419139 0.034061253 -0.1373964 -0.022999635
0000e0 18 90 7e bc bc 08 2b 3c 98 3e 9e 3c 5e b8 5c bd
       -0.015537284 0.010439094 0.019316956 -0.053886764
0000f0 cf aa ac bd 76 1b cb bd da 48 ed 3c 7b 42 ea bd
       -0.08431017 -0.09917347 0.028965402 -0.114384614
000100 4a a3 a1 3c 6c 07 18 be 7c 35 fc bd ee ed 8d 3d
       0.019731183 -0.14846581 -0.12314889 0.06930147
000110 87 6e 62 bc 64 1c 81 bd f3 a2 e4 bc b2 08 98 3d
       -0.013820297 -0.06304243 -0.027909731 0.074235335
000120 18 de ac bb 1f f3 f0 bd fc f4 f5 bc 58 55 d0 3a
       -0.005275499 -0.11765122 -0.030024044 0.0015894575
000130 68 a9 e3 3c 61 9c 09 3d 04 ae 30 bd 1b 19 c4 bc
       0.02779074 0.0335964 -0.043134704 -0.023937752
000140 9e 6c d8 bd 7e 69 8a 3d d9 aa e9 39 32 67 32 bd
       -0.10567592 0.06758402 0.00044568515 -0.043555446
000150 a2 5f be bd 95 7a c4 bc ca 1c 42 3c 37 7a a2 bd
       -0.09295584 -0.023984233 0.011847684 -0.07933467
000160 4c 4a 8c bd af 35 b2 3b 06 0f 45 bc a0 a7 00 bd
       -0.068501085 0.0054385285 -0.012027508 -0.03140986
000170 dd 4b 53 bd ce 8b 51 bd a7 9a f6 bd 77 37 ac 3c
       -0.05158602 -0.05115872 -0.12041216 0.021022541
000180 b3 53 59 bd 50 f2 f7 bd dd e4 11 bd 3a 29 b5 bc
       -0.053058337 -0.12106764 -0.03561865 -0.022114385
000190 ce fd 92 3c eb f9 9c 3c cf 7a 82 bc ae dc 6d 3d
       0.01794329 0.019162139 -0.0159277 0.058071785
0001a0 7e fd 54 bd 65 d8 3e 3d dc b5 a6 bd 51 f2 6d 3b
       -0.05199956 0.04659309 -0.08140156 0.0036307762
0001b0 b7 d5 20 3d b9 71 d8 bb d7 18 40 3d d2 f5 e3 bd
       0.039266314 -0.0066053537 0.04689869 -0.11130871
0001c0 be 4d 18 bc d9 61 d4 3d fe 53 ad 3d 51 b2 ca 3d
       -0.009295879 0.103702255 0.08463286 0.098972924
0001d0 85 c1 73 3b 46 d1 c5 bc 56 98 8e bc 96 70 94 bd
       0.0037194204 -0.02414764 -0.017406624 -0.072480366
0001e0 14 5d a0 bd 7e 52 4a 3d 91 57 c3 3a 29 34 94 bd
       -0.07830253 0.049395077 0.0014903416 -0.07236511
0001f0 b2 45 b7 bb d7 35 26 3e 06 a4 0d 3e a1 28 c8 bd
       -0.005593025 0.16231476 0.13832101 -0.09773374
000200 5c 57 e3 3d 11 4f cd 3c 99 85 08 3b 53 c3 ab 3b
       0.11100647 0.025062116 0.0020831584 0.0052417903
000210 0b b4 e0 3b 2c 00 e9 3a c3 ab 74 3d 3d 47 cb bc
       0.0068574003 0.001777654 0.059734117 -0.024814242
000220 26 0b a2 bd 25 71 8d ba 3d 7a 46 3d ab 70 08 be
       -0.07912283 -0.0010791166 0.04845642 -0.1332423
000230 ae e6 9f 3d 02 ac 99 b9 eb b7 1e be 1f 31 2a bb
       0.078076705 -0.0002931059 -0.15499847 -0.002596922
000240 90 be 4f bd b6 2c 0c 3c 7a ee 52 3e 46 58 b1 bd
       -0.050718844 0.008555582 0.20598784 -0.08659415
000250 78 5a b4 3c 2b af 76 bd b8 b4 08 3a ed 3f b6 bd
       0.022015795 -0.060225647 0.00052149175 -0.088989116
000260 7f 54 5d 3e bb 84 6e bd 58 e6 1c 3d 52 82 e0 bb
       0.21614264 -0.05823205 0.03830561 -0.006851473
000270 9a cf 63 bd 9b fd 81 bc 5e 95 ca 3c d3 ca 6c 3d
       -0.055617906 -0.015867999 0.024729427 0.057810616
000280 ac 37 ba bd c8 5b 55 3c 40 23 21 be 39 2f 98 3c
       -0.0909265 0.013022371 -0.15736103 0.018577205
000290 46 de 9c 3d a8 40 6b bc 07 a2 7b bc 7c 3a ae 3b
       0.07659583 -0.014358677 -0.015358455 0.0053170305
0002a0 db c9 85 bd e1 99 b9 bb 7c a7 f0 bd 09 37 ef bd
       -0.065326415 -0.0056640957 -0.11750695 -0.11680419
0002b0 ae 61 d5 bd 5a 35 a5 bd 09 ea 02 bc db 38 e3 bc
       -0.104190215 -0.08066817 -0.007990369 -0.027737072
0002c0 6f c4 a4 bc 4b 05 de 3d cf b9 ca bc 66 de 01 bd
       -0.020113198 0.10840853 -0.024746804 -0.031706236
0002d0 67 56 e6 bc 63 1b 66 3d 55 3a d7 3c 84 93 fa bc
       -0.028117372 0.05617846 0.026272932 -0.030587919
0002e0 b6 00 e9 3c 1c 01 a2 bb ba f6 03 bd 21 34 bd bd
       0.028442722 -0.00494398 -0.03221772 -0.092384584
0002f0 6b b4 9d 3d 6b a5 d9 bc 40 97 d4 bc 20 71 4f bd
       0.077004276 -0.026568135 -0.025951028 -0.050644994
000300 2a 9d 54 3d bb 40 f4 3d 57 c6 36 bd d7 b1 62 bd
       0.051907696 0.11926409 -0.044622745 -0.055345383
000310 e4 9f 6e bc 9d 6c d0 bd 4b 1f 87 bc 2d 6d 3a 3d
       -0.014564488 -0.10176966 -0.016494414 0.045514274
000320 3e ee af 3d e5 eb c5 3d 3a 43 5c bd e1 5e 09 3e
       0.08590363 0.09664134 -0.05377505 0.134151
000330 91 4c 5b 3d 5b 25 62 bc f3 49 8b 3d 21 fe f2 bc
       0.053539816 -0.013802852 0.06801214 -0.029662194
000340 95 c3 df 3d 77 23 88 3c ae 0f d5 bd db f6 73 bd
       0.10925976 0.016618473 -0.10403381 -0.05956159
000350 07 f2 02 3e d5 16 89 3c be 60 c2 3c a8 6c db 3c
       0.12787639 0.01673452 0.02372777 0.02678521
000360 f7 0d bb bd ca b7 59 bd 20 93 9f 3c 99 d3 d5 bd
       -0.09133523 -0.05315379 0.019479334 -0.1044075
000370 1b 6c 34 be 11 08 0e be 90 f6 57 bd 26 7e cc bd
       -0.17619364 -0.13870265 -0.052725375 -0.099849984
000380 cd bf ce 3d fc d6 2d 3d 4c 15 aa bd 9a 3f 33 bd
       0.10095177 0.042441353 -0.08304843 -0.043761827
000390 12 19 09 3e 6f 88 d4 bd bd 2e 51 3d 33 4d 90 bd
       0.1338847 -0.10377585 0.051069964 -0.070459746
0003a0 d8 d7 89 3c ba bb 29 bd 3a c9 f8 bd e5 32 98 3d
       0.016826555 -0.041438796 -0.12147756 0.07431582
0003b0 04 e9 7f ba 39 97 08 bd 2a 91 f0 3c 72 1d 14 3c
       -0.00097622 -0.033347342 0.029366095 0.009040223
0003c0 ba fd 68 bd 01 85 85 bd e9 a1 95 bd 88 e8 36 bd
       -0.056882598 -0.06519509 -0.073062725 -0.044655353
0003d0 9a bc 33 3d 2a ce d5 bc 20 32 37 3e 00 7d d4 3c
       0.043881036 -0.026099283 0.17890215 0.02593851
0003e0 1d a4 61 3a c5 33 89 bd 0c 8c 79 bd 5d 5a 34 be
       0.00086075236 -0.066993274 -0.060924575 -0.17612596
0003f0 e5 a8 cb 3e 4e c4 4d 3d a3 c8 08 be 64 a7 9b bd
       0.39777294 0.05023604 -0.13357787 -0.076002866

conv3.lin_l.bias f4 [200]
000000 92 ac f3 bd 97 98 62 3d d1 37 3f bc 75 61 d1 bc
       -0.118981495 0.055321302 -0.0116710225 -0.025559166
000010 83 2e 7f bd 82 b9 c5 bd 59 0a b3 bd 00 1e 96 bd
       -0.062300216 -0.096545234 -0.08742208 -0.07329941
000020 6f a6 bd 3d ed f7 15 3c e8 df ad bc f6 4b 97 3c
       0.0926026 0.009153348 -0.02122493 0.018468838
000030 29 40 f5 bd e4 25 83 bd 51 a5 c5 bd ba f9 0d bd
       -0.11975128 -0.064037114 -0.09650672 -0.034661986
000040 85 9f 39 3d 1a e2 70 3d 58 16 27 3d 15 3b 13 3d
       0.045318145 0.058809377 0.040792793 0.035945017
000050 4f 7b bf 3c fa 9c 47 be 74 6b df bd 76 f3 05 bd
       0.023374228 -0.19493476 -0.10909167 -0.032702886
000060 2a cb c3 3d dd cf 2d 3d 8b db b8 3d 1e 44 a4 bd
       0.09560235 0.042434562 0.090262495 -0.08020805
000070 b1 0a 3e 3b 3c 26 a6 3d 32 b0 b2 3c e0 23 b8 bd
       0.0028998072 0.081127614 0.021812532 -0.089912176
000080 24 c7 05 3d e2 16 a0 ba 97 4f 1c bd 88 34 04 bd
       0.03266062 -0.0012213851 -0.03816184 -0.03227666
000090 6f ed 8b 3d 9d 69 9f 3d c4 ff 24 be 98 7a be bd
       0.06832396 0.07783816 -0.16113192 -0.09300727
0000a0 6a 4a b8 3d 35 16 9f bc ab a1 c0 bc 3c 87 89 3c
       0.08998568 -0.019419769 -0.02351459 0.016788118
0000b0 95 66 2f 3d 8a 16 98 3c e6 60 fd bd 21 40 08 bd
       0.04282244 0.018565435 -0.123719975 -0.033264283
0000c0 19 c7 6d bd d6 ef 50 bc 66 e4 3d bd 8d 23 69 3c
       -0.058051202 -0.012752494 -0.046360396 0.014229667
0000d0 64 42 e2 bb 95 3f ef 3d 81 9f 1e be 9c 1d b1 3d
       -0.006904887 0.11682049 -0.15490533 0.08648226
0000e0 c7 38 91 bd 3f ca 9c 3d f0 7b b4 bd ca f4 6a 3d
       -0.070909075 0.07655763 -0.08812702 0.057362355
0000f0 83 26 af bc a8 b1 7c 3c 62 d6 e4 bd d1 0c ab bd
       -0.021380669 0.015423216 -0.11173703 -0.08352054
000100 00 fc 1a be 50 67 b7 3d 31 83 a1 bd e4 78 99 3d
       -0.15135193 0.08955252 -0.07886351 0.07493761
000110 7d 6c cd bc 3c af 50 3d 4c c8 24 3d 77 76 c7 bd
       -0.025076145 0.050948367 0.04023008 -0.09739392
000120 05 9a 01 3e 27 6d a3 bd 75 23 f8 bc 33 07 a9 bd
       0.1265641 -0.079798035 -0.030290345 -0.08253326
000130 48 89 5c bd b2 80 6e 3d 69 1e 07 be 10 c5 01 3d
       -0.05384186 0.058228202 -0.13195194 0.031682074
000140 1b 35 bd bb 43 c0 c8 3b e9 ff 7a bd 87 d3 9d bd
       -0.005774153 0.006126435 -0.06127921 -0.07706361
000150 ab 4e 72 bd b6 40 7f 3d 7e c7 02 bd 75 c9 0a bc
       -0.059157055 0.062317573 -0.03192853 -0.008470883
000160 19 96 fd 3c 92 a2 88 bd 09 bd e0 bd b4 89 8c 3d
       0.030955361 -0.06671633 -0.109735556 0.06862202
000170 c5 54 1a ba 7e 37 bd 3d 44 a4 ac 3d 47 80 0b be
       -0.00058872654 0.092391 0.08429769 -0.13623153
000180 dd 6e e6 3d 0c 6a ff ba 25 7c ef 3d 4c 71 ae 3d
       0.11251614 -0.001948656 0.116936006 0.085177034
000190 e0 b4 c5 bd 30 f2 4e bd 05 80 bf 3d 96 d8 b8 bd
       -0.0965364 -0.050523937 0.0935059 -0.090256855
0001a0 15 79 e1 3d 1d 79 1d 3d e5 f3 87 bd 06 62 91 bd
       0.11009423 0.03844558 -0.06638316 -0.070987746
0001b0 81 c3 a1 3d af db ca bd 3e 69 04 3d 7f f9 e4 bc
       0.078986175 -0.099051826 0.03232693 -0.027951
0001c0 42 c4 64 3d 42 d1 b6 3c 48 61 08 3e db bc 14 bd
       0.05585123 0.022316579 0.1331836 -0.03631292
0001d0 b6 7c bc 3d da 2c 97 bd de 0e 69 bc ea c3 b9 3c
       0.09203474 -0.07381602 -0.014224736 0.022676427
0001e0 8e b7 3b bd c9 6b 55 3d 1e d5 7e bd 65 55 df bd
       -0.04582935 0.052104745 -0.062214963 -0.109049596
0001f0 64 16 df 3d 9a 40 46 bd 69 06 98 bd d8 57 f3 3c
       0.108929425 -0.048401453 -0.07423098 0.029704973
000200 b9 be 39 bd 4b 61 2c 3d bf eb bc 3d 60 61 83 bd
       -0.045347903 0.042084973 0.092246525 -0.06415057
000210 0d 37 79 be ce 34 0f bd 37 1d 1c be ca 72 08 be
       -0.24337406 -0.034962468 -0.1524552 -0.13325039
000220 55 74 31 3d 5f 7b cb bc d4 c0 ab bd cf d6 ab bb
       0.043323833 -0.024839101 -0.083863884 -0.005244113
000230 28 de ca 3d c0 09 e4 bd 43 1a 98 3c 1d 7b 1c bd
       0.09905654 -0.11134672 0.01856721 -0.038203347
000240 27 51 a6 3d cf 57 fb 3c 16 f8 af bd d3 91 e8 bc
       0.08120947 0.030681519 -0.085922405 -0.028389847
000250 9b c3 89 3d 69 b1 20 bc 58 95 84 bd 79 22 3d bd
       0.06726762 -0.009807923 -0.064737976 -0.046175454
000260 1a 72 14 be e8 7d ad ba 8c 6d e0 3c 19 7c 28 3d
       -0.14496651 -0.0013236376 0.027395986 0.041133974
000270 3d d6 47 bd 42 2c 45 bc 7e cf 6e bd 96 98 8e bd
       -0.048788298 -0.012034478 -0.05830335 -0.06962697
000280 0a c8 49 bd 00 25 e4 bb b2 33 a5 bb 46 d3 6b 3d
       -0.049263038 -0.0069624186 -0.005041563 0.057574533
000290 ba 0a f5 bc f6 2a bc 3c 5f b9 7a bd f5 cb 8d bd
       -0.029912341 0.022969704 -0.06121194 -0.06923667
0002a0 f2 7f 86 3d 92 c2 ef 3b 6a 91 6e 3b 3d 76 27 be
       0.065673724 0.0073168958 0.0036402592 -0.16353698
0002b0 00 34 91 bd 35 8e 8f 3d a0 ee d2 bd e2 1d ef bd
       -0.07089996 0.07009546 -0.1029942 -0.116756216
0002c0 e2 e7 7f 3d 15 d3 fb bd 22 6e 50 bd d7 8d 65 bd
       0.062477 -0.1229612 -0.05088628 -0.056043472
0002d0 9d 64 6a bc 0e 1c 81 bc 4d 0c 82 3b 51 f7 f1 bc
       -0.014306215 -0.015760448 0.0039687515 -0.029536875
0002e0 d5 53 81 3d 7e f4 dc bc 6f 06 71 bd 2d 0a 82 bd
       0.06314818 -0.026972052 -0.058844026 -0.06349597
0002f0 66 f4 ef bb c5 b5 03 be 4e 9f 85 bd 40 2b 76 bd
       -0.0073228357 -0.12862308 -0.065245256 -0.06009984
000300 7c 92 b3 3d c6 ce 2a 3d 11 8f 7b 3d e2 9a ae 3d
       0.08768174 0.0417011 0.061415736 0.08525635
000310 dd 40 ae bd 92 e1 d7 bd a3 f9 7b bc 82 52 24 bd
       -0.085084654 -0.10541071 -0.015379342 -0.040117748
