backend/workspace/weight/rtd/classify/best_model-50d.pth (torch, 528056 bytes, 15 tensors)

conv1.lin_l.weight f4 [64, 50]
00000000: dc9a 81bd e613 bebd 8a3e ac3c 993b b9bd
00000010: 53a3 853e ad1a 8e3e b933 97bc ff9a 1fbd
00000020: d74d 8abb 4244 70bd 54b0 c03e 3160 573d
00000030: 34a8 9b3d 5142 2a3d 6f35 80bd 0af6 b4bd
00000040: 0676 19bd a999 30bd 0f5f 0a3e adf8 f3bc
00000050: 5a90 073c 7414 c3bd b939 093d 9e10 ae3c
00000060: c593 89be db4d cc3d b6e0 37be 3476 77bd
00000070: fc98 d4bd 8c28 213e 725b 27bd 361b 9cbe
00000080: b4dd 563e 2236 8cbe ed90 7b3e 8dd2 083e
00000090: 9e73 433b 8093 12be 5113 a5bd b9d2 e63d
000000a0: 43f5 073e e95b 963c a337 acbe 20f3 1cbd
000000b0: ca65 c6bd f877 a6be 82e4 95bc 6cf9 493e
000000c0: 2027 a73d 06cb 14be 5ac2 323c af5d 3bbe
000000d0: 9833 d2ba db86 7ebd 679c 12be 7a0e 843e
000000e0: 69f9 c03d cf9f 98be f73a ed3d 468a 713e
000000f0: 3eda 91be cf10 af3d ea29 f23c 1f26 b13d
00000100: 7fba cb3c b111 2bbc 564b ab3d 7480 3f3d
00000110: 9b65 863e 255a 833e d78f 13be 8971 fd3c
00000120: e78e d8bd e680 22be 1d12 aa3d 4af3 c1bd
00000130: 4d9d d63d 80fe 273b 9209 263d ae7b 4b3d
00000140: c196 a93c 14cc 41be 2ac1 50be 8509 b83e
00000150: f3aa 20be d83e 41be 99b8 833d f4ff ebba
00000160: 8a48 373e 35d7 ffbd d370 f6bc 3fae e1bd
00000170: 3b19 133e d71a 0b3d bd7a fabd 299e 18bd
00000180: d4ad a1bc 0da5 763e ba54 5dbd acf7 bb3e
00000190: 7a3f b23c 1c8d 3a3e 92c1 0e3e 41c7 fc3d
000001a0: e0db e63c c66a a13e f452 b1bd ab14 69bd
000001b0: 1487 a9bd 5837 673d e12d a5bd d8c9 153e
000001c0: 8704 01bb 5164 4abe 00e1 fd3d 1f09 d63d
000001d0: 8434 fe3d 4ed9 d93c f4bd 83bd 0039 583d
000001e0: 1384 113d 9bc3 663d 2cfb 883c fbb3 993d
000001f0: 4bb9 4d3e 167a 85bc 2aa3 4c3e 9d39 38be
00000200: 08c0 7abd aef2 3fbe a2ae 13be 48ac 933c
00000210: 7809 87bd 2bf2 9c3e 8ea3 bdbe c1ae c1be
00000220: f76c e1bd ca9d 9dbd 5646 b03d 3519 6cbe
00000230: 0ded 4e3e 5f23 d6bd 1a46 833e a6d8 853d
00000240: 0b94 0e3b a5b0 a33e 78ad e1bd e1d4 c7be
00000250: 3bc6 45be 86ec 2dbe bbdc 053d 0b52 bb3c
00000260: 7e38 e33d d752 a63c d3bd 05be 8f21 b63c
00000270: 12bd 25be a9a1 533a 5b72 d43d 3400 a1bd
00000280: c095 13be 0711 cabd 679c 863e cff0 3fbe
00000290: e870 18bd bd95 27bd 04a8 ae3d 3f32 513e
000002a0: 53c5 07bd 8393 90bd ae31 993c d3bf 5dbd
000002b0: aa8b 793e d984 3c3e f0a4 01be 83c6 423e
000002c0: be34 0a3e 9cab cfbd a06f 78be 9a11 3abc
000002d0: f125 b9bc c0af 593e 248a 9c3e 2f23 07bc
000002e0: aa44 b63c a406 943c 1431 bcbb 646e 5a3d
000002f0: c4ee e73c fd1d edbc b096 323e c6a9 113e
00000300: 27e7 2c3e 0b4d e53c 5547 1bbe c2ae 0d3e
00000310: dbf4 2dbe 9abc 12be c34f 8fbe b34f f2bd
00000320: d216 29bd 1699 743e eae8 953d e713 4fbd
00000330: 56c2 a13d 949c 0e3c f142 9fbd 6d94 75be
00000340: 5fbd 093e 530b d0bc e06a f0bd 4719 003e
00000350: 9d69 f63c 472d 053b bc9a d93c cf9f a93d
00000360: 645b 38bd 23a4 f63d f4bc 983e a6e9 da3d
00000370: 6c46 40be 120c fa3d d040 acbe b248 0fbe
00000380: 1322 f1bc 2f46 c13c 950e 31be ccb8 5a3d
00000390: e956 c7bc 0aed ddbd d603 76bd 09b8 c33c
000003a0: 2b86 653d 4608 5c3e bfc0 a3be 755c 7f3d
000003b0: 490e df3d df06 c6bd 1ec7 4c3e 98bb 3bbe
000003c0: 6043 2c3e 8881 343d b9e9 a4bd a001 6a3e
000003d0: 086e 0cbe a533 733d b84d 0bbe 6111 a13c
000003e0: 1af2 61be b35b 77bc 7d7d fd3d 332f 47be
000003f0: 6111 31be 5e00 e7be 24e2 27be ada2 f5bd
-0.06328365 -0.09281139 0.021025915 -0.090445705 0.2610117 0.27754727 -0.01845728 -0.038966175
-0.004220705 -0.058658846 0.37634528 0.05258197 0.076004416 0.04156715 -0.06260192 -0.08835991
-0.03746607 -0.04311529 0.13512824 -0.029781664 0.008274162 -0.095253855 0.033502314 0.021248158
-0.26870552 0.09975787 -0.17956814 -0.06041546 -0.10380742 0.15738124 -0.040858693 -0.3048951
0.2098301 -0.2738505 0.24567004 0.13361569 0.0029823552 -0.1431408 -0.08060325 0.11270661
0.13277154 0.018354373 -0.33636197 -0.0383178 -0.096873835 -0.32513404 -0.018297438 0.19724053
0.081617594 -0.14530572 0.010910595 -0.18297456 -0.0016037105 -0.062140327 -0.14317475 0.25792295
0.09422571 -0.29809424 0.11583512 0.23587903 -0.28486818 0.08548128 0.029561002 0.08649849
0.024869202 -0.01044123 0.083639786 0.04675336 0.26249394 0.25654712 -0.1441034 0.030937927
-0.105741315 -0.15869483 0.08304236 -0.09470232 0.104792215 0.0025633872 0.04053647 0.049678497
0.020701768 -0.18925506 -0.20386186 0.35944763 -0.15690212 -0.18871629 0.064316936 -0.0018005357
0.17898765 -0.12492219 -0.030083096 -0.11019563 0.14365093 0.033961143 -0.12230442 -0.03726021
-0.019736208 0.240864 -0.05403588 0.36712396 0.021758784 0.18217891 0.13941029 0.12342692
0.028181016 0.31526774 -0.086584 -0.056904476 -0.08277717 0.056449264 -0.08065391 0.14627779
-0.0019686536 -0.1976483 0.12396431 0.104509585 0.1241236 0.026592877 -0.06432715 0.052788734
0.035526346 0.056338888 0.01672133 0.07505032 0.20090215 -0.016293567 0.19984117 -0.17990728
-0.06121829 -0.18744919 -0.14422086 0.018026486 -0.06593603 0.3065351 -0.37038845 -0.3782864
-0.110071115 -0.076961115 0.086071655 -0.2305649 0.20207615 -0.10455965 0.2563942 0.06535463
0.002175572 0.31970707 -0.11019415 -0.390296 -0.193139 -0.16984758 0.032681208 0.02286627
0.110947594 0.020303173 -0.13060693 0.022232799 -0.16185406 0.00080731005 0.10373374 -0.07861367
-0.14412594 -0.09866529 0.262912 -0.18744205 -0.03721705 -0.040914286 0.0852814 0.20429324
-0.033147167 -0.07059386 0.018700447 -0.054138016 0.24369684 0.18410052 -0.12660575 0.19021039
0.13496682 -0.10140154 -0.24261332 -0.011356736 -0.0226011 0.2125845 0.30574143 -0.0082481345
0.022249538 0.018069573 -0.0057431553 0.053327933 0.028312095 -0.028944964 0.17440295 0.1422492
0.16885053 0.027990839 -0.1516393 0.13836196 -0.16987936 -0.14329758 -0.2799054 -0.11831608
-0.04128153 0.23886523 0.073198155 -0.05055609 0.07898395 0.008704323 -0.0777644 -0.23982401
0.13451146 -0.025396025 -0.11739135 0.12509643 0.030079657 0.0020321177 0.02656304 0.08282434
-0.045009032 0.12043025 0.2983166 0.10689096 -0.18776864 0.122093335 -0.33643198 -0.13992575
-0.029435193 0.023593036 -0.17290719 0.053398892 -0.024333434 -0.10836227 -0.060062252 0.023891466
0.056036156 0.21487531 -0.3198299 0.062344033 0.108913966 -0.09669279 0.19997832 -0.1833328
0.16822577 0.044068843 -0.080523916 0.22852182 -0.13713849 0.059375424 -0.13603866 0.019661607
-0.2206501 -0.015097546 0.123774506 -0.19451599 -0.17291786 -0.45117468 -0.1639486 -0.119939186

conv1.lin_l.bias f4 [64]
00000000: 5a00 dc3d d16f 9cbd 3161 02be 1a94 5abe
00000010: fe4a 04be e91b 9f3c da85 8bbd 3915 1abe
00000020: e9ff 0dbe 04cd 9bbe c801 713c ce5e 273e
00000030: 9c5e c0bb 24ae 393d b43a cd3d 0a58 c03c
00000040: 06c3 383e 5319 99bd df9e d6bd 1f59 2c3e
00000050: 9329 253e cb94 dfbd 0313 4e3d e701 4bbd
00000060: ce25 a9ba 60de 9a3d c0a9 c43d 1fea 63bd
00000070: 244e d03d 3762 92bd 1fd5 533c 3dd6 103d
00000080: cbe3 f1bd 1089 b2bd c211 3abe 03c6 37bb
00000090: e72e 1dbe 4600 3cbd 7f6d 69bd 3cf7 87bd
000000a0: 3a2e a73c 4524 57bd eecd a93c 927a d2bd
000000b0: c5f7 153d 2f08 863d 3058 62be 7bb3 2b3e
000000c0: 0ee3 40bd 7c57 f3bd 673d 45bd f6e2 85bd
000000d0: 41ae 8e3c 2c33 bdbc 99c7 f7bb 5b94 00be
000000e0: ccc9 38be ad00 153e 475e 38be dbf8 2abe
000000f0: 266f cdbd 4f13 873c 117f 1dbe fdd8 81bb
0.107422546 -0.07638515 -0.12732388 -0.21345559 -0.12919232 0.019422488 -0.068126395 -0.15047158
-0.13867153 -0.30429852 0.014709897 0.16344759 -0.0058706533 0.04533209 0.10020962 0.02347948
0.18043146 -0.07475533 -0.10479521 0.16830872 0.1612914 -0.10917052 0.0503111 -0.04956236
-0.0012904943 0.07561946 0.0960269 -0.055643197 0.10171154 -0.07147639 0.01292923 0.035360564
-0.11811026 -0.08717549 -0.18170837 -0.0028041608 -0.15349923 -0.0458987 -0.05698919 -0.06638953
0.020407785 -0.052524824 0.020728078 -0.10277285 0.036613245 0.0654453 -0.22103953 0.16767685
-0.047091536 -0.11881921 -0.04815426 -0.0653743 0.017417075 -0.02309569 -0.0075616357 -0.12556593
-0.1804573 0.14551039 -0.18004714 -0.16696493 -0.100309655 0.0164887 -0.15380503 -0.0039626346

conv1.lin_r.weight f4 [64, 50]
00000000: 8415 f5bc 206e 6f3e 0863 c83d 65ba f2b9
00000010: 17c0 443e d76a fe3d 365c 96bd bc40 4fbe
00000020: 9319 093e 3d4e 8cbd 78e2 f73d 5165 233d
00000030: 4065 39bc de46 13bd 0362 113e 1779 f53d
00000040: d18e c2bd 88b0 18bd 2af4 8a3d 4403 8cbd
00000050: bb26 eb3c 0606 8fbd e129 02be 717f 80bd
00000060: dd81 53bd 0892 8cbd c018 73bd f3e9 293d
00000070: 3910 d33b e6fa 3b3d 7827 c8bd 2379 783d
00000080: b468 793e 86a0 8cbd f9c7 36bd d2fb 0a3d
00000090: 1bd6 86bc e612 b13d 28f2 143e 2044 9fbd
000000a0: 9707 a73d 3901 113e 7b26 3fbe 8b60 503e
000000b0: 0be1 07bd af53 3bbe 6f93 f63d 828f ba3d
000000c0: a697 ec3c 6ea4 e53d 4a67 d3bb e695 88be
000000d0: 545c 98bb 7430 eebd 75d1 083d 98ae 543e
000000e0: 19a4 5b3d bea5 3abd bb44 f7bd 7030 3fbd
000000f0: 90c3 bd3d d824 3d3c bc2e 273d 5e86 40be
00000100: 8763 043e e5b5 d93d a7ee 12be c322 053c
00000110: d519 4b3e dd8b cd3e 52df 93bd 8269 313e
00000120: f1c9 a9bd a969 7e3d 2d60 98be cbcd a4bd
00000130: b64f 213e 6eef af3d 17fb f1bc 1233 033e
00000140: 8345 d9bd 90dd 16be e214 04be fd77 3ebb
00000150: 3c23 653c 2f56 3ebe 4c60 2f3e 2cd0 0ebe
00000160: 732c 10be 09fb 27be 117b 02bd bc40 bc3d
00000170: cb8d 103e 6ade b1bd a280 4dbc 69e0 173e
00000180: f633 ebbe d74c fa3d a6e7 06bd 5db4 0ebd
00000190: 584f 333d 2036 7dbd dbbe 893d eba2 193e
000001a0: b0e4 b5bd c74b fe3e d791 713e da56 8d3e
000001b0: a0d3 92be c6cc 8a3d e33d 913e acff 3e3c
000001c0: 2e8d 4ebe d854 0dbf 61cb 183e 0f00 723e
000001d0: 35d9 d23d f87a 05be 16e8 043e 3dbc 443e
000001e0: e6c3 2fbd 3c4f 263e 42c8 f93c 4d5b 813e
000001f0: d224 69bd 1f48 fcbd d0e7 a83e 4f10 f6bd
00000200: 8719 7e3a f7bb e6bd 20e7 09be 30d0 b1be
00000210: 867a b2be b759 293e 6446 c0bd 9ec8 a4be
00000220: 99fc 4abe a7de b7be 973d 45bd 16e2 6e3d
00000230: 6640 813e e108 fc3d fe5e e73e bbd7 1bbe
00000240: 48b0 003e 0710 223e 3173 a4be af7a 97bd
00000250: 758a b7bd 072a a8be 2049 c3bc 166f efbd
00000260: b6ca abbd 1336 373e 1036 0cbe 1e3d fa3e
00000270: 9592 5d3e cc47 ce3e ae65 6c3e dd08 723e
00000280: 0611 cd3c e41f 06be fc3a dfbd 8b2b bbbe
00000290: 4f79 3fbe 220a e2bc 1e9b 9e3e a11d f4bd
000002a0: 9a31 823d 640f dd3b 5d2a d13d 02da 3dba
000002b0: fa29 253d a097 e23d 6594 cbbe d337 1dbe
000002c0: 286f ae3e f624 8fbe f908 393d 2df1 7bbe
000002d0: b6a5 803b 3ad8 5fbe 2860 80be e23a 7bbe
000002e0: e0a6 ab3d 2b89 c1be 610d 2cbd 8fc1 0fbe
000002f0: db59 dbbc dbd1 423d 00a0 c33b 823e 023e
00000300: 4f6a 7a3d ad3e 66be 8500 513e 6936 d33d
00000310: c122 a2bd d675 5abe 8847 37be f8d9 05be
00000320: 9f42 1e3e 2a55 fcbc 7930 92bb 70f4 443e
00000330: 8504 10be 931f c0bc 34d3 40bc c9cd 42be
00000340: f021 6cbd e270 253e 805a bf3e 14a1 423e
00000350: 6f5b 00be 071b 66be d88d 763e d7f7 563e
00000360: 6537 77bd beb2 9e3d 470e 853e 02bd 913e
00000370: 1623 7fbe 96d1 0a3e a621 78be d518 9c3c
00000380: 7cb6 78be 40f5 e3bd 11ae e9bd 7409 37bc
00000390: 1daa 6e3d 525d dabd 10a9 9abd d545 a1be
000003a0: 8a28 98bd 1056 083e 2b88 c1bd d2d8 7cbd
000003b0: 6af6 04bd a43a 80be 92a6 1cbe 3a1b 7dbe
000003c0: 9f71 233e f01c b03d c96c 393d 3a0a cb3d
000003d0: 7381 c4bc 7d32 623c 72df 16be 7f23 163e
000003e0: 8758 c9bd 1e75 35be b052 d73d c321 dcbd
000003f0: 6091 5e3d ccfc afbe 8834 a4be 43e9 9e3c
-0.029917486 0.23381853 0.09784514 -0.00046296712 0.19213901 0.12422722 -0.073418066 -0.20239538
0.13388662 -0.0685086 0.12103742 0.039891545 -0.011315644 -0.035956256 0.14197545 0.11985987
-0.09499896 -0.03727773 0.06784852 -0.0683656 0.028704992 -0.06983571 -0.12711288 -0.062743075
-0.05163752 -0.06863791 -0.059349775 0.041482877 0.006441143 0.045893572 -0.09773153 0.0606624
0.24356347 -0.06866555 -0.044624303 0.03393156 -0.016459515 0.08646183 0.145455 -0.07776666
0.081557445 0.14160623 -0.18667023 0.20349328 -0.033173602 -0.18293642 0.120398395 0.09109403
0.028880905 0.11213003 -0.006451522 -0.26676863 -0.0046496782 -0.116303355 0.03340288 0.20769727
0.053623293 -0.04556822 -0.12073656 -0.046677053 0.09265816 0.011544429 0.040816054 -0.18801257
0.12928592 0.10630397 -0.14348851 0.008125964 0.19834073 0.4014577 -0.07220329 0.17325404
-0.082904704 0.062112484 -0.29760876 -0.080470644 0.15753064 0.085905895 -0.029538674 0.1281245
-0.106089614 -0.14732957 -0.12898591 -0.0029063218 0.013985451 -0.18587564 0.17126578 -0.13946599
-0.14079456 -0.16404356 -0.031855647 0.091920346 0.1411659 -0.08685 -0.0125428755 0.148317
-0.4593808 0.12221687 -0.03293576 -0.034839977 0.04377684 -0.061819196 0.06725856 0.15003555
-0.08881509 0.4966719 0.2359079 0.27605325 -0.28677082 0.06777339 0.28367528 0.011657637
-0.20171043 -0.55207586 0.14921333 0.23632835 0.10295335 -0.1303519 0.12979159 0.19212432
-0.042911433 0.16241163 0.030490998 0.2526497 -0.05691988 -0.123184435 0.3298936 -0.12014829
0.0009693135 -0.1126632 -0.13467073 -0.34729147 -0.34859103 0.1653813 -0.09388426 -0.3218431
-0.19822921 -0.35912058 -0.04815444 0.05832108 0.25244445 0.12306381 0.4518966 -0.15219013
0.12567246 0.15826426 -0.32119134 -0.07396447 -0.089619555 -0.32844564 -0.02383858 -0.1169111
-0.083882734 0.17891721 -0.13692498 0.48874754 0.21637948 0.40289152 0.23085663 0.23636194
0.025032531 -0.13098103 -0.10899922 -0.36556658 -0.1869862 -0.027592722 0.3097772 -0.11919714
0.06357117 0.0067462195 0.10213158 -0.00072422635 0.040323235 0.110640764 -0.39761654 -0.15353326
0.3406918 -0.27957886 0.045174573 -0.2460372 0.0039260043 -0.21859828 -0.2507336 -0.24534181
0.08381438 -0.37799963 -0.042004947 -0.1403868 -0.026776245 0.047563415 0.005970001 0.12719157
0.06113654 -0.22484846 0.20410354 0.10313112 -0.07916785 -0.21334013 -0.17898381 -0.1307143
0.15455101 -0.030802328 -0.004461345 0.1923387 -0.14064224 -0.023452556 -0.011769105 -0.19023813
-0.057649553 0.16156343 0.37373734 0.19006759 -0.12534879 -0.22471248 0.24077547 0.20992981
-0.060355563 0.07748936 0.25987455 0.28464514 -0.24915728 0.13556513 -0.24231586 0.01905481
-0.24288362 -0.11130762 -0.11410154 -0.011171687 0.0582677 -0.10662331 -0.07551777 -0.3149859
-0.07429607 0.1331408 -0.094498 -0.061730213 -0.03246156 -0.2504474 -0.15297917 -0.24717417
0.15961312 0.085992694 0.04526976 0.0991406 -0.023987507 0.013805983 -0.14733675 0.14661978
-0.098313384 -0.17720458 0.10513818 -0.10748627 0.05433786 -0.34372556 -0.32071328 0.019398337

conv2.lin_l.weight f4 [128, 64]
00000000: e8fc 89bd 2794 e3bd f1ab ca3d b0f4 11bd
00000010: b63f 9abd a65d c5bb c251 7dbd 8f14 e6bd
00000020: 774f 543e 073d e93c 4259 cfbd 1cd5 6dbd
00000030: c551 b1bb 7045 ea3d 1603 b23d 77fd 80bd
00000040: 2500 333d f32c a83d 6430 053d 2351 63bd
00000050: 6d2c d8bd 0761 52bd 5d06 59bb ea70 213d
00000060: 4328 1f3e 69e4 443d 8b48 76bd e48d fa3d
00000070: 5e45 f53c 5b45 3e3d cbfc 9fbc 06be 463e
00000080: 6075 cabd 50d1 093d 5a6f 0b3d eff0 c9bc
00000090: c1ec 263e d603 95bd c7c8 fabd 01e9 2b3e
000000a0: f696 9dbd 08af 9e3c 2105 04bd 2456 843d
000000b0: ac61 a6bc 9481 74be 9449 93bc 3ac4 8ebd
000000c0: f854 3f3d accc 0f3e 8ce2 ccbd 6da9 053e
000000d0: a4d9 dfbc 1ad2 9f3c b8bf bb3d fb00 ca3d
000000e0: 1426 6cbd 209c 9fbc 655d c93d b7e7 493d
000000f0: 8edc 263c 95f8 c5bc 0ba6 173d ffdf f7bd
00000100: 2111 b2bc 7ae9 9f3e 7a1f 9bbd f027 50be
00000110: 4b55 3a3e d30e 2b3e 5a65 7bbd df1b 903d
00000120: 79ab a2bd 3cb9 f5bd 643a 0e3d eb32 b7bd
00000130: b976 88bc 6d86 cf3d 7319 0bbe 2f65 2c3c
00000140: 0cbf d6bd 495b 1d3d e45c 0bbd 6ee4 1e3e
00000150: 8681 2e3e 3fa0 6ebd 31fd 863d 20ed b4ba
00000160: ea00 a73d f75d f5bc b44f a8bc c5f0 bbbd
00000170: 1382 813c dc0a 263b 40ab 9cbd b685 3fbc
00000180: e4c2 28be c4e1 b5bc ffd4 2d3d 3bf3 f23d
00000190: 919b cfbd e56f 67bd 8cbe b03c 5e73 483c
000001a0: 744a b13c a64b 9e3d 12fe 8e3d f925 4abc
000001b0: 358b 43be 78ce a73d 4f88 713e d151 1c3e
000001c0: 865c 513e bef9 933a fdaa f33c f830 b0bd
000001d0: ffd2 e93d 3bab d4bc 4b9e 86bb 92fe 46be
000001e0: 9645 19be 5115 9fbc 9a4a 61bd 5799 9e3d
000001f0: 7ff1 6a3d c0e4 a53c 0043 e0bc d852 103e
00000200: aaf5 12be 3ba3 10be 485b 113d e50d 9e3c
00000210: 2ba5 c73d 4c9c 6ebc 318d b4bc 5730 21bd
00000220: cfd7 933c a85b 893d cb00 543d 508a 00be
00000230: 3fd4 933c 0a3c 38be a7b6 893d 33db b9bd
00000240: e73f 89bd e579 883c bf8d 8cbd 4bfc 80bd
00000250: d1ec 2cbe fda8 ca3d 1639 1e3e b42b 39be
00000260: 1c71 86bd 3823 1d3d 630f 79bd 6e01 283e
00000270: 822e 88bd d39c 04be 36d5 f13d 7eba 373c
00000280: 6fd8 bbbd fd1c 783d 10c8 f8bc 1b05 20bd
00000290: 011c c13d 6053 b73d b1e5 bb3d 8f19 e4bd
000002a0: 8d26 ac3d a705 323d 763a 14be 06f8 71bc
000002b0: ea15 153d 30ea 75bd c4d1 b5bd 5176 a2bc
000002c0: 1223 cf3c fab1 c53c 501e 92bd f58d 46be
000002d0: a83a 5abd 3bfb 67bc d481 6f3d e81f e53d
000002e0: e4ed 253c bebe e53c 24bc 393d e6ef 8abd
000002f0: 6624 d03d f284 293e 254e 4f3d 22a9 57bd
00000300: 7865 633d 8d09 c53c bc7b 14bc 8a8f 5dbc
00000310: 375c 7b3c a171 9cbd 6bca bc3c 669b f03d
00000320: 3305 fe3c f8e4 e53d 9fab f03b 6350 d2bd
00000330: 9203 063c 7fd2 193e 43fd 283e f43c 0ebd
00000340: d61d 063d bd5c 073e 1113 6e3c 580f 76bc
00000350: f206 9bbd dbd3 aa3d ec20 153b 5ad8 83bd
00000360: 4d3d 9cbc adac a03d c449 15be 5b09 293e
00000370: db84 37bd 6554 25bd 20c4 f33d be9e 63bd
00000380: fbdb 5abd 9df9 383b a3b1 c6b9 f05e e6bc
00000390: 9c1a 453e e8c5 ed3a e8ff 553d 2106 54bd
000003a0: 1133 873d 144c 18bc 083d debd ea51 1dbc
000003b0: 174f be3d 69d6 16be 420a b93b c648 7abd
000003c0: 263f e2bc 0845 4f3e 8e7f 973d 279c bb3d
000003d0: a765 39bd 8f8a 5f3d ce4a c93b 4160 1bbc
000003e0: eba4 47bb b21c 84ba 3219 15bd f46f 893c
000003f0: 7441 5b3c d75a cb3c 8761 ebbd d1ca 32bd
-0.06737691 -0.11112242 0.098960765 -0.035633743 -0.07531683 -0.0060231267 -0.06184555 -0.1123439
0.20733438 0.028471483 -0.101244465 -0.058064565 -0.005411359 0.114390254 0.08691995 -0.062983446
0.04370131 0.082116984 0.032516852 -0.0554973 -0.105553485 -0.051362064 -0.0033115365 0.039414324
0.15542702 0.04806939 -0.060127776 0.12234095 0.029940303 0.04645286 -0.01952972 0.19408426
-0.09885669 0.03364688 0.03404174 -0.024651019 0.16301252 -0.07276122 -0.122453265 0.16788103
-0.07694809 0.01937057 -0.032231454 0.064617425 -0.020310245 -0.23877555 -0.01797942 -0.06971021
0.046711892 0.1404292 -0.10004148 0.13052912 -0.027325459 0.019509364 0.09167427 0.09863468
-0.0576535 -0.019483626 0.09832267 0.049293246 0.01018442 -0.024166385 0.037023585 -0.12103271
-0.021736683 0.31232816 -0.07574363 -0.20327735 0.18196599 0.16704874 -0.061375953 0.07036566
-0.07942862 -0.11998221 0.034723654 -0.08945259 -0.016658174 0.101330616 -0.13583927 0.010522171
-0.10485658 0.038417134 -0.034024134 0.15516827 0.17041597 -0.05825829 0.06591261 -0.0013803579
0.08154471 -0.029952032 -0.020545818 -0.091767825 0.015809095 0.0025336063 -0.07649851 -0.011689594
-0.16480595 -0.02220238 0.042439457 0.11862799 -0.10137094 -0.056503195 0.021575235 0.012234537
0.021641947 0.077292725 0.06982054 -0.012338155 -0.19096072 0.08193678 0.23587154 0.15265585
0.20445451 0.0011289639 0.02974462 -0.0860309 0.114171974 -0.025960555 -0.0041082255 -0.19433048
-0.14967951 -0.019419344 -0.055002786 0.07744091 0.057359215 0.020250678 -0.027375698 0.14094102
-0.14351526 -0.14124767 0.035487443 0.019293735 0.097483 -0.014563631 -0.022039982 -0.03935274
0.018047241 0.06706935 0.05175857 -0.12552762 0.018045543 -0.17991653 0.06724291 -0.09075012
-0.067016415 0.016659686 -0.068629734 -0.06298121 -0.16887213 0.09895513 0.15451464 -0.18083078
-0.06564543 0.038363665 -0.06080569 0.16406795 -0.06649496 -0.12950449 0.11808245 0.011213897
-0.09172141 0.06057452 -0.030368835 -0.03906737 0.094291694 0.089514494 0.091746695 -0.111376874
0.084057905 0.04346242 -0.14475426 -0.014768606 0.036397852 -0.06003779 -0.088779 -0.019831808
0.025285278 0.024132717 -0.07134688 -0.1939009 -0.053278595 -0.014159019 0.058473423 0.11187726
0.010127518 0.028045055 0.04534544 -0.06784038 0.101631925 0.16554621 0.050611634 -0.052651532
0.05551669 0.024052406 -0.009062704 -0.013522992 0.01534181 -0.076388605 0.02304574 0.1174839
0.031008339 0.11225313 0.0073446776 -0.10269239 0.008179562 0.15021704 0.16502862 -0.0347261
0.032743298 0.1321897 0.014530913 -0.015018307 -0.07569684 0.083411895 0.0022755219 -0.0643775
-0.0190722 0.07845435 -0.1457892 0.16507475 -0.044804435 -0.040363688 0.11902642 -0.05557131
-0.053432446 0.0028224953 -0.00037897853 -0.028121442 0.19248432 0.0018140646 0.052246004 -0.051763657
0.06601537 -0.009295482 -0.108514845 -0.009602049 0.09292429 -0.14730228 0.005646975 -0.06110456
-0.027618002 0.20241177 0.07397376 0.09160643 -0.04526296 0.0545755 0.0061429506 -0.009483398
-0.003046329 -0.0010079353 -0.03640098 0.016777016 0.013382304 0.02482359 -0.11493211 -0.043650452

conv2.lin_l.bias f4 [128]
00000000: 2cc1 07be 5276 353d 1091 63bd fe54 34bd
00000010: 3b72 323e 989e cc3d 68ff 9dbd d2f7 31be
00000020: f887 88be 2f45 32bd be91 1a3d e3d8 8c3d
00000030: 8198 c13d 6711 313e e292 2dbc 7ed5 2ebe
00000040: 1c93 74bd a762 29be 4b24 14be 6a0c 14be
00000050: c9b9 40be 8405 03be 37f9 9f3d 7ce0 abbc
00000060: 9a7b 15bd c85f 1e3e 7f2b c13d 9899 2b3d
00000070: 601c 1ebd d00f 403d d873 09be 45f4 b63d
00000080: ba5a 7a3e 6593 5fbe 123b d53d e902 30be
00000090: 89db 0abd 12fd ef3d 11dc e33d f577 6bbd
000000a0: 39c3 f23d dbce 28be 5e92 f8bc fbfa 0cbc
000000b0: c9db 7d3c b363 dabd d9e1 353d 7f4b 5fbd
000000c0: 66ca 3f3e 2da1 043d d78e 673c 9e14 35be
000000d0: 5109 63bc 96b7 b1bd 2bb4 13be 4370 673e
000000e0: 0cf7 d6bc 7930 9bbc ecd4 9bbd d0d1 133e
000000f0: 957b 58bc 98c5 723c 9f41 05be 48fb d6bd
00000100: a56f 89bd e97d b3bd 4977 60bd 68dd cdbd
00000110: 7854 6abd 9c05 163e 19f2 fb3c e91d 03bb
00000120: 2caa 95bd 5b10 c13d e927 383d a1a9 d7bd
00000130: ef0d 9f3c 6055 7bbe 11cc 8e3d a349 02bd
00000140: f941 febd 78dc 1ebd 16e0 04bc 3817 393d
00000150: 652f 05be 9a5f fc3d e283 c53d 2e0b 9ebd
00000160: 057b 17be d04b 5f3e 69d3 8d3d 53f4 773c
00000170: 417e b1bd c39f 2c3e fd21 80bd ccab 1a3e
00000180: c52b b4bd 735c 4cbc 2e61 403e 9a31 493d
00000190: 3422 013d 8829 32be c9ab 763d ab57 faba
000001a0: ca37 bd3c 9d8f 0c3d b158 2cbe 9b18 2d3d
000001b0: 0c68 1ebc 423e 90bd 34ea 1ebd 8a16 573e
000001c0: 3db9 15bd 7874 c63d fd17 043e 9995 6f3d
000001d0: f8ed a23c a7b0 32bc ab30 0c3e 71b6 893e
000001e0: f845 463d 237d f1bd 58b0 e43d 74a2 f23c
000001f0: 93c2 403d 89fc 223c 5f32 4e3d f8b8 72bd
-0.13257283 0.044302292 -0.055558264 -0.044026367 0.17426388 0.09991187 -0.077147305 -0.17379692
-0.26666236 -0.04352301 0.037736647 0.06877305 0.09452916 0.17291795 -0.010594102 -0.17073628
-0.059710607 -0.16541539 -0.1446697 -0.1445786 -0.18820871 -0.12795073 0.07811206 -0.020981066
-0.03649483 0.15466225 0.09432124 0.041894525 -0.03860128 0.04689008 -0.13423097 0.089333095
0.24448672 -0.2183357 0.104116574 -0.1718861 -0.03390077 0.11718191 0.11125959 -0.057487447
0.11853642 -0.16485159 -0.03034323 -0.00860476 0.015494295 -0.10663547 0.04440484 -0.054515358
0.18729553 0.03238027 0.014133177 -0.17683646 -0.013857202 -0.08677594 -0.14424197 0.22601418
-0.026240848 -0.018944012 -0.07608971 0.14435506 -0.013213058 0.014817618 -0.13013314 -0.10497147
-0.06710748 -0.0876425 -0.05480126 -0.100519955 -0.057209462 0.14650577 0.03075509 -0.0020006842
-0.07307848 0.09426948 0.044959936 -0.10530401 0.019415824 -0.24544287 0.06972516 -0.031808507
-0.12414927 -0.038784474 -0.008110067 0.04518816 -0.13006361 0.12322922 0.09644295 -0.07716976
-0.14793022 0.21806264 0.06925089 0.015133935 -0.08666659 0.1685782 -0.06256483 0.15104598
-0.08797411 -0.0124732135 0.18787071 0.04911957 0.03152676 -0.17398655 0.06022242 -0.0019099613
0.023097891 0.034316648 -0.16830708 0.042259794 -0.009668361 -0.07043125 -0.038797572 0.21004692
-0.03655361 0.096901834 0.12899776 0.058492277 0.019888863 -0.010906375 0.1369044 0.26897004
0.04840657 -0.11791446 0.111664474 0.02961848 0.04706056 0.009947904 0.050341006 -0.05925843

conv2.lin_r.weight f4 [128, 64]
00000000: be4e efbd 6166 643d f147 853e 15cd dd3d
00000010: d2c9 043e 17a4 efbd b3aa 3bbc 3200 b63d
00000020: fa08 8e3d f5b1 543e 851d b5bd c13d 13be
00000030: 2f12 3a3d b98e 26be 2083 bfbd c24c 873d
00000040: 04ca 16be d424 f1bd 0881 01be a10f 37bd
00000050: b8dd 4cbd 23a5 3dbe 4ea1 87bc 6214 c3bc
00000060: 7c0c 033e 6d8c fb3c 26db 033b b164 193e
00000070: 30e9 fbbd 3a5c 043e 2157 8dbd 6a45 37bd
00000080: 0247 05be f9c2 9a3d 7a78 f43b 6a06 283c
00000090: d074 c93d b3a3 c4bd 6818 0ebe f842 54bd
000000a0: 2b1b dabd f43d ca3c 584b 97bd 8f1f 283d
000000b0: d01b f0bd 8024 c3bd 2e01 6cbd 76d3 5fbd
000000c0: 7103 a8bd 7de3 163e 2a92 cbbd cdd2 8d3c
000000d0: b8bf 8e3c 0326 37bb 6286 8ebd 7ff6 9d3c
000000e0: d229 adbd 5d9f 5abc 941b ef3d d7c1 75bd
000000f0: e81f 4e3c 2f4c 8ab9 e47e 2f3d 38f7 93bb
00000100: f40f e23c a337 503d 68cb a5bd f465 d0bd
00000110: 1bdf e73d 6e67 db3d 7427 03be 8008 acbd
00000120: 310b eeba e32d 92bd ae0c 173d f733 01be
00000130: 36b4 ba3d 523e a43d 8ed4 72bb 834a b6bd
00000140: 3480 eabd 320e bc3d e563 da3d fec7 f63d
00000150: 0154 89bd ea47 c73d 8986 85bc d4f4 9c3c
00000160: 9bf9 193e 539f 20be 9308 18be 60a3 f4bc
00000170: 9cf4 d83c da49 dfbd 6883 57bd 0f5b 4d3e
00000180: 05e4 53be d3c4 00be 9609 443d 232b d43b
00000190: 2237 07be c8a9 eabd d0cd 54bd 0da5 b63d
000001a0: 841a 3bbd fe10 9dbd 81fe 8a3d 872a fbbd
000001b0: 1141 72be 3a79 37bd 082b 863e 0829 f03d
000001c0: 3b65 9dbb a7eb 70bd 5a97 8cbc c223 0bbe
000001d0: c564 993d 7c77 6ebe 2eb6 7fbe 4e31 4dbb
000001e0: 1442 03bd 1ded 023c 2d50 713c 12d5 43bd
000001f0: 7c19 e1bc d7b2 2abd ee8e 403d 1b1e 0abc
00000200: 7727 22be c89d d43d d291 c93d 0c00 dd3d
00000210: d2ac e83c 2ff2 9d3d 038c 2f3e a5d8 44be
00000220: bf93 b63c f5ba af3d 11cd 57bc 3f2c d3bd
00000230: 9c75 26bb ac28 b53d dc27 3abd 81db 2b3e
00000240: 3d46 b8bd 99ef 4b3e ad27 e6bc 2675 bdbc
00000250: f43a 44be 22bc 3d3d 2582 9d3c ac9c 86bc
00000260: 3f64 42bd f458 55bd eb96 93bd 915a 333e
00000270: 8ffa 1cbe 394b 87bd d550 9b3d 132a f0bc
00000280: 11a7 82bd 397b 2b3e fc0c 76bd 344c 1f3c
00000290: d4a1 443e 31ca 1f3b 18ad 173d 75c8 51bd
000002a0: 6d2c fcbc affa 813d 5b29 51be 030a eabc
000002b0: 76d5 56bd e188 d1bd b587 9ebd 28f1 7b3c
000002c0: afcf 393c b7be 823e 49b8 e6bc 55e0 46bd
000002d0: 0973 07be eb94 713d 9780 ac3d aff5 18bd
000002e0: 6ecb 0f3d e630 d73d 6a3d 8d3d 49ac 043e
000002f0: 2b42 323e d384 6a3d fb1c bfbd e492 78bd
00000300: 8038 903d 6370 263e 3bd8 563e f99c a93d
00000310: d412 3c3d ef3d 1cbe 3e1e 60bc 223a 723d
00000320: 6c82 fbbb 5ed4 0a3e 2615 5cbd b06e f6bd
00000330: 2bd1 ffbc 3253 7f3c 2b00 dfbd 8208 433e
00000340: 30f1 9e3d b25a b5bd 6856 21be c26e 61bd
00000350: dc72 463d 03cb e23b 1d01 64bd a110 86bd
00000360: 6e0b 28bd 7bd6 173d ec1d 0e3c 0866 ab3d
00000370: b64c 4ebd 4d81 263d 37f2 d4bd bd37 c5bc
00000380: 985d c4bc b408 903e 0e23 7dbc 49e2 55bd
00000390: 3b60 813d 304d 74bd 8c3c 9d3c d9fe 06be
000003a0: b526 04bc 96d0 4cbd 1804 13be c23e b1bd
000003b0: 65d5 75bd 3350 2abd 89c2 32bd 2f74 37bc
000003c0: 6402 e1bb e576 4f3e b762 f73c be01 db3d
000003d0: f02d 623d 59db debc 03c8 aabd 748c 0dbe
000003e0: fde5 4cbe 4ecc 583d 3dcf 033e 4389 8fbd
000003f0: c918 9b3d ede3 993c d163 0ebe 135f c43c
-0.11684941 0.0557617 0.2603145 0.10830132 0.12967613 -0.117012195 -0.011454272 0.08886756
0.06935306 0.2077101 -0.08843521 -0.14379026 0.045427497 -0.16265382 -0.09351182 0.06606437
-0.147255 -0.117746025 -0.12646878 -0.04469264 -0.050016135 -0.18520026 -0.016556408 -0.02381343
0.12797731 0.030706609 0.0020119636 0.14979817 -0.12300336 0.12925807 -0.06901384 -0.044743933
-0.13015369 0.07556719 0.007460651 0.0102554355 0.09836733 -0.09601536 -0.13876498 -0.05182168
-0.10649713 0.024687745 -0.073874176 0.04104572 -0.11724055 -0.09528446 -0.057618313 -0.054645024
-0.082037814 0.14735217 -0.09939988 0.017312432 0.017425403 -0.002794624 -0.06959225 0.019282578
-0.08455242 -0.013343659 0.11675182 -0.059999313 0.012580849 -0.00026378172 0.04284562 -0.0045155548
0.027595498 0.05083431 -0.08095437 -0.10175696 0.11321851 0.10713087 -0.12808019 -0.08400059
-0.0018161294 -0.071376584 0.036877327 -0.1261748 0.09116404 0.08019699 -0.0037052962 -0.08900931
-0.11450234 0.09182395 0.106635846 0.12049864 -0.067054756 0.097305134 -0.016299503 0.019159712
0.15036623 -0.15685777 -0.14847021 -0.02986306 0.026483826 -0.10902758 -0.052615553 0.20054267
-0.20692451 -0.12575082 0.047860704 0.006474869 -0.13204625 -0.114581645 -0.05195409 0.089182
-0.045679584 -0.07669257 0.06786824 -0.12263971 -0.23657633 -0.044793345 0.26204705 0.11726576
-0.0048033274 -0.058818486 -0.017162014 -0.1358786 0.074899234 -0.23287767 -0.2497184 -0.0031309905
-0.03204544 0.0079911025 0.014728588 -0.04781062 -0.027477972 -0.04167446 0.04701131 -0.008430029
-0.15835367 0.10381657 0.09842266 0.107910246 0.02840272 0.077122085 0.17143254 -0.19223268
0.022287248 0.08580581 -0.01317145 -0.10311174 -0.002539969 0.08845648 -0.04544817 0.16782953
-0.08997772 0.19915618 -0.02809509 -0.02312715 -0.19163114 0.046321996 0.019227097 -0.016432129
-0.047458883 -0.052086785 -0.0720652 0.17515017 -0.15329956 -0.066061445 0.07583777 -0.029316938
-0.06379522 0.16746224 -0.060070977 0.009722758 0.19202358 0.002438199 0.03703031 -0.05121656
-0.030782903 0.06346642 -0.20425932 -0.028569227 -0.052449666 -0.10231186 -0.07740728 0.01537732
0.0113410195 0.2553613 -0.028164046 -0.048553783 -0.13227476 0.05897991 0.08422964 -0.037343677
0.035106115 0.105073735 0.068964794 0.12956347 0.17408054 0.057255577 -0.093316995 -0.06068696
0.070420265 0.1625381 0.20980923 0.08281893 0.045916393 -0.15258001 -0.013679085 0.05913747
-0.0076754596 0.13557574 -0.053731106 -0.12032831 -0.031227669 0.0155838 -0.10888704 0.19046214
0.077608466 -0.088551894 -0.15755618 -0.055037268 0.048449382 0.0069211735 -0.055665124 -0.065461405
-0.041026525 0.03706978 0.008674126 0.0836907 -0.050366126 0.040650655 -0.10397761 -0.02407443
-0.02397041 0.2813164 -0.015450252 -0.052217755 0.06317183 -0.059643924 0.01919391 -0.13183154
-0.008065869 -0.05000361 -0.1435703 -0.08654548 -0.060017962 -0.04158039 -0.043642554 -0.011197134
-0.00686674 0.20260198 0.030198438 0.10693692 0.05521959 -0.027204202 -0.083389305 -0.1382311
-0.20009609 0.052929215 0.12872024 -0.070086025 0.07573087 0.018785441 -0.13905264 0.023971116

conv3.lin_l.weight f4 [256, 128]
00000000: 930f bfbc afbb a8bd a6ce fdbb c674 a7bb
00000010: 0850 d3bd 39b8 99bd abda e9bd e250 16bd
00000020: bb7b 20bd 52bf b1bc ecbf a5bd b5ab cabd
00000030: 60ec 1cbd 1fe0 133e d674 613d 585c acbd
00000040: d030 3d37 7cb4 d13c 2c9f ddbc 39fc a9bd
00000050: c559 7fbc d62c 97bd c646 65bd 5560 903d
00000060: 2adf 9dbd bf7e c4bd 1426 f03d 8d97 bc3d
00000070: 5132 2fbd 783f 8abd 61fb 2fbe 9608 013e
00000080: 03ae c7bd 2644 24bd 5100 bfbd 479d 26bd
00000090: f8c5 4ebc 644f 16bd 686a 51bc b41c a4bc
000000a0: 2928 19be 1a75 bdbd 41dc 8ebd c9e6 76bd
000000b0: 4ac8 2e3d 0ecc 1fbd ccac 103c 214f 8ebd
000000c0: cdb6 98bd 6393 1abd 5bfa 0bbd 3af5 5abd
000000d0: b28a 05bd 83cf 2ebd 7363 0ebc edb0 8cbd
000000e0: accb c43b a39d e2bc 7e79 03bd 230a e63b
000000f0: de08 d6bd f281 68bd efc1 73bd 61e8 74bd
00000100: 7c4e 743b d7f7 b7bd 36e3 14bd 42fa 12bd
00000110: 4419 94bd 4f4b b4bd 2c16 34bd d228 d6bd
00000120: 3b17 79bb 33bd 12be d647 3bbd 2918 073d
00000130: adb4 c8bd d3b1 cbbc 48b8 35bd 34d6 e3bd
00000140: f66a a6bd cb3b 12bd a57f 9cbd 880b 20bc
00000150: f991 50bc a1df 49bd fd02 05be 328a 3d3c
00000160: ad2b 25bd 093d 0b3d 4f39 1abe 1122 0bbd
00000170: d4b4 64bd ad8b a238 5540 233d 3a63 96bd
00000180: 58f2 b1bd 891b 6ebd f675 3a3d 14dc a1bd
00000190: 8f5e 2cbd 6511 80bc f0ac 7abd ab7d 0cbd
000001a0: 8729 6fbc c704 3bbd c360 9dbd 1d63 b6bd
000001b0: 609b 4fbd 0f06 94bd 94cc a8bd 1099 a3bc
000001c0: ce68 f43c 02b0 91bd a493 c5bd d7cf 22bd
000001d0: 7eab f33d 04c6 d03b 16a0 94bc d714 07be
000001e0: dca4 59bd ec83 b6bb 78d5 74bd 0090 edbd
000001f0: a50e b8bd 4403 c43c 520a fdbc 8496 cbbb
00000200: 42c4 6c3d a87a aebd 90e6 f039 f7a1 42bd
00000210: 22b1 96bc c6f3 f8bc 07a8 af3c 21e0 2cbd
00000220: 1891 4cbc 8ead b0bb 9c0b b6bd 7988 6bbc
00000230: 96b1 953b 7590 edbc bff6 b5bc 1d5d a73c
00000240: 491e 3cbb 1cb3 943d a41c 1a3d a348 b03c
00000250: e173 043d afb0 173d 0ef7 8a3d 8d83 b93d
00000260: 2b22 0e3d 2152 fcbb a608 fc3b f762 9bbd
00000270: ed92 723d da45 643b dd28 88bd b52d 7b3d
00000280: c5ae 81bd 61ed 433c ac35 563c e2dc c23c
00000290: 9ce6 babc 748a 303c 1076 c3bd d11e 043d
000002a0: 7b3d 353d 9d58 493d 1d84 633d a0ad 4ebc
000002b0: f4c1 a03d 2e18 a93c 0bb8 abbd cf12 093d
000002c0: 1b35 a2bc 7566 8abd c031 7dbc 1dfb 18bc
000002d0: 6bac 1ebc a811 83bc 6214 1a3d 402a 10bd
000002e0: 68fe 57bd 34a9 5a3d f19e f2ba dcb1 c6bd
000002f0: 020f a6bd 2e5b b1bc 62e4 133c 8a27 cbbc
00000300: e09e 073d 5da7 dcba e642 edbc 8821 48bb
00000310: 459f b1bc 68b6 31bd 4249 53bd 9088 ce3c
00000320: c427 bc3d 8fa2 97bd 75e5 30bd f635 873d
00000330: 4403 333b e389 0a3d 1874 1f3d 354d 4e3d
00000340: f556 2bbc 534c 153c 7156 323d 6852 90bc
00000350: fa3b 33bc ed05 bdbd 6ad6 54bd bd29 6b3d
00000360: d428 403d a16f 813d 8544 28bd 3c8c 16bb
00000370: f76c 533a e63d 513d 1037 ec3d b033 51bd
00000380: 1748 fbbb 8f89 743d 91b0 6ebc d34d 9abc
00000390: b2af 2a3d 675e b53c ed1b a9bc 75d6 0cbd
000003a0: 9c03 0bbe 8f6d 12bc 9da6 54bc d75a c1bd
000003b0: 54da 1bbc 5fea f83c fa31 99bd 1619 90bd
000003c0: e932 823d 77de 903a 71c5 29bd 93af 5abd
000003d0: ca4f b53d f68f 203d 6bf6 66bc be53 0fbd
000003e0: ea24 7cbd 9171 8f3d 84c9 793d bd88 563d
000003f0: 5189 913c 72db 433c a94d 9cbd 2d7f ef3c
-0.023322856 -0.08238923 -0.0077455817 -0.005110356 -0.10317999 -0.07505841 -0.11418661 -0.03669823
-0.0391805 -0.021697674 -0.08093247 -0.09896032 -0.038311362 0.14440964 0.055043064 -0.08416051
1.1276643e-05 0.025598757 -0.027053438 -0.08300061 -0.015585368 -0.07381599 -0.055975698 0.07049624
-0.07708581 -0.095944874 0.11726013 0.092085935 -0.042772595 -0.06750387 -0.17185737 0.12600932
-0.09749987 -0.040104054 -0.09326232 -0.040677335 -0.012620442 -0.036696807 -0.012781717 -0.020033218
-0.14956726 -0.09250851 -0.06975604 -0.060278688 0.04267148 -0.03901296 0.0088302605 -0.069486864
-0.074567415 -0.037738215 -0.034174304 -0.053456523 -0.032602973 -0.042678367 -0.008690703 -0.068696834
0.006005725 -0.027663058 -0.032098286 0.0070202514 -0.1045091 -0.05676455 -0.05951112 -0.059791926
0.0037278226 -0.089828186 -0.036349498 -0.035883196 -0.072313815 -0.088034265 -0.043966457 -0.104570046
-0.0038008231 -0.14329986 -0.045722805 0.032982025 -0.09800086 -0.024865067 -0.044365197 -0.111248404
-0.0812587 -0.035701554 -0.07641534 -0.009768374 -0.012730115 -0.049285535 -0.12989421 0.011568593
-0.040324856 0.033993755 -0.15060924 -0.033968035 -0.055836514 7.7507786e-05 0.039856274 -0.07343145
-0.086888015 -0.05813173 0.045522653 -0.07903305 -0.042082366 -0.015633294 -0.061200082 -0.034299534
-0.014597303 -0.045658853 -0.076844715 -0.08905623 -0.050685287 -0.07227718 -0.08242145 -0.019970447
0.029835131 -0.07113649 -0.09647301 -0.039748993 0.11897944 0.0063712616 -0.018142741 -0.13191544
-0.053135738 -0.0055699255 -0.059773892 -0.115997314 -0.08987168 0.023927338 -0.03088871 -0.006213011
0.057804354 -0.085194886 0.0004594815 -0.047517743 -0.01839501 -0.030389678 0.021442426 -0.042205933
-0.012485765 -0.005391783 -0.08888933 -0.014375799 0.004568289 -0.028999547 -0.022212384 0.020430142
-0.0028704575 0.07260725 0.03762497 0.02151901 0.032337073 0.037033733 0.06785403 0.090582944
0.034700554 -0.00770022 0.0076914607 -0.075872354 0.05922215 0.0034831674 -0.06648419 0.061322886
-0.06332163 0.011958451 0.01307432 0.023786966 -0.022815041 0.010775197 -0.09544003 0.03225595
0.044248085 0.049156774 0.055545915 -0.012614638 0.078494936 0.020641413 -0.08384713 0.033465203
-0.019800713 -0.067578234 -0.015453756 -0.009337214 -0.009684662 -0.01599963 0.037617095 -0.035196543
-0.052732855 0.05338402 -0.0018510503 -0.09701893 -0.08108331 -0.021649923 0.009026619 -0.024799127
0.0331105 -0.0016834546 -0.028962564 -0.0030537564 -0.021682391 -0.043386847 -0.051583536 0.025211602
0.09187272 -0.074040525 -0.043187577 0.06602089 0.002731518 0.033822905 0.038929075 0.0503666
-0.010457744 0.009112435 0.04353947 -0.01761742 -0.0109395925 -0.09229646 -0.051962294 0.05741285
0.046913937 0.0632012 -0.04108097 -0.002297177 0.0008065248 0.05108442 0.1153394 -0.051074684
-0.007668506 0.0597015 -0.014568464 -0.018835938 0.041671462 0.022139741 -0.020643199 -0.03438421
-0.13575596 -0.008937254 -0.012979177 -0.094411545 -0.009512503 0.030385194 -0.074802354 -0.07036035
0.063573666 0.0011052628 -0.04144806 -0.053390097 0.08853109 0.03919979 -0.014096837 -0.034991972
-0.06155864 0.07004083 0.060983196 0.052376498 0.017765673 0.011954175 -0.07632 0.029235447

conv3.lin_l.bias f4 [256]
00000000: f490 153e d09b f6bd e8ac bd3d bcb7 71be
00000010: 0cad 923d 9e35 03bc becb f4bd 0861 7bbd
00000020: 7d54 12be 1314 403d d345 febc 7106 5abd
00000030: 8dda fcbd acab 0a3d e949 2d3c 5b27 49bd
00000040: b17d aa3c a1f7 92ba dfda 7a3c 6639 883d
00000050: 95b0 273d 80f6 223e 7396 80bd 3b35 e33c
00000060: a4ee e3bd a40a 43be 3898 153e 4709 51be
00000070: 9481 81bd 42e7 42bd 6ab0 18be b81c 9bbb
00000080: 08a6 aabd 3462 c7bc c203 95bc 1d20 d2bd
00000090: 3cef b93d 38be 033d cd07 1a3e 7c25 efbd
000000a0: 2806 2dbe 8859 ddbd dff2 6bbd 6b8b 733d
000000b0: ce36 a83c e07b 71bd 7aeb 82bd e63a 3cbe
000000c0: aa08 1f3b 4ede 0ebe 8976 04bd 2209 be3c
000000d0: e0f6 30be 6cfc 413d 5b3d e6bd 3a53 67bc
000000e0: be5a 5a3e c95d 0abe 2ca3 2e3e 9290 c93d
000000f0: 5a49 ecbd 1454 55bc 53ab ed3c 291d 333e
00000100: a315 a1bd ff08 3f3d d392 2cbd 84d1 913e
00000110: 8b1f d53d 25b5 69bd ca04 e5bd b01b 5cbd
00000120: 7e71 853b bb2f 2bbd 515f e1ba 60f4 8b3d
00000130: 2eea 61bd b018 04be eab3 343d 7a2e a63c
00000140: 8cdd bdbd 011c c93d 8570 04bc b242 4abd
00000150: e9ff 8cbd 31f6 d23c ca7b cabc 9561 71be
00000160: 48f4 48bd 1147 18be 8d3d 48bc 71d9 b0bd
00000170: 9614 aabc 2361 353d b63a f0bb 86ea 8dbc
00000180: af8a 56be a842 783e e1ac 7bbd 9f6a 0c3e
00000190: 0612 9dbd 3b59 1ebe c2f9 2cbd 5a2c c23d
000001a0: efa4 a0bd cd81 c93b 7ad7 f23d e956 b8bd
000001b0: 9939 873d 180a 68bd 6144 94bd a513 8cbd
000001c0: c700 78bd d9ff 33bc 2ee5 61bd 1d44 99bd
000001d0: 8f49 a83d f887 c33d 4af0 2a3c 9e19 2abe
000001e0: 67c1 3ebc 1e01 cf3c ea8f 1f3e 3ecb c93c
000001f0: 369b 51bd 3918 3fbb 800b 873e 41d6 2cbe
00000200: 06ff 90bd 3f8e 5ebd b305 1dbe 597f bdbc
00000210: 5cb3 3abe 354c b03d 97d3 f0bc f90a b9bd
00000220: 5cda 0fbe c376 4fbe 0afd 1dbe 6e20 fb3d
00000230: b95b 01be b452 23bd 2053 a2bd 5b6a 383e
00000240: 4b4e cdbd 0ad7 b1bc c341 94bd b554 8bbb
00000250: 663b 22bc ebd1 bcbc f77b 9f3d b7b8 a6bc
00000260: 0575 48be 1f67 d0bd 5a30 85a8 e452 fdbc
00000270: 665c 01bd 604e b5bc ba59 2cbd e7f9 b6bc
00000280: 072d 37bd 6b69 b13d 4db3 d63d 1ea4 09be
00000290: c88d ae3d b713 7f3c 8f42 49bc 9912 0dbe
000002a0: 9b5d 85bd 77d6 2fbb 9f4f 1abd a62b b53d
000002b0: fd64 bbbd 8b90 f0bd 7a82 97bc 98e3 30be
000002c0: ebfd bdbd 678d a3bd 5868 9dbd c6aa f53d
000002d0: 9ba4 a8b8 aa00 90bb 8b07 3bbd f57e 51be
000002e0: cfae 3bbe b70a c9bc 61ec 313e a755 c43d
000002f0: c872 f2bd ec84 23bd 51d3 59be de37 4fbe
00000300: 8af9 0cbe 63d5 0abe 1bc9 d03d b737 4c3e
00000310: 5d07 1abe ba0e 3abe 4d1e 173d eda3 9dbd
00000320: 35c0 d2bb 7751 953b 0d39 d1bd 549f 4c3d
00000330: 02db 82bd 1ea9 9ebd e2c3 dfbc 4340 29be
00000340: a282 b6bc ead2 a2bd 5ce5 21be 20bd 19be
00000350: ed63 0d3e 051a 4ebe b920 09be 8cbb 32bc
00000360: 5620 f43c 72df 11bd 89c3 413d b1e8 f1bd
00000370: 3178 44be 0eb9 ca3c 9794 273e ca6a ce3d
00000380: 9b4c 64bd 0974 aabd 51df b53c 1f45 50bc
00000390: 6fad 003d d025 4dbe 5052 b0bc d1b4 57bd
000003a0: a526 68bd 9e6e 0ebc b936 f9bc 0f6c cdbc
000003b0: d775 25bd 2843 43bc 0660 9bbd d1f4 0b3e
000003c0: 0110 49bc 1089 2bbe 11e0 693e cd37 05be
000003d0: bada 03bd 6741 24be 7bf2 983d 7b8b 87bd
000003e0: 1430 56be 36e0 1bbd 6980 e0bc 0161 06be
000003f0: 7bba 3d3d fbbd 4bbd 6253 b63c e96e a03d
0.14606076 -0.120414376 0.09261495 -0.23605245 0.07161912 -0.008008389 -0.11952923 -0.061371833
-0.14290042 0.046894144 -0.031039154 -0.0532288 -0.12346373 0.033855125 0.010576704 -0.049109798
0.020811887 -0.0011212715 0.015310972 0.06651573 0.040939886 0.15914345 -0.06278696 0.027735343
-0.111295015 -0.19047028 0.14608848 -0.20413695 -0.06323543 -0.047583826 -0.14911047 -0.004733648
-0.08332449 -0.02433882 -0.018190268 -0.10260031 0.090788335 0.03216383 0.15042038 -0.116770715
-0.1689688 -0.10808092 -0.057604667 0.05945913 0.020533945 -0.058956027 -0.0639257 -0.18381843
0.0024266639 -0.1395199 -0.032339606 0.023197714 -0.17281675 0.04735987 -0.112421714 -0.014118964
0.21323678 -0.13512339 0.17054433 0.09842028 -0.11537428 -0.013020534 0.029012358 0.17491592
-0.07865455 0.04663944 -0.04213221 0.2848016 0.10406407 -0.05705752 -0.11182554 -0.053737342
0.004072367 -0.041793566 -0.0017194544 0.0683372 -0.05515497 -0.12900043 0.044116892 0.020285834
-0.09270772 0.098197944 -0.008083467 -0.04938001 -0.068847485 0.025752159 -0.02471723 -0.23572381
-0.04906109 -0.1487086 -0.012221706 -0.08635224 -0.02076177 0.04428209 -0.0073312176 -0.017323744
-0.20951341 0.24244177 -0.061444167 0.13712548 -0.07669453 -0.15463726 -0.042230375 0.09481116
-0.078439586 0.0061495067 0.11857505 -0.09000952 0.06602783 -0.05665025 -0.07239605 -0.068396844
-0.060547616 -0.010986292 -0.055150203 -0.07483695 0.08217155 0.09547418 0.010433266 -0.16611335
-0.01164279 0.025269087 0.15582243 0.024633046 -0.05117341 -0.0029158725 0.2637596 -0.16878606
-0.07079892 -0.054334875 -0.15334205 -0.023132013 -0.18232483 0.08608285 -0.029397769 -0.09035296
-0.14048141 -0.20260148 -0.15428558 0.12262045 -0.12632646 -0.039873794 -0.07926011 0.18009321
-0.10024699 -0.021708984 -0.072391056 -0.004252041 -0.009901857 -0.023049315 0.07787316 -0.02035175
-0.1957589 -0.10175919 -1.4786935e-14 -0.030923314 -0.03158226 -0.022132099 -0.042077757 -0.02233596
-0.044720676 0.08662685 0.10483418 -0.13441512 0.085231364 0.015568665 -0.012283935 -0.13776626
-0.065119945 -0.0026830712 -0.03767359 0.08846216 -0.09150121 -0.117463194 -0.018494833 -0.1727432
-0.09276947 -0.07985955 -0.076859176 0.11995463 -8.0415244e-05 -0.0043946104 -0.04566149 -0.20458587
-0.18328403 -0.024541242 0.17375328 0.095866494 -0.11838299 -0.039921686 -0.21272017 -0.20236155
-0.13767067 -0.13557963 0.10194608 0.19943129 -0.15041871 -0.1816968 0.03689413 -0.07697282
-0.0064316043 0.0045568305 -0.1021596 0.049956635 -0.06389429 -0.077471 -0.027315084 -0.1652842
-0.022279087 -0.07950385 -0.1581015 -0.15013552 0.1380765 -0.20127113 -0.13391389 -0.0109089725
0.029800575 -0.035613485 0.047305617 -0.118119605 -0.19186474 0.024746444 0.16365276 0.10078962
-0.05573712 -0.08322913 0.022201212 -0.012711792 0.0314154 -0.20033956 -0.021523625 -0.052662674
-0.05667748 -0.008693365 -0.030421602 -0.02507594 -0.040395584 -0.011917867 -0.075866744 0.13667609
-0.012271882 -0.16751504 0.22839381 -0.13009568 -0.032191016 -0.16040574 0.074681245 -0.06618401
-0.20916778 -0.03805562 -0.02740498 -0.13122942 0.04632042 -0.049741726 0.022256557 0.078336544

conv3.lin_r.weight f4 [256, 128]
00000000: 884a 023e 1223 aabd 6a69 593e cf91 303e
00000010: cdc7 e73a 96bd 6fbd 366c 93bd 55f7 24bd
00000020: a2fa 6fbd a7af 11be 65c1 953c e98a 2b3d
00000030: bd08 b63d f3fb c0bc 7963 f8bd a635 8ebc
00000040: fb83 493d c0d2 063e d857 383e ef54 e43d
00000050: c29b 283e 3330 0b3e ee33 91bc 7da5 a83d
00000060: 231d ac3d 11a6 cb3c 8dba 23bc 3a2a 283d
00000070: c752 dd3c bb3b b23b 7031 173e e4a2 093e
00000080: 732f 6fbd c45b 9f3c 8ece b73d 32f6 37bc
00000090: 1d70 30bd cfb0 8abd c75f 24bd d31c 50bd
000000a0: 0451 de3d 0c9d bb3c 24d3 5e3e f416 0f3e
000000b0: 64b4 9f3c 6629 afbd c97d dc3d 87ab 9c3d
000000c0: e846 37bc 4548 c3bb b669 62bd 7857 903d
000000d0: b268 d73d 5b40 b4bd d7b1 1b3d 468e 55bd
000000e0: 5a6a 09be 0ee8 633e e4a4 e1bd 3885 ba3c
000000f0: f856 93bd e2f9 bdbd 1eeb c73d 46bf c3bd
00000100: 7d21 ca3c 7288 66bd 76ad bdbd 1a71 cdbb
00000110: f54c 833d f8e0 183d 9e6a 47bd 81bf 133e
00000120: 8ae1 ca3d 5325 b7bd 8aab 083d cba3 083e
00000130: 715d e5bd 0311 db3d 7b83 163e 2f2b 6b3d
00000140: b5c0 d83d 98e7 003d f5d1 6c3d 0f3a bb3d
00000150: 8c97 5fbd fbe3 f33c 470a f2bd a49c 75bd
00000160: 37d7 dc3d 6c15 bcbb b3bd ea3d b547 abbd
00000170: 2737 7dbd 4bcb 093e 9906 bc3d c4e5 683d
00000180: 8491 173e d0ab e73b 2cfe d53d 8746 453e
00000190: 1a2b 203d 93bb 193d f154 99bd 9c74 823c
000001a0: d254 83bd 0fc4 ef3d cfca 073e 9f73 a7bd
000001b0: 0b2d 2a3d 39d9 7b3d e764 283e f3ab bfbd
000001c0: 290f 6fbc cdba c53a e7e7 a1bd 276d dc3d
000001d0: 57a7 27bd 2b70 83bd d66b 293d c4d5 603c
000001e0: a6f3 21bd 1c63 5c3c 6875 42bd a982 f2bd
000001f0: 5383 093d ad01 b1bc f170 073c a34d 0b3e
00000200: 78f8 be3d 9482 a8bd 146d 0d3e 55e4 f83c
00000210: f935 5ebd a72f 68bd 0478 37bd d228 7abd
00000220: 4927 b63d 85a0 c9bc 1898 93bc 6069 4e3d
00000230: 1460 2f3e 9ba6 b2bc 73a0 e9bd e6e7 e83d
00000240: 490e 3b3e 0c7b 343e 2780 ca3d e200 013e
00000250: 1802 583d 88a9 f13d 62e2 013d 20ce 6c3e
00000260: f5e6 ed3d 0c76 6d3d 3c62 383c 1f0c 3abd
00000270: 4a84 b03c 4432 343c e5b6 683c bbd5 c63d
00000280: ddb7 edbc 7096 af3d 118b 33bd 5a4a aa3d
00000290: 0cb9 a2bd 4f37 07be 53cf 02bc caf5 203d
000002a0: 35e8 5b3d 419c 5f3d 73fc d43d e86d d83c
000002b0: ff5e b839 6d3e 7aba 0615 89bd 9582 ff3c
000002c0: b28a 81bd 98d9 22bd 260c f0bc 322f 24bd
000002d0: 0ddf 8b3d b7d0 85bd 4e85 c73c d20a 263d
000002e0: 0d53 a5bc cf51 303e 698b f63c 3f76 70bd
000002f0: 1868 9dbd 1dad 70bd 574e 7d3d 24f8 d3bd
00000300: e628 1f3c 78d4 76bd f49c 92bd 46b6 923d
00000310: bc78 d23d aa49 20bd e86c 93bd 8355 673d
00000320: 12e1 273e 8424 3cbc d3d9 703c 626a c23d
00000330: 200e f9bd 4dfe 113d cb88 053d 64dd 0ebe
00000340: 53f4 a63c 1e0f 5a3c 147e 173d 2049 11bb
00000350: 993a 433d 994f 803b a151 0cbe d5e8 233d
00000360: a45a 4f3e 9e6d 263d 47af 25bd 25d4 a5bd
00000370: 67e7 8bbd 2ea8 b7bc bfac b03d a19a febd
00000380: d1ec e8bc f872 503d 050c 043d 390b b73c
00000390: c098 793d bc1e 683d 0da1 99bd 7830 83bd
000003a0: 7cb5 e4bd b3c4 243e 0907 4e3d ec2d 83bd
000003b0: 9cc6 06bd 169f febd c574 0cbc 377d 8ebd
000003c0: 1eef 60bd 01b8 8ebd 5815 c33c a522 263d
000003d0: 7e05 aa3d cebc e43c 3003 b1bd d89b 293c
000003e0: 067e f6bd 7b11 7a3d 2de7 d83d 56cc d9bd
000003f0: 26c1 32bc 84ea f8bc f79a 8abd 075a ccbc
0.12723744 -0.083074704 0.21231619 0.17243122 0.0017683447 -0.058530413 -0.07198374 -0.040274937
-0.05858863 -0.14227162 0.018280694 0.041880522 0.088883854 -0.023557639 -0.12128348 -0.017359566
0.049198132 0.13166332 0.1800226 0.11149012 0.16465667 0.13592605 -0.017724957 0.082346894
0.08403995 0.02485946 -0.009993208 0.041055895 0.02701701 0.0054392493 0.14764953 0.13441044
-0.05839486 0.019452937 0.08974944 -0.011228131 -0.04307567 -0.06772005 -0.040130403 -0.05080874
0.10855296 0.022902034 0.21760231 0.139736 0.019495197 -0.08552818 0.10766179 0.07649904
-0.011186339 -0.005959543 -0.055276595 0.07047933 0.10518016 -0.08801337 0.0380114 -0.052137636
-0.13419476 0.2225649 -0.110177785 0.022768602 -0.07194322 -0.09276177 0.09761642 -0.09557967
0.024674172 -0.05628247 -0.09261601 -0.0062695863 0.06411163 0.037323922 -0.048685662 0.14428522
0.099062994 -0.08942666 0.033366717 0.13343732 -0.11199463 0.10696604 0.14698593 0.05741423
0.10583631 0.031470865 0.057817418 0.09141933 -0.054587886 0.029771795 -0.118183665 -0.059963837
0.107832365 -0.0057398584 0.114619635 -0.083632864 -0.061820175 0.13456456 0.09180946 0.056859747
0.14801604 0.007070042 0.1044887 0.19265185 0.039103605 0.0375324 -0.074869044 0.015924744
-0.064126626 0.11707317 0.13260959 -0.0817635 0.041546863 0.061486457 0.16444741 -0.093589686
-0.014591017 0.0015085578 -0.0790556 0.10763007 -0.040931072 -0.06417879 0.041362606 0.013722841
-0.039539002 0.013451364 -0.04747525 -0.11841328 0.033572506 -0.021607244 0.008266673 0.13603835
0.093247354 -0.08228031 0.13811141 0.030382315 -0.05425069 -0.05668607 -0.04479219 -0.061074086
0.08894212 -0.024612674 -0.01801686 0.050393462 0.17126495 -0.02180796 -0.114075564 0.11372356
0.18267168 0.17625064 0.09887724 0.12597993 0.05273637 0.11799914 0.031710036 0.23125505
0.11616317 0.057973906 0.01125389 -0.045421716 0.021547455 0.010998312 0.014203762 0.097087346
-0.029018337 0.085736156 -0.043833796 0.08314963 -0.07945451 -0.13204692 -0.007984 0.039296903
0.053688247 0.054592375 0.10399713 0.026419595 0.00035165992 -0.00095460453 -0.06693463 0.031190196
-0.06325282 -0.039758295 -0.029302668 -0.04008407 0.06829653 -0.0653395 0.024355557 0.040537663
-0.020181203 0.17218708 0.030095773 -0.05870652 -0.0768587 -0.058758844 0.06184229 -0.103500634
0.009714341 -0.06026122 -0.07158843 0.07163672 0.102769345 -0.03913275 -0.071985066 0.056478035
0.16394451 -0.011483315 0.014700371 0.09492947 -0.12160897 0.03564291 0.03260116 -0.13951641
0.020380175 0.013309268 0.03698547 -0.002216883 0.047663305 0.003915739 -0.13703014 0.040016968
0.2024942 0.040631883 -0.04045036 -0.08097104 -0.06831246 -0.022419062 0.08626699 -0.12431837
-0.028433235 0.050890893 0.032238025 0.022344219 0.06093669 0.056669936 -0.07501421 -0.06405729
-0.11167428 0.1609066 0.050299678 -0.06405243 -0.032904252 -0.12432687 -0.008572762 -0.069574766
-0.05491554 -0.0696869 0.023813888 0.040560383 0.08301829 0.02792206 -0.08643186 0.010352097
-0.12035756 0.061051827 0.10590968 -0.10634677 -0.010910308 -0.030385263 -0.067678384 -0.024945272
