backend/workspace/weight/rt/PU/PU_1.pth (torch, 197051 bytes, 13 tensors)

ggnn.weight f4 [3, 50, 50]
000000 94 89 d2 39 e5 b9 57 3d 08 6a f1 bd e8 bf 0c bd
       0.00040156825 0.052667517 -0.11787802 -0.034362704
000010 3b 0e bb 3d f4 87 dd 3d f1 d3 d3 bc 27 b2 bd bd
       0.091335736 0.108169466 -0.025857897 -0.092624955
000020 c9 82 a6 ba 58 5c 66 bd 87 ad a3 bc f5 64 12 bd
       -0.0012703772 -0.05624041 -0.019980205 -0.03574081
000030 59 9d 56 3d 74 62 db 3d 3c 66 a1 3c c8 f1 24 bd
       0.052396152 0.10712138 0.01970207 -0.040269643
000040 92 7a a9 bc 46 13 06 be 9d 12 6c bd 89 1c 30 bc
       -0.020688329 -0.1309329 -0.05763494 -0.010748991
000050 30 35 50 3d 3c bf df bd 62 8a 12 3e 7c 3c f9 3d
       0.050831974 -0.10925147 0.14310601 0.121697396
000060 0a 2f 80 3c 08 7b 94 bd 88 73 23 ba b0 d8 d4 3d
       0.01564743 -0.07250029 -0.0006235172 0.10392892
000070 f9 8c cf bd 06 e4 27 3d 76 50 8c 3c 25 df b5 3d
       -0.1013431 0.040988944 0.01712821 0.08880452
000080 94 11 f3 bb 28 47 7a 3d 30 bf ac bd f2 ba 70 3d
       -0.007417867 0.061103016 -0.084349036 0.058772035
000090 d1 da b1 3d 3f 32 be bc 4f 25 0d 3e 89 ca 08 be
       0.08684314 -0.023217319 0.13783763 -0.13358511
0000a0 a4 8a 00 3e de d2 60 3c 0e c5 a8 bd ac 4f e6 bd
       0.12552887 0.01372215 -0.0824071 -0.11245665
0000b0 c4 a3 0d bd e4 7d b4 3a ff 9e b9 3d ec 9e de 3d
       -0.034580007 0.0013770428 0.09063529 0.10870156
0000c0 c3 2f 83 3c 86 22 fb 3d 92 54 b1 bd 10 db 62 3d
       0.016013985 0.12262444 -0.08658709 0.055384696
0000d0 b4 f6 a8 bd ae 11 63 bd 7e 44 ef bd eb 8b 84 bd
       -0.0825018 -0.055436783 -0.11682986 -0.06472
0000e0 db 91 30 3c ba 18 af bd cd ed 5d bd d0 b4 56 3d
       0.010776962 -0.08549638 -0.054181863 0.05241853
0000f0 52 7c 22 be 0f 8b 18 3d 4d fd 52 3d be 74 df 3d
       -0.15867737 0.03724199 0.051511098 0.10910939
000100 68 5a 81 3d 7b 37 8d 3c b7 77 96 3d 3c 49 d9 bc
       0.06316072 0.01723837 0.073470525 -0.026524179
000110 78 c9 ee 3c fe 49 cb bd 9d 07 fd bb 6d 8b 8e 3d
       0.029148802 -0.09926222 -0.007721855 0.06960187
000120 51 3c ad bd f8 a1 ad bd 58 77 1f 3e b6 24 bb bc
       -0.0845877 -0.08478159 0.1557287 -0.022844654
000130 29 cc 04 3e 5a 8f f8 3c aa 27 bb bd ad d4 ed bd
       0.12968506 0.030341793 -0.09138425 -0.1161283
000140 26 3b 03 3d 8b 40 de bd 64 6a 78 3d 19 e2 0f 3e
       0.03203883 -0.10852154 0.060648337 0.14051093
000150 88 73 3c 3d ea 2d 3d 3e 8f 5c d2 3d ee 24 8e bd
       0.046008617 0.18474546 0.102715604 -0.069406375
000160 e9 d3 d8 bd 62 86 4f 3c 1d ec 97 bc 9d c8 e5 3d
       -0.10587294 0.012666317 -0.018545205 0.112199046
000170 b7 0f 0b be 8d 56 a6 bd 3a 37 aa bc 34 64 2a 3c
       -0.13580213 -0.08121977 -0.020778287 0.010399867
000180 d6 94 8f bd 1e 45 1f 3d e8 d6 07 be 38 98 9a 3d
       -0.0701081 0.038884275 -0.13265574 0.07548565
000190 cd 2c fa 3d 60 43 a0 bd b1 fa 47 3d ea da 02 be
       0.12215576 -0.07825351 0.048823062 -0.12778822
0001a0 72 4e 6e 3c b0 87 c0 bd f7 06 c2 3c 0c b0 1a 3e
       0.01454507 -0.0940088 0.023684962 0.15106219
0001b0 90 e6 fd 3d a7 67 07 3e 00 07 af 3c 87 fe f0 3d
       0.12397492 0.13223134 0.021365643 0.11767297
0001c0 f6 ef c6 3d 61 3c 8a bd 05 50 82 bc 86 e9 bb 3b
       0.09713738 -0.067497976 -0.015907297 0.0057346253
0001d0 16 39 ba 3b 74 7c c4 3d cd ef 96 bb 22 eb 43 bb
       0.0056830747 0.0959405 -0.004606223 -0.0029894789
0001e0 aa 45 e1 bc 34 9b f5 3d 5b 98 2b 3c cf 4b 72 bd
       -0.027499039 0.11992493 0.010473336 -0.059154328
0001f0 02 f5 19 be 21 9f fb 3d eb de 07 bd e7 b4 e1 3d
       -0.1503487 0.12286211 -0.033171576 0.110208325
000200 f6 74 22 3d 3d b2 db 3d ba 22 88 bd 2b 30 c9 3d
       0.039662324 0.10727356 -0.066472486 0.098236404
000210 21 d5 d6 bd 39 49 4a 3c b4 23 cb bd e9 46 08 3e
       -0.1048987 0.012346559 -0.09918919 0.133083
000220 f0 d6 25 bd e6 fe cd 3d ce 6e 83 3d 89 d5 04 bd
       -0.040488183 0.10058384 0.06417619 -0.032430205
000230 35 41 6a 3d a8 91 f8 bd 0e f5 f3 bd db 06 f0 3d
       0.057191093 -0.12137157 -0.11911975 0.117200576
000240 5d c6 62 bd 87 65 0d be c1 d6 ab 3d 40 38 ce 3d
       -0.055364955 -0.13808261 0.083905704 0.100693226
000250 c1 54 43 ba b0 4b e9 bd 3d 52 00 be 52 42 e0 3d
       -0.0007451289 -0.11391389 -0.12531371 0.109501496
000260 06 ba ba bd 2d 68 0d 3e a4 38 13 3e 3e a1 40 bd
       -0.091175124 0.13809271 0.14377075 -0.047028773
000270 f1 4b 65 bd ae a1 b4 3c 92 85 d4 bd 04 0e d4 3d
       -0.055980626 0.022049751 -0.10377039 0.10354236
000280 d6 ca 31 be ad 05 db 3d 2e 63 31 bd e5 df b7 bd
       -0.17362532 0.10694442 -0.043307476 -0.08978251
000290 d5 53 bc 3d c3 cf 87 3d f8 a1 02 3c 1f 22 ee 3d
       0.09195677 0.06631424 0.007973187 0.11627602
0002a0 25 2f bc bd 85 91 dc 3d 53 f1 5c bd 54 b5 e0 bd
       -0.091886796 0.10769943 -0.053941082 -0.109720856
0002b0 82 b7 92 3b c1 ea 52 bb 1a 96 a0 3d d4 60 c0 3d
       0.0044774422 -0.0032183381 0.078411296 0.093934685
0002c0 a0 8a b6 3d f2 e8 27 3d 0e c7 a3 bc d5 c4 6c 3d
       0.08913159 0.04099364 -0.019992378 0.0578049
0002d0 07 65 92 bd 0d 5d 0a 3d 00 d7 db bd 7b f3 ac 3d
       -0.07148176 0.033780146 -0.10734367 0.08444878
0002e0 80 ad 5d bb 9f 39 14 3e dc 0b 3a bd 16 0a ca bd
       -0.0033825338 0.14475106 -0.045421466 -0.09865205
0002f0 78 c9 72 3d 0e bf d4 bc d9 84 b2 bc 9f 79 17 3d
       0.059274167 -0.025970008 -0.021791862 0.03698122
000300 f4 d1 7e 3d 17 bb 31 3d ae fc d9 3c 4f c1 24 3e
       0.062211946 0.043391313 0.026609745 0.16089366
000310 a5 0f 91 3d 9d 80 df 3d 4b c3 02 bd 05 d0 ae bd
       0.07083062 0.10913203 -0.031924527 -0.0853577
000320 85 d1 f0 ba 6e 3a 88 3d b6 29 ef bc 6a d0 27 bc
       -0.0018372989 0.066517696 -0.029194694 -0.010242561
000330 4f 57 7a 3d 04 5f 4a bb 7b a8 26 bd 64 b3 0d 3d
       0.06111842 -0.0030879388 -0.04068802 0.03459491
000340 c5 32 54 bd 7d af 03 3e 93 e8 9b bd 9d 5f d4 bd
       -0.05180623 0.12859912 -0.076127194 -0.10369799
000350 3d 57 af 3d 0b 31 af bd d0 0c 14 3d 5d da e9 3c
       0.08561561 -0.08554276 0.03614503 0.028546507
000360 f6 5b 57 3d e8 74 f9 3c 5b f3 5c 3c ba 6d 2d be
       0.052577935 0.030451253 0.013485755 -0.16936389
000370 70 44 cf bc 9f 60 1b 3d f8 95 f1 3d 89 1f aa bc
       -0.025301188 0.037933942 0.117961824 -0.02076699
000380 ac 02 2a 3d c2 18 38 3d 2c 78 c8 bd da 24 2a 3b
       0.041506454 0.044945486 -0.09788546 0.0025961907
000390 3e 7a 98 bd c6 68 90 3d 45 f2 c9 bd cc 61 56 3c
       -0.07445191 0.07051234 -0.09860662 0.01308484
0003a0 c1 5d e6 bc b0 a4 9b 3d c0 7e 77 3a ee f2 b7 3d
       -0.028120877 0.07599771 0.00094411895 0.08981882
0003b0 c0 11 00 3e ad 90 90 bd 00 cc e8 bd 7c b1 01 be
       0.12506771 -0.07058845 -0.11367035 -0.12665361
0003c0 4e 87 71 bd 1d 2a 8a bd a9 af 0e 3e 6f c1 d7 bc
       -0.058966927 -0.06746314 0.13934197 -0.026337354
0003d0 3a 71 d1 3c 73 15 ac 3c bb 48 02 3e fd 1f db bd
       0.025566686 0.021006322 0.12723057 -0.10699461
0003e0 3c 46 0a 3e b6 3f 41 3d ae 2e 7d 3c b5 1d b6 bd
       0.13503355 0.0471799 0.015453024 -0.08892385
0003f0 f2 f7 a5 bd 5e 93 e0 3c 77 36 07 3c fb 38 f8 bd
       -0.081039324 0.02741402 0.0082527315 -0.12120243

ggnn.rnn.weight_ih f4 [150, 50]
000000 e9 f0 c9 bd 92 87 8f bd 80 a3 11 bd ad dd b8 bd
       -0.09860403 -0.0700828 -0.035556316 -0.09026656
000010 cd ce 83 bd d8 86 86 3d 33 3e d2 3d c1 01 14 3d
       -0.064359285 0.06568688 0.1026577 0.036134485
000020 33 89 48 bd 14 4e 5e bd e6 4f 82 3d 43 5f be 3d
       -0.04895897 -0.05427368 0.06362896 0.092955135
000030 c7 9b 81 3c 05 f9 04 3d af 3e a3 bd d9 1e 97 bd
       0.01582135 0.032464046 -0.0797094 -0.073789306
000040 b9 41 08 bd 7c 4d b4 bd 23 bc 84 3d b9 86 ce bb
       -0.033265803 -0.088038415 0.06481197 -0.0063026813
000050 2e 6d 4a bd 6b 89 86 3d 4f 9a ae bc 54 74 f4 3c
       -0.049420528 0.06569179 -0.021313814 0.029840626
000060 61 86 90 bd 18 80 20 bd ba 84 f2 3d 5f 51 8a 3d
       -0.07056881 -0.03918466 0.11841722 0.067538016
000070 23 07 41 3c 60 72 4d 3c 2d 57 e8 bd 50 be 1f 3d
       0.011781487 0.012539476 -0.113447525 0.038999856
000080 71 77 0d 3d 38 5a 9c 3b ca ef a9 bd cd c6 5f 3b
       0.034537736 0.004771497 -0.08297689 0.0034145594
000090 1c a0 61 3c 21 fb 02 3d a9 0b 09 3d 40 7b 5a 3b
       0.013771083 0.031977776 0.033458386 0.0033337623
0000a0 df 7d 25 bd 98 8f 88 3c 97 1d 87 3c 70 c4 4a 3d
       -0.040403243 0.016670033 0.016493602 0.049503744
0000b0 ba 5f 27 3d 48 97 56 bc ea 2b 9d 3d f7 27 8c bd
       0.040862776 -0.013097592 0.076743916 -0.0684356
0000c0 f9 6b 4a 3d 4a be 01 3d fe 19 f0 bd 39 21 96 3d
       0.049419377 0.031675614 -0.117237076 0.073305555
0000d0 11 78 6c 3c 24 84 55 bd 95 c6 6a 3b c8 bb 8b 3c
       0.014432923 -0.052127972 0.003582393 0.017057315
0000e0 6a 23 95 3c 6c 4e b0 3d 1f 0b 80 bc 17 67 68 bb
       0.018205363 0.08608708 -0.015630303 -0.0035461837
0000f0 f1 92 46 3d 0d 53 87 3c 00 06 ca 3d e4 36 d8 bd
       0.048479978 0.016519094 0.09864426 -0.105573446
000100 ce f9 fa bd c0 df ce bd b9 ae 13 3d 2b 68 79 bb
       -0.12254678 -0.10101271 0.0360553 -0.0038056474
000110 7a 3d ef bc bc cf b9 3d 22 32 1f bd 4b 67 e0 3d
       -0.029204119 0.09072825 -0.03886617 0.109572016
000120 d2 81 ae 3d a7 e1 72 3d cc 2e 9b bc df 20 00 3d
       0.08520855 0.05929723 -0.018943213 0.03128135
000130 f5 00 81 bd 44 5e b8 bd 71 18 78 3b e5 46 2a 3d
       -0.06299011 -0.09002355 0.0037856365 0.041571517
000140 7f 23 ae 3d 4f 81 33 3b d5 1c 5e 3d ed 25 cb bc
       0.08502864 0.0027390306 0.054226715 -0.024798358
000150 7d ab 65 bd 77 85 86 bd d8 81 13 3d 18 90 45 3d
       -0.056071747 -0.06568425 0.0360125 0.04823312
000160 e4 60 c9 3c 59 c4 5b bd 93 31 93 bc d3 a1 8e bc
       0.024582334 -0.05365405 -0.017967975 -0.017411148
000170 b9 6e 8c 3c 15 f5 2d bd fc 98 b9 bc 77 42 1b 3d
       0.01714264 -0.042470057 -0.022655956 0.037905183
000180 ca 93 c4 bd 04 b3 17 bd 5a 07 86 bd 2e 7a d7 bc
       -0.09598501 -0.037035957 -0.06544371 -0.026303377
000190 24 e2 a8 bd 84 15 f0 bd 2e b4 8a 3c 2a 59 5f bd
       -0.08246258 -0.11722854 0.01693162 -0.054528393
0001a0 c3 93 02 3d d4 68 85 3d 08 76 b4 3c 6f 0c ff bc
       0.031879198 0.06514135 0.022028938 -0.031133858
0001b0 39 db b4 3d 0f 88 48 ba 83 4e a0 3d 6f 0a a7 ba
       0.08830876 -0.0007649669 0.07827475 -0.0012744198
0001c0 42 90 ba bd f0 12 9b bc 89 17 c6 bd 77 c4 de 3c
       -0.09109546 -0.018929929 -0.09672458 0.027193291
0001d0 1c 07 29 3d ec 7f 96 bd b0 b8 ae 3d a7 82 25 bd
       0.041266546 -0.07348618 0.0853132 -0.040407803
0001e0 ef 86 f9 bd a9 0d 99 bd 8a 2f 8e 3d 13 84 76 bd
       -0.1218394 -0.074733086 0.06942661 -0.06018455
0001f0 46 ee 52 3d f8 6c 5a 3d 52 a1 03 3e b3 70 03 bc
       0.051496767 0.053326577 0.12854508 -0.008022475
000200 1b 14 f1 bb 2f 7a 1d 3c 8b 51 54 3b 2a e2 31 bb
       -0.007357133 0.00961165 0.0032397236 -0.002714286
000210 fc b1 08 3e 88 ca 4c bd a2 4a b9 3c 4f 3d e6 bd
       0.13349146 -0.049997836 0.022618596 -0.112421624
000220 8e f5 dc bd 89 b3 24 3d 30 38 54 3c f5 92 96 bd
       -0.10789023 0.04021028 0.012952849 -0.073522486
000230 ee b9 6b bd 11 38 cc 3d b0 f2 e3 bd 77 fc 0f bd
       -0.057550363 0.09971631 -0.11130273 -0.03515288
000240 37 4e 15 3d 8f b9 9e bd 87 c8 42 3d 92 85 42 bd
       0.036451545 -0.07750236 0.04755452 -0.047490664
000250 cc b9 bb 3d 75 c3 92 bd e7 f1 ca 3d e4 0d 95 3d
       0.09166297 -0.07166187 0.099094205 0.0727804
000260 6e fa 1c 3d a0 05 cc 3c bb d3 c6 bd 91 57 36 3d
       0.038324766 0.024905026 -0.09708353 0.044517104
000270 d7 2b a8 bc e8 98 b6 3d e1 d5 ad 3d 02 4f a0 bd
       -0.020528717 0.08915883 0.0848806 -0.078275695
000280 a6 be 3b bc b4 94 f1 bc 0b 98 a3 3d fb 10 86 bd
       -0.011459028 -0.029489852 0.07987984 -0.065462075
000290 ab a2 f5 3a 51 b7 e7 bc 85 83 1d bd 9c f1 e5 bc
       0.0018740495 -0.028285654 -0.038455505 -0.02806931
0002a0 08 3f ba 3c 05 41 d8 bc 44 c4 c1 3d b8 3a 33 3d
       0.022735134 -0.026398191 0.09461263 0.04375717
0002b0 53 5a c6 bd 01 56 89 3c 76 2b 15 3d 31 71 c4 3c
       -0.09685197 0.016764643 0.0364184 0.023979755
0002c0 72 8b 18 bd e8 56 92 bc f4 eb 7a bb 43 14 44 3d
       -0.03724236 -0.017863706 -0.0038287612 0.047870886
0002d0 80 8e b9 bd 64 a2 81 3d 10 ae b9 3c 53 b2 e9 bc
       -0.09060383 0.06329802 0.022666007 -0.028527414
0002e0 84 9f ae bc 8d 8b 00 bd b0 08 3c bd 77 52 a0 3d
       -0.021316297 -0.031383086 -0.045906723 0.07828229
0002f0 e1 e9 0b bd ad 64 cf bc 46 44 ba 3d c9 de d4 bd
       -0.03415859 -0.02531656 0.090950534 -0.103940554
000300 92 0d 9a bd aa c1 b5 bd 47 ae 08 3d 73 aa 90 bd
       -0.075221196 -0.08874829 0.03336933 -0.070637606
000310 53 5a 03 3d c5 89 20 bd a4 1a e0 3c de 20 02 bd
       0.03206856 -0.039193887 0.027356453 -0.031769626
000320 6c 61 a1 3d 53 d4 62 3d 01 7c 9f bc 66 d2 fa bc
       0.0787991 0.05537827 -0.01946831 -0.030617904
000330 77 7a 13 bc f6 12 99 bc 50 87 92 bd c0 47 78 bd
       -0.009001366 -0.0186858 -0.07154715 -0.0606153
000340 d4 77 8a bd e9 bd a1 3d 99 7a 68 bd 8f 9a 04 bd
       -0.06761137 0.078975506 -0.056757543 -0.03237396
000350 b3 fc dd bc 05 c8 a2 bd 19 d3 32 be ea c1 07 be
       -0.027098035 -0.07948307 -0.1746334 -0.13257566
000360 20 60 3d be db fa 5a 3d 2b b0 50 3d 54 7c e7 bd
       -0.184937 0.05346189 0.050949257 -0.113030106
000370 3d 82 47 3c 3b 6f dc 3d 6c 3e ff bd 11 6f 7b bd
       0.012177047 0.10763403 -0.12463078 -0.061385218
000380 28 57 d8 bd 47 9a 30 3e 27 90 48 bd 4d ff 48 3d
       -0.10563499 0.17246352 -0.0489656 0.0490716
000390 4b b1 39 be 03 9b c1 3b 0f ea 69 3d 8c d6 8a bd
       -0.18134038 0.0059083714 0.05710798 -0.06779203
0003a0 ce 84 46 3d 2b 5c 47 3b 49 c0 56 bd d9 1c 95 3d
       0.048466496 0.0030419927 -0.05242947 0.07280893
0003b0 7d 2d ac 3d c5 de f8 bb bb 55 cf 3d 72 d4 78 bd
       0.08407114 -0.0075949156 0.10123774 -0.06074948
0003c0 5f 4f 32 bd ac a5 db bd 63 6a 68 3c c5 8a fc bc
       -0.043532725 -0.10724959 0.014185521 -0.03082789
0003d0 cd 48 aa 3d 6a f4 53 3c 0c d5 cb bc b1 c4 dc 3c
       0.08314667 0.012936691 -0.024881862 0.026949259
0003e0 2a 3c f6 bd 6b 5b bb 3d 1a 6e 52 3d 0d 60 39 3d
       -0.12023194 0.09148296 0.051374532 0.045257617
0003f0 a2 ad c1 bd 6a 6c 09 bc d7 1e 72 3d c0 28 f2 bc
       -0.09456946 -0.008387664 0.059111442 -0.029560447

ggnn.rnn.weight_hh f4 [150, 50]
000000 f6 53 9a 3d da e1 a4 bd e0 a6 a8 bd 92 cd be bd
       0.075355455 -0.0805089 -0.08234954 -0.09316553
000010 66 cb 81 bd 31 eb 9d 3d 4c 19 9a 3d f5 52 ec 3c
       -0.06337623 0.07710875 0.07524356 0.02884815
000020 b9 48 ed bd 4a 7f 2b 3d 36 ca 74 bd e3 1f c3 bb
       -0.11586136 0.04186944 -0.059763156 -0.005954729
000030 6b fc 16 bd f1 d0 17 be 8c 28 bd 3d e4 e8 e3 3c
       -0.03686182 -0.14825799 0.09236249 0.027821012
000040 17 d4 0b 3e 09 03 92 bc 4c f5 9b bc 21 16 17 3c
       0.13655125 -0.017823713 -0.019037865 0.009221585
000050 41 30 e8 3d 15 28 07 be f8 62 da bb 50 d3 9e bd
       0.11337329 -0.13198884 -0.00666463 -0.077551484
000060 f2 cf 39 bd 4c 54 d4 3b aa 82 31 3d 62 27 3e bd
       -0.045364328 0.0064797755 0.0433375 -0.046424277
000070 de d5 99 3d 2b 56 a9 3c 39 37 0c 3d 91 ca 84 bd
       0.07511495 0.02067097 0.034232352 -0.06483949
000080 d3 31 d0 3c 83 51 6b bd 4c 68 f1 3d 28 79 64 bd
       0.025414383 -0.057450783 0.11787471 -0.055779606
000090 3e 7d 0b 3d 6b 27 fa bc 76 2c ef 3b 16 85 6c 3d
       0.034054987 -0.030536374 0.0072990013 0.05774411
0000a0 6f 26 02 3d cb 85 99 3d 1c 42 fe 3d d5 79 68 bd
       0.031774934 0.07496222 0.12414953 -0.056756813
0000b0 3a 49 94 3d 4e d4 5b bd 07 fd 88 3d 90 56 ae 3c
       0.07240529 -0.053669266 0.06688886 0.02128151
0000c0 9e 6f e7 3d 19 f0 5a bd c4 d9 8b bc 8b 9b 81 bb
       0.11300586 -0.05345163 -0.017071612 -0.0039553097
0000d0 8c 67 0d bc 83 3a bf 3c f4 72 6b 3d 24 ac 38 bd
       -0.0086306445 0.02334333 0.057482675 -0.04508604
0000e0 2d cf 11 3d cf 24 95 bd 5d d4 b7 3d d3 8a 2c be
       0.03559797 -0.07282411 0.08976052 -0.16849832
0000f0 db 59 f8 3a 4c b1 bd 3c 06 71 0c 3e d9 fd 83 bd
       0.0018947677 0.02315583 0.1371499 -0.06444902
000100 4b 38 0c be d9 bc 52 3d f4 d3 6a bd 07 3c be bb
       -0.13693349 0.05144963 -0.05733104 -0.0058054957
000110 2d 89 e7 3c a6 61 f4 bd 2b 1f 0a bd a4 84 5e bc
       0.028263653 -0.119326875 -0.03372113 -0.013581429
000120 9a 4f 15 bd 3f 08 9d 3d ca 34 1c bd a8 10 14 bd
       -0.036452867 0.076675884 -0.03813628 -0.036148697
000130 79 57 9d 3d a0 a0 75 3d b5 3f be 3d a1 27 9b 3d
       0.076827 0.059967637 0.09289495 0.07575918
000140 fb 30 9a 3d 68 4b 28 3d 30 d3 98 bc 5f 42 fa 3d
       0.075288735 0.041087538 -0.01865539 0.122196905
000150 c4 2a 3a bd c3 25 f3 3a 32 db 0b 3e dd 5c 10 3d
       -0.04545094 0.0018550683 0.13657835 0.03524481
000160 99 b0 b9 3d 09 5a 22 3d bc 0a 79 3d 6f 1b c6 bd
       0.090668865 0.039636645 0.060801253 -0.09673201
000170 79 0c 81 3d 1d 18 89 bd 63 c6 e2 3b 46 f7 8c bb
       0.06301207 -0.06694052 0.006920622 -0.004301938
000180 bf 7a 97 bc 55 00 30 bc 67 17 c3 bd 28 60 7c bd
       -0.018491147 -0.010742267 -0.09525948 -0.06161514
000190 ec 9b df bb b0 48 b8 bc de 00 a4 3d eb d7 01 3e
       -0.0068240073 -0.022495598 0.08007978 0.12680022
0001a0 46 d5 9f bd 15 69 78 bd 81 a7 3a 3c e6 23 18 3c
       -0.078043506 -0.06064709 0.011392475 0.009285903
0001b0 fa a6 ce bd 62 86 9a bd b7 e4 7b bd 7d 30 a8 bd
       -0.10090442 -0.07545163 -0.061497416 -0.082123734
0001c0 c3 ca a7 3c 2e e9 c5 bd 09 73 a9 bc 3e a6 19 3d
       0.020482427 -0.09663616 -0.020684736 0.037512057
0001d0 51 f5 34 3c e5 37 2e bc 45 28 9e bd bb e3 8d bc
       0.011044816 -0.0106334435 -0.077225246 -0.017320504
0001e0 bc 29 14 3d 4a 75 93 bc 78 89 1a bc 2b 45 b6 bd
       0.036172614 -0.018000264 -0.009432189 -0.088999115
0001f0 85 14 c8 3d 0c d1 0f 3d 81 f8 27 3d de 4e b9 3a
       0.09769539 0.035111472 0.041008476 0.0014137884
000200 c1 19 87 3d 35 1b 09 be d5 7e 63 3d 13 46 97 bc
       0.06596709 -0.13389285 0.05554088 -0.018466031
000210 e0 d4 9d 3d 57 c1 94 3d da 9f 05 bd 46 e3 01 bd
       0.07706618 0.07263439 -0.03262315 -0.031710885
000220 a3 de 7b 3d 71 09 15 bd 62 11 00 ba a8 fc a2 3b
       0.06149162 -0.036385957 -0.0004885403 0.0049739666
000230 e7 4b 0c bb be 4a b9 3d 04 ff 97 3a c1 4c 3e bc
       -0.0021407546 0.09047459 0.0011596386 -0.011614979
000240 e9 02 32 bd a6 0b 65 3c 2d 8f 97 3d 38 cc bd 3c
       -0.043459807 0.013979828 0.074003555 0.023168668
000250 0e 6e d5 bc 51 33 61 bc db e2 fd 3c d3 e0 49 bd
       -0.026053455 -0.013745145 0.030991962 -0.049286675
000260 ed 03 9e bc 99 43 57 bc 88 2d 00 be d5 2e ff bc
       -0.019288981 -0.013138675 -0.12517369 -0.031150261
000270 1d 87 19 bd aa 71 4b 3d bf 96 8b bd 55 ed 05 bb
       -0.03748237 0.049668945 -0.06815862 -0.002043565
000280 48 2d 94 bd e0 c2 06 bd 15 c0 aa bb 10 29 cf bd
       -0.07235199 -0.03290069 -0.0052108862 -0.10115254
000290 11 ae fe bc 02 1d 26 bd 99 12 98 bd d3 3b 53 bd
       -0.03108886 -0.040555008 -0.07425422 -0.051570725
0002a0 63 c4 f7 bd 16 05 6b bd 1e 30 01 3d f2 fd c2 bd
       -0.12098005 -0.057377897 0.03154003 -0.095210925
0002b0 9e 4c 53 bd 1c 48 bb 3d fa 3d f4 3c 52 94 36 3d
       -0.05158674 0.09144613 0.029814709 0.044575043
0002c0 4f 3c c3 3d b0 aa ed 3c e7 ad 88 3d 47 f3 40 3d
       0.09532987 0.029012054 0.06673794 0.047107007
0002d0 8d e2 07 3e 11 ab 82 3b 64 63 45 3c 69 a8 48 bd
       0.13270016 0.003987678 0.012047622 -0.048988733
0002e0 02 cf 4f bd 00 11 9f bd 6d 00 35 bd 71 06 44 bd
       -0.050734527 -0.07766914 -0.04418986 -0.047857706
0002f0 b3 85 47 3b dc b7 8e 3d d0 95 c1 3d d7 9a ee bc
       0.0030444681 0.06968662 0.094524026 -0.029126568
000300 2a 1e 3f bd 7f 67 9b bc 8c ea b0 bc 4a 82 90 3d
       -0.046659626 -0.01897025 -0.021596216 0.07056101
000310 0f 94 5f 3d 57 1f 02 3e d4 bd 53 3d ab 7f b0 bd
       0.05458456 0.12707268 0.051694706 -0.08618101
000320 30 26 a4 3c 08 61 45 be e8 34 ca 3d 11 04 38 3e
       0.02003774 -0.19275296 0.09873372 0.17970301
000330 75 33 fa 3c ba 30 70 3b 89 25 86 3b a8 1b 67 bc
       0.030542115 0.0036650137 0.00409383 -0.014105715
000340 cf 8e 57 3d d2 c8 d2 3c b0 2e 7a bd 04 06 e2 3c
       0.052626427 0.025730524 -0.06107968 0.02759076
000350 6e f9 d8 3c 87 6c 2d 3d e5 51 2a bc 31 5a cf bd
       0.026486125 0.042339828 -0.010395502 -0.101246245
000360 86 76 6f 3d e4 c6 a7 bd c7 bd 36 3e 9c 6c 0f 3d
       0.058462642 -0.08192232 0.17845832 0.035015687
000370 e2 c7 01 be 50 67 12 be c2 70 0f bd 0d 5a 97 bd
       -0.12673905 -0.14297223 -0.035019644 -0.07390223
000380 f8 d3 9b 3d 21 d6 bf 3d 28 e8 0b be 91 9a 03 3c
       0.07608789 0.09367014 -0.1366278 0.008032457
000390 8b 4d fb bc 53 44 97 bd 4b 5b e5 bd 7f 09 e5 bd
       -0.030676624 -0.07386079 -0.111990534 -0.11183452
0003a0 4e 34 c9 3c f2 fe 83 3d 5c 26 c3 bb d4 b2 00 3d
       0.024561074 0.06445111 -0.0059555005 0.031420544
0003b0 a7 2b f6 3d ab 64 ab bc 58 3b 08 3d f2 9a 01 be
       0.12020045 -0.020922026 0.03325972 -0.12656763
0003c0 85 94 3b bd 1e d2 81 3d df 40 10 be 8b 56 a4 bb
       -0.045795936 0.06338905 -0.14087246 -0.0050151995
0003d0 2c 6a fe bc 3c 90 19 3d 9b 48 d0 bc 7b 4b f7 3d
       -0.031056486 0.03749107 -0.025425246 0.12074944
0003e0 d3 a8 9a 3b 06 7d 80 bd d6 c4 0a bd a9 ee 9d 3d
       0.0047198324 -0.06273846 -0.033879124 0.077115364
0003f0 ca a8 30 3c 1b 84 81 bd 10 26 09 3d ea a0 89 bd
       0.01078243 -0.06324025 0.033483565 -0.06720145

ggnn.rnn.bias_ih f4 [150]
000000 47 54 16 3d bb 9c ca bd 11 34 ab 3c 57 29 db bd
       0.036701467 -0.09893175 0.02089885 -0.10701244
000010 98 bb 8e bd 25 c8 99 bb b8 70 a3 bd 0e fc 4f bd
       -0.069693744 -0.0046930485 -0.07980484 -0.050777487
000020 83 9c 96 ba d5 eb 94 3d 38 fe fc bd a1 8e e5 bd
       -0.0011490736 0.07271544 -0.12353176 -0.11208845
000030 28 39 09 3d 0e c4 e1 bc d3 36 c9 3b 4e ea 6a bd
       0.033501774 -0.027559306 0.0061405688 -0.057352357
000040 d5 bd 61 bd 61 da f8 bd e2 22 97 3c 58 27 94 3d
       -0.05511268 -0.121510275 0.01844925 0.07234067
000050 c2 f6 c6 bd 22 d9 da 3c ee 56 9e bc be 21 91 bd
       -0.09715034 0.026714865 -0.01932856 -0.07086514
000060 5f 0a b3 3d 9d 53 e1 bc e8 76 8b bd 18 a7 f9 3b
       0.087422125 -0.02750569 -0.06809789 0.007618796
000070 f0 7c 3a 3c 57 63 3c bd 8b 99 a4 bd a4 4f 29 bd
       0.0113823265 -0.045993175 -0.080370985 -0.041335717
000080 55 ed 86 bc 24 e1 09 bd 86 15 a6 bc a2 ef b7 bb
       -0.01647059 -0.033661976 -0.020273935 -0.0056132833
000090 e4 f8 91 bd 28 a8 0d bc 7f fd 33 3d 74 88 71 3d
       -0.0712755 -0.008646049 0.043942925 0.058968022
0000a0 5e 12 c5 3d da 9b aa 3d 1a 30 f7 3c af 78 a2 3c
       0.09622644 0.083305076 0.030174304 0.019832937
0000b0 09 93 2e 3d 5f 0a 24 bc 1c 14 a6 bd e8 44 be bd
       0.042620692 -0.010012238 -0.08109304 -0.092904866
0000c0 62 59 93 bd 35 5b c6 3b 62 25 04 be fe b9 2c 3d
       -0.07194783 0.006053353 -0.12904885 0.042169563
0000d0 d8 e0 63 bd ca 79 c5 bc db 9d 31 3d e1 8a bd bd
       -0.05563435 -0.024105925 0.043363433 -0.09255005
0000e0 73 94 f9 bd a1 9c 4d 3d 3a 40 f3 bd ee 20 50 3d
       -0.121865176 0.0501982 -0.118774846 0.050812654
0000f0 8f 59 b5 bd cd 11 2f bd ef 8f 26 bd 2a 38 17 bd
       -0.088549726 -0.042741586 -0.04066461 -0.036918797
000100 d8 e4 82 3d 0a 6f 22 be ef fe fc bd 00 aa 88 3d
       0.06391305 -0.1586267 -0.12353312 0.0667305
000110 29 73 c9 bd 38 b9 27 be 9a cd 33 be b3 bc f2 bd
       -0.09836418 -0.16379249 -0.175589 -0.11852398
000120 b3 04 35 3d 7c 6b 27 bd fe 14 b0 bd a4 2c c4 3c
       0.044193935 -0.04087399 -0.08597754 0.023947068
000130 4e b5 a4 bc 72 80 d0 bd 5d 80 0e bd cc 10 96 bc
       -0.020105984 -0.10180749 -0.034790386 -0.018318556
000140 0b c9 b3 3c 8b 8a 09 bd d0 ee d6 bc 5d f0 11 be
       0.02194645 -0.03357939 -0.026236922 -0.14251848
000150 d7 94 1d be f9 56 d8 bd 9f 2a 86 bd 15 ca 8d bd
       -0.15388809 -0.10563464 -0.06551098 -0.0692331
000160 be f4 23 be d3 83 07 be 94 0d a4 3c 63 f4 8f 3d
       -0.1601133 -0.1323388 0.020026006 0.07029035
000170 09 e4 21 be 44 4d c9 bc 07 7e da bd 27 5e 82 3d
       -0.15809645 -0.024572976 -0.10668569 0.063656144
000180 9f 65 1a 3d 35 ce d0 bd 45 4e 27 be 30 79 74 3c
       0.03769457 -0.10195581 -0.16338451 0.0149214715
000190 d8 2c a8 3d 6e ff 93 bc ce c2 bb 3d 30 de 2a 3d
       0.08211678 -0.018066134 0.091680154 0.0417158
0001a0 04 85 81 bd b7 16 02 be 67 61 85 3c 3a 02 93 3d
       -0.06324199 -0.12703978 0.016281797 0.07178159
0001b0 77 e1 2e 3b b5 c8 18 be 26 18 c2 bd bf 78 21 bb
       0.002668468 -0.14920314 -0.09477262 -0.002463862
0001c0 8a 64 8a 3d 0a fd 28 bd f3 ec 9f 3c 31 34 3c bd
       0.067574576 -0.04125694 0.019522166 -0.04594821
0001d0 1c c9 bf 3c f8 da ad 3d 5a 00 9a 3d 2d 32 32 3d
       0.023411326 0.084890306 0.07519598 0.043504883
0001e0 69 c3 bd 3d 25 7f 8c 3d e0 4d 86 bd 5e a2 87 3d
       0.09265787 0.068601884 -0.06557822 0.06622766
0001f0 32 41 84 3d 1b 65 a4 bd 34 98 d8 3c 48 70 e1 3b
       0.064577475 -0.08027097 0.026439764 0.00687984
000200 a9 5c 6b 3d 69 ea 7a 3c e6 38 48 3d 39 db c1 3c
       0.057461414 0.015314677 0.048882388 0.023664104
000210 2d 2d 24 3c 8c 01 d6 bd 1d 29 06 be 44 26 b7 bd
       0.010020536 -0.10449514 -0.13101621 -0.089428455
000220 7b 09 80 bc 33 75 10 bd 43 e3 1c 3d 6f ae 63 bd
       -0.01562952 -0.03526802 0.03830267 -0.055586275
000230 ce c3 dc bd ff 12 bb 3c e3 ff 8c 3c 93 e8 e7 bd
       -0.10779534 0.022836206 0.01721186 -0.11323657
000240 6d a6 f4 3c 9c 3a 8e bd 0a 28 0f be dd e8 f1 3d
       0.029864514 -0.069447726 -0.13980117 0.11811993
000250 53 80 84 3c 61 1e 74 ba
       0.016174471 -0.0009312388

ggnn.rnn.bias_hh f4 [150]
000000 c5 f8 8e 3d 82 5d 07 be e7 86 47 bd 29 f6 77 bd
       0.06981043 -0.13219264 -0.048712637 -0.06053749
000010 87 df 24 bd 65 6d de bc 65 84 b9 ba 7c be 6d bd
       -0.040252235 -0.027151773 -0.0014153837 -0.05804299
000020 d9 c4 0e be 14 b8 23 3d 05 d5 e9 bc 1f ce 28 3d
       -0.13942279 0.039970472 -0.028543958 0.041212197
000030 18 7c 2d 3c 26 7f 0b 3d c3 b5 25 ba 80 da 40 bd
       0.010588668 0.034056805 -0.0006321335 -0.047083378
000040 be 83 bc bd 61 bc b7 3d 84 de 0d be 09 d8 55 3d
       -0.09204815 0.08971477 -0.13854414 0.05220798
000050 f5 b1 88 3c b8 07 b2 bd af 60 f8 bc c7 ce fc bc
       0.016686419 -0.086928785 -0.03031954 -0.030860318
000060 5f 42 3f 3c f3 fd 16 3e 12 7b d9 bd 87 18 e9 bd
       0.011673539 0.14745311 -0.10619177 -0.11381631
000070 ca 0a a8 bd de 3c 70 3c 67 17 d1 3d c8 01 aa bd
       -0.08205183 0.014662949 0.10209542 -0.08301121
000080 f6 fd e2 bc fb 76 b6 bd f6 f6 af 3b 0e 99 e1 bd
       -0.027708989 -0.089094125 0.005370016 -0.11015521
000090 72 76 55 bc 57 bb bb 3c 25 24 20 be b3 2d 6d 3c
       -0.013028728 0.022916479 -0.15638788 0.014476228
0000a0 9f 0e 33 bd 58 12 19 3d bc 9b e9 3c 65 ca c4 3d
       -0.043715116 0.03737101 0.028516643 0.09608916
0000b0 0a 0b 36 bd 67 5a 11 bd f8 96 cb bd f3 cf b5 bb
       -0.04444412 -0.035486605 -0.099409044 -0.005548471
0000c0 b2 76 5d bd 1c 80 b3 bd af 8b 14 be 60 ce c6 bd
       -0.054068275 -0.08764669 -0.1450641 -0.09707332
0000d0 9e b3 21 be b5 04 b1 bd 86 f9 ff 3d 4d a1 49 bd
       -0.15791175 -0.08643476 0.12498765 -0.049226094
0000e0 20 a8 1b 3d 08 0f 03 be 07 49 80 bd 3e 5c 10 be
       0.038002133 -0.12798703 -0.06263929 -0.14097688
0000f0 8a df b4 3c 88 3e 53 bd 0c 22 cc 3c 48 b2 aa bd
       0.022079248 -0.051573306 0.024918579 -0.08334786
000100 ad f6 2d bd ec c9 b7 3d b9 33 6b 3d d4 b7 06 be
       -0.042471576 0.089740604 0.057422373 -0.13156062
000110 a4 0a 2c 3d 51 a9 de bd 68 c4 1f be f6 e6 a4 3d
       0.042002335 -0.10872138 -0.15602267 0.08051865
000120 5c b0 87 3d a6 51 dd bd 43 8c cf ba 8a b5 80 bc
       0.06625435 -0.10806589 -0.0015834648 -0.015711565
000130 1e 97 0e be 3a 03 03 be 34 cd 16 be 2e b5 2a 3d
       -0.13924834 -0.127942 -0.14726716 0.041676693
000140 6a b2 93 3c 6d 02 95 3b 59 d0 ef bd 16 51 05 be
       0.01802941 0.0045474083 -0.11709661 -0.13019213
000150 7a ed e7 3b 94 f9 83 3d d7 6c b0 bb f2 64 86 3d
       0.00707787 0.064440876 -0.0053840685 0.065622225
000160 d1 88 33 3d 8d ed a9 3b bd ed af bd 30 b8 c9 bd
       0.04383165 0.005185789 -0.08590267 -0.09849584
000170 cc a4 0c bd 98 73 97 bc b8 b3 4d 3d 47 5f a4 3c
       -0.03433685 -0.018487737 0.05022022 0.020064963
000180 78 d0 33 be 95 ee 58 be d3 07 a5 3d d9 fc 64 bd
       -0.17559993 -0.21184762 0.08058133 -0.055905197
000190 9f 5a ad bd aa cd 45 3d 4e a5 06 be e0 4a 6e bd
       -0.0846455 0.04829184 -0.13148996 -0.058176875
0001a0 6a 33 cc bd ec f4 d3 3d 22 02 11 3e c8 a2 c3 bd
       -0.09970744 0.103494495 0.1416097 -0.095525324
0001b0 ac bc 99 3d cf c9 cb bb 49 f9 0c bd 15 e8 0e be
       0.075066894 -0.006219126 -0.034417424 -0.1395572
0001c0 b1 5b cd bd 63 c6 19 3d b0 3c 97 bd 4e 6e 00 3e
       -0.100272544 0.037542712 -0.07384622 0.12542078
0001d0 eb 88 1e bd ec f2 84 bb 2a 8e b1 bd 18 b5 64 3c
       -0.038704794 -0.004057279 -0.08669694 0.013959192
0001e0 34 1d 08 be a8 9b 4e 3d c7 b6 c6 3d f7 ae bd bd
       -0.1329239 0.050441414 0.09702831 -0.092618875
0001f0 e8 4e 33 bc 46 13 d0 3d c7 20 db 3d 7d a8 91 3b
       -0.010944106 0.10159926 0.10699611 0.004445134
000200 dc f2 b5 bd 8c bf f0 3d 74 f2 ad bc 17 3b a8 bd
       -0.088842124 0.11755285 -0.021233775 -0.082143955
000210 53 26 97 bd 5b 0f 28 3e 77 68 ab 3d 48 b2 0a 3e
       -0.07380357 0.16412108 0.083695345 0.13544571
000220 50 aa 5d 3d 4a 4b 66 3d 23 bb 21 3d 1a d5 04 be
       0.0541175 0.056224145 0.039485108 -0.12971917
000230 f8 a5 c6 3d 29 eb 9e bc e3 50 93 3c 47 74 a6 3d
       0.09699625 -0.019399242 0.017982906 0.08127647
000240 3e bf 70 bd 21 08 a8 bc 81 85 33 3d 13 8b d9 bd
       -0.058776133 -0.020511689 0.04382849 -0.106222294
000250 a5 35 57 bd 81 80 2a bd
       -0.052541394 -0.041626457

soft_attention.gate_nn.weight f4 [1, 50]
000000 0e b9 3a 3c f8 aa 04 be f6 38 1f 3c 7e 9e 16 be
       0.01139666 -0.12955844 0.00971817 -0.14708897
000010 a8 10 ca bc 32 19 64 bc e0 2b f3 3d 9a 08 b3 3c
       -0.024666145 -0.013922023 0.11873603 0.021854687
000020 12 0f 42 be ac b4 ea 3d 21 c5 a0 3d 8c b9 2c bd
       -0.18951061 0.11460242 0.07850099 -0.04216914
000030 89 be 0a be 9c 7d c2 bc a0 32 0f 3e 1c 8a 07 3e
       -0.13549246 -0.023741536 0.13984156 0.13236278
000040 62 a8 15 be b7 ab a0 bd c8 f0 a2 3c fc ff 71 bd
       -0.14615014 -0.07845252 0.019890204 -0.059082016
000050 29 08 1a 3e 95 c0 8d bd 0e 7a 2c 3e 4d cb 4c be
       0.15042175 -0.06921498 0.16843435 -0.19999428
000060 69 80 17 be a6 07 16 3e 16 bc c9 bd 49 b5 84 bd
       -0.14795078 0.14651355 -0.09850328 -0.0647989
000070 74 c5 a8 bd 9a 12 ca bd 5f 7a cd 3b 77 0a 03 3e
       -0.08240786 -0.09866829 0.0062706913 0.12796961
000080 37 8e 6a bd 68 41 ec bd c8 c1 00 be ba 83 d6 bd
       -0.057264533 -0.11535913 -0.12573922 -0.104743436
000090 43 d6 3a 3e 6b 84 76 3d 3b 18 13 be 44 51 d2 bd
       0.18245797 0.060184877 -0.14364712 -0.102694064
0000a0 2c 2c c4 3c b6 1d 95 3d 92 d5 f8 3d d1 bf 57 bd
       0.023946844 0.072810575 0.1215011 -0.052673165
0000b0 7b 3b fa 3d 08 a1 07 be de 00 24 be fb b5 e6 bc
       0.12218376 -0.13245022 -0.16015956 -0.028162947
0000c0 2c 51 72 3e 13 86 f6 bc
       0.23663777 -0.030093228

ggnn_2.weight f4 [3, 50, 50]
000000 84 c3 02 3d 6d c4 08 be b8 d0 d3 3c ae 32 d8 3d
       0.03192474 -0.1335618 0.02585636 0.105565414
000010 20 1e d5 3c b1 66 05 3e 48 8d 6a bd 50 23 5f bc
       0.026015341 0.13027455 -0.057263643 -0.013619259
000020 cd f9 04 be ca 7f d2 3d 80 e3 cc 3b 86 1b cf 3d
       -0.12985916 0.1027828 0.006252706 0.101126716
000030 30 9b e1 3c 11 b7 8f bd 94 f3 9a 3d 15 2c 0a 3e
       0.02753982 -0.07017339 0.0756599 0.13493378
000040 fd 60 09 3e 2e 0e 98 3d a2 9a ee 3d a9 3b 8f bd
       0.13415904 0.074245796 0.116505876 -0.06993801
000050 d8 99 dd bc e0 e5 ad 3b 40 50 90 bb 24 51 d7 3d
       -0.027050897 0.0053069443 -0.004404098 0.10513523
000060 82 39 e3 3d 2d 76 e4 bd 5a cf 3f bd 36 aa 0f be
       0.11094953 -0.11155353 -0.046828605 -0.14029774
000070 4f a6 0c 3e ee 82 7f bd 20 08 91 bc 61 2b 00 3e
       0.13735317 -0.062380724 -0.01770407 0.12516548
000080 20 1f 54 bc 6f 43 95 bd fa 14 2f bd 6f 94 d5 bd
       -0.012946874 -0.072882526 -0.042744614 -0.10428702
000090 a2 28 f6 3d e0 97 8e 3b 38 65 65 bd 1e 14 72 bd
       0.12019469 0.004351601 -0.056004733 -0.059101216
0000a0 9e ef df bd 0c ad a3 3d b6 d9 0a bd 0c e1 df bd
       -0.10934375 0.079919904 -0.03389903 -0.10931596
0000b0 71 43 07 3e 74 76 cf 3d 40 04 99 3d 68 30 b6 3c
       0.1320932 0.10130015 0.07471514 0.022239879
0000c0 ea 02 bb 3d e0 fa 97 3d b3 50 e4 bd 06 64 bb 3d
       0.09131415 0.074208975 -0.11148205 0.09149937
0000d0 7a a1 ae 3d 7d 13 85 bd 20 8b 10 3d dc 33 c3 bd
       0.08526893 -0.06497858 0.03528893 -0.09531376
0000e0 28 44 8a 3d b6 9e fb 3d f0 a3 35 bc bd 98 b4 bd
       0.06751281 0.12286131 -0.011086449 -0.08818195
0000f0 8e 40 d2 bd 14 56 9e bc dc 8a fa bc 00 35 50 3c
       -0.10266219 -0.019328155 -0.030583791 0.012707949
000100 40 30 11 bb 79 df 0d 3e 90 f5 03 3c 6a 3e b2 bd
       -0.0022154003 0.1385478 0.008054152 -0.08703311
000110 a2 9a 28 bd bf bf a7 bd cf 04 0b 3e 28 ab d3 3c
       -0.041163094 -0.081908695 0.13576053 0.02583845
000120 84 8c 08 bd 48 28 d8 3c 61 72 00 be 44 ff ab bc
       -0.03333713 0.026386395 -0.12543632 -0.020995744
000130 00 d1 02 bc 98 f2 d8 bd 68 e0 d9 bd b6 08 e9 bd
       -0.0079844 -0.10593146 -0.10638505 -0.113786146
000140 9b 97 03 3e 12 94 d4 bd e2 37 75 bd 20 34 d8 bb
       0.12850802 -0.10379805 -0.059867747 -0.0065980107
000150 d8 7e fd 3c 48 ff 92 3d 2c 80 6d bd 0c ea 94 3d
       0.030944273 0.07177597 -0.057983562 0.072712034
000160 00 d2 d1 3a 3a 80 a0 3d 90 37 1d 3d 0c 0d 12 3d
       0.001600802 0.07836957 0.038383067 0.035656974
000170 e9 ff a3 bd 40 8c db bc e0 25 af 3c 04 4a 0d bd
       -0.08007795 -0.026800275 0.021380365 -0.034494415
000180 8e 7e da 3d d8 72 c4 3c 2a 99 b1 3d b2 2b b0 bd
       0.1066867 0.023980543 0.08671792 -0.08602084
000190 90 5f fd bd e4 05 55 3d 78 7a b1 3c cc 75 aa bd
       -0.12371743 0.05200757 0.021664843 -0.08323249
0001a0 e0 1c 95 bb a0 0e 1b 3d 77 10 82 bd b6 e2 92 3d
       -0.0045505613 0.037855744 -0.06350797 0.07172148
0001b0 ec f6 2e bd 58 04 be 3c 40 da f3 3b 40 98 bd 3c
       -0.04271595 0.02319543 0.007441789 0.023143888
0001c0 f6 70 9e 3d b2 ba ff 3d a0 aa e6 bd 00 1c b2 bd
       0.07736389 0.12486781 -0.11263013 -0.08696747
0001d0 08 2a 86 bc d8 ee 27 3d 5c 83 30 bd 86 74 ef bd
       -0.016377464 0.040999264 -0.043094024 -0.11692147
0001e0 ac f4 66 3d 47 48 0a be 26 68 64 bd 1c f1 da 3d
       0.05638568 -0.13504134 -0.055763386 0.10690519
0001f0 48 f2 73 3d d8 b2 66 3d 60 9c 4f bd 5a 0f ec 3d
       0.05955723 0.056322902 -0.05068624 0.115263656
000200 68 ff e5 3c 18 19 47 3d 84 24 83 3d 60 2b e5 3b
       0.028075889 0.048607916 0.06403449 0.006993696
000210 04 03 fc bc b2 24 10 be c7 e9 0f be 80 02 10 3c
       -0.030763157 -0.14076498 -0.14054023 0.008789659
000220 6f aa 0d 3e f4 a1 95 bc 26 ed b5 bd d0 41 6d 3c
       0.13834547 -0.018265702 -0.08883123 0.014481023
000230 80 3e 1d 3d ca b6 93 bd 30 35 45 bc bf b6 0f 3e
       0.038389683 -0.072125986 -0.012036607 0.14034556
000240 15 1a 8e bd 10 61 2b 3d 98 6f 47 3d 46 80 e4 3d
       -0.069385685 0.041840613 0.04869041 0.11157279
000250 36 2a a9 3d 08 94 87 3d b8 00 17 bd 96 c0 01 be
       0.08260004 0.066200316 -0.03686592 -0.12671122
000260 52 49 0a be 94 86 99 3d f0 a1 72 3c e7 a1 02 be
       -0.13504532 0.07496372 0.014809117 -0.12757073
000270 1a d4 c7 bd 92 b9 b7 bd 90 2a 15 bd a8 39 3e 3d
       -0.09757252 -0.089709416 -0.036417544 0.046441704
000280 e8 7c 88 3c 16 f1 0d be a6 0f 68 bd 7e 97 08 be
       0.016661122 -0.13861498 -0.05665555 -0.1333904
000290 46 bf bb 3d 54 18 04 3d 08 de ff 3c f5 ee 0e 3e
       0.09167342 0.032249764 0.031233802 0.13958342
0002a0 df cd 9b bd df 40 01 3e 40 81 a6 3d 00 eb 2d 3d
       -0.07607626 0.12622403 0.08130121 0.04246044
0002b0 d1 93 ea bd 15 4c 9d bd 7e 7f fa bd 18 6b 81 bd
       -0.11453975 -0.07680527 -0.122313485 -0.06319255
0002c0 1b a5 05 be ca fb 01 bd 84 18 d9 bd c4 79 8e 3d
       -0.13051264 -0.031734265 -0.10600379 0.06956819
0002d0 8a f6 eb 3d 75 00 b1 bd 5f 23 01 3e be a0 8c 3d
       0.11521633 -0.08642665 0.12611149 0.06866597
0002e0 50 55 22 bc fa ff d7 3d 08 3c b1 bd 14 9e 89 bc
       -0.009908035 0.105468705 -0.08654028 -0.01679901
0002f0 e0 cf 6b bc c0 9b 7a bc 24 e7 d3 3d 17 8a 03 3e
       -0.014392823 -0.015295923 0.10346821 0.12845646
000300 90 fa 14 3c 94 ca 05 3d 68 e2 0e be 70 28 fa bd
       0.009092942 0.032663897 -0.13953555 -0.12214744
000310 4a 3f ab 3d 73 50 85 bd a0 69 42 3c f4 86 9a 3d
       0.08361681 -0.06509485 0.011866003 0.075452715
000320 8c 68 33 bd d0 b9 fd bc 08 2c e6 3c 94 11 09 3d
       -0.043800876 -0.030972391 0.028097168 0.03346403
000330 3a 3f f4 3d 99 d7 07 be 24 77 20 bd e6 6d f8 3d
       0.11926122 -0.13265838 -0.03917612 0.121303365
000340 9f 46 ef bd e9 ce 0c 3e cc 34 0c 3d 6a 41 f0 3d
       -0.11683392 0.13750805 0.03423004 0.11731227
000350 05 f2 f5 bd 34 b6 69 3d cc 3b 2f 3d b6 40 b7 3d
       -0.12009052 0.057058528 0.042781636 0.089478895
000360 9b d7 0c 3e d2 71 34 bd c4 f8 77 3d 90 23 6b bc
       0.13754122 -0.04405386 0.060539976 -0.0143517405
000370 c7 d0 04 3e d8 5a 7b 3d b6 cc df 3d 80 a3 c4 3c
       0.12970267 0.061365932 0.109277174 0.024003744
000380 d0 40 de bc 7f e4 0a 3e 15 d9 d8 bd 98 3c c8 bd
       -0.027130514 0.13563727 -0.1058828 -0.09777182
000390 06 e7 ed bd 44 a4 47 3d 52 47 a6 3d 24 cd ae bd
       -0.1161633 0.04874064 0.08119072 -0.08535221
0003a0 1a b1 c6 3d 7c 6a a6 bd ba e6 5a bd 63 24 04 3e
       0.09701748 -0.08125779 -0.053442694 0.12904505
0003b0 00 f8 e1 38 5b e2 05 3e 89 05 0c be 1e 33 e2 bd
       0.0001077503 0.13074629 -0.13673986 -0.11044906
0003c0 1a ac b1 3d 85 ad 02 be 7c d9 87 3d c9 40 9c bd
       0.08675404 -0.12761505 0.06633279 -0.07629544
0003d0 72 44 a7 bd ea aa de 3d 50 20 06 3d af 05 01 3e
       -0.08167352 0.10872443 0.03274566 0.12599824
0003e0 c4 38 96 bd a8 2d 38 bd 55 72 0d 3e 6f 3a 06 3e
       -0.07335046 -0.044965416 0.13813145 0.13108228
0003f0 78 2d 79 bd 0f b6 0e 3e 66 be a2 bd 87 dd 09 be
       -0.060834378 0.13936637 -0.07946472 -0.13463412

ggnn_2.rnn.weight_ih f4 [150, 50]
000000 f8 c2 4b bd c4 5c 08 3d 80 45 8b 3c 7e 61 97 bd
       -0.049746484 0.033291593 0.017000914 -0.07391642
000010 40 d4 2f 3d 98 cf 6d 3d 04 9a 43 3d 42 4a 74 bd
       0.042927027 0.058059305 0.047754303 -0.05964113
000020 89 8e 05 3e 4e f9 f1 3d dc 3a c8 3d 96 a1 95 bd
       0.13042654 0.11815129 0.097768515 -0.07306211
000030 22 96 df 3d 28 5e 80 3d a0 a5 8f 3c c8 0a 8e 3d
       0.109173074 0.06267959 0.01753503 0.0693565
000040 56 87 6b bd 78 a1 97 3d 51 49 05 3e 7a cc d9 bd
       -0.057502113 0.074038446 0.13016249 -0.10634704
000050 ec a4 d3 3d d2 1a 35 bd ae 85 af 3d 70 f3 6e bc
       0.10334191 -0.04421503 0.08570419 -0.014584407
000060 cf 19 a4 bd 5c 4f 45 bd 78 6f e3 bd 16 fe 77 bd
       -0.08012735 -0.048171386 -0.11105245 -0.06054505
000070 20 5d f2 bb c0 e1 59 3b d0 95 38 3c 80 5e a1 3b
       -0.0073963553 0.003324613 0.011266187 0.0049245954
000080 6e 49 a7 bd 9e f2 eb 3d da 62 e7 3d 08 b2 f4 bc
       -0.081683025 0.11520885 0.11298151 -0.029870048
000090 da f4 08 be ab d6 a4 bd fe 8f 2b bd a9 1b aa bd
       -0.13374653 -0.08048757 -0.04188537 -0.08306057
0000a0 d8 f9 c7 bd b6 ea e9 bd 90 d9 85 bc e4 2c 72 3d
       -0.09764451 -0.11421721 -0.016339093 0.059124842
0000b0 ce 12 85 bd ee 1c 08 bd 58 ae ee bd fe 46 af 3d
       -0.06497727 -0.033230714 -0.11654347 0.085584626
0000c0 e0 a5 4b 3c ed b9 10 3e 9a 6a 9b bd 36 08 a1 3d
       0.012429684 0.14133425 -0.07588692 0.07862894
0000d0 9b c2 cc bd 7a ec a8 bd 6e 62 a0 bd d3 91 0c be
       -0.099980555 -0.08248229 -0.07831274 -0.13727503
0000e0 a9 22 87 bd 8a d2 ff 3d a0 37 89 bd b0 11 07 3c
       -0.06598408 0.12491329 -0.06700063 0.008243963
0000f0 28 ab bd 3d 8c c6 7c 3d 8e b3 a0 bd 3a a3 d6 bd
       0.09261161 0.061712787 -0.07846747 -0.10480352
000100 82 2c 67 bd c8 ac a1 3d 64 8e a5 3d 25 ad 8c bd
       -0.05643893 0.078942835 0.080837995 -0.06868962
000110 55 7f 8e bd 8c 3e 10 bd 04 7b 33 3d 86 72 dd bd
       -0.069578804 -0.0352159 0.04381849 -0.10812859
000120 6d a1 0e 3e 2c 24 3e 3d 46 81 76 bd bf 45 fa bd
       0.13928767 0.046421215 -0.06018188 -0.12220334
000130 e4 4c d9 bd a0 fc 85 3b 01 0c e4 bd 20 b6 27 3d
       -0.10610369 0.004088953 -0.11135102 0.040945172
000140 78 a2 31 3d 4d 32 90 bd 56 90 69 bd 5e d3 9b bd
       0.043367833 -0.07040844 -0.057022415 -0.076086745
000150 37 e0 0c be 40 cb 64 bb 80 07 2c 3d f0 05 ae 3d
       -0.13757406 -0.0034911186 0.04199934 0.08497226
000160 44 09 c0 bd e6 94 ba bd 60 bd 60 bc 94 55 99 bd
       -0.09376767 -0.091104314 -0.0137170255 -0.07487026
000170 b8 fa 55 3d e8 bb a9 3d 81 4d b1 bd 98 fb 47 3d
       0.052241057 0.082877934 -0.08657361 0.048823923
000180 00 8f 9a 3a d2 7b f4 3d 2a a7 eb 3d a8 c6 34 bd
       0.0011791885 0.11937679 0.115064934 -0.044134766
000190 bd 9a 9a bd 80 50 a6 3a 2e 78 54 bd 42 59 be bd
       -0.07549045 0.0012688786 -0.051872425 -0.09294368
0001a0 45 84 a6 bd 8c 86 1a 3d c0 11 b7 bb 52 aa 9d 3d
       -0.08130697 0.03772597 -0.0055868328 0.07698502
0001b0 28 c2 54 bd db 2b 04 3e c0 19 40 bc 84 25 04 3d
       -0.051942974 0.12907355 -0.011724889 0.03226234
0001c0 ba 5a 19 bd fe b2 ef bd e0 c7 43 bc a0 83 84 bb
       -0.03744004 -0.11704062 -0.011949509 -0.0040440112
0001d0 9f f9 0e be 20 4e 4c bd 4c 41 22 3d 22 ea c1 3d
       -0.1396241 -0.049879193 0.039613053 0.094684854
0001e0 54 60 82 3d 88 f7 84 3d d0 c4 97 3d d4 4e 1a 3d
       0.063660294 0.06492525 0.07410586 0.037672833
0001f0 24 0d 68 bd 86 41 f4 3d e8 16 85 3c f0 0b 9e bc
       -0.056653157 0.1192656 0.016246274 -0.019292802
000200 be 87 a5 bd e2 7b b2 3d e4 95 35 bd ac 5c 64 3d
       -0.080825314 0.08715035 -0.0443324 0.05575244
000210 02 ce 4e bd cc b3 27 3d 02 a7 6a bd 5c 9d 38 bd
       -0.050489433 0.040942952 -0.057288177 -0.045071945
000220 46 37 eb 3d 40 26 65 3d 44 1b 10 bd 29 5e f9 bd
       0.11485152 0.05594468 -0.035182253 -0.12176163
000230 7b 81 0c be 80 9f f0 bb f8 6b 94 3c 1c f5 60 bd
       -0.13721268 -0.0073432326 0.01811789 -0.054921255
000240 3e be 0a be c4 e0 7d 3d e1 0b 0a 3e f0 11 d9 3c
       -0.13549134 0.06198193 0.13481094 0.026497811
000250 8e b2 7a bd 80 1c b2 bb 20 67 f9 bd 38 e0 06 3d
       -0.06120544 -0.0054355264 -0.12177873 0.032928675
000260 b0 2b 3d bc 38 bd c3 3d 2c ec 27 3d 7c 93 ce bd
       -0.01154606 0.09557575 0.040996715 -0.10086724
000270 7a e0 22 bd 3f b0 b8 bd 74 c3 c7 3d 56 e6 c5 bd
       -0.03976486 -0.09017991 0.097540766 -0.09663074
000280 6e 93 23 bd 44 a6 bb 3d 4c 2e 42 bd f0 57 6b bd
       -0.03993552 0.09162572 -0.047407433 -0.05745691
000290 7e 12 1f bd 8f 43 aa bd 2c 09 7e 3d 8a 94 64 bd
       -0.038835995 -0.08313667 0.062020466 -0.05580572
0002a0 32 87 39 bd 98 f4 36 3d f0 e0 84 3d c0 a3 df 3b
       -0.045294948 0.044666857 0.06488216 0.0068249404
0002b0 03 1e 0f 3e 5c a5 ae 3d 00 d2 db ba e8 71 c6 bd
       0.13976292 0.085276335 -0.0016770959 -0.09689695
0002c0 dc cf 08 3d 00 49 2a 3d a0 61 80 bb 00 6d 41 bb
       0.033401355 0.041573524 -0.003917888 -0.0029514432
0002d0 00 ed cf bb 32 8f 0c bd 86 39 df 3d 6c ed 07 3d
       -0.0063453913 -0.03431625 0.108996436 0.033185408
0002e0 60 0c a5 3d 82 9f 98 3d 91 d1 02 3e d0 b6 4c 3c
       0.08059001 0.07452299 0.12775256 0.012494758
0002f0 f3 1b f8 bd 34 eb a7 3d 5e c9 f5 3d b0 3e dc 3d
       -0.12114706 0.08199158 0.12001298 0.10754144
000300 92 bf fd bd cb 21 09 be e8 9c 97 bd 7a 0d 93 3d
       -0.12390055 -0.13391797 -0.07402974 0.07180305
000310 c2 04 8a 3d fa 9d f2 3d d6 f3 ad bd a8 7b 83 3d
       0.06739189 0.11846538 -0.08493774 0.0642007
000320 58 40 b8 bd 0a 32 22 bd dc bd 8d bd 14 02 95 3d
       -0.089966476 -0.039598502 -0.069209784 0.07275787
000330 c2 af 4c bd 97 b5 0a be b0 68 ee bc f0 53 91 bd
       -0.049972303 -0.13545834 -0.029102653 -0.07096088
000340 40 88 3f bc 6e 61 c2 bd da 03 9a 3d 7a b9 89 3d
       -0.011690199 -0.094912395 0.07520266 0.0672483
000350 72 67 c6 3d 80 c2 e7 3b fc 02 02 be c3 5e 06 be
       0.096876994 0.0070727468 -0.12696451 -0.13122086
000360 34 aa b0 bc 2e 77 ec 3d 38 6b 28 bd 7e d1 78 bd
       -0.021565534 0.11546169 -0.041117877 -0.060746662
000370 ce a8 88 3d 0a 11 fa 3d d7 73 b0 bd 6a ad 84 3d
       0.06672822 0.12210281 -0.08615845 0.064783886
000380 5e 7d f8 3d a6 87 d1 3d 0b 2e 03 3e 0a ae f6 bd
       0.12133287 0.10230951 0.12810533 -0.12044914
000390 c1 2d 06 be 90 a3 c9 3d 50 88 a5 3c 9c b7 29 3d
       -0.13103391 0.0984565 0.0202066 0.04143487
0003a0 50 e6 69 3c 3f 90 05 3e e9 44 cb bd 90 1e 73 3d
       0.014276102 0.13043307 -0.09925253 0.05935532
0003b0 07 94 9d bd f4 d2 8c bc 38 10 b1 3d 53 61 8c bd
       -0.076942496 -0.017190434 0.086456716 -0.068545006
0003c0 96 43 8e 3d 78 19 aa 3d 12 22 10 be 4c 12 e3 bd
       0.06946485 0.08305639 -0.14075497 -0.11087474
0003d0 00 f9 6d 3c 80 42 66 3c 7c ee 42 3d ba 62 d4 3d
       0.014524698 0.014053941 0.047590718 0.10370393
0003e0 8c a2 d9 bd bc aa a0 bc 35 ec 05 be 00 81 27 3d
       -0.106267065 -0.019612662 -0.13078387 0.04089451
0003f0 34 70 7b 3d 6e da 16 bd 14 d4 bb bc 82 aa ff 3d
       0.061386302 -0.036829405 -0.022928275 0.12483694
