backend/workspace/weight/rt/PU/PU_2-SAGE.pth (torch, 326904 bytes, 14 tensors)

conv1.lin_l.weight f4 [50, 50]
00000000: 7560 b5bd 5fa7 a83e 9f58 473a bc2c 903c
00000010: 6c17 8a3d a292 f9bc c3e7 8a3b c7f6 fe3c
00000020: 00c9 8ebc cae4 323c b078 1fbe 28fc 163d
00000030: 71e2 63bd 69ff 50be 03db 773d e943 773e
00000040: 86dd 143d d97a 59be 53fa a53d 574c 4cbd
00000050: d24b e9bc e38f 0d3d 9022 39be bdad f4bc
00000060: bf0b cc3d 0690 0d3e f29c 16be 8340 cf3b
00000070: 147f 07bd 12a9 3c3e aa5e 36bc f0b6 3e3e
00000080: f89f abbd 4560 ba3c 25e5 05be a7d0 08be
00000090: ffdb f8bd 2932 82bc acf5 4d3e 6367 a13d
000000a0: 618b d8bd e07f 8bbe 0f43 26be d24d cb3d
000000b0: dfe2 abbd 19c1 3d3e 244a 143d 81fe 1abe
000000c0: 5418 15be 660b 8dbd 5671 bb3d c53b 02be
000000d0: 8075 f3bd f744 2ebe 91d2 2dbe 5bd3 583e
000000e0: b453 973d 9137 57bd 1666 da3b eb6a e1bd
000000f0: 8a1e bebd 19cb ccbd 5224 0cbe c63b d63d
00000100: 941d 75bd 0d4d 883b 3187 143d d5e7 fd3b
00000110: 4f7c bdbb cad0 0bbd 9775 04be a4eb 8c3d
00000120: 9ff0 66be f240 743e 84b4 063e 253a 2ebd
00000130: 356d a63d 5a5b 48bc 5140 e7bd f449 093e
00000140: 9fb4 0abe 9cb3 35be b687 35bd 9a40 55be
00000150: 88f4 fa3d 7a45 1bbe f748 ba3d ce14 36bc
00000160: 030f 3dbe 86ba 843e aa35 3c3d 0222 a8bd
00000170: 4bac c6bd e7a9 013e 26fe fc3c 7b41 7bbe
00000180: b7f6 34be 4209 8b3d fdec e93d 80ae a43d
00000190: 7fe3 d13d 95bf a9bc 9a1b 83bd adeb 0fbe
000001a0: 4299 25be 17e8 993e d45d 203c 4922 20be
000001b0: 4607 e9bd 9f37 0f3e 3cd3 5c3d 5c4a 4ebc
000001c0: 4a20 55be c3f2 183d b9af 8d3d 8426 30be
000001d0: 8fad 44bd ddc1 7dbd 6152 4d3d 1be1 b63d
000001e0: 28f7 1e3c 97d0 df3c 6c5c 80bd 8cfd 65bb
000001f0: 9316 f4bc a9f1 34bd d434 e8bd f9d9 ab3d
00000200: dca3 113d 1c33 cbbd 2801 0dbb 8d85 84be
00000210: 41f4 3fbd 50cf ee3a f321 0bbd cbd6 90bd
00000220: a02a 8d3d 7d73 883d 0c8b 49be de9f f33c
00000230: 89c9 92be faf3 663c b465 c2bd 06ab afbd
00000240: 56d8 5f3d 2f4f 16bd 26e6 12be 3a50 463d
00000250: 08e8 0ebd 8f77 aabd cedc 1a3e 7282 9b3a
00000260: 6510 283c fd68 2fbe b22b f6bd 61b6 88bd
00000270: 829e 5cbd 5b7a 863d 475b 093e fd0e bcbd
00000280: 0467 10be 84f9 39bc 5021 583d 760d 9abd
00000290: 7426 2b3d ee69 22be acb1 0a3e c5bd 1dbd
000002a0: 4f82 3d3e f572 4b3e 7833 953d b044 8d3e
000002b0: a58a 05be 2348 0ebd a45c e6bd 4de7 a03a
000002c0: 24bb 183d d86b c43c e7d7 bcbd aade 2fbc
000002d0: 3df7 673d c886 f5bd fc48 22bd c9be 14be
000002e0: b048 b2be 8cc9 623d 080e cdbd 2540 42bd
000002f0: 8c05 2a3e cdcd a23c aa61 e43b 614a 2d3e
00000300: 0ba9 443c 1807 0e3d fac0 9c3d cac4 13bd
00000310: e735 cfbd 7562 a5bb e0e6 c1bd 80c7 26be
00000320: f189 65be 7110 dabb 8c96 86bd d8d6 a53c
00000330: f570 d5bd a19f 043e f177 e93d 58c5 75bd
00000340: dfca 28be 195c a83d 8552 9dbd 7441 97bd
00000350: bf8e 1fbe 7fe8 763d f4fe 863c 8104 e6bd
00000360: b7a0 243e 5557 d8bb 3ab0 fc3c ad0a 53bd
00000370: 09cd 83bd 405e 053e 3727 783c 2cd2 5abd
00000380: 95fe 07be d511 0d3e 5b30 023e 54dd 8d3d
00000390: 7479 6ebd f6fc 8abd d0c5 60bc c20e 963d
000003a0: 5c4c bf3d 2580 583e 6f98 b1bd 8441 583d
000003b0: be34 a8bd f219 15be d971 f13c 0cdb acbd
000003c0: 6bcd 073e 88a6 8a3d 4591 423d d55d a5bd
000003d0: 4467 bdbd d21a 983d 6611 c6bc dd7f 333e
000003e0: 1c69 ccbd 8a62 f3bc f504 55bd d81a 8fbd
000003f0: 79a5 0c3d 2a0d a43d cb16 45bd 33f3 0e3d
-0.08856288 0.32940194 0.0007604453 0.017599456 0.067427486 -0.030465428 0.004239054 0.031123532
-0.017429829 0.010918805 -0.15573382 0.03686157 -0.055635873 -0.20409931 0.0605116 0.24147
0.036344074 -0.21238269 0.08104386 -0.04987749 -0.028478537 0.03456105 -0.18079591 -0.029868001
0.09963178 0.13824472 -0.14708307 0.006324829 -0.033080176 0.1842387 -0.011130968 0.18624473
-0.08380121 0.022750983 -0.13075693 -0.13360845 -0.12151336 -0.015893059 0.20113248 0.078810476
-0.105734594 -0.27245998 -0.16236518 0.099269524 -0.083928816 0.18530692 0.03620352 -0.15136148
-0.14560062 -0.0688694 0.091524765 -0.12718113 -0.11887646 -0.17018496 -0.16974856 0.21174376
0.07389012 -0.052543227 0.0066650016 -0.11006721 -0.092831686 -0.09999675 -0.1368573 0.1046062
-0.05984266 0.004159576 0.03626174 0.007748584 -0.005782641 -0.034134664 -0.12935482 0.068808824
-0.22552727 0.238529 0.13154799 -0.04253592 0.08126298 -0.012228811 -0.11291564 0.13407117
-0.13545464 -0.17744297 -0.044318877 -0.20825425 0.12253672 -0.15163222 0.09095948 -0.011113359
-0.18462758 0.25923556 0.045949616 -0.082096115 -0.09700831 0.12662469 0.030882906 -0.24536698
-0.17672239 0.06788875 0.11422155 0.08041096 0.102484696 -0.020721236 -0.06401749 -0.14054747
-0.16171744 0.30059883 0.009787995 -0.15638079 -0.113783404 0.13986062 0.053912386 -0.012590971
-0.20813099 0.03734089 0.06918282 -0.17202193 -0.04801708 -0.06195246 0.05012739 0.08929654
0.009702481 0.027321143 -0.06267628 -0.0035093753 -0.02979592 -0.044175778 -0.11338201 0.08391184
0.03555666 -0.09921858 -0.0021515582 -0.2588314 -0.046863798 0.0018219743 -0.033967923 -0.070722185
0.06892896 0.06662653 -0.19681948 0.029739317 -0.28669384 0.0140962545 -0.094920546 -0.08577542
0.054649673 -0.03669661 -0.14345607 0.048416354 -0.03488925 -0.08323585 0.15123293 0.0011864437
0.010257815 -0.17129894 -0.12020053 -0.06675411 -0.053862102 0.06566306 0.13413726 -0.09182546
-0.14101797 -0.011350993 0.052766144 -0.07522099 0.04178472 -0.15860721 0.13544339 -0.038511056
0.1850674 0.19868071 0.072852075 0.27591467 -0.1304117 -0.034736764 -0.112481385 0.0012275964
0.037287846 0.023977205 -0.092208676 -0.01073424 0.05663227 -0.11988598 -0.039620385 -0.14525904
-0.3482108 0.05536799 -0.10012442 -0.047424454 0.16603678 0.019873524 0.0069696503 0.16922905
0.012003194 0.034674734 0.07653995 -0.036076345 -0.10117703 -0.0050471374 -0.09467864 -0.1628704
-0.22415902 -0.006654792 -0.06571683 0.020244047 -0.104219355 0.12951519 0.1139983 -0.060002655
-0.16483639 0.08220691 -0.07681755 -0.07385531 -0.15581797 0.06028032 0.016478993 -0.11231328
0.16076933 -0.0066022077 0.03084575 -0.051523853 -0.06435592 0.13024235 0.015146068 -0.05342309
-0.13280709 0.13776334 0.12713759 0.069269806 -0.058221295 -0.0678653 -0.013719037 0.073270336
0.09340736 0.21142633 -0.086716525 0.052796856 -0.08213185 -0.14560679 0.029473232 -0.084402174
0.13261954 0.067700446 0.04750182 -0.08074538 -0.09248212 0.074269906 -0.024178218 0.17529245
-0.099809855 -0.029710073 -0.05200668 -0.06987542 0.034337495 0.08010323 -0.04811744 0.0348999

conv1.lin_l.bias f4 [50]
00000000: 5ccd ed3d 0673 0fbe d838 d5bc 965d d6bd
00000010: f06e 00be 547a d6bd 56ed 60bd 54a5 ac3d
00000020: 9187 073d 3d2d 8e3b 4442 3f3d 97a9 f1bd
00000030: 909b a43c bb17 82bd 0043 393d cb21 14bd
00000040: b0ae e0bd d924 163d e0a6 c9bd 5358 d53d
00000050: fe9e 583e ecea a83c fa8d eb3d aeec 333d
00000060: 262f 99bd 9053 94bd 911e bebd b217 45be
00000070: 9ba9 e5bd b254 3b3d b6fa 85bd a676 eabc
00000080: e6b3 223d 6a46 40be f35b 233e 8853 d9bd
00000090: 40a0 07be 0063 0c3d d122 f9bc 9964 a3bd
000000a0: 35c5 85bd 6e52 cfbd bb63 b6bd 137a 93bd
000000b0: a653 eebd ba5a 303e f6b0 3b3e 4219 a9bd
000000c0: 4c30 06be c2ce 7e3c
0.11611435 -0.14008722 -0.026028082 -0.10467069 -0.1254232 -0.10472551 -0.05491384 0.08429971
0.03308827 0.004338889 0.046694055 -0.11799925 0.02009371 -0.063521825 0.04522991 -0.03616504
-0.10970819 0.036656234 -0.09846282 0.10417237 0.211544 0.020619832 0.11501689 0.043926887
-0.07479696 -0.07242501 -0.09283174 -0.1924732 -0.1121399 0.04573507 -0.0654196 -0.02862103
0.039722346 -0.18776861 0.15953045 -0.106116354 -0.13244724 0.0342741 -0.03041211 -0.07978172
-0.06531755 -0.10123144 -0.08905741 -0.07201018 -0.116370484 0.1722211 0.18329224 -0.08256771
-0.13104361 0.015552225

conv1.lin_r.weight f4 [50, 50]
00000000: cc1d 183e c7dc 583d 5396 01be 6a22 b3bd
00000010: 262b 3c3e 490f 0cbe a55c 48bc e310 c43d
00000020: f306 b93b 6265 01be d014 f63d 47ec fb3d
00000030: 0c01 c23c f2c6 62bd f354 06be 9e49 e13d
00000040: aef5 493d 628e 94bd 6051 d3bd 7d87 90bd
00000050: 3250 5abc 4a4d 753d 77ec 183d 5f2c d0bd
00000060: e694 4b3e 39f5 0f3e 5a38 f9bd 3469 e53d
00000070: 4614 36be e496 36bd 59c1 0d3e 2929 183e
00000080: 3aa8 293e 94a5 b23d b998 cf3d 9474 7bbd
00000090: a8ef 03be c8b0 9fbd 64c9 93bd 1e9f e23d
000000a0: 6af0 8a3d 724d 65bd dae3 84bd 2697 dbbd
000000b0: ac00 47bd a282 643d 1202 4cbd 624f 3abe
000000c0: a860 063e 8a79 e9bd 604b e73c 2f07 c7bd
000000d0: c39c 0abe 770e 05be ff08 b03d 6621 9c3e
000000e0: a308 f3bd 795d 443d a252 d1bd f7e5 8b3d
000000f0: 3ba9 89be 8ed0 153d c214 0dbe fd6b 4b3c
00000100: ac37 edbb c103 003e 3c04 663e 1fe0 c0bb
00000110: 7ce2 00bd 87af 623d 4a15 3fbe 53f7 933a
00000120: 153c 523e 4818 53be 7cef 7fbd 6f88 a7bb
00000130: b849 543e f365 7b3e 3419 19be 3e21 4cbe
00000140: e37b f13d edd0 6ebe 7dc4 56be 03e3 bdbd
00000150: 0b8e 4bbe 52d0 b6bd b0f3 8c3d 1544 253e
00000160: 01fd febc d331 62bd 82ae 55b9 438f 4f3e
00000170: 9621 ccbd 06b1 2a39 efb5 32be 1f75 d6bd
00000180: 9411 1b3d 8814 073e 9cbf a6bc 8e3b 903c
00000190: beb4 063d 4633 3dbe 8a63 5b3d 9f63 e6bd
000001a0: 9701 f0bc 8c5a 893d 6a72 32be 3667 2d3d
000001b0: 042f 77bd 0fef 943d 46ac a0be 1778 873d
000001c0: 73f9 44be 5415 c93c 53f1 893e 613f 37bb
000001d0: 91b2 363c 8233 503d 72a8 933c 0827 a9bb
000001e0: 4894 55be 32fa 113d 7b16 283e ac85 1fbe
000001f0: 2597 6c3d 798d a83d 105f 6cbd fe60 873e
00000200: 9e46 673d d395 dcbd ce1a 2dbb 035b d1bd
00000210: f482 21be 005d 74bd c0ce 96be ed7f 853d
00000220: 0e5f 0dbd f771 0d3e 4f75 2f3e e634 2ebe
00000230: dd9a a13d da3d 8fbd b2ce 8fbd 8d2f 08bc
00000240: 58f2 1fbe 61e0 6abe 9052 06bd 95b5 483d
00000250: 4ef2 a2bd 057e a9bd a0fd 88bd 8ea5 acbe
00000260: e126 88bd dec4 9abd 5d96 193e a619 a1bc
00000270: f14a e2bc ec9b 87bc 1947 843d 4738 5bbd
00000280: a09a b1bd 30dc 9cbd b31c 2f3d 8cc5 f63d
00000290: 037e dd3d 091a 91be 758e 24bd 9489 3fbd
000002a0: 1687 ffbc 3f71 0cbe f488 fbbb b97a 41bd
000002b0: 39c5 153d db5b 81be 36a1 0a3e bd85 473e
000002c0: 8180 473d 8c7d 463e 9bf4 24be 563b d239
000002d0: c737 e53c 8028 c7bd 9c4a f63d 292e 653e
000002e0: fdac d53b 43cf 7dbd 1abf 953d 3709 86bd
000002f0: 9ebc b0bc f5ce c0bd 97f8 26bc bd8d 503e
00000300: 14bc 023d 5d85 353d 8a16 873d 219b 3cbe
00000310: dd1f 433e 8a38 ab3d 6f63 c93b 624a 3cbe
00000320: 1a0a ce3b 561d c6bd a753 053e d41e 9f3d
00000330: e1d2 c03d 3e34 c73d 079d a0bb 6e4c 04bd
00000340: 9396 693c 7e07 3f3e 9228 913d f888 123d
00000350: 12e6 41bd 4053 a3bd b8b1 aa3d 06e1 1cbe
00000360: f0da 03be ad82 343e 9d77 cf3c ef43 bcbd
00000370: 5102 06bd 87a4 2fbe ba75 613c 6b10 cf3d
00000380: 5d24 603e 4f46 123e b1d2 c23d 5fcf d1bc
00000390: ea00 45bd 7e15 fb3d a96d 27be b599 b5bc
000003a0: c992 023b 5ae7 11be ff53 17bc bf20 193d
000003b0: 1559 ce3d 8990 2a3d b64b 2d3d 100c 12be
000003c0: 50f2 623d 1580 18bd 2a00 173d 773c 56bc
000003d0: 242f e3bd 0617 233d a7d0 663e 4c83 08bd
000003e0: 6dc9 573d 535f 7f3c bcfa 28be 6910 713d
000003f0: 7d09 f73c 3224 91be f073 58be 02de 9e3d
0.14855117 0.052944925 -0.12655 -0.08746798 0.18375835 -0.13677706 -0.012229119 0.095735334
0.0056465804 -0.1263633 0.120156884 0.12300926 0.02368214 -0.05536551 -0.13118343 0.110003695
0.049306564 -0.0725372 -0.103182554 -0.07057092 -0.013324784 0.05988816 0.037334885 -0.10164713
0.19881019 0.14058389 -0.12168951 0.112017065 -0.17781171 -0.044577494 0.13843288 0.14859451
0.1656808 0.08722988 0.101365514 -0.061390474 -0.1288439 -0.0779739 -0.072161466 0.110655054
0.067841366 -0.05598206 -0.06488772 -0.10722189 -0.048584625 0.055788644 -0.049806662 -0.18194345
0.13122809 -0.11400135 0.028234184 -0.09718167 -0.13536362 -0.12993799 0.08595466 0.3049423
-0.11866882 0.047940705 -0.10220839 0.06830972 -0.26886925 0.036575846 -0.1377745 0.012415883
-0.0072393026 0.12501432 0.22462553 -0.0058860923 -0.031465992 0.055343177 -0.18660465 0.0011288918
0.20530732 -0.20614731 -0.06248425 -0.0051126997 0.20731246 0.2455061 -0.1495102 -0.19934556
0.11791208 -0.23321886 -0.20973392 -0.09271815 -0.19878404 -0.08926453 0.06882417 0.16139252
-0.031126501 -0.055223297 -0.00020378272 0.20269494 -0.099673435 0.0001627841 -0.17452215 -0.10471558
0.03785856 0.13191426 -0.020355038 0.017606523 0.032887213 -0.1847659 0.053561725 -0.1124947
-0.029297633 0.067067236 -0.17426458 0.042334758 -0.060347572 0.07272159 -0.31381434 0.06614702
-0.19235782 0.024546303 0.26941928 -0.002796136 0.011150972 0.05083037 0.018024657 -0.0051621236
-0.20857346 0.035638995 0.16414826 -0.15578336 0.05776133 0.08230109 -0.057707846 0.26441187
0.05646383 -0.10770764 -0.0026413682 -0.10222437 -0.15772611 -0.059659004 -0.29454613 0.065185405
-0.03451448 0.13813005 0.17134593 -0.17012367 0.07890866 -0.06994219 -0.07021846 -0.008312118
-0.1561979 -0.22937156 -0.03279358 0.049001295 -0.07956372 -0.082759894 -0.06689 -0.33720058
-0.066480406 -0.07557081 0.14998765 -0.01966555 -0.027623625 -0.016553842 0.06458873 -0.053520467
-0.086720705 -0.07659185 0.04275198 0.12049398 0.108150505 -0.28340176 -0.04017492 -0.046762064
-0.031192344 -0.13715075 -0.007676238 -0.047236178 0.03656504 -0.25265393 0.1353806 0.19484611
0.048706535 0.1938383 -0.16108935 0.0004009853 0.027980698 -0.09724522 0.12025949 0.2238089
0.006520866 -0.06196524 0.0731184 -0.06544726 -0.021574315 -0.09414474 -0.010191104 0.20366569
0.031917647 0.04431664 0.06596096 -0.18418552 0.19055124 0.08360393 0.0061458866 -0.1838775
0.0062878253 -0.09673564 0.13020192 0.07769552 0.09415222 0.09726761 -0.0049015316 -0.03229945
0.014257091 0.18655202 0.07087816 0.035775155 -0.047338553 -0.07974863 0.083346784 -0.15320215
-0.12876487 0.17627974 0.02532559 -0.09192645 -0.032717053 -0.17152606 0.013760978 0.10110553
0.21888871 0.14284633 0.095128424 -0.025611578 -0.048096575 0.12259959 -0.16350426 -0.02216802
0.0019923917 -0.1424841 -0.009236335 0.037384745 0.10075585 0.041641746 0.04230853 -0.14262414
0.05540687 -0.037231524 0.03686539 -0.013075939 -0.11092976 0.03981688 0.22540532 -0.03332834
0.05268233 0.015586692 -0.16501898 0.05885354 0.030155892 -0.28347927 -0.21137977 0.077571884

conv2.lin_l.weight f4 [100, 50]
00000000: fc67 84be cc49 98bd f3a1 37bd 0ad0 b2bd
00000010: 4a9d 8fbd 94aa 0cbe cb3b 013e a535 9d3c
00000020: 907e 4abe b44f 45be 58a1 b5bd 7687 1bbe
00000030: 2f5e 99bd bc7d afbc 7c58 66bc 0b12 13be
00000040: 0f16 8abd 9f65 8f3d 5e59 de3c 10a9 083d
00000050: f1af e4bd e6a7 373d feba 06be 1d54 9bbd
00000060: bece 55be 06f4 1ebd fcf0 073e 1e5d 8bbd
00000070: 972e 553d bbd5 f2bd 6230 053e 0923 d83d
00000080: 5e00 73bd 694e 2c3e 9e7d 20be 1256 413e
00000090: a69e cdbd 5228 033d e072 eebd 3762 55bd
000000a0: 3405 02bd 23a1 72bd 75f7 593e 358e 0f3e
000000b0: 8c58 f33a 9b29 9ebd 2d62 643c b13f 31be
000000c0: 373d 2cbd 4794 1d3d eae5 273d cf9d 63bd
000000d0: 89a8 c2bd 8eb3 df3d 6d3d 953c f6f6 c3bc
000000e0: f43e a9bc 9a5c ba3c 1b19 d33d ca10 183e
000000f0: 93da 0dbe 9883 d5bb 256e bcbd 4b02 d63c
00000100: 12df 9fbd 0971 ba3d 2bc8 7a3d 1f05 ce3d
00000110: aa04 a03c b34f fe3d 42ba 0a3e 9e29 2fbe
00000120: ea8d 48b9 7b56 88bd 2713 043d 8730 143c
00000130: 7121 a83d 8c10 06be 818b 9d3d 2677 d6bd
00000140: 8ea6 14be a4ab 5fbe e19f 7dbe 8ff6 203e
00000150: 18d8 853d 1d54 0cbd fda1 adbd 756e 68be
00000160: 24fe fe3d 429d e93d e048 21be 796f e63d
00000170: 0d17 4bbe 8274 36bd c1a2 573e 2abb 9d3d
00000180: f92a 8b3d 52de dbbd 59dc e7bc 0f4e 4f3d
00000190: 0b14 afbd 6d9b 1f3e 72fa 943d 2afd 3f3e
000001a0: df46 b83d edfa b9bb 19a7 d4bd 1c1b c83d
000001b0: b0b7 b2bd 19fc 46bd d31b 973d 8081 3cbe
000001c0: d337 24be 8631 443e 555b eb3d ca69 293e
000001d0: 26cb b03b f308 26bd 4806 e23d afb7 a43d
000001e0: 4ed0 32bd 03b0 2a3e e07e 15be 40a5 3cbe
000001f0: 6a2e 8cbd f16d d7bd d26f 28bd d899 3bbe
00000200: d020 bd3c bd87 d23d 49db 72ba 87f7 ebbd
00000210: e62a 0d3b a0b3 c4bc f96c d53d 9eda 36be
00000220: 6fb7 66bd 789e debd 5f0c f83d 0540 b43d
00000230: 5af1 90bb 55c6 5abe ef93 9fbd d479 dc3d
00000240: 7701 37bc eb2f a0bd b446 3cbd d0a6 8bbb
00000250: 2e0c 513e 34af 8ebc 36ae 803e b6cd 73be
00000260: 866d f0bd 6fa8 86be 9d5c ffbd 1d9b 833d
00000270: 73bd 82bd a2d7 b03d 8afd 6fbd 2af9 acbd
00000280: ef66 f6bd 785b 59bc 4ef8 1b3e 5bd8 553d
00000290: eb85 1cbe 9aac 68be f773 b5bb dbf9 00bd
000002a0: 0a21 80bd 6fd6 d9bd 4d31 e63d c505 c53d
000002b0: 18d0 cf3d 8c42 283e a879 8ebd 3b80 3b3e
000002c0: 0920 07be 6348 2f3e b53a 113d 635f d7bd
000002d0: 4c46 033e cc0d 7fbc c8a4 583e 0758 c0bd
000002e0: f445 febd 0092 ec3b 2941 c23d c7cf fd3d
000002f0: 4a47 41be cd02 5a3c 5f5f bdbc 652c 09be
00000300: 4ca1 0abe b0c8 2f3d 4302 d43d b17f ed3d
00000310: 2025 84ba a247 f23d 5d10 af3d 0123 043e
00000320: abde 80bd 1234 99bd a97a 9fbc 1fdc 99bd
00000330: 75f0 f6bd 357c 7a3c 6f35 223c 7ab3 103c
00000340: b5ce acbc 5f8b 17be ab97 1e3e ffdc 68be
00000350: fada 5b3d 0fc0 36bd 4ce8 0a3d cb3b 19be
00000360: 11ba 91bd 9a30 43be 51a6 f83d b27b cc3d
00000370: 3dff e5bd ac2f afbd 7ee7 51be 30aa 473d
00000380: 988d 613d 12e3 2bbd 06ba 893d 0fa6 d23b
00000390: f52b 8c3b 109d 1fbd d506 933d 266a cc3b
000003a0: e878 cd3b 19ac 5c3e f6bf 10bd 660a 393c
000003b0: 0e41 a2bc b168 73b9 33e0 9a3d c10f 8f3d
000003c0: 4722 d4bd 8804 193e 430f f23d 0c5b 4b3d
000003d0: c5fd 6cbd 3adb 1abe 3d81 b8bc 0874 35bd
000003e0: 2c33 013e 8596 c7bd 1451 5abd 3710 e2bc
000003f0: ebd1 5bbe 450b aabd c549 1b3e 3837 bcbd
-0.25860584 -0.07435951 -0.04483218 -0.087310866 -0.070124224 -0.13736945 0.12620465 0.019190619
-0.19774842 -0.19268686 -0.088686645 -0.15188393 -0.07488667 -0.02142226 -0.014059182 -0.14362352
-0.067424886 0.070018046 0.027142223 0.033364356 -0.11166371 0.044837855 -0.1315727 -0.07584403
-0.20879647 -0.038806938 0.13275522 -0.0680487 0.052046385 -0.11857172 0.13006738 0.105535574
-0.059326522 0.16826786 -0.15672919 0.1888049 -0.100400254 0.032020874 -0.116430044 -0.052095618
-0.031743243 -0.059235703 0.21285804 0.14019091 0.0018565818 -0.07722779 0.013939423 -0.17309453
-0.042050567 0.038471486 0.040990748 -0.05557042 -0.09504802 0.10922919 0.018217767 -0.023921471
-0.020659901 0.022749234 0.10307523 0.14850155 -0.1385291 -0.0065159313 -0.09200696 0.02612414
-0.07806219 0.09103591 0.06122605 0.100595705 0.019533474 0.12417545 0.13547614 -0.1710572
-0.00019126353 -0.0665712 0.032244828 0.009044773 0.082095034 -0.1309225 0.07692624 -0.104719445
-0.1451666 -0.2184282 -0.2476802 0.15719055 0.06535357 -0.034259904 -0.084781624 -0.22698386
0.12450817 0.11406948 -0.15750456 0.112517305 -0.19833012 -0.044544704 0.2105818 0.07701714
0.06795306 -0.107357636 -0.028303312 0.05061155 -0.08548745 0.15586634 0.07274331 0.18748918
0.089978926 -0.0056756646 -0.10383434 0.09770796 -0.08726442 -0.048580263 0.07378354 -0.18408775
-0.1603692 0.19159517 0.114920296 0.16544262 0.005395311 -0.04053588 0.11036354 0.08042847
-0.043655686 0.16668706 -0.1459918 -0.18422413 -0.0684479 -0.105190165 -0.041122265 -0.18320405
0.023086935 0.10279796 -0.00092642434 -0.115218215 0.0021540462 -0.024011433 0.104211755 -0.17856833
-0.05632728 -0.10870069 0.121117346 0.08801273 -0.0044233026 -0.2136472 -0.07791888 0.10765424
-0.011169783 -0.078216396 -0.045965865 -0.004261829 0.20414802 -0.017417528 0.25132912 -0.23808941
-0.1173964 -0.2630038 -0.124688365 0.0642607 -0.06383791 0.08634879 -0.058591403 -0.08445962
-0.12031352 -0.013266437 0.1523144 0.052208286 -0.1528546 -0.22722092 -0.0055375057 -0.03148828
-0.06256302 -0.10636603 0.11239872 0.09620241 0.101471126 0.16431636 -0.06956798 0.18310635
-0.13195814 0.17117457 0.035456378 -0.105162404 0.12819785 -0.015567254 0.21156609 -0.0939179
-0.12415686 0.007219553 0.094850846 0.12393146 -0.18874851 0.013306332 -0.023116766 -0.13395841
-0.13538092 0.042916 0.10351994 0.11596621 -0.0010081865 0.11830069 0.08548043 0.12903978
-0.062924705 -0.07480635 -0.019467669 -0.07512688 -0.12057582 0.015288402 0.009900435 0.008831853
-0.02109466 -0.1479926 0.15487544 -0.22740553 0.05367563 -0.044616755 0.03391294 -0.14964215
-0.071155675 -0.19061509 0.12141097 0.099845305 -0.112303235 -0.085540146 -0.20498464 0.048746288
0.055066675 -0.041964598 0.06724934 0.006428487 0.004277701 -0.038968146 0.071790375 0.00623824
0.0062705167 0.21550025 -0.03533932 0.011293983 -0.019806411 -0.00023213286 0.07562294 0.06985427
-0.103581004 0.14943135 0.11819317 0.049647376 -0.0578592 -0.15122691 -0.022522563 -0.04430011
0.12617177 -0.09745506 -0.05329998 -0.027595622 -0.21466796 -0.08302931 0.1516486 -0.0919022

conv2.lin_l.bias f4 [100]
00000000: bcd0 af3d f1ad 9fbd 5a0e bbbd c493 9abd
00000010: 6b2f 62bb 7c5c 42bd dc04 65be 6fbd 3cbe
00000020: 53c0 57be 7a33 42be 662f d13d 7d5d 803c
00000030: 5dfc a7bd ca18 d5bd df18 c9bd a4e7 04b9
00000040: e933 69bc ae71 983d c003 56bd a8e7 8d3d
00000050: cc0d 71bc 7721 d2bd b0b1 33be 7f16 8ebc
00000060: 8c47 c6bc 4be4 75bc f517 4bbe 9618 9abd
00000070: 55a6 c3bd e55e b83d 80f3 e4bd ff20 1f3d
00000080: 7baf 1fbe 01ee 9cbd cebf 11be 0a11 c0bd
00000090: 6bff a43d 981f 93bd 8b9d a03c 576a 6bbd
000000a0: 28a2 ae3d d31e 3ebd e060 503d eda2 09be
000000b0: 020f 7abd 0b87 47be 9158 b7bd 2c03 113d
000000c0: 2189 9e3d 81ad 073d 8805 12be e7c7 713c
000000d0: 4e44 92bd eea3 823d ff8c c2bd 7d63 19be
000000e0: b437 96bd de04 2cbe 3433 93bd fe22 26bd
000000f0: b8f3 4bbd 356c d6bc c9d2 43bd f46f 803d
00000100: 3e23 0dbe e25b 0f3d ed5f 313b 1845 593e
00000110: 71ba ecbd 5cb8 e93c 54a1 1ebd 7754 b9ba
00000120: 6c23 cbbd 79ab 43be 3631 4fbe a5cc 3d39
00000130: 7e15 9ebd a15f dabd e351 153d de54 84bd
00000140: 2f3c 6a3a 6506 2bbe adc9 1fbc b4ca 13be
00000150: 0d00 61b9 3425 d43c 8b31 a2bb 0850 c8bd
00000160: c3ba 82bd 6bcc 843b dfde 36bd 94e8 dbbb
00000170: 14dc 38bd a05c f23d fac7 153a 3880 cd3d
00000180: 9ad2 1dbe 05ab 9abd 51ba 55bb 1bfb 44be
0.08584735 -0.077968486 -0.09133597 -0.07547715 -0.0034513127 -0.04745148 -0.22365135 -0.18431638
-0.2106946 -0.18964949 0.10214119 0.015669579 -0.08202431 -0.10405119 -0.09819197 -0.00012674794
-0.014233568 0.07443558 -0.05224967 0.069289505 -0.014712762 -0.10260289 -0.17548251 -0.017344711
-0.024204038 -0.015008043 -0.19833358 -0.07524221 -0.0955321 0.09002475 -0.111792564 0.038849827
-0.15594284 -0.07662583 -0.14233324 -0.0937825 0.080565296 -0.071837604 0.019606372 -0.05747446
0.085270226 -0.046416115 0.050873637 -0.13441058 -0.06104947 -0.19485109 -0.089524396 0.035403416
0.07740999 0.03312445 -0.14259923 0.014757133 -0.07141934 0.06378923 -0.09499549 -0.14979358
-0.07334843 -0.16798732 -0.071875006 -0.040560715 -0.049792975 -0.026174644 -0.047808442 0.06271353
-0.13782975 0.034999736 0.0027065233 0.21217763 -0.115589984 0.028530292 -0.038728073 -0.0014139552
-0.099188656 -0.1910838 -0.20233616 0.0001810068 -0.07718943 -0.10662771 0.036455046 -0.064615
0.00089353597 -0.16701658 -0.009752673 -0.14432794 -0.00021457691 0.025896646 -0.0049497536 -0.0978089
-0.06383278 0.004052689 -0.04464614 -0.006711075 -0.045131758 0.11834073 0.0005713698 0.100342214
-0.1541237 -0.07552151 -0.0032612274 -0.19236414

conv2.lin_r.weight f4 [100, 50]
00000000: e4dc 313c be15 7a3e 64c7 573e 932d 6d3d
00000010: 85df 48bc 1d2b d23c 1327 9dbe ebf9 16be
00000020: 1a98 de3d ca16 98bd d7f3 d13d e142 503c
00000030: ddb3 853e e51d e93d 0f55 afbd d5d5 b23d
00000040: 19d3 d5bc 9550 933d c8a6 3c3e 447f 3dbe
00000050: 1431 e1bd ca87 423d dfc9 07be b022 8f3e
00000060: b6ba 8cbd 78c3 62be cdcb 8fbc ba32 4a3e
00000070: 8064 72bc afb1 953d 9853 11be 3726 223b
00000080: abbc 093e 5099 9f3e 0c98 4a3d e870 04bc
00000090: 9991 8d3d 08f8 39be 6c43 2ebe 268b 20be
000000a0: b897 003e 47bf 12be a671 e43d 9d97 ff3d
000000b0: 7d0f bebd 978f 42bc cbd2 fbbd 020b 9cbd
000000c0: 2298 38be 8db3 64bd 8136 223d 3e76 5bbd
000000d0: 462c b1bd 4f41 74be b2e6 50bd 4ea8 1dbe
000000e0: 9df9 19bd 57f0 963b 583e 0f3d 72d1 2dbe
000000f0: 1afd 8bbd 0fe6 bfbe c594 cf3c 235a 1fbe
00000100: 4e26 7e3e 230e 42be 1fd7 be3b c678 76bd
00000110: d210 073e 27ae 1ebd ef01 4bbe d4b8 2fbe
00000120: ec2c 86be a49e 7e3d 3cb5 30bd 822a efbd
00000130: d445 9a3d 42f9 5ebd 5ab8 4ebe 9054 11be
00000140: 27c0 d6ba 496c 4ebe 4f75 81be deb1 5f3c
00000150: aa72 0cbe 9d27 6abe e44d 06be d843 41be
00000160: e619 ba3b 5f29 223d d64d efba 4199 c43d
00000170: baab b9bd ed8a a4bd 00c7 8c3d 577e aabd
00000180: a069 893d b655 98be d5c0 9d3b 3826 53bd
00000190: efc6 883d 33ea 64be 625e f2bb bbc1 133d
000001a0: 1d2a 423d c6ed c93c 6b47 003d 42a3 02bb
000001b0: 2488 d8bd 5c87 733b 228a 783a fdf4 463c
000001c0: 45ec fc3c c750 b63d de54 e63d 9603 9ebd
000001d0: 2e07 f8bd 872f cd3c 2f01 00be 51ac d53d
000001e0: b26e 7f3d 46da 133c 414b bcbc a97a 0bbd
000001f0: 08f4 073d dcf9 26be 5193 173e 5d2d 97bd
00000200: a63b 033e 7f3c bcbd 813f 2bbd a3f3 c73d
00000210: 8374 6dbe 41bb 143e b097 38bd 66f1 5cbc
00000220: 17f6 833d 6502 f73c ccab 1fbe 5316 653e
00000230: 0e34 38bd af1c d13d 27d1 88be dc92 8cbd
00000240: ac26 913d 9d70 363d 8f8a 7abd 25d0 e33d
00000250: f87d 8ebd 3b6f d5bd 1d5a 323e eb93 a4bd
00000260: b401 b2bd e65b 62be 8ae7 133e eb48 1cbe
00000270: 1663 3cbe 7f29 343e ea21 d03d d156 72bc
00000280: 76e0 76bd ad66 483e 1487 a2bd 9414 14be
00000290: 8b7a e93d 86d7 a2be d55d 08be 63e9 09be
000002a0: e2e8 1d3e a3cd 38bd 21b1 233e 0a54 d43d
000002b0: 8464 aa3d 08ce babd d28f 06be 5efa 303d
000002c0: c041 1cbd c55f a93c 05e4 adbd 55d6 9f3d
000002d0: 5b8f 883c 62f6 eebd 6291 a13d d7b0 0dbd
000002e0: a7d7 2cbd a724 313c 4aed 1a3d f355 243e
000002f0: c417 d73d c479 943a c0a3 f73c 2aa0 e8bd
00000300: 8e6c 7c3d 9dee 323e 899e bfbd 7f37 0c3b
00000310: 9844 753c 4c49 283c b24c ee3b 3ec7 dd3d
00000320: 1ace 2d3c 748a 503e f9ef 3d3e a58e 113e
00000330: f372 1bbe cb5c 0dbe b217 92be bc8e a43d
00000340: 7ca3 e83d b398 a93c 2dca 2b3e 4baf 593d
00000350: 6346 6f3e 98f5 1a3e e558 13bd 5f0e 5b3b
00000360: fe36 23bb d832 1c3e a608 7f3e 6ea3 84bd
00000370: 8dc5 4fbe aa04 033e 6b96 95bd 616e 303c
00000380: c129 453e 5b57 54be f985 6f3d 7e05 063e
00000390: 0134 2bbe c4dd 87bd e58b 3ebe 5aa8 d93d
000003a0: 1f47 95bd c974 4f3e 110f 093e 0870 c4bd
000003b0: b045 893c 03d0 34be 80a2 adbe d013 36be
000003c0: c51f 813d f61a 5abe 658a 003e 4ea8 983d
000003d0: b609 2fbe c51f 69bd 3791 77be 5108 06be
000003e0: 08ac 71bd 4dee aebc ebad 3fbd 552c 11be
000003f0: ec48 013d 6254 12bc 74ff 92bd 35ee 273e
0.010855887 0.24422356 0.21072155 0.05790479 -0.012260322 0.025655324 -0.30693874 -0.14743774
0.10868855 -0.07426222 0.10251587 0.012711258 0.26113787 0.11382655 -0.085611455 0.087321915
-0.026101636 0.07193104 0.18422997 -0.18505579 -0.10995689 0.04749278 -0.13260601 0.27956152
-0.0687155 -0.22144878 -0.017553234 0.19745913 -0.014794469 0.07309281 -0.14192045 0.0024742016
0.13450877 0.31171656 0.04946141 -0.00808356 0.06912536 -0.18161023 -0.17017907 -0.15678081
0.12557876 -0.14330779 0.11154489 0.1248009 -0.09280298 -0.011875055 -0.12296065 -0.07619287
-0.18026784 -0.055835295 0.03960276 -0.05357956 -0.086510226 -0.23853038 -0.05100126 -0.15396234
-0.037591565 0.0046062875 0.034971565 -0.16974428 -0.06835385 -0.37480208 0.025339494 -0.15561728
0.248193 -0.18950705 0.0058239843 -0.060173772 0.1319001 -0.038740303 -0.19824956 -0.1716035
-0.26206148 0.06216301 -0.04314159 -0.116780296 0.0753285 -0.05443693 -0.20187512 -0.14192414
-0.001638417 -0.20158495 -0.25284812 0.013653247 -0.13715616 -0.22866674 -0.1311565 -0.18873537
0.005679357 0.039590236 -0.001825745 0.09599543 -0.09065957 -0.080343105 0.06873894 -0.08324879
0.067095995 -0.29752892 0.004814247 -0.05155012 0.066785686 -0.22354965 -0.007396505 0.036073428
0.047403444 0.024649512 0.03131811 -0.0019933735 -0.10572842 0.0037159538 0.00094810326 0.012143371
0.03087438 0.08902126 0.11246656 -0.07715528 -0.121107444 0.025047077 -0.12500452 0.10433257
0.062361427 0.009024208 -0.022985103 -0.034052525 0.03319171 -0.16306251 0.1480229 -0.07381699
0.12815723 -0.09191226 -0.04180861 0.09763267 -0.23188977 0.14524557 -0.045066535 -0.013485288
0.06443422 0.030152509 -0.15592879 0.22371797 -0.04497152 0.10210549 -0.2672207 -0.06863949
0.07087454 0.04454099 -0.061167296 0.11123685 -0.069576204 -0.10421606 0.17417188 -0.080360256
-0.08691731 -0.22105369 0.14443794 -0.15262191 -0.18397173 0.17593955 0.101627186 -0.014791206
-0.060272656 0.19570418 -0.0793592 -0.14460975 0.11400326 -0.31805056 -0.13317044 -0.13467936
0.15420869 -0.045117985 0.15985538 0.10367592 0.08319953 -0.091213286 -0.131408 0.04320752
-0.03814864 0.02067555 -0.08490757 0.078045525 0.01666992 -0.116680875 0.07889058 -0.034592476
-0.04219785 0.010811961 0.037823953 0.16048412 0.1050258 0.0011327793 0.03022945 -0.11358674
0.061626963 0.17473836 -0.0935641 0.0021395383 0.014969967 0.010271382 0.0072723264 0.10829018
0.0106082205 0.20365316 0.18548574 0.14214571 -0.15180568 -0.13804929 -0.28533703 0.08035037
0.11359307 0.020702695 0.16776343 0.053145688 0.23366694 0.15132749 -0.03597345 0.0033425314
-0.0024904604 0.1525377 0.24905643 -0.06476484 -0.20290203 0.12794748 -0.073040806 0.010768504
0.19254209 -0.20736448 0.058477376 0.13088033 -0.16719057 -0.06634095 -0.18608053 0.10627814
-0.07288956 0.20259394 0.13384654 -0.09591681 0.016756862 -0.17657475 -0.3391304 -0.17780995
0.06304888 -0.21299347 0.12552793 0.074539766 -0.17093548 -0.056915063 -0.24176489 -0.1308911
-0.059001952 -0.021353865 -0.04679672 -0.14177068 0.031563684 -0.008931251 -0.0717763 0.16399463

conv3.lin_l.weight f4 [200, 100]
00000000: 10d9 9f3d b6ca e6bd 43da 87bc de97 50bc
00000010: a142 1a3e e0c9 2e3c 7e49 0f3d 81a6 963d
00000020: 7adf e9bc af90 fabd ed91 afbd 877c bc3d
00000030: 9d94 9ebd 3377 e1bd 6c56 03be 466b 563d
00000040: c4c8 f1bc 5065 84bc 036a 793c f25a 0bbe
00000050: c5df 063e c2f4 b73c 0823 3dbe 797a fc3c
00000060: 0b7e f83c 9e86 053c 3aa8 a73b 0e26 a9bb
00000070: 5d40 5cbd 6a44 cf3d 14bd a7bd 9239 fb3d
00000080: ec6f 6d3d 3be8 d13d 055f 72bd a2ce c8bd
00000090: f613 e83a 35b3 aabc 12d8 bdbd 1f5a 39bd
000000a0: 647c 253d 4ed9 24be d8b9 c4bd 6667 313d
000000b0: f037 273d c8f3 7abd a7e3 e2bd db5a 213e
000000c0: c265 e23c bcb8 54bc 8d56 713d 6e83 85bd
000000d0: 3470 4c3d c961 f63d ecb5 9abc 14a4 e2bb
000000e0: 8d44 fa3d 1246 0d3d acd9 e63d b9d5 403c
000000f0: a917 483e 33d9 92bb d06a df3d ecf7 8dbd
00000100: 1d51 d4bc 5294 fcbd 9bf7 383d c448 4b3e
00000110: f909 c63d 6518 563d 0b01 043d fcf6 0f3d
00000120: d8d5 20bd 3254 f63d 4ef6 ee3d f029 c73a
00000130: f880 12be c9eb 59be f7ed b8bd 6df9 143d
00000140: 476f 7b3e 42f7 393e 263f d53c ead8 663d
00000150: 3374 fe3d 8ed8 7b3d dec6 04be eca7 e23d
00000160: b03b 11be 71cc fc3c 64eb e23d 4b38 d23d
00000170: 04a6 4abe 3787 1239 4989 0f3e 06b2 41bc
00000180: 367a 0dbe f8b8 54ba 82bd 1f3e c53f dd3d
00000190: 3fdb 0cbd 6cfb 9abd 41c8 473d 595e aabd
000001a0: 0dba 12bd 643d 1abe f017 4abc 83f4 1bbe
000001b0: dc76 823d 44b5 4bbd a117 7d3d 91b8 54bc
000001c0: 3538 a2bc 001f c1bd 8f7c 823d fec3 b6bd
000001d0: 8990 313d a3b1 693d 2a93 803d 6727 c3bd
000001e0: 5e8e e93c 4b53 9bbd c9c3 40bd 4731 8f3d
000001f0: 9a6c 9e3d 0a20 9abd 7c79 19be 9b06 f83a
00000200: 40a1 29be e688 723d 621c 923c 95e7 083e
00000210: eed3 493d b340 ae3d e8f5 84bd d216 f1bd
00000220: 9ade d53d 650b 403e 716e cb3d 2008 f2bd
00000230: 1922 1b3e b8cf aebd 38de 9a3c a500 f2bb
00000240: 3218 f8bd 9631 953d 4cf1 103d 0ac0 753e
00000250: 904e 19be 75b0 573d f8ea 9c3c c6dd 81bd
00000260: 2e85 afbc 2257 cd3d 9239 693e f19f 42bd
00000270: 9c9d 0ebd 8e0f a7bd e5f3 773c 7006 db3d
00000280: 187e 3cbc f252 6bbd a1fe c4bd 7059 e6bd
00000290: 3d12 ce3d db45 ebbd 8ac8 e93d 027b 30be
000002a0: 8a58 c0bd 8970 cf3c 8e14 0a3e da67 7abd
000002b0: 991b 2ebe ca84 34bc 14bb db3c 67b1 05bc
000002c0: 1280 d83d 9b9d 8e3d 80f1 e1bd 4b51 803d
000002d0: 9f6b ae3c 1b39 8cbd 0732 9fbd 30ee 3e3d
000002e0: b58b 0c3d 4915 2ebd 70b9 173d cb79 a93c
000002f0: 3a58 a73b b85c 2c3d 7e69 713d 35c7 b63d
00000300: 2f13 983d f783 d63b ce49 163d 053c 723d
00000310: 678d adbc d9fa 6e3d 07d6 633d 0ea6 dcbd
00000320: 036d b4bd dc8b 3f3d 3d40 3a3e 4e8f eebd
00000330: 70ed aabb 9734 48bd 164e dd3d d117 133c
00000340: ba1d 313e e50f 863d 9849 e83c 0a4b 84bd
00000350: c61b 2cbd e1aa c7bc 9be8 0ebd bda0 003e
00000360: 80c3 bb3b 4705 ac3c 64c8 a23c 5bcb 40be
00000370: 75d2 afbb 3bc9 de3c e9db fbbd 5630 34bd
00000380: 76bf a6bd 01fc e5bd 661a 27be 0e42 823c
00000390: df2b 7ebd 1706 c53d 57cf 19bd b451 ab3d
000003a0: 92b5 86bd 235d fa3d a87e 91bd eac9 0fbe
000003b0: 07cb ccbc 407a f53d 1a3a 883d c3cc 94bc
000003c0: f9f2 b03d 6bf8 0d3e 5969 37bb 0bf4 55be
000003d0: b3ef 7c3c ece3 f73b fa6f bcbd 0aa2 b9bc
000003e0: 9ae0 0f3b bef5 bdbc 0b4e 8f3c b781 61bd
000003f0: 0a38 95bd 7674 7abd 1c42 b23d b658 053c
0.07805073 -0.11269133 -0.016583567 -0.01273152 0.1506448 0.010668248 0.034982197 0.07355977
-0.028548945 -0.122346275 -0.08572755 0.09203439 -0.077431895 -0.110090636 -0.12825936 0.052348398
-0.029514678 -0.01616159 0.015223029 -0.13608912 0.13171299 0.022455577 -0.18470395 0.030820118
0.03033354 0.008149771 0.0051164897 -0.005162007 -0.05377232 0.10120471 -0.08190361 0.1226684
0.057968065 0.102493726 -0.05917265 -0.09805037 0.0017706144 -0.020837406 -0.09269728 -0.04525196
0.04040183 -0.1609852 -0.096057594 0.0433115 0.04082483 -0.061267644 -0.110785775 0.15757315
0.027636413 -0.012983497 0.058920432 -0.06519209 0.049911693 0.1203037 -0.018885575 -0.0069165323
0.12220106 0.034490652 0.11271986 0.011769705 0.19540276 -0.0044814586 0.10909045 -0.06932053
-0.025917584 -0.12332977 0.04515801 0.19851977 0.09669871 0.05226936 0.032227557 0.035147652
-0.039266437 0.12027778 0.11668073 0.0015194993 -0.1430701 -0.21281351 -0.09029763 0.036370683
0.24554168 0.18160728 0.026031088 0.05635921 0.12424507 0.06148582 -0.12966487 0.11067185
-0.14182925 0.030859204 0.110800534 0.10264643 -0.19789892 0.00013974016 0.14017214 -0.011822229
-0.13816151 -0.00081147207 0.15599635 0.10803179 -0.034388777 -0.07567486 0.04877496 -0.08318777
-0.035821963 -0.15062481 -0.012334809 -0.15229993 0.06370327 -0.049733415 0.061790112 -0.012983457
-0.019802192 -0.09429741 0.06371414 -0.08924101 0.04335073 0.057054173 0.06278069 -0.09529
0.028510269 -0.07584246 -0.047061715 0.06991821 0.07735558 -0.07525642 -0.14987749 0.0018922867
-0.16565418 0.059212588 0.0178358 0.13369592 0.049274378 0.08508434 -0.064922154 -0.11771931
0.104428485 0.18754347 0.099331744 -0.11817956 0.15149726 -0.08535713 0.01890479 -0.0073853307
-0.1211399 0.072848484 0.03538637 0.23999038 -0.14971375 0.052658517 0.01915501 -0.06341128
-0.02142581 0.10026385 0.22775868 -0.047515813 -0.034818277 -0.08157264 0.015133833 0.10694587
-0.0115046725 -0.05745215 -0.09618879 -0.112475276 0.100620724 -0.11487933 0.11415203 -0.17234424
-0.093918875 0.025322216 0.13484403 -0.061134197 -0.17002715 -0.0110179875 0.026822604 -0.008159972
0.105713025 0.069636546 -0.110323906 0.062655054 0.021291552 -0.068468295 -0.07773214 0.046613872
0.034312923 -0.042500768 0.03704208 0.020687958 0.005106953 0.04208061 0.058938496 0.089247145
0.07425534 0.006546493 0.03669148 0.05913927 -0.02118559 0.058344696 0.055624034 -0.1077386
-0.08809855 0.04676424 0.18188567 -0.11648427 -0.005216293 -0.04887828 0.10805909 0.008977846
0.17296496 0.065460004 0.028355405 -0.06459625 -0.042018674 -0.024373474 -0.0348898 0.12561317
0.0057300925 0.02099861 0.019870944 -0.18827574 -0.0053656646 0.027195564 -0.12297804 -0.04399141
-0.08141987 -0.112297066 -0.16318664 0.015900638 -0.062053557 0.09620302 -0.03755125 0.08365193
-0.065776005 0.12224796 -0.07104236 -0.14041868 -0.024999155 0.11986208 0.06651707 -0.018164044
0.08640093 0.13864295 -0.0027986376 -0.20893876 0.015438008 0.007565012 -0.09201045 -0.022660274
0.0021953941 -0.023188468 0.017493268 -0.055055346 -0.07286079 -0.061146222 0.087040156 0.008138826

conv3.lin_l.bias f4 [200]
00000000: e22f c9bb e354 e5bc 413e febd 7a2d eb3b
00000010: 5e36 d03d 40f9 c0bd 3dab 97bc a8a3 ee3c
00000020: b80b 81bd 768d c9bd 55c4 d3bd 9195 20be
00000030: 03a6 0bbe 7ba5 9dbd a1c1 e2ba bf4a 8f3c
00000040: 686d a1bd 19bf 8d3d 4264 fcbd c718 36be
00000050: a7f5 023d 958b a03b 10ee 4fbd b07d 86bd
00000060: 76ed 3fbe 5466 d7bd 7ce7 15be 5e5c b9bc
00000070: 0ffc dfbd b62e 71bd 6c23 f0bc 0473 58bd
00000080: 53de 1a3d 2024 e3bd 77d6 d63d d40e ee3d
00000090: aa3b b93d d3ec 8dbd cd9c a33c 1855 373d
000000a0: f9e3 35be af10 32be 7fc9 f7bd 463e 54bd
000000b0: 2827 463b b637 503c e4cb 06bd 64fc 04be
000000c0: 70f2 193e c6dd 60bd 02be 2e3c 2e5d 39bc
000000d0: 4058 0abe 21bc 14bd badd e4bd b912 183c
000000e0: fa89 67bd c3dd 9e3d de67 80bd 3698 8fbd
000000f0: defc 70bc 4d38 f9bd 9523 a13d 845c fcbd
00000100: 7c09 1b3d 528f e5bc a36c 05be 423e aa3d
00000110: d7b5 31ba b850 a3bd 0dfd 5cbb 8d42 3b3d
00000120: 51da 16be 6d59 eb3c 31fc ccbd 08e0 1bbe
00000130: 9a70 543b 8360 783c b851 92bd 314d 79be
00000140: 790a 15be e7ee 4bbb 6a4e 50bc 8b7d fb39
00000150: 50de fabd 0067 86bd 4b12 0ebe 2454 bbbd
00000160: ac84 87bd 37a6 0cbd 0502 debd f99c 90bd
00000170: acb8 3f3d 7c49 0abe 1229 9a3d 9604 943d
00000180: b3a6 983b e269 13be 95f3 4dbe d7da d2bb
00000190: 0b52 9fbd 7422 0ebe a816 40bb 7cd6 0bbc
000001a0: 1f7f 7cbd 4f9f 13bd 7153 18be ab7b fe3c
000001b0: 4432 e4bd caa8 b0bd 9524 1e3d 84ee 18be
000001c0: f214 aa3c 645e 2d3d 7c05 9bbc 1264 3dbd
000001d0: f1fe 21be 8b5f 06be f8c9 c2bd 4713 a93c
000001e0: 891b d3bd 9f4e e7bd 8caf 2cbe f98d 1b3d
000001f0: b7c4 313c bb08 31be 741f 10bd 386f 79be
00000200: f856 103d 26d5 39be 0b43 49bd 9557 8bbd
00000210: 4c79 cd3c 8a07 24bd 39a5 e1bd 245c 943d
00000220: 092e 283a 462c 8bbd 8fc9 a3bd 0032 283d
00000230: 950e 49be 01f7 493e e2e6 b4bd fa83 18bd
00000240: 283c 27be 9903 283d 4d91 cabd 3fe9 17bd
00000250: 12e6 92bd b1a3 8a3c 2394 073c 9c61 28be
00000260: 0341 a0bd fa23 20bc d87d a0ba cacf 5b3d
00000270: 4faa 02be 0dfd c9bd 6dcf 383d 0221 25bd
00000280: 3231 0dbe e65e 64bd 8eaa cabd 8665 cebc
00000290: aedc d7bd 6ba4 9bbd 5be5 4ebd b550 713d
000002a0: 0c30 adbc 48de 873d 5fd1 123d e3b1 63be
000002b0: 14a3 b43d fc8f 50bd 82db b5bd 4416 4abe
000002c0: 835d 35bd a165 bdbd 50d5 11bd f5eb 2e3d
000002d0: 2b6b 40be 4529 14be 17cd 84bd 56f1 00bd
000002e0: 86a8 4fba 5ea3 d2bd 3013 80bd e639 a9bd
000002f0: a9a0 24bd f9b9 a83c eb44 643c e912 38bd
00000300: b834 853d 18d0 a93d 062f cfbd dcb4 ad3a
00000310: 2ddd a83c 67c1 f0bd 947e a23c 16cd 01bd
-0.0061397413 -0.027994579 -0.12414218 0.007177052 0.1016662 -0.09422541 -0.01851427 0.029130772
-0.06301063 -0.09841435 -0.10340182 -0.15682055 -0.13637547 -0.076975785 -0.0017300138 0.017491696
-0.07882196 0.069212146 -0.1232381 -0.1778289 0.031972554 0.004899452 -0.050764143 -0.06566942
-0.18742928 -0.105175644 -0.14639086 -0.022627052 -0.10936748 -0.058882438 -0.029313765 -0.052844062
0.03780968 -0.11090875 0.10490125 0.11623922 0.09044583 -0.06929936 0.01997223 0.044758886
-0.17762746 -0.17389177 -0.12098979 -0.0518172 0.0030235741 0.012708595 -0.03290929 -0.12986904
0.15033889 -0.054899 0.010665419 -0.01131372 -0.13510227 -0.036312226 -0.111751035 0.009281808
-0.05652807 0.077571414 -0.06269811 -0.07011454 -0.014708726 -0.12168942 0.07868115 -0.123223335
0.037850842 -0.028022442 -0.13029723 0.08312656 -0.00067791104 -0.0797438 -0.0033720166 0.045717765
-0.14731719 0.028729165 -0.10009039 -0.1522218 0.0032415749 0.015159729 -0.07144493 -0.24345852
-0.14554776 -0.0031117739 -0.012714008 0.00047967987 -0.12249434 -0.065626144 -0.13874166 -0.09146908
-0.06617102 -0.034338202 -0.10840229 -0.0706119 0.046806976 -0.13504595 0.07527365 0.07227437
0.004658544 -0.1439586 -0.2011245 -0.006434779 -0.0777932 -0.1388033 -0.002931038 -0.008535024
-0.06164467 -0.0360406 -0.1487558 0.031064829 -0.111424 -0.08625944 0.038609106 -0.14934736
0.02076194 0.042326346 -0.018923514 -0.046238013 -0.15819909 -0.13122384 -0.09511179 0.020639075
-0.10307986 -0.11294293 -0.16863841 0.037977193 0.010850123 -0.17288487 -0.035186246 -0.24358833
0.03523919 -0.18147716 -0.049136203 -0.06803814 0.025082253 -0.040046252 -0.11017842 0.07244137
0.0006415551 -0.06795554 -0.079974286 0.04106331 -0.19634469 0.19723131 -0.088331 -0.037235238
-0.16331542 0.041019056 -0.09890995 -0.037087675 -0.07172789 0.016923757 0.008275065 -0.16443485
-0.078249 -0.0097742025 -0.0012244536 0.05366496 -0.1276028 -0.09862719 0.04511969 -0.04031468
-0.13788298 -0.055754565 -0.09895812 -0.025194895 -0.10540138 -0.075997196 -0.0505117 0.05891486
-0.021141075 0.06634194 0.035844203 -0.22235827 0.08820167 -0.050918564 -0.088797584 -0.19735056
-0.044278633 -0.092479 -0.03560382 0.042705495 -0.18790881 -0.14468868 -0.0648443 -0.031480156
-0.0007921535 -0.10285066 -0.0625366 -0.082629964 -0.04019228 0.020596491 0.013932447 -0.04493991
0.06504196 0.08291644 -0.10116391 0.0013252753 0.020613277 -0.117556386 0.019835748 -0.031689726

conv3.lin_r.weight f4 [200, 100]
00000000: 9748 f4bd 20a4 bc3d e9b5 79bd d729 3cbe
00000010: eb1b c0bd fb96 a4bd 21db a63d 8038 15bd
00000020: a4a4 1d3d a497 3abc 1fcd afbd 815b 33be
00000030: 01ec d63c 7dc0 63bd 2e94 55be a761 d03d
00000040: 341f 24bd 5853 34be e2e8 fb3c 20d4 b8bd
00000050: e775 6fbd 868a 56bc 0fda bc3d 1992 25bd
00000060: 6088 98bd bee0 983d 28f4 243e 74b1 4e3d
00000070: 6137 523d 0679 883e c149 b63d d5cb 193e
00000080: 72f4 1abd 8a34 d6bc 21a0 65bc bfa3 053c
00000090: 8365 fd3d 27df 5abe ebcc 223d a2e4 60be
000000a0: 8d33 61bd 7607 2b3d 16c9 f93d f995 393b
000000b0: afea 80bd 7fec c43d e79b 183e fd9a aebc
000000c0: 7622 fd3d 00f6 0abe bf8f a3bd e942 c1bd
000000d0: ffa5 1abe 47f4 41be 2f3d e8bd 3b6c 253e
000000e0: 3191 9f3e e5de 9e3c 2277 e4bd 4633 e33d
000000f0: 77af f43d d7f1 3bbd c3fa 4b3d 3c04 993d
00000100: ef3f 35be 6514 a1bd f33e 993d dd16 2bbe
00000110: f659 cb3c 7771 543a 0045 653c 6518 c5bd
00000120: 4919 25bb aebd 75bd dac2 4abe d5e9 733d
00000130: 6983 62bd eb09 7d3c 78c1 b83d f287 803d
00000140: bf02 1cbe 0b8b 343e 6023 e9bc e0dc d63d
00000150: 89d6 34be 3703 6cbe fb41 fcbd 928f 5fbe
00000160: 981c 8c3d c352 bcbd afae 11be f752 163e
00000170: 2662 43bd bb8e 8fbd 392b 86bd d97f 98bd
00000180: edcf b6bc 59d5 643d 33ac 04bd 9bdf e23c
00000190: f19b db3d 5c65 d5bd 247e 13be bce5 6ebd
000001a0: c6e0 ef3d 7d41 aebd 1ee3 aebd 552a e5bc
000001b0: d399 c3bb 8430 54bd c7ad 3ebd 9d52 8a3d
000001c0: 673f 983d 7209 6bbd bbaf ab3d 3459 8d3d
000001d0: 76b2 16be 9d04 773d 2c62 403d a2f8 ebbc
000001e0: 629c c63d 5c10 cdbc cf58 f13c eb61 d63d
000001f0: 274d 583d 5088 6ebd 7fa5 493d 8cce 54bd
00000200: 8977 e0bd a795 c93d e528 f8bd 225d 283d
00000210: cea9 b63d 1d06 0c3e 7060 0bbd f3cc 11be
00000220: 309f b9bd 925d f53d b404 28bd 1535 3ebd
00000230: 0e85 ecbd 963b 663b f6c6 2cbd 5ff7 79bd
00000240: 0599 a3bb 714c cd3d 0b27 5ebd b292 843c
00000250: 093a babd 56dc 26bd 6095 813c 4924 ff3d
00000260: 7ed1 a43d 5f0c b53c 4c53 253e 4e7e 1a3d
00000270: 4825 d63d e529 e03d 54d5 53be 3ff3 b83c
00000280: 908b 66bd 6bd8 e7bd 9286 2fbd 0e46 f9bc
00000290: a3a7 863d edd4 8cbd 0b5d 37bc 5a88 afbd
000002a0: 22e7 8e3d e5b9 b0bd a12e 0b3e 3b1d 7439
000002b0: 80de f8bd bb85 463d a717 f53d 1aaf c7bd
000002c0: dec0 e53d 587d 523d cd0b 1bbe c716 d0bb
000002d0: d1a2 4d3e aa00 aabd d033 71be 00f3 cd3c
000002e0: c1a7 cc3d 174e 5f3c 2371 4c3d 7286 9d3d
000002f0: 00ea 6ebd 2a80 75bc bc99 08bb 013f a5bc
00000300: 73ce 47bc 3c17 09bd 2282 463d 3e36 39be
00000310: e0a7 06be 3790 d83d 75e7 093e ca29 253c
00000320: c7da 943d ff03 35be 382b de3b 77bf 623d
00000330: fcc0 c13d ef13 05be bdf6 e43c a0a0 393c
00000340: 6b02 01be 79a5 6cbd d2f8 89bb 7ccc 0e3e
00000350: c78f 15bd b85b eebd cb70 ec3d ed6d 183d
00000360: cb3f a4bd bb68 573e 186f b8bd 4685 45bd
00000370: b4bf f73d 699e b3bd e90c c73c 6665 723d
00000380: 778f 213d 95f9 c0bd f753 debd f178 23bc
00000390: 2f27 4fbc db8c 8cbd e7a1 6cbc a973 bb3c
000003a0: 6d90 ee3d cdb7 293e bc86 ea3d 2e8f 45be
000003b0: d049 73bb 7cf4 233e 9d77 b4bd 4015 41be
000003c0: a5f2 42be fc12 ecbd c773 edbd b865 63bd
000003d0: 5e14 a53d 5a23 23bc 6b75 b9bd cb69 dc3d
000003e0: 648a 66bd 679b 1a3d 4c93 cbbc d311 973d
000003f0: 5ba1 3e3e 0529 303d 3432 fb3d 5554 7a3c
-0.11927908 0.09210992 -0.0609645 -0.18375336 -0.09380325 -0.0803661 0.08147264 -0.036430836
0.03848709 -0.011388693 -0.085840456 -0.17515375 0.026235582 -0.055603493 -0.20857307 0.10174876
-0.04006882 -0.17609918 0.030750696 -0.09024835 -0.05846205 -0.01309455 0.09221279 -0.040422533
-0.074478865 0.07464741 0.16108763 0.0504622 0.051322345 0.26654834 0.08900786 0.15019162
-0.037830777 -0.0261481 -0.0140152285 0.008156716 0.123728774 -0.21374188 0.039746206 -0.21962216
-0.054980803 0.041755162 0.12196557 0.002831815 -0.06294762 0.096154206 0.14903222 -0.021314139
0.123600885 -0.13570404 -0.07986402 -0.0943659 -0.15102385 -0.1894084 -0.11339795 0.16154568
0.3116546 0.019393394 -0.11155535 0.11093764 0.1194753 -0.045884933 0.049799692 0.07471511
-0.1770017 -0.07865218 0.0748271 -0.1670794 0.02482317 0.0008104066 0.013993502 -0.096237935
-0.0025192073 -0.059995346 -0.19800892 0.05954917 -0.055301104 0.015444259 0.09021276 0.062759295
-0.15235423 0.17631166 -0.02845925 0.10491347 -0.17659964 -0.23048101 -0.12317272 -0.21832111
0.06841391 -0.09195473 -0.14226793 0.14680086 -0.047701024 -0.070096456 -0.06551213 -0.0744626
-0.022315944 0.055867527 -0.032390784 0.027694514 0.10723103 -0.104197234 -0.14403588 -0.05832456
0.11712794 -0.08508585 -0.08539413 -0.027974287 -0.005969265 -0.05180408 -0.046552446 0.067540385
0.07433968 -0.057382055 0.08383127 0.0690178 -0.14716515 0.060307134 0.046968624 -0.02880508
0.096977964 -0.025032215 0.029461293 0.10467895 0.052807953 -0.058235466 0.049230095 -0.05195479
-0.109602995 0.09842997 -0.12117175 0.041104443 0.089191064 0.13674207 -0.034027517 -0.14238338
-0.09063566 0.11980738 -0.04102011 -0.04643734 -0.11548816 0.003513073 -0.04218193 -0.061026927
-0.0049926066 0.10024346 -0.054236453 0.016183231 -0.090931006 -0.040737472 0.015818298 0.12458093
0.0804777 0.022100626 0.16145056 0.03771811 0.104563296 0.10945491 -0.20686847 0.022576926
-0.05628544 -0.11320575 -0.042852946 -0.030428912 0.06574943 -0.0687655 -0.011191617 -0.08570929
0.06977679 -0.086292066 0.13592006 0.00023280543 -0.121518135 0.04846738 0.11967402 -0.09750195
0.11218427 0.05138907 -0.1514122 -0.0063503715 0.20081641 -0.08300908 -0.23554921 0.025140285
0.09992934 0.013629458 0.049912583 0.07691659 -0.05832863 -0.01498417 -0.0020843586 -0.020171644
-0.012195217 -0.033469424 0.048463948 -0.18087098 -0.13149977 0.10574382 0.134672 0.010080764
0.07268291 -0.17677306 0.0067800544 0.055358376 0.09460637 -0.12995885 0.027949685 0.0113298
-0.12598579 -0.057774995 -0.00421057 0.13945192 -0.03651407 -0.11638588 0.11544951 0.03721421
-0.0801998 0.21036045 -0.090055645 -0.048222803 0.12097111 -0.08770449 0.024298148 0.059178732
0.03944346 -0.09422604 -0.10855859 -0.009977565 -0.012643619 -0.068628035 -0.014442897 0.0228823
0.11648641 0.1657402 0.1145148 -0.192929 -0.0037122853 0.16011232 -0.08811877 -0.18855762
-0.19037874 -0.115270585 -0.115943484 -0.05551693 0.08060525 -0.009957159 -0.09055599 0.10762366
-0.056284323 0.03774586 -0.02485051 0.073764466 0.1861624 0.04300787 0.12265435 0.015278895
