backend/workspace/weight/r/CNN/best_model-50d.pth (torch, 400391 bytes, 10 tensors)

conv1.weight f4 [64, 1, 3, 3]
000000 03 0b a5 3d b4 4a 3e bd 6b 24 11 3e 4c b5 b2 3a
       0.08058741 -0.04645796 0.14174049 0.0013634353
000010 f2 a8 4b bd fe 29 96 3d 99 6e 39 be e8 ea 5c bd
       -0.049721666 0.07332228 -0.18108596 -0.05393496
000020 b1 ce a4 3d 96 59 3e be 6c 88 9a be c6 64 86 3e
       0.08047236 -0.18588862 -0.30182207 0.2624876
000030 49 39 4b 3e c4 aa ce 3d 2c 13 08 bd 94 60 61 3b
       0.19846071 0.10091165 -0.03322141 0.003438984
000040 9d 31 6b be 35 06 4c 3e 11 ea e2 be 84 b6 5c 3e
       -0.22968145 0.19924243 -0.44319203 0.21553999
000050 69 0e f2 be 13 7e fc 3d c0 f5 81 be bf 2d 01 3e
       -0.4727662 0.12328734 -0.25382805 0.12615107
000060 42 95 b5 be 2b af 7f be f5 c2 c5 3e d6 5c 1a be
       -0.35465437 -0.24969165 0.38625303 -0.15074477
000070 85 99 3c 3e 9f ae 0f bf 21 48 14 3e fa e8 f5 3c
       0.18417938 -0.56125826 0.1448064 0.030018318
000080 7d b0 df be 29 e3 74 be c2 ab bb bd 42 2a 06 3f
       -0.43689337 -0.2391478 -0.091636196 0.5240823
000090 e7 b2 8d 3e 06 17 a7 be 14 0e f9 3d 76 da 14 3f
       0.27675554 -0.32634753 0.12160888 0.58145845
0000a0 76 19 a6 bd 46 bd b0 3e 86 89 3b bf 21 4f 45 3d
       -0.08110325 0.34519404 -0.7325672 0.048171166
0000b0 67 e9 67 be 84 ab 55 be f7 6b a7 3c e2 9e a1 3e
       -0.2264763 -0.2086621 0.020437224 0.3156653
0000c0 3f dc b1 3d 76 65 2f 3e d2 d9 c1 bc 08 5d c2 3d
       0.08684587 0.17128548 -0.023663435 0.094904006
0000d0 58 ec 11 be b7 79 a7 be f4 3e c8 be ba 04 3e be
       -0.14250314 -0.3271005 -0.3911053 -0.1855649
0000e0 d8 fb 33 3e 61 85 fb 3e a5 46 05 be 97 0a 0d 3f
       0.1757654 0.49125198 -0.1301523 0.55094284
0000f0 0d ef c1 bb 4c 82 b2 be 14 9a 87 be a9 5e 30 be
       -0.0059183897 -0.34865034 -0.2648474 -0.1722361
000100 f2 64 0a bf 20 09 8e bd 0e fe 18 bf e0 d6 eb 3e
       -0.5406028 -0.06935334 -0.59762657 0.46062374
000110 40 b4 83 bf 25 a9 56 3c fc 1a 28 3e 40 e6 34 bf
       -1.0289383 0.013101851 0.16416544 -0.70663834
000120 b6 c4 9f bd bc e2 0f bf 79 87 a7 bf 37 b4 0e bf
       -0.078011915 -0.56205344 -1.3088218 -0.55743736
000130 9a e3 87 be 8d f0 f6 be 52 27 00 be 4e 88 00 3f
       -0.26540834 -0.482304 -0.12515 0.50207984
000140 7c 8a 1b 3f b2 fa b7 bc b6 90 6a be 82 f2 0d 3e
       0.60758185 -0.022458408 -0.22906765 0.1386204
000150 6b 8e 32 3e 39 20 17 be a3 c9 9e 3e 65 e4 2a 3d
       0.1743714 -0.14758386 0.31013212 0.04172172
000160 25 f8 63 bc b6 37 46 be 78 b9 6c 3e 50 25 92 3e
       -0.013914143 -0.1935719 0.23117626 0.28544092
000170 f0 92 81 3d d1 37 a9 bf 2f d1 94 3e e8 04 0d bf
       0.06326854 -1.3220159 0.29065844 -0.5508561
000180 5b 5e c1 3e 1a 67 dc be a8 b9 e1 bd e9 3d 0b 3e
       0.377673 -0.4304741 -0.11021739 0.13597836
000190 7a 5a 1e 3c f4 7c 87 be 91 2b fa be 0d 21 4b 3e
       0.009665126 -0.2646252 -0.48861364 0.19836827
0001a0 3e b1 2d bf a1 d4 ac 3e 47 76 51 bf 95 f5 df 3e
       -0.67848575 0.33755973 -0.818211 0.43742052
0001b0 96 ef 92 3e aa a7 e3 3d 0d 71 e1 3e 8a ff 15 bf
       0.28698415 0.11115964 0.44031563 -0.58593047
0001c0 90 34 a3 be 13 35 c0 be 9b 64 24 3d 09 6b ce 3d
       -0.3187604 -0.37540492 0.040135007 0.10079009
0001d0 95 21 97 3d 10 5b d6 3d b5 18 05 be 24 14 07 3e
       0.07379452 0.104665875 -0.12997706 0.13191277
0001e0 ad 01 20 3e 9b 6f b0 bb cd 09 d0 3e d5 1e a4 3d
       0.1562564 -0.005384398 0.40632477 0.08013693
0001f0 09 f6 6f 3e 23 2c 80 3d 66 c2 25 bf 64 26 ed 3e
       0.23433699 0.062584184 -0.64749753 0.46318352
000200 e8 2d 2a bf ef 40 ae 3e af 2d a6 be 42 e1 7b 3e
       -0.664763 0.34033915 -0.3245673 0.24597648
000210 a2 4a 45 3e 2a b2 a0 be d4 d0 35 3e 7d 70 e8 be
       0.19266751 -0.31385928 0.17755443 -0.45398322
000220 62 43 9a be c3 ce 2e 3e 3f 7a 0f bf f1 f6 a8 3e
       -0.30129534 0.17071061 -0.5604591 0.330009
000230 31 86 ce be 5c f4 77 3d bb 94 09 3e 1c cf bb 3e
       -0.40336755 0.060535774 0.13435642 0.3668145
000240 0f c9 0c 3e 4c b8 89 3e 28 1b 46 be 39 3e 88 be
       0.13748573 0.2689842 -0.19346297 -0.26609972
000250 4c 57 14 bf 92 72 a2 3e 33 15 2b be 36 84 e1 3c
       -0.57945704 0.31728035 -0.16707306 0.027528863
000260 70 10 be 3d 14 96 bf bd a4 48 f6 3e ec fc 25 3f
       0.09280479 -0.09354797 0.48102295 0.64839053
000270 4e b3 56 be d7 9c 5d bf d3 f0 8e bf 94 ca ed be
       -0.20966837 -0.86567444 -1.1167244 -0.46443617
000280 f4 40 7c bf be b7 89 bf 56 29 a1 3d 6f 7c 41 be
       -0.9853661 -1.0759199 0.07869212 -0.18895124
000290 bf d5 1a be e3 f9 92 3e d4 da 1c bf 06 bd 03 3e
       -0.151206 0.28706273 -0.61271405 0.12865075
0002a0 c6 ed eb be 7e f4 16 3e c8 9b 70 3d 96 f8 f0 3d
       -0.46079844 0.14741704 0.058742315 0.11766164
0002b0 f8 c9 24 3e a9 e6 ee bd 42 87 a6 be a8 bb 8e be
       0.1609267 -0.11665089 -0.3252507 -0.27877545
0002c0 60 65 52 3e be c3 98 3e ca 76 1d be 9b 43 12 3e
       0.20546484 0.2983684 -0.15377346 0.14283602
0002d0 6b dc 41 3e 15 3d 14 be 0e d0 91 3d e0 93 49 3c
       0.18931739 -0.14476426 0.071197614 0.012303323
0002e0 02 f5 9e 3a b6 fd ae bd c3 53 19 be 5c 34 d0 3b
       0.0012127461 -0.08544485 -0.14973359 0.006353898
0002f0 ca c1 c0 bc 67 30 f4 3c 77 0b 70 be c2 b9 6b 3d
       -0.023529906 0.029808236 -0.23441873 0.0575502
000300 c9 dc 78 3e 2a 2a a5 3e f7 63 e5 bd 1e 50 06 be
       0.24302973 0.3225873 -0.112007074 -0.131165
000310 b5 b3 99 3e a0 7e 05 3e 80 55 4c bd 8c f7 c4 be
       0.30019918 0.13036585 -0.049886227 -0.38470113
000320 f4 e1 1c 3e a5 7d a2 be 4c 57 76 3e b7 fa 9e be
       0.1532057 -0.31736484 0.24056739 -0.31050655
000330 c0 b7 95 3e f1 1f 93 bd 51 91 07 be 88 05 20 be
       0.29241753 -0.07183827 -0.13239028 -0.1562711
000340 dc 3c 1a 3e d1 41 13 be 1a 77 88 3d 2e 33 70 bd
       0.15062279 -0.14380576 0.06663342 -0.05864256
000350 b8 15 cc 3e 4c c6 fe 3d 62 b6 ad bd cd 76 85 be
       0.3986032 0.12440166 -0.084820524 -0.260672
000360 aa 19 37 bf 69 ec 89 bf d2 84 2e bd 54 cf b6 3e
       -0.71523535 -1.0775272 -0.042607136 0.35705054
000370 46 a4 1c bf 80 3b 1a bf 98 a6 93 bf 7b a8 56 bf
       -0.6118816 -0.6024704 -1.1535215 -0.8385083
000380 8f 84 9a bf b8 6f ee 3d 24 99 6a be 72 a9 28 bf
       -1.2071704 0.116424024 -0.22909981 -0.65883553
000390 b3 e1 b6 be 1b ab 6b 3e 1b 25 1b 3f 04 4d 89 3d
       -0.3571907 0.2301449 0.60603493 0.06704143
0003a0 c0 95 a3 be c1 22 38 be fc 9f 98 3c 6d 99 59 3e
       -0.31950188 -0.17982008 0.018630974 0.21249934
0003b0 68 09 e0 3e 1a 33 5e 3e 06 55 6d 3e 0a 42 3e 3f
       0.43757176 0.21699181 0.23176965 0.7431952
0003c0 eb 95 b1 bc 9c 01 05 bf 0c 36 60 3e 3f a0 85 3e
       -0.021677932 -0.5195558 0.21895617 0.2609882
0003d0 e5 bb 6e 3c 5f 93 ec be fc 93 68 be 4e 6c 9a be
       0.014571165 -0.46206185 -0.22712702 -0.30160755
0003e0 4d 58 82 be 00 9e 1f be dc 8b d5 be fd b6 f4 3e
       -0.25457993 -0.15587616 -0.41708267 0.4779586
0003f0 53 d7 c9 be fc 4a 0c be 44 6c 1c 3e f4 17 5b 3e
       -0.39422092 -0.1370048 0.15275675 0.21395856

conv1.bias f4 [64]
000000 aa f0 c5 be 5d 9a 04 bf 36 db 6c be b3 f3 ff be
       -0.38660175 -0.5179804 -0.23130497 -0.49990615
000010 54 84 2f bf 2f 41 9c be 88 6d 52 bf 0c 2a 61 bf
       -0.6856129 -0.3051848 -0.8219838 -0.87954783
000020 64 45 47 3e 72 a1 d1 be 89 89 0f bf ad 9a 3c bd
       0.19460064 -0.40943485 -0.56069237 -0.046045948
000030 bb a9 13 bf 1c a5 7c be 13 ee 01 bf 00 f4 a6 be
       -0.57680863 -0.24672359 -0.507539 -0.32608032
000040 e8 e7 5b be e5 b0 53 3e 1e 5d f8 be f5 16 15 bf
       -0.21475184 0.20672949 -0.48508543 -0.58238155
000050 6d 4b 5f be 4c 0f 8e be f3 95 07 bf 5c 6b ea be
       -0.21806116 -0.27746046 -0.5296318 -0.45785034
000060 e6 58 83 bf ac 34 05 bf fb 3b 41 bd 8f 34 fc bd
       -1.0261505 -0.52033496 -0.047176342 -0.12314712
000070 e2 24 5e bf 02 e3 8e be ea 4c a4 be 42 11 97 be
       -0.8677503 -0.27907568 -0.3208993 -0.29505354
000080 3d bc 96 be 98 54 a3 be 11 74 25 be ef 77 a6 be
       -0.2944049 -0.31900477 -0.16157557 -0.32513377
000090 35 fd a5 be 4e e6 31 bf 09 d0 1a be bf d3 ee be
       -0.32419744 -0.6949204 -0.15118422 -0.46645924
0000a0 6c 9e 33 bf b5 97 af be 25 09 91 be 57 db 2f bf
       -0.7016361 -0.3429543 -0.2832729 -0.6869406
0000b0 2d 6a 36 bf 68 5e d8 be 76 d6 46 be 91 2b f9 be
       -0.7125576 -0.42259526 -0.19417748 -0.4866605
0000c0 ee fb 9a be c0 32 bb be 5b a9 3b bd 2c 23 07 bf
       -0.30270332 -0.36562157 -0.045815807 -0.52788043
0000d0 b3 a1 2f 3e 32 4f 3b bf 4b bc fa bd 8b ad bc 3d
       0.17151527 -0.7316772 -0.12242945 0.09212788
0000e0 b7 5c 94 be 89 4c 52 bf 0b 54 74 3d be 01 25 bf
       -0.28976986 -0.82148033 0.059650462 -0.64455783
0000f0 3f ec 21 bf 04 4a 13 3e 11 df 1a be ca 67 fe be
       -0.6325111 0.14383703 -0.15124156 -0.4968856

conv2.weight f4 [128, 64, 3, 3]
000000 85 30 02 bc 3a 32 15 3c 0e 29 25 bd 07 fa 72 3c
       -0.007946138 0.009106213 -0.040322356 0.014830119
000010 aa 01 07 3b a1 1f 79 bc 43 21 f0 3c c8 25 07 bd
       0.0020600357 -0.015205295 0.029312735 -0.032995015
000020 eb b9 47 bd a4 7d 46 3c 44 e1 aa bb 05 51 c1 3c
       -0.04876129 0.012114916 -0.005214842 0.023598203
000030 f7 c5 e7 3c 6e 8c c4 3c 0b 01 0f bb cf 1e 71 3c
       0.02829264 0.023992743 -0.002182069 0.014716818
000040 fd e9 18 bd 7f 31 aa bc 0a 92 2a bd 0a f5 2e 3c
       -0.037332524 -0.020775555 -0.04164318 0.010678539
000050 f2 43 0e 3c 88 4e 7e 3c a8 b7 05 bc c2 3d a5 3c
       0.008683192 0.015521653 -0.008161463 0.02017105
000060 ed 3e 23 3c 7e 27 4d bd 17 34 19 bc e3 5c 32 bd
       0.009963733 -0.05008649 -0.009350798 -0.043545615
000070 43 3c 05 bc aa bf 11 bc f1 8f 17 bc 09 7d c0 3a
       -0.008132043 -0.008895794 -0.009250627 0.0014685701
000080 5e 67 c0 bb e0 da c8 bc 33 64 b7 bc 38 d6 bc 3c
       -0.0058716973 -0.02451843 -0.022386646 0.023051366
000090 12 5f 1b 3b 9d eb 8f bc af 8f d8 39 e6 54 98 bb
       0.002370779 -0.017568404 0.00041305783 -0.0046487926
0000a0 a0 53 8e bc c4 b8 b7 3a 78 94 96 3c 54 a5 c6 3c
       -0.01737386 0.0014016856 0.018381342 0.024248756
0000b0 c2 10 3a bd 1d 82 56 3a 49 41 d5 3b a2 d7 0f 3c
       -0.045426138 0.00081828405 0.0065080267 0.008779438
0000c0 37 80 4d bd a9 6a 8a 3c 7a 2f e5 ba d1 3b 3e bd
       -0.050171103 0.016896563 -0.0017485463 -0.046443764
0000d0 aa 60 87 bc c6 e7 d1 ba e1 f2 95 ba 81 12 4b 3c
       -0.016525585 -0.0016014508 -0.0011440181 0.012394548
0000e0 c4 0b 20 3b fc 9a 85 3c 71 2b 38 3c 58 b5 d8 3c
       0.0024421075 0.016309254 0.011240826 0.026453659
0000f0 51 a5 b8 3b 7c ad 50 bb 0d 00 a0 bc f6 55 b3 3c
       0.0056349416 -0.0031841686 -0.019531274 0.021891575
000100 17 18 fe 3a aa db 25 bc 49 ba 46 bb 1a 5d 52 bc
       0.0019385841 -0.010123173 -0.0030323437 -0.01283958
000110 b9 af db 3a 54 f7 7f bb 1c 6d 83 bc 32 61 a8 3c
       0.0016760743 -0.003905733 -0.016043238 0.020554159
000120 0d 4c 0f bd a4 99 12 bd 89 6b 82 3a 2e 73 df 3c
       -0.034984637 -0.035791054 0.0009950261 0.027276602
000130 26 34 bb bc 48 45 45 bd 4c 7a 20 bd bf 90 bd bb
       -0.022852015 -0.048161775 -0.03917913 -0.0057850773
000140 21 79 af bc ef bd f2 bc 0a 6d 0a bc 5c a8 d4 bb
       -0.021420063 -0.029631583 -0.0084488485 -0.0064897966
000150 71 4e 4e bd 45 a9 0c 3c 74 ba c7 bb 50 2a 30 bd
       -0.050367776 0.008585279 -0.006095225 -0.043009102
000160 66 3e 89 bc f3 33 1f 3c e8 2a 36 3a fb cb 30 bd
       -0.016753387 0.0097169755 0.00069491426 -0.04316328
000170 5c c9 5d bc d7 16 92 3c b8 bd fc bb ea fe 0f 3c
       -0.013536777 0.017833157 -0.007713046 0.008788804
000180 54 72 ca 3c d0 2c aa bb 6f e3 36 bd 5f ed f7 bc
       0.024712719 -0.0051933303 -0.04465049 -0.030264555
000190 a1 cf 36 bd 2b c0 4c bd 3b 8a e3 bc f6 0f d5 bc
       -0.044631604 -0.049987953 -0.027775874 -0.026008587
0001a0 3d bc e5 bc 1d 64 c1 3c c3 a2 c6 3b f5 5a b0 bc
       -0.02804386 0.023607308 0.006061883 -0.021527747
0001b0 44 76 bb 3c 22 08 3f bd 52 5d 4a bc c6 50 80 3c
       0.022883542 -0.046638615 -0.012351351 0.015663516
0001c0 d4 c2 4e bd b4 d9 f5 3c cf 4a 3f bd ab 95 bb bc
       -0.05047877 0.030011036 -0.046702202 -0.022898516
0001d0 ae 85 9b bc fa fa 30 bd d4 83 43 bd b2 79 a9 bc
       -0.018984642 -0.0432081 -0.047733143 -0.020687912
0001e0 07 0f c2 bc a1 5b ff bc b3 df f6 bc a7 55 40 bd
       -0.023688806 -0.031171622 -0.030135965 -0.046956684
0001f0 91 74 0b bd d6 2b 91 bc 75 2d f7 3c cf 79 93 3b
       -0.034046713 -0.017721098 0.030173043 0.0045006047
000200 33 34 1e bc d6 7e 17 bd 51 f2 d5 bc f7 c7 44 3c
       -0.009656 -0.036986195 -0.026116522 0.012010566
000210 a0 f3 23 bc 42 0d 1f bd d0 76 24 bc 83 8a d9 3c
       -0.010006815 -0.038831003 -0.010038093 0.026555305
000220 3b b3 2e 3c 25 b2 04 bc 7a 96 51 bd 2a ae ee bc
       0.010662849 -0.008099114 -0.051168896 -0.029135782
000230 bc 27 7b 3b 3b 95 1c 3a 19 d2 07 bd d7 6f e0 3c
       0.0038323244 0.0005973165 -0.03315935 0.02739708
000240 d1 aa 02 bd 68 ef d4 bc 78 77 fd 3c a7 77 56 bb
       -0.031901184 -0.025993064 0.030940756 -0.0032725127
000250 46 75 40 bd 7e cd 2b 3c bc 74 ae 39 2c 2d 88 3c
       -0.04698684 0.010486005 0.0003327484 0.016623102
000260 1b 2e 14 3c 8a 41 82 3c f0 e9 c3 bc 0a 99 fc 3c
       0.0090441955 0.015900392 -0.023915261 0.030834693
000270 d4 87 65 ba 3d e1 f2 3c f9 dc f6 bc 49 e6 e5 3c
       -0.00087558967 0.029648418 -0.030134665 0.02806391
000280 b4 83 43 3c 40 59 33 bd 27 d6 c5 3c 5f 39 47 3c
       0.011933256 -0.043786287 0.024149967 0.012159674
000290 0e d3 c4 3c cf 67 56 bc 15 2f 41 bd 4f b7 a6 3c
       0.02402642 -0.013086273 -0.04716404 0.02035108
0002a0 a2 3f a4 bc 0b 0c c7 3c 97 d5 4d bc 10 4b 3c bd
       -0.020049874 0.024297735 -0.012563131 -0.045970023
0002b0 e2 c1 ff 3c 77 64 0a bd d1 3c 0c 3b 95 44 bd bc
       0.03122038 -0.033787217 0.0021398554 -0.023103992
0002c0 bb e7 6a bc 2b 95 45 bd 82 03 53 bd ce 96 5d 3c
       -0.014337475 -0.04823796 -0.051517017 0.013524724
0002d0 71 c2 26 bd ea ab 7f bc fb 71 58 3c 19 71 8b bb
       -0.040712778 -0.015604952 0.013210769 -0.0042554257
0002e0 5f f4 c5 3c a6 49 ad 3a 3c 20 38 bd 72 22 d4 bc
       0.024164377 0.0013220801 -0.044952616 -0.025895331
0002f0 a7 3e 32 bd fb f8 4b bd 5c 47 9b ba f3 3a 9a 3c
       -0.04351678 -0.049797993 -0.0011846828 0.018826937
000300 2d 84 e4 bb 16 63 49 bd 8f 96 66 3b cf a8 35 3c
       -0.0069737644 -0.04916676 0.0035184955 0.01108761
000310 81 e2 32 bc a3 b5 32 bd c0 79 f8 3c 7f 58 e1 3c
       -0.010918261 -0.043630254 0.030331492 0.027508019
000320 b8 91 45 bd f2 bd d6 3b bc c9 d8 bc 8a 10 d8 bc
       -0.04823467 0.006553405 -0.026463382 -0.026375074
000330 f5 1e 73 bc 74 c0 b8 3c 09 45 36 bd 00 a6 9d bc
       -0.014838924 0.022552706 -0.04449943 -0.019244194
000340 e2 07 35 bc 9e 7b d2 bc f3 fd ed bc 55 a6 31 bc
       -0.011049243 -0.02569371 -0.029051756 -0.010842879
000350 b0 93 0e bc 6b 4f c0 3c 92 d1 76 bc c5 69 b6 bb
       -0.008702204 0.02347537 -0.015064614 -0.005566808
000360 30 25 4b bc 41 b6 b3 3c 42 4c 05 bd 69 27 46 bd
       -0.012399003 0.021937491 -0.03254343 -0.04837743
000370 6c 2d 3b bd 67 9a ba 3c 01 68 2c bd da 6a 06 bd
       -0.045697615 0.022778703 -0.042091373 -0.032816745
000380 10 43 d2 3c d7 38 47 bd 71 f8 af bb 37 81 2f 3c
       0.025666744 -0.04863819 -0.0053701927 0.01071196
000390 9b 71 a0 3c d1 cb e6 3c 63 dc 08 3c 2f dd 96 3b
       0.019585421 0.02817336 0.008353326 0.004604004
0003a0 54 06 88 3c b0 a2 e6 3c b5 86 1e 3c e4 18 43 bd
       0.01660458 0.028153747 0.009675671 -0.04763116
0003b0 30 0f d6 bc 65 e2 47 bd 81 b2 c5 bc f9 9c 2f bb
       -0.026130289 -0.04879989 -0.024132969 -0.0026796444
0003c0 63 6a e9 3c 2a ea 15 bc 89 98 f9 bc 3f 44 8e 3c
       0.028493112 -0.009150067 -0.030468242 0.017366527
0003d0 44 17 b2 3c c9 f1 03 bc e8 8c 54 bc 47 67 e3 bc
       0.02173961 -0.008053252 -0.012973048 -0.027759207
0003e0 cd 5d dc b9 df 7a 06 b9 65 eb 56 bc 4c 72 8b bc
       -0.00042031557 -0.00012825009 -0.013117646 -0.017022274
0003f0 bf 6f 14 bc 7b 79 00 3c 07 75 a1 3c ba 58 46 bd
       -0.0090598455 0.007841463 0.019709123 -0.04842446

conv2.bias f4 [128]
000000 5d 63 12 bd 09 ce 63 bb e0 5c 80 bd a9 aa 98 3c
       -0.03573929 -0.0034760258 -0.062677145 0.018636065
000010 3d 65 ec bc ca 15 40 3d db d6 73 3c c7 f6 65 bc
       -0.028856868 0.04689578 0.0148827685 -0.014035887
000020 c5 2f 91 bd 66 9e 3b bc a8 9c 03 3c a0 fc 9d 3c
       -0.070891894 -0.011451339 0.008032955 0.0192855
000030 1a c0 bf 3d 24 3f e8 bd f1 9f 8a bd 2f 7f 93 bb
       0.09362812 -0.11340168 -0.06768788 -0.0045012455
000040 e0 f5 bb be 7d 3b a4 bc c2 a0 47 be c3 96 ef bd
       -0.36711025 -0.020047897 -0.19494918 -0.116986774
000050 66 d7 27 3c 2c e3 31 be a4 b7 7c be e8 b5 32 be
       0.010244226 -0.17371815 -0.24679428 -0.17452204
000060 fb f4 71 bb 38 d4 19 be 79 21 df bb 12 1d 51 bf
       -0.0036919701 -0.15022361 -0.00680941 -0.8168498
000070 ac b7 b8 bc 0b 0a 60 bd ba 20 37 bb 11 a7 f6 bd
       -0.02254852 -0.054697078 -0.002794309 -0.12043584
000080 73 a2 29 3d 7d c1 71 b9 83 f2 44 be 22 08 3a be
       0.04141469 -0.00023055631 -0.19233136 -0.18167165
000090 67 b2 1d bd c6 80 9b bc 7a 25 86 bc 09 97 a7 bb
       -0.038500216 -0.018982302 -0.016375292 -0.0051144403
0000a0 94 52 db 3d 06 9d b1 bc ed 66 01 bd 93 ec e3 3c
       0.1070911 -0.02168132 -0.0315923 0.027822768
0000b0 6e 7b 15 3b 21 ed 07 bf 72 25 37 3c 7b 62 22 be
       0.0022809166 -0.53096205 0.011178361 -0.1585788
0000c0 f1 3e 61 3c 91 b8 21 bd 84 c5 72 bc f4 0d 2f bc
       0.013747917 -0.039482657 -0.014817599 -0.010684479
0000d0 8a 2e 7b bc 12 61 80 bb 0d 87 b8 bc 84 39 55 3b
       -0.01533092 -0.0039178217 -0.022525335 0.0032535503
0000e0 01 84 2c be a8 bb 2e be 9d de 8f be e4 c8 d6 bc
       -0.1684723 -0.17063773 -0.28099528 -0.026218839
0000f0 68 33 a2 3d fc 49 f4 bb c6 7e 71 bd d6 67 81 bd
       0.07919961 -0.0074551087 -0.05895879 -0.06318633
000100 1e f6 9d be 1f f2 86 bd 14 60 1c bd af a7 03 bd
       -0.30851835 -0.0658915 -0.038177565 -0.032142337
000110 f6 57 a3 bd 2d df c0 be 4c e0 98 bc 63 0c ae 3d
       -0.079757616 -0.3767027 -0.01866164 0.08498456
000120 8b 99 7f bc 9e b3 1c bd a0 e4 8e bb e3 1a 12 bf
       -0.015600572 -0.038257234 -0.0043607503 -0.57072276
000130 56 ad 38 3d cb ae 2e 3e f6 94 ce bc 0d 91 86 be
       0.04508718 0.17058866 -0.025217514 -0.2628254
000140 95 35 91 bd 5c 0e 9e bc 31 4c b0 bc 4c 1e 82 3c
       -0.07090298 -0.019293956 -0.021520706 0.015883587
000150 19 55 4c bc 5c c9 7a bd 91 28 01 3c f1 11 de bd
       -0.012471461 -0.061227188 0.007883207 -0.10843266
000160 a0 ea 11 bd 18 a8 9f bd 71 48 c8 bc 48 5e 22 bc
       -0.035624146 -0.07795733 -0.024448605 -0.009910174
000170 e7 1c 72 bc 8e df 43 bd c7 9c 68 bd 75 7f 23 bd
       -0.014777399 -0.04782062 -0.05679014 -0.039916474
000180 fe 66 5b bd c1 72 ec bd 63 23 a8 bc 13 ad 2d bd
       -0.053565018 -0.11545325 -0.020524686 -0.042401385
000190 52 ec 92 bd 27 11 ee 3b 14 49 79 bd 24 46 71 bc
       -0.07173981 0.0072652283 -0.06086071 -0.0147261955
0001a0 9a 93 a3 be eb d1 51 bb be 17 a6 ba 8c 31 85 3c
       -0.3194855 -0.003201599 -0.0012671871 0.016258977
0001b0 03 e1 b6 bc 38 0f 17 bd 99 58 d0 bc dd d1 85 bd
       -0.02232409 -0.036879748 -0.025432872 -0.06534169
0001c0 29 a8 07 3d ab c8 cc be c1 ba 9d 3e a0 58 1e ba
       0.033119354 -0.39996848 0.30806544 -0.0006040428
0001d0 50 c2 0b 3a 16 28 93 be bd 9c 05 3d 71 94 39 bd
       0.0005331384 -0.2874152 0.03262018 -0.04530758
0001e0 9d 79 24 3e ec 2e d5 3c ab 34 b8 bd fa 5c 15 bd
       0.16062017 0.02602335 -0.089944206 -0.036465622
0001f0 7b 8e ca be c5 73 de 3e ce af b1 bc dc 95 dd bc
       -0.3956183 0.434477 -0.021690276 -0.027048998

fc1.weight f4 [128, 128]
000000 e9 4f 09 3d 42 52 a2 bd cb 8b 92 3d e5 21 83 3d
       0.033523474 -0.07925846 0.0715557 0.06402949
000010 e0 46 4a bf f7 fa 88 3e ab fe 7b 3e 07 53 a8 3d
       -0.79014397 0.2675397 0.24608867 0.08218961
000020 cb 85 a0 3e 79 f5 33 3d 6c 3d 16 3d eb 9b 3a bd
       0.31352076 0.043935273 0.03667967 -0.04555885
000030 2f 78 11 bd ab d2 28 3e 37 14 9d bd 59 0a 34 3d
       -0.035515007 0.16486613 -0.07669871 0.04395518
000040 77 19 8b 3d d6 25 d5 bd 77 fe 1e bf 40 85 c7 bd
       0.067919664 -0.10407607 -0.6210703 -0.09742212
000050 5b 16 f6 3c e1 ee 6a 3f 8a e0 ee bd a4 4a c0 3d
       0.030039957 0.9177075 -0.11663921 0.093892366
000060 b2 92 13 3d 00 ae 11 3f c9 7d d1 3c 8f bf 1c bb
       0.03602857 0.5690613 0.025572674 -0.0023917889
000070 a9 50 2f bd e3 96 17 bf 5b 3a db bc 5b b5 b5 bd
       -0.042801533 -0.5921461 -0.026761224 -0.088724814
000080 0f 4a 89 be 19 26 96 3d 69 1e 26 3f 9e a6 36 3e
       -0.26814315 0.07331485 0.6489015 0.17836997
000090 3b ae 50 bd 89 b4 90 3d 43 ee 7a bd 7d 9a 9b 3d
       -0.05094741 0.07065684 -0.06126238 0.07597826
0000a0 db 57 2e bf 9c 8c 81 bd e4 f9 96 3c 31 2b af bc
       -0.68102807 -0.06325647 0.018429704 -0.0213829
0000b0 60 97 f1 3e ce a4 b3 3a 56 c0 3d bd 8d 01 55 3f
       0.47185802 0.0013705732 -0.046326004 0.8320549
0000c0 5a b7 51 bd 16 a6 64 3d 5d d9 60 3d 81 f7 22 3d
       -0.05120025 0.055822454 0.054894794 0.03978682
0000d0 b9 a4 72 bc 56 4e 19 3d bf 69 0e 3e 6e 54 4d 3b
       -0.014809781 0.037428223 0.13907526 0.0031330842
0000e0 2a b7 82 3d 44 34 98 3e 7f 95 78 bd ba 0c 92 3d
       0.06382592 0.29727376 -0.060689446 0.07131334
0000f0 30 d4 03 bd 85 b3 af 3d 54 75 b9 bd 8d 83 1a 3d
       -0.03218478 0.085791625 -0.09055582 0.037723113
000100 8e bf 97 bd bd 68 ad 3e 73 36 bb bc af 7e a0 bd
       -0.07409583 0.3386897 -0.022853112 -0.07836663
000110 27 9c 49 3c 77 52 6e bd 71 1e 6f 3c 88 5a 29 3e
       0.012305296 -0.058184113 0.01459466 0.16538441
000120 35 d6 72 bd ad 54 0c bd 14 ac b8 bc 15 6e 0b 3e
       -0.059286315 -0.03426044 -0.02254299 0.13616212
000130 1c d5 78 bc 26 94 4d 3e 58 5a 3f bd 7d 26 49 be
       -0.015187528 0.20076045 -0.046717018 -0.19643588
000140 a5 19 ad bc 3e fe 86 bd e0 ab bd 3d d5 cd 98 bd
       -0.021130392 -0.065914616 0.09261298 -0.07461134
000150 a0 ce aa 3c 41 4d a4 bd d4 d4 2e 3c 69 9d ab 3e
       0.02085048 -0.080225475 0.010670859 0.33518532
000160 dd ed 29 3d 4d 91 76 3d 9b 64 93 3d f4 7b 25 3e
       0.04148661 0.060197163 0.07196923 0.16160566
000170 17 7c 8a bd 51 59 b5 bc 31 0b 90 3d 1b 0a b8 3d
       -0.067619495 -0.022137316 0.070333846 0.089863025
000180 6b 6d ad 3d f6 29 7a 3c 7f 62 e5 be 57 9e 04 bc
       0.084681354 0.015268793 -0.4480171 -0.008094392
000190 87 f3 94 3e f8 49 91 3d 87 49 c2 3c c7 b2 dd bc
       0.29092047 0.070941865 0.023716701 -0.027062787
0001a0 23 f8 88 be 2b c9 73 bd 87 86 94 3c 69 28 a2 3d
       -0.26751813 -0.05951802 0.018130554 0.07917864
0001b0 57 ee 79 3d f5 67 72 bd 6a 10 db bd 70 e8 89 bd
       0.061018314 -0.059181172 -0.1069649 -0.06733787
0001c0 68 26 c3 bb 48 81 87 3e bf 78 f5 bd 70 42 7b 3e
       -0.005955506 0.2646582 -0.11985921 0.24537063
0001d0 4c 85 13 bd 95 31 54 3f 44 ea d7 bc 8b 01 06 bd
       -0.036015794 0.82888156 -0.026356824 -0.032716315
0001e0 e0 48 d5 3e 3a 12 a5 3e 2f ad 69 bf f7 8d fe 3c
       0.41657162 0.32240468 -0.9127988 0.031073553
0001f0 15 fc cd bd a1 50 05 bf dd 42 a3 3d 98 31 01 3d
       -0.100578465 -0.52076155 0.079717375 0.031541437
000200 50 8e ef bc 29 7a 22 3d 55 d5 96 3d fe 8c d7 3d
       -0.029242665 0.039667282 0.073649086 0.10524939
000210 1c 74 4a 3e 23 7c 0b 3f f9 25 e7 3e b6 50 df bd
       0.19770855 0.5448629 0.45146158 -0.10904066
000220 d7 3a 21 3d b3 46 67 bd 72 e6 92 bb c5 a8 d1 3c
       0.039362755 -0.05646391 -0.0044830376 0.02559317
000230 0b 2e 95 3f dc 67 0c bd 6f 5e 58 bc 43 c0 c2 bd
       1.1654676 -0.034278736 -0.0132061085 -0.09509327
000240 44 ee 8a be 07 a7 a2 3c 6f 32 4b 3f b1 e4 bc be
       -0.27134907 0.019855035 0.7937383 -0.36893228
000250 67 d2 88 bc c8 69 6d 3d af 3e 01 3d bb 68 fb be
       -0.01670189 0.05796221 0.03155392 -0.4910334
000260 94 62 19 3d 49 3d 7d bd 48 9f 40 3d 00 24 47 be
       0.037447527 -0.061826024 0.047026902 -0.19447327
000270 e1 58 0d bc d8 98 62 3f 18 52 f5 3c f8 fc 0c 3f
       -0.008627147 0.8851447 0.029946372 0.550735
000280 78 bd 2b 3e 6b bf 40 3c 6f 66 07 3e 95 dd 8f be
       0.16771495 0.011764388 0.13222669 -0.2809874
000290 c4 50 03 ba 92 75 16 bd d9 6e 4b 3c 0d de 94 3c
       -0.00050092884 -0.036733218 0.012416565 0.018172288
0002a0 55 3a 41 3e 0c 52 8c 3d 39 75 0f 3d ef ec fc bd
       0.18869908 0.06851587 0.0350239 -0.12349879
0002b0 59 b0 2f 3e aa ba d0 bd 5e 14 49 bd ee ad 81 bf
       0.17157115 -0.10191853 -0.04909169 -1.0131204
0002c0 2d 26 d0 3c 82 da 02 bf 48 09 af bd 0b 9e e1 bd
       0.025408829 -0.51114666 -0.08546692 -0.110164724
0002d0 5c 64 a9 3d a5 c7 05 bd 58 07 af 3d 88 e9 71 bd
       0.08271095 -0.0326611 0.085463226 -0.059060603
0002e0 4b a9 47 bd 6c e3 a3 be e8 81 26 be 86 14 84 bc
       -0.048745435 -0.32009447 -0.16260493 -0.016123068
0002f0 b3 5d c3 bd 45 ba 61 3d 40 3b bc bc da ec a7 3d
       -0.09539356 0.05510928 -0.022977471 0.08199473
000300 0b 3e 03 be c3 99 16 3f eb 6a 22 3d 99 74 8b 3d
       -0.12816636 0.5882837 0.039652746 0.068093486
000310 bf 72 27 3d ae 2f 7f bd 68 be a4 3d 74 71 2a 3f
       0.040880915 -0.06230133 0.080441296 0.66579366
000320 a9 d3 62 3d 7e a9 90 3d 53 66 95 bd 23 28 1a bf
       0.055377636 0.07063578 -0.072949074 -0.60217494
000330 e1 cc e4 3d 00 4c 9a 3e e6 1a d5 bd 24 29 df be
       0.1117189 0.30136108 -0.10405521 -0.43586075
000340 97 4a ca bd ca f8 30 bd 25 a8 04 bd 12 9c e4 3d
       -0.09877508 -0.043206014 -0.032386918 0.111625805
000350 18 c1 9a 3d d0 32 ae 3d e4 96 89 bb a5 32 30 bd
       0.07556361 0.085057855 -0.004198896 -0.04301705
000360 6a 32 7a ba aa ac 9d 3c 71 58 e7 bd 99 e5 11 3e
       -0.00095442554 0.019247372 -0.11296166 0.14247741
000370 eb 90 2a bd 75 70 19 3d 70 31 ed 3c 90 ea 6b 3d
       -0.04164211 0.037460763 0.028954238 0.057596743
000380 40 75 65 bc 39 98 61 3e a0 fa b7 3e 26 e2 20 3d
       -0.014005005 0.22030725 0.359334 0.039278172
000390 a4 3e 25 3d b7 96 99 3d 6c 42 cd 3c b7 91 80 bd
       0.040342942 0.0749945 0.025056086 -0.06277793
0003a0 12 7b 19 bd 80 8b e6 bc f3 7f 47 bd 78 57 27 3d
       -0.037470885 -0.02814269 -0.048706006 0.0408549
0003b0 c7 0e 5d 3d a2 ca c0 bd 47 e9 d9 bd d6 f2 b8 bc
       0.05396917 -0.09413649 -0.10640197 -0.02257673
0003c0 83 6f 9d bb a8 4e 37 bd 64 19 3f 3f d3 7b 5f 3f
       -0.004804553 -0.044752747 0.7464812 0.87298316
0003d0 9c 75 95 3d 54 4d 78 bf 07 55 45 3a 93 c0 33 bd
       0.07297823 -0.96992993 0.00075276237 -0.043884825
0003e0 67 14 e9 3c bd 9e c1 3e 3a f6 86 3f ec 2e 4c bc
       0.028452111 0.3781642 1.0543892 -0.012462359
0003f0 44 cb 1a 3e 52 2f 0c 3e 8c 21 9a bd cc af 80 3c
       0.15116602 0.13689926 -0.0752593 0.015708826

fc1.bias f4 [128]
000000 36 91 80 3d ef 67 c7 3c 19 4b 11 3e e6 cc ee 3d
       0.06277697 0.024341552 0.14188804 0.11660175
000010 71 bd 1c bd 67 22 94 3d 57 20 ab bd e4 12 48 bd
       -0.038266603 0.07233124 -0.08355778 -0.04884614
000020 f9 d8 57 bd f7 8c f3 3c 10 ed f9 bc 7b 57 02 be
       -0.052697156 0.029730303 -0.030508548 -0.12728684
000030 99 4a 16 be a7 d8 f4 3d ad f2 b3 3d 20 35 92 3e
       -0.14676894 0.11955386 0.08786521 0.28556156
000040 d9 3e 7b bd eb a5 b7 be d5 58 47 3d cb c1 2a 3d
       -0.061339233 -0.35868773 0.0486687 0.04168872
000050 45 d0 c5 bd ee 4e 91 be 72 e4 4b bd 80 04 43 be
       -0.09658865 -0.2838053 -0.04977841 -0.19044685
000060 4d e6 8d 3e b5 dc a7 3d 27 bc 44 bd 10 4d 30 3e
       0.27714768 0.081963934 -0.048031 0.17216897
000070 80 d1 cb bd ed ec f6 bc 23 36 1d 3c e4 5b f9 bd
       -0.09952068 -0.030142272 0.009595427 -0.1217573
000080 e2 61 ab be eb a6 32 bc a6 e9 7c bc fb 2f 97 bd
       -0.33473116 -0.010904054 -0.0154365655 -0.073821984
000090 92 d4 46 bd 7c 94 86 bd 51 8e 2c bd 24 d7 70 3e
       -0.048542567 -0.0657129 -0.04212791 0.2351957
0000a0 5d 8c ec 3d 63 ae 8b bd 0b a6 cc 3d 90 c7 4e bd
       0.1155021 -0.06820371 0.09992608 -0.050483286
0000b0 5e 33 ee 3d 8c 9f 21 3e 53 ed 92 bd 1f 0a c6 bd
       0.11630891 0.15783519 -0.07174172 -0.09669899
0000c0 cc 8b 1f 3e 4f ac cc bd 4d c8 1e be d2 6a 8f be
       0.15580672 -0.09993803 -0.15506096 -0.28011185
0000d0 f6 f0 ef 3d 77 4a 5d be 72 ad 79 be 0e a2 c7 bd
       0.117158815 -0.21610437 -0.2438257 -0.09747706
0000e0 ab 22 30 3e dd 50 bb bd b5 b4 03 bd 44 7a 86 bd
       0.17200725 -0.09146283 -0.032154758 -0.06566289
0000f0 b7 54 c2 bc 1c ba 1e 3d 3e 88 e7 3d 91 28 e4 bd
       -0.023722036 0.038751706 0.11305283 -0.1114055
000100 fa 8e 63 3e cd dd a5 3b c9 f0 41 be 8e b4 5d bd
       0.2222251 0.005061841 -0.18939508 -0.05412727
000110 d0 ef 35 3e 26 a6 32 bc df de 5d 3e 85 95 3d 3e
       0.17767262 -0.010903871 0.2166705 0.18514068
000120 ff b1 0f be bd 8f 68 bd a7 26 44 3e bb 7c 21 3e
       -0.14032744 -0.056777705 0.1915537 0.15770237
000130 06 da c1 bd f9 86 c5 bd 32 b3 35 bd c7 f8 68 3e
       -0.09465413 -0.096448846 -0.044360347 0.22751151
000140 74 8a 19 3e e5 b2 12 3e 97 ff b1 3c 04 9e ef 3c
       0.14994222 0.14326055 0.02172832 0.029250152
000150 92 b5 ca be ea cb 2b 3c f9 33 3e 3e d6 33 07 be
       -0.39591652 0.010485629 0.18574513 -0.13203368
000160 6c d3 a2 bd da 35 a5 bd 60 e3 b1 bd d1 df a5 bd
       -0.07950482 -0.08066912 -0.086859465 -0.0809933
000170 41 08 1f 3d 06 f8 63 3e 17 82 bd bd 59 ef b5 be
       0.03882623 0.22262582 -0.09253328 -0.3553417
000180 79 28 19 3e 28 29 d8 3c 8a 48 92 bd 40 f0 d5 bd
       0.14956845 0.026386812 -0.07142742 -0.10446215
000190 fa ad 70 3e c6 3a 22 be 6a 1e e0 bd 9f d0 ce bd
       0.23503867 -0.15842733 -0.10943301 -0.10098385
0001a0 bd d2 09 3e 57 11 02 bd f2 66 3e 3e 78 f1 8f bc
       0.13459297 -0.031754818 0.18593958 -0.017571196
0001b0 cd 96 3e 3e ab d2 af bc 40 17 70 3e 67 e3 99 3e
       0.18612213 -0.021462759 0.23446369 0.30056307
0001c0 f6 f8 61 3c 3c de a1 3d d1 dc 07 3e a7 41 72 3d
       0.013792267 0.07903716 0.13267829 0.059144642
0001d0 33 48 87 bd 55 89 8f bd 5f 12 07 be 99 39 7b 3e
       -0.06605568 -0.07008616 -0.13190602 0.2453369
0001e0 80 2a 05 3e 57 bf 2a 3e e1 b7 b5 3c 87 7d ae bd
       0.13004494 0.16674553 0.022182407 -0.08520036
0001f0 df 1c 85 3e 51 8e c4 bd a3 2b dc be d3 8c 18 bd
       0.2599859 -0.09597457 -0.43002042 -0.037243675

fc2.weight f4 [64, 128]
000000 80 92 d7 3b 36 48 85 bc 4a 65 9d 3d c2 38 4b 3d
       0.0065787435 -0.016269784 0.07685335 0.049614675
000010 53 7b 6d 3d d3 70 56 3d c8 89 53 3c d8 e5 8e bd
       0.05797894 0.05235369 0.012911268 -0.06977433
000020 b6 a9 01 3d fa 5b d8 bd 69 28 65 bd 86 59 b1 bd
       0.03165599 -0.10564418 -0.05594674 -0.08659653
000030 50 b5 9b bc b8 2c 7a 3d 05 d9 8c bd bc b3 e5 bb
       -0.019007355 0.061077803 -0.06877331 -0.0070099514
000040 be 1a 5d 3d e0 0d 84 bd 37 d7 3a bd 26 fe ad bd
       0.05398058 -0.06447959 -0.0456154 -0.084957406
000050 56 af 7e 3d 5b d6 88 bd 81 08 b4 3d b3 f5 81 bd
       0.062178932 -0.0668151 0.087906845 -0.063456915
000060 a3 34 8a bd 88 7c b4 3d e3 ce 5e bd a5 f2 3f bd
       -0.06748321 0.08812815 -0.05439652 -0.046862263
000070 5a f1 11 bd d5 bf fc 3c ef cd e1 3b e7 5b ae bd
       -0.03563056 0.030853191 0.0068910043 -0.08513623
000080 6e 8c 3f bd f7 8f 00 bd 50 8c b5 bd 50 40 c7 bb
       -0.046764784 -0.031387296 -0.08864653 -0.0060806647
000090 54 65 44 bd 23 07 02 3d 65 2c 6d bd dd 31 a7 3d
       -0.047948197 0.031745087 -0.057903666 0.081638075
0000a0 d7 56 17 3c e0 c0 c9 3c a5 0e 7d 3d a0 d0 1b bb
       0.009237013 0.024628103 0.061781544 -0.0023775473
0000b0 d0 78 40 bd a8 99 83 3d 13 38 71 3d a9 8e 2d 3b
       -0.046990216 0.06425792 0.058891367 0.0026482737
0000c0 7a 17 86 3d c2 40 3e bd 12 63 89 bd 64 94 27 bc
       0.065474465 -0.046448477 -0.06708349 -0.01022825
0000d0 9e bf 10 3d fc 2f b0 bc 59 48 5b bd f5 10 a8 bd
       0.03533899 -0.021507256 -0.053535793 -0.08206359
0000e0 c5 e9 b3 bd 07 5f a8 3c d8 77 c0 3b a8 22 33 bd
       -0.087848224 0.020553125 0.0058736615 -0.043734223
0000f0 b3 23 99 3d 20 63 ca bc fc b4 a3 bd 26 dc 29 3d
       0.07477512 -0.02470547 -0.079935044 0.041469716
000100 c0 ca 03 bd 4a b1 da 3a a6 e8 e3 bb 49 e5 ca bc
       -0.03217578 0.0016684916 -0.006955224 -0.024767535
000110 5f 63 04 bb 6f 78 71 bd 8b ee b4 bd 3f ef 21 bd
       -0.0020200831 -0.058952745 -0.08834561 -0.039534803
000120 a9 98 02 bd 55 ee 84 bd 9a 71 73 bd 62 a4 45 3d
       -0.03188387 -0.06490771 -0.05943451 0.04825247
000130 66 ef bb 3c 90 3b e9 bb 32 b1 c7 bd cf 00 0b bd
       0.022941303 -0.007117696 -0.09750594 -0.033936318
000140 16 47 3d bd 98 9f 56 bd 47 9a 69 b8 83 45 8a 3b
       -0.04621037 -0.052398294 -5.569521e-05 0.004219712
000150 d7 a9 42 bd ec fb 6e bd 44 93 b5 3c 78 91 31 3c
       -0.047525253 -0.05834572 0.022164948 0.010837905
000160 24 ca 9b 3d 56 77 08 3c 61 c8 b4 bd cb 5d d6 bc
       0.07606915 0.008329233 -0.08827282 -0.02616777
000170 e6 42 ea bc 90 bd 68 bc 39 e9 03 3d fc 4f 39 bc
       -0.028596353 -0.0142053515 0.03220484 -0.011310574
000180 77 a1 41 bd f5 2e 44 bc 35 a6 c1 bc 69 75 1d 3c
       -0.047273125 -0.011974086 -0.023638824 0.009610512
000190 6f 86 3d bd b4 48 9a bc 52 f1 35 bd f5 5e 0e bd
       -0.046270784 -0.018833496 -0.044419594 -0.034758527
0001a0 76 75 da bc 37 49 b1 bd a6 a0 74 bd 05 38 e5 bc
       -0.026667338 -0.08656543 -0.05972352 -0.027980814
0001b0 a5 c5 63 bc 48 d9 63 3d 95 52 ce 3c e0 ed 2f bd
       -0.013902103 0.055627137 0.025185863 -0.042951465
0001c0 c6 20 81 bd 20 d9 69 bd 8a 0d a7 bd cc 8e 86 bd
       -0.06305079 -0.057091832 -0.08156879 -0.06570205
0001d0 da 3a 52 bd d0 93 5c bd dd 23 a7 bd d8 ab 8c 3d
       -0.051325656 -0.053851902 -0.08161137 0.06868714
0001e0 12 bf 27 bd 36 16 9c 3a 7d fe 64 bd f1 3a 6b bd
       -0.040953703 0.0011908475 -0.05590676 -0.057429258
0001f0 6a 57 02 bc bb 02 9c 3d 1e 13 2a bd d7 3c a6 bd
       -0.007955411 0.07617708 -0.041522138 -0.08117073
000200 d0 2d 1f 3f 45 f3 06 be 1e 0b 8b 3f fb 5c e7 3e
       0.6217928 -0.13178737 1.0862768 0.45188126
000210 15 4a a3 3d fb e8 07 bb 89 84 d8 bd 94 37 10 bd
       0.079731144 -0.0020738232 -0.10572154 -0.035209253
000220 39 ca 0e be 7c 09 50 3f 60 ae f9 be ff f9 3c 3d
       -0.1394433 0.8126447 -0.4876585 0.046136852
000230 67 46 17 3d 4a f4 2c 3e d0 3e df 3e 1d d8 9d 3f
       0.036932375 0.16890064 0.4360261 1.2331578
000240 00 85 f7 bd 01 9b 3f be a0 72 30 be 19 cd b2 3d
       -0.120859146 -0.18711473 -0.17231226 0.087305255
000250 95 9f 95 bc 9e f9 06 bd b8 bc ec bc 05 2e 85 bd
       -0.018264571 -0.032952897 -0.028898582 -0.06502918
000260 1c 8e 1a 3e dc cb 30 3e b6 6f 09 bd 67 46 4d 3e
       0.15093273 0.17265266 -0.0335538 0.20046388
000270 af 42 d6 3c 93 f6 38 bd 95 2a 12 3e 87 de c5 bc
       0.026154844 -0.045157026 0.14274056 -0.02415396
000280 9a 80 be bd 4b f6 de 3e 1b 71 0d be cf 36 86 3d
       -0.093018726 0.43547282 -0.13812678 0.06553423
000290 a9 49 e0 bd 92 6c 32 3d a1 62 c2 be ad 1e a0 3e
       -0.109515496 0.043560572 -0.37965873 0.31273404
0002a0 1b 96 87 3c b8 3f 3a 3d b3 26 94 3f df aa 21 3a
       0.016551068 0.045470923 1.157431 0.00061671244
0002b0 27 95 ab 3f f7 59 c9 3f f5 e4 66 3c df 56 a8 bd
       1.3404893 1.573058 0.014092674 -0.08219694
0002c0 a3 19 94 3f fc bf ab bc 78 6a 90 bd 25 b0 77 be
       1.1570324 -0.020965569 -0.07051557 -0.24188288
0002d0 d3 e1 0d be e7 e8 31 be 96 19 48 bd 57 eb 06 be
       -0.13855676 -0.17374001 -0.048852526 -0.13175713
0002e0 1e 7e 2d 3e 62 38 cb bd b7 03 01 bd 58 a6 8c bd
       0.16942641 -0.099228635 -0.031497683 -0.06867665
0002f0 20 6e 60 3e 5e d5 bc 3e 79 ac 6d 3e 3d da 9d 3d
       0.2191701 0.36881536 0.23210324 0.07707641
000300 28 87 e7 3d 5e 70 8a be 67 e2 c3 bd 60 b4 84 3d
       0.11305076 -0.27038854 -0.09564667 0.06479716
000310 80 4e 93 3f b7 80 31 3d 86 e8 5a 3e 60 98 3b 3e
       1.1508331 0.043335643 0.21377763 0.18319845
000320 e5 7e 65 3d 40 d4 ed 3d 91 f1 44 3e c9 54 64 3f
       0.05602922 0.11612749 0.19232775 0.8919187
000330 c0 fb d8 bc e7 13 de 3e 59 4b 73 bd 57 fc 26 3e
       -0.026487231 0.4337456 -0.05939803 0.16307198
000340 27 cf b0 3e 75 89 c8 3e ca cf 50 3e b6 70 10 3e
       0.34533045 0.3916737 0.20391765 0.14105496
000350 09 82 0a be 5e a9 7b 3e 15 e4 a1 3e ee 4a 5d 3d
       -0.13526167 0.24576327 0.31619325 0.054026537
000360 fe 91 29 bd fa cc d8 3c 3a 1c df b7 e0 39 fb 3c
       -0.041398995 0.026464928 -2.6596816e-05 0.030667245
000370 b4 17 be 3e 07 1c b9 3e 4e 75 88 bd ec 20 02 be
       0.3712746 0.36154196 -0.06662999 -0.12707871
000380 0e e9 74 3f 38 5b be 3e 68 8c 75 bd 8f b5 19 3d
       0.95668113 0.3717897 -0.059948355 0.037526663
000390 c8 e4 48 3e 96 e8 ed bc 0a 24 b9 be 83 69 13 bc
       0.19618523 -0.02904157 -0.36160308 -0.008997324
0003a0 cf 82 52 3e c3 0f ad 3b a0 6a d0 3f b7 e9 98 3d
       0.20557712 0.00528142 1.6282539 0.074664526
0003b0 2d e3 90 3e d1 ef 7c bd ff f3 9a 3e f3 a0 61 3f
       0.2829832 -0.061752144 0.3026428 0.88136214
0003c0 e9 79 f1 be 70 cc cb 3d 3d bc 80 3d 6b 0c a9 3b
       -0.47163323 0.09951103 0.062859036 0.005158951
0003d0 c6 41 d6 bd d6 4b 24 bf de d7 cd bd 68 29 78 3e
       -0.10461764 -0.64178216 -0.10050939 0.24234545
0003e0 78 e3 4b 3f 89 00 7b 3e 1b 82 26 3f e9 0e e1 3b
       0.79643965 0.24511923 0.65042275 0.0068682325
0003f0 73 27 81 3d 02 8b 93 bd e3 36 3e be 7e fd 0e 3c
       0.063063525 -0.07204248 -0.18575625 0.008727429

fc2.bias f4 [64]
000000 c4 56 18 be 47 94 03 3e 67 e0 89 3e 40 f9 8c 3e
       -0.14876848 0.12849532 0.26929018 0.27533913
000010 37 4e d2 3e 19 4e d1 3e a2 22 6c be f1 c3 d8 bd
       0.41075298 0.40879896 -0.23060086 -0.10584248
000020 74 d4 34 3e dd 90 a3 3e f4 d2 d6 3d b4 6c f5 3e
       0.1765917 0.3194646 0.10489455 0.47934496
000030 16 cc 8b bd e5 cc ca 3e c3 ac 9c 3e 13 fd e1 3e
       -0.06826036 0.39609447 0.30600557 0.44138393
000040 85 36 ae bd 46 d5 b2 3e 52 78 a0 3e c2 a0 39 bd
       -0.085064925 0.3492834 0.31341797 -0.045319326
000050 08 f7 cb bd 70 ee 90 3e ef 9d 81 be c2 d7 11 bd
       -0.09959227 0.28306913 -0.25315806 -0.035606153
000060 4a 49 cd bd fb 0a a5 bd 97 c6 e7 3e 1a 4c c0 3e
       -0.100237444 -0.08058735 0.452687 0.3755806
000070 2e c9 b3 3e 97 50 24 be 52 50 14 be 33 40 7d 3c
       0.35114425 -0.16046368 -0.14483765 0.015457201
000080 e1 59 b1 3d 92 a9 b3 3e cc 60 89 3d 8d f8 0c be
       0.08659721 0.3509031 0.06707916 -0.1376669
000090 db 07 b2 3d 70 45 ac 3e 6d e3 c9 3e e7 ac b3 3e
       0.086929046 0.33646727 0.39431325 0.35092852
0000a0 ad d9 a7 3e 89 1b c2 3d a4 82 67 3e 37 a4 c1 be
       0.3278326 0.09477908 0.22608429 -0.37820598
0000b0 cd dc b5 bd 6c 1f 8c 3e 37 cf b5 3e 58 e2 e8 3e
       -0.08880005 0.27367723 0.35509655 0.45485187
0000c0 ef 5a 0c 3e bd 3c f5 3d f2 2b d1 3e f5 45 9b 3e
       0.13706563 0.119744755 0.4085384 0.3032681
0000d0 28 4c 3c be b4 f9 a3 3e 39 21 ce 3e c3 a4 0f bd
       -0.18388426 0.32026446 0.40259722 -0.03506924
0000e0 38 e6 d6 3d 0d 11 8b 3e 5e 28 43 3e 64 91 d8 bd
       0.104931295 0.27161446 0.19058368 -0.10574606
0000f0 a7 f8 b0 3e b2 cc a2 3e 0b a1 93 3e b0 60 b7 3c
       0.34564707 0.31796795 0.28833804 0.022384971

classifier.weight f4 [2, 64]
000000 ae 86 bf 3d b2 00 aa 3d 06 92 03 be 5b dc eb 3d
       0.0935186 0.08300914 -0.12848672 0.11516639
000010 18 61 8d 3e 94 8b 48 3e 7c 07 04 3f 4b 6e 67 bf
       0.2761314 0.19584495 0.5157392 -0.9040267
000020 36 d9 cf 3c 0d 01 80 bc b4 c6 97 be 7b 9e 18 be
       0.025372129 -0.015625501 -0.29643786 -0.14904206
000030 61 47 be be 66 ed 82 bd 27 8c 59 3e 56 38 c8 bd
       -0.37163833 -0.063929364 0.2124487 -0.0977637
000040 a4 92 08 3d c7 93 d1 3d 94 14 8d bb b2 69 d7 be
       0.033342972 0.102332644 -0.0043054316 -0.42072827
000050 39 d5 62 3f ce 1a bc bb 9c d4 0f bf dc 2d da be
       0.886066 -0.0057405 -0.5618379 -0.42613113
000060 6c 65 48 3d 7b d4 81 3f d8 b5 f3 bd d5 81 45 3e
       0.04892485 1.0142969 -0.11899918 0.19287808
000070 a9 f1 1d bd ee 60 db be 59 1a 13 bf e4 d5 28 3f
       -0.038560543 -0.4284739 -0.5746208 0.6595137
000080 5c 4f 7b be dc 02 15 3e e1 eb 06 3d f3 5e 84 be
       -0.24541992 0.14551872 0.032939795 -0.2585369
000090 d0 17 86 bd ab a3 06 3e 3f ce 2b be 66 fd 23 be
       -0.065475106 0.13148372 -0.16777895 -0.16014633
0000a0 10 e4 9d bd 73 80 10 3e 80 91 f9 bd 74 99 82 bd
       -0.07709515 0.141115 -0.12185955 -0.06376925
0000b0 96 c5 86 be 3d 7b d6 3d 9e a1 2d 3e b2 73 89 bd
       -0.2632262 0.104727246 0.16956183 -0.0671152
0000c0 16 c9 04 3f a9 70 e3 3c c9 90 b2 3d 82 0d c7 bd
       0.5186933 0.027763681 0.08719022 -0.09719373
0000d0 b6 36 b0 3d 68 06 1f be a8 fd 1d 3e 7a 8f 29 bf
       0.08604185 -0.15529788 0.15428793 -0.6623455
0000e0 6a 09 2e 3f d9 dc f4 3c fe df 92 bd 65 9a eb be
       0.67983115 0.029890465 -0.07171629 -0.4601623
0000f0 dc 69 b1 3d 71 55 26 bd f6 d0 15 3e 19 35 83 be
       0.08662769 -0.040608827 0.14630494 -0.25626448
000100 17 4d 00 3e 98 ee ac bc a9 a1 a2 3b 65 0d c4 bd
       0.12529407 -0.021109864 0.004963119 -0.09572867
000110 1c c3 24 be de c9 2d be 4c 60 dd be 34 6a 4d 3f
       -0.16090053 -0.16971537 -0.4323753 0.8024018
000120 9a 37 00 be 3e 31 55 be 46 73 c8 3d 3b 67 f2 3c
       -0.1252121 -0.20819566 0.09787612 0.02959024
000130 c8 24 cc 3e 93 a6 f1 3d 68 e4 93 bd c5 80 05 3e
       0.39871812 0.1179935 -0.072212994 0.13037403
000140 c8 f9 b6 bb d2 d2 bb bd 30 50 be 3d 5b 57 04 3f
       -0.0055839755 -0.0917107 0.09292638 0.51695794
000150 52 69 7b bf 10 ce 99 3d 46 b8 d1 3e 15 e5 79 3e
       -0.9820758 0.075100064 0.40960902 0.24403794
000160 e0 a8 d1 3d a3 f0 6b bf a2 27 fc 3d 49 f1 43 bc
       0.102372885 -0.9216406 0.12312247 -0.011959382
000170 4f e4 89 3d 15 21 03 3f 27 6a 15 3f 03 ed 4a bf
       0.067329995 0.51222354 0.583651 -0.792679
000180 61 10 8f 3e b0 bf c4 bd 41 a5 fa bd 70 a8 ac 3e
       0.27942184 -0.09606874 -0.12238551 0.33722258
000190 7d ca 16 3e b0 58 2e be 04 78 d7 3d cc c5 09 3e
       0.1472568 -0.17026019 0.10520938 0.1345436
0001a0 fd 34 f8 3c ec a6 f7 3c 72 1d 9e 3d bd 2d 18 3d
       0.030298704 0.030230962 0.0772046 0.037152994
0001b0 d7 ee 1e 3e 8c 08 9e bd 62 e5 ad bd e5 03 5a 3e
       0.15520798 -0.07716474 -0.08491017 0.21290548
0001c0 06 e0 21 bf db 97 b8 bd 49 d6 6f be 0e f4 7a 3d
       -0.6323246 -0.09013339 -0.23421587 0.061267905
0001d0 10 7c 0c 3e 02 14 00 3d bf 4d d3 bd e9 77 18 3f
       0.13719201 0.03126908 -0.10317563 0.5955797
0001e0 44 65 00 bf 1a 37 83 be c8 55 8f 3e 2e b1 fc 3e
       -0.5015452 -0.25627977 0.27995133 0.49353927
0001f0 f6 c4 35 be 29 c7 aa 3d f9 b1 d6 bc 2f 94 49 3e
       -0.17750916 0.08338768 -0.02620791 0.19685434

classifier.bias f4 [2]
000000 ba 72 6e 3e 4b 09 bc be
       0.23285952 -0.3672584
