backend/workspace/weight/rt/classify/best_model-50d.pth (torch, 528056 bytes, 15 tensors)

conv1.lin_l.weight f4 [64, 50]
000000 89 ce 72 bb 86 8f a7 be 99 13 0f bd 64 cc 08 3e
       -0.0037049374 -0.32726687 -0.0349308 0.13359219
000010 fe cd 8a be 05 d5 87 be e2 85 ab 3e 9a d6 25 3c
       -0.27110285 -0.26529709 0.33500582 0.010121966
000020 bd 86 ec be e2 a1 04 3e 3c 5d 6f be 1d c1 14 3e
       -0.46196547 0.12952378 -0.2337541 0.14526792
000030 f5 9d 01 be e9 82 10 3d 11 0c ee 3c af f5 0f be
       -0.12657912 0.035281096 0.029058488 -0.14058565
000040 bb 77 f3 bd 94 71 57 3e e8 e7 18 bd 09 80 73 3e
       -0.11888071 0.2103942 -0.037330538 0.2377931
000050 fa 39 17 be f8 82 a4 bc 84 d1 07 3e db 4c 05 3e
       -0.1476821 -0.020081982 0.13263518 0.130176
000060 3c f3 63 3e fd 58 30 bd 4f 52 c0 3e f5 5e 54 be
       0.22260755 -0.043053616 0.37562796 -0.20739348
000070 d8 08 17 be 73 ba 9f 3c d4 65 5a be 3d a1 90 3d
       -0.14749467 0.019498086 -0.21327907 0.07062004
000080 fd 5f 07 be 67 96 1c 3e 4f 57 ee 3d 37 57 9d 3d
       -0.1322021 0.15291749 0.116377465 0.076826505
000090 00 6a 0d 3e 30 99 af bd 4a 0c 23 be ea c1 d1 3d
       0.13809967 -0.0857414 -0.15922657 0.10242064
0000a0 aa c9 91 bd 61 d6 1b 3e a9 65 18 3d 47 dc 2b bd
       -0.071185425 0.15218498 0.037206326 -0.04195812
0000b0 df 5f 15 3e 76 fc bf 3d d7 c6 f9 3d 55 02 07 be
       0.14587353 0.09374325 0.12196129 -0.13184483
0000c0 50 1b 1c 3d 66 f7 be 3d 2a d8 a2 bd 02 15 62 3e
       0.038111985 0.09324531 -0.07951386 0.22078326
0000d0 83 76 5f be 26 08 11 3e d8 d1 1a 3e cb 76 ba bd
       -0.21822552 0.14163265 0.15119112 -0.09104689
0000e0 f0 ea 0e 3d 39 86 11 be 41 b7 84 bd 92 13 91 be
       0.034892023 -0.14211358 -0.064802654 -0.28335243
0000f0 94 be ae be 65 7e 12 3d e4 d4 b2 3d 66 a7 41 bd
       -0.34129775 0.03576507 0.08732012 -0.047278784
000100 14 3b 23 be b0 8c 87 bc fd 45 22 be 44 dd 7a be
       -0.15940505 -0.016546577 -0.15847011 -0.24498469
000110 98 a0 83 3e 26 02 15 3e 2a 94 cc bd 23 d8 25 3e
       0.2570846 0.14551601 -0.099891976 0.16195731
000120 67 95 8c be 36 b0 da be 92 24 ae bd 4d e4 29 bd
       -0.27457735 -0.42712563 -0.08503069 -0.04147749
000130 c0 e1 74 be ef 07 ea 39 bb 7b 81 be 6f 56 b5 3d
       -0.23914242 0.0004463787 -0.2528971 0.088543765
000140 71 56 75 3d a6 21 91 3d 62 64 fd 3d c3 f0 08 be
       0.05989689 0.07086496 0.12372662 -0.13373093
000150 7d 98 12 3e 3b 0f fc bd fb ca 73 3e 62 25 09 3e
       0.14315982 -0.123075925 0.238079 0.13393167
000160 04 cc e1 bd b8 27 cb 3c 09 c4 bb 3c 74 47 58 3e
       -0.11025241 0.024799213 0.022920625 0.21121007
000170 12 e6 29 bd c7 b5 e7 3d 25 83 2f 3c 67 dd 0c bc
       -0.041479178 0.11313968 0.01071242 -0.008597708
000180 d6 34 81 be 2f 01 79 3e 2d f6 cb 3d f5 36 bd 3e
       -0.25235623 0.24316858 0.09959064 0.3695599
000190 a3 1c 69 3d da 8f b7 be 32 c1 e2 bd 4a 81 50 be
       0.056912076 -0.35851938 -0.11072005 -0.2036182
0001a0 b9 c2 1f be 3b e2 8e bd 15 6a 04 3e 4a c5 e6 bd
       -0.15601625 -0.06976744 0.12931092 -0.11268099
0001b0 28 51 26 be 0c df c4 3b 25 02 28 be ee fa a6 3d
       -0.16241896 0.0060080346 -0.16407068 0.0815333
0001c0 fe 86 2d be ba 25 dd 3b 16 72 d0 bd 67 7d 07 3e
       -0.16946027 0.006748882 -0.1017801 0.13231431
0001d0 de e1 7d 3e c4 50 9c 3c 93 28 31 3e d4 84 90 3d
       0.24793193 0.01908148 0.17300634 0.07056585
0001e0 52 ee 73 bd 4f 07 a5 bd 20 d7 d6 3d be c3 ba bd
       -0.05955345 -0.08058035 0.104902506 -0.09119366
0001f0 2e 90 04 be 81 c9 97 bc 74 40 37 bd 62 f0 2e be
       -0.12945625 -0.018528702 -0.0447392 -0.17083886
000200 b2 c7 1b 3d bf 4e a8 3d 2d 20 d9 3d f7 68 fb 3c
       0.03803224 0.082181446 0.1060184 0.0306897
000210 aa 03 10 be 73 d4 9e bc 18 e6 32 3e 4f 01 89 3b
       -0.14063898 -0.019388413 0.17470586 0.004181064
000220 07 7b 99 bd 59 45 f8 ba 2f c3 84 3c b3 ff 3d 3e
       -0.07494169 -0.0018941566 0.016206352 0.18554573
000230 a9 98 dd be e0 4e f2 3b ae 37 bf 3d ac 4d af bd
       -0.43280533 0.0073946565 0.09336792 -0.085597366
000240 74 d9 ef 3c 78 50 2f 3e cd d0 4f be 0b dd fb 3c
       0.029278494 0.1712054 -0.20294495 0.03074505
000250 b1 41 35 bc df e6 ca 3d fb 52 42 3e ff 23 6c be
       -0.011063025 0.099073164 0.18976967 -0.23060606
000260 96 44 10 be 9c 75 71 bd 33 f9 d9 bd e6 e7 e9 3d
       -0.14088663 -0.05895005 -0.10643234 0.11421184
000270 39 64 04 3e a9 45 52 3e 29 08 45 3e 4f fe de 3d
       0.12928857 0.20534386 0.19241394 0.10888349
000280 75 05 cf bd a8 e4 fa bc ad 8f 13 be ca 8b 93 3d
       -0.10108463 -0.03062661 -0.14410277 0.07204397
000290 fa 45 fd bd 2b 19 4b bd 54 94 46 3e 0a a1 0e be
       -0.123668626 -0.04958455 0.1939252 -0.13928619
0002a0 89 5a 10 3e 8d 34 a2 3c a4 8a 9c bc e1 95 8b 3d
       0.14097036 0.019800449 -0.019109078 0.068156965
0002b0 d3 8f 5d bd d9 76 df bd 15 3e 02 3e 5d 2d 1b be
       -0.05409224 -0.1091134 0.12718995 -0.15154023
0002c0 60 e7 e4 3d ae c5 a2 3d 35 b6 b1 3d aa cb 36 bd
       0.11176944 0.07947861 0.08677331 -0.044627823
0002d0 54 7f 94 3d 95 6f fa bd fa 08 90 bd 6a 60 47 bd
       0.072508484 -0.12228314 -0.07032962 -0.048675932
0002e0 63 9c 20 3e d3 59 7c be 95 cc 70 3c c0 db 09 3e
       0.15684657 -0.2464364 0.014697214 0.13462734
0002f0 73 e4 ce bd a3 a7 ad 3d 45 12 bd be 52 8e 1c be
       -0.10102167 0.0847924 -0.36928 -0.15288666
000300 b1 04 76 3b 7d 21 4d 3d 30 10 05 be 2d 0c e3 bb
       0.0037539417 0.050080765 -0.12994456 -0.0069289417
000310 49 48 ea 3d 21 7f 06 3e b8 53 b3 bd c7 c1 4d 3d
       0.114395685 0.13134433 -0.087562025 0.05023363
000320 06 84 f7 b9 7d 87 e4 3d 99 96 91 bd 18 4c b7 bd
       -0.00047209876 0.11158655 -0.07108802 -0.089500606
000330 8d 4e df 3c f5 16 d9 3c 44 e9 08 3e 01 5a 55 be
       0.027259136 0.026500205 0.13370234 -0.20835115
000340 c6 63 37 3c 48 8c 2e bc da 96 a0 3e 15 8f 56 bc
       0.011193221 -0.010653563 0.3136509 -0.013095637
000350 43 a7 40 bd 8d c0 76 be a9 dc 15 3e 31 70 9a bc
       -0.047034513 -0.2409689 0.14634956 -0.018852325
000360 97 bb 51 bc 25 0a 3e be db 43 ad bc bf 97 2f be
       -0.012801073 -0.18558557 -0.02115052 -0.1714773
000370 5f 30 e5 bd 18 76 f8 bd 24 9a 3f 3e 9d 68 32 3e
       -0.11190867 -0.121318996 0.18711144 0.1742272
000380 f2 6e 35 be 55 26 31 3d 83 45 5c be 48 ba 3c 3c
       -0.17718104 0.043249447 -0.21510892 0.011519022
000390 4d 31 d6 bd be 4d 99 bd 69 03 94 bd b8 77 07 3e
       -0.10458622 -0.07485531 -0.07227213 0.13229263
0003a0 1f 43 2a 3d 47 da 34 be e6 0c c5 3c 84 29 97 bd
       0.041567918 -0.17661391 0.024054002 -0.07380965
0003b0 af 6d ca 3b bf d6 22 be b8 b0 90 be 05 ab 16 3e
       0.006177626 -0.15902232 -0.28259826 0.14713676
0003c0 bc 03 31 3e 41 3f 0b 3d bf 5d 13 3e 6f 44 9a 3d
       0.17286581 0.03399587 0.1439123 0.07532584
0003d0 15 f2 ab bc 6c 4c 9f bd 44 73 09 be a0 17 ff 3d
       -0.020989457 -0.07778248 -0.13422877 0.12455678
0003e0 a2 74 f4 bd 28 7e 46 be 61 f4 8d bd 72 29 c1 3d
       -0.119363084 -0.19384062 -0.06931377 0.09431733
0003f0 66 0c 4b bd 79 ce 9c 3c 4d 78 42 be 38 67 71 bc
       -0.04957237 0.019141423 -0.18991204 -0.014734082

conv1.lin_l.bias f4 [64]
000000 2b 58 4a 3d 02 c2 1d 3e 8c 10 fc bd e4 b6 11 3d
       0.04940049 0.1540604 -0.123078436 0.03557481
000010 7f 65 4e 3c 97 9c 91 bd 74 bc bb bd cc 5b 1b 3e
       0.012597441 -0.07109945 -0.09166804 0.15171736
000020 2b ff 27 3d 0a 8b d8 bd 9d ce f7 bd fc 1f da bd
       0.04101483 -0.105733946 -0.12099955 -0.10650632
000030 a1 6d b9 bd 6f 1d 8b bd 6e 2a f4 bd b1 e3 ea bd
       -0.09054113 -0.067927234 -0.11922155 -0.1146921
000040 c1 11 e7 bd ee a2 a4 bd 83 5a b7 bd 11 9f d9 bc
       -0.11282683 -0.08038889 -0.089528106 -0.026565107
000050 85 74 df bd 53 12 c5 3d 6b 78 00 bd b3 93 46 bd
       -0.10910896 0.09622636 -0.03136484 -0.0484807
000060 69 45 31 bd 9b af e2 bd 2a c4 6a be 59 94 ca 3c
       -0.043279085 -0.1106865 -0.22926393 0.02472894
000070 56 f1 b6 3d d1 07 7c 3d bd d2 c7 3d ba b3 b4 bd
       0.0893275 0.06153089 0.09756992 -0.088233426
000080 8e 03 6c bd e2 71 56 3d 73 fd 3c 3d 19 58 94 bd
       -0.057620578 0.0523547 0.046140146 -0.07243366
000090 4c 62 44 3d e5 c0 06 bd 6c 92 85 bd e9 f1 99 3d
       0.047945306 -0.032898802 -0.065220684 0.07516844
0000a0 bc 11 2d be 04 96 05 3e 07 34 cc 3d 21 8a 90 3d
       -0.16901296 0.13045508 0.09970861 0.07057596
0000b0 df cc 90 bd 4b c4 33 3d a9 c6 f5 3d 30 2e b7 3b
       -0.07070326 0.04388837 0.12000782 0.005590223
0000c0 54 07 80 be 6f a5 a5 bd b7 83 18 3e b4 d0 1c bd
       -0.2500559 -0.080881946 0.14893995 -0.038284972
0000d0 e9 d5 f7 bc a4 fb 87 bd 40 31 a7 bd a2 c0 06 be
       -0.030253367 -0.066397935 -0.081636906 -0.13159421
0000e0 41 59 f9 bd 2b 91 83 be 1d 15 a5 be 62 bb 87 bd
       -0.12175227 -0.25696692 -0.3224267 -0.06627537
0000f0 3d 3f 5c bb 06 e6 f6 bd 0d 3f ca 3c 62 45 8a bd
       -0.003360703 -0.12055592 0.024688268 -0.06751515

conv1.lin_r.weight f4 [64, 50]
000000 9a a4 63 bd 8d 5a d6 bd 58 68 c4 bd 68 08 0f be
       -0.0555769 -0.1046649 -0.095902145 -0.1396805
000010 67 c8 47 be c3 a5 e9 3c 73 d3 19 bc de 02 94 bb
       -0.19510041 0.028521424 -0.009388792 -0.0045169434
000020 1f 61 aa 3c 3c 43 1e be 36 1a 28 be a7 e8 ce 3d
       0.020798264 -0.15455335 -0.16416249 0.10102969
000030 fe 45 82 be d1 30 3c 3e 40 71 c4 3d 0b 6a 50 bc
       -0.25444025 0.18377997 0.09591913 -0.012720595
000040 ee 7c 44 3d 90 c0 f7 bd 13 72 ea 3d f7 a2 45 3d
       0.047970705 -0.12097275 0.11447539 0.04825112
000050 94 94 9b 3d fc 5f 1a bc be 17 90 3e 75 d1 09 bb
       0.075966984 -0.0094222985 0.28143114 -0.0021029387
000060 3e 94 25 be e8 eb f8 bc 85 7b 62 bb d9 26 e4 bd
       -0.16169831 -0.030385926 -0.0034558487 -0.11140222
000070 78 de c9 bc 21 3e 02 3e cc d6 62 3d f6 a5 93 3d
       -0.024642214 0.12719013 0.055380628 0.07209389
000080 1f b7 8f be f3 59 0d 3d 6a fc 55 bd 17 3c 26 3e
       -0.28069398 0.03450961 -0.052242674 0.1623386
000090 5b 11 3c 3d c5 43 ea 3d 2b 1d 4c 3e f1 1e bf bd
       0.04591499 0.11438707 0.19933002 -0.093320735
0000a0 60 9a 19 3d 7e da 61 3d a5 25 5b bd bf d6 e1 bc
       0.03750074 0.05514001 -0.053502697 -0.02756822
0000b0 83 7d 3c bc 37 5b 89 3e bd 9a 67 be 14 51 8f 3c
       -0.011504534 0.26827404 -0.22617622 0.017494716
0000c0 98 10 32 bd ca d5 0f 3e 5f e0 67 bd 85 21 f5 bd
       -0.043472856 0.14046398 -0.05661046 -0.11969284
0000d0 49 ac 18 be b6 7c ac 3c 1e cd e2 3b 6f a7 c2 3d
       -0.14909472 0.02105556 0.0069214245 0.09504592
0000e0 0e 8d 3a bd 05 c3 b0 3d 23 3d 32 3e 5b 2c 2d be
       -0.045544676 0.08630947 0.17406134 -0.16911452
0000f0 cb b1 30 3d dc a0 c6 3d 18 93 72 bc ac f4 09 3d
       0.043138307 0.0969865 -0.014805578 0.033680603
000100 f3 e0 28 bd d0 b5 6b bd 24 7e d1 bd 21 d1 a8 be
       -0.041230153 -0.057546437 -0.102291375 -0.32972053
000110 52 a2 32 3e fd 81 ac 3d 3b fe 26 be 7a 43 1c 3c
       0.17444733 0.08423231 -0.16307919 0.009537572
000120 f1 ab be be 32 4d ad be 48 5a 75 be b6 41 cd 3d
       -0.37240556 -0.33847958 -0.23960221 0.10022299
000130 d9 81 bd bc aa 65 d6 bd 2c 85 62 be e9 50 37 3e
       -0.023133205 -0.1046861 -0.22121114 0.17901959
000140 17 6f c9 3c e1 f5 fe bd c8 26 0f bd ee 35 52 be
       0.024589105 -0.124492414 -0.034949094 -0.20528385
000150 5e 1d 6f bd 03 47 99 bd 8c dd 54 3d 35 67 8c 3e
       -0.058377616 -0.074842475 0.051969096 0.2742249
000160 8a c3 9b be f4 a0 5d bd b3 5f 39 3d f9 20 83 3e
       -0.30422622 -0.054108575 0.04525728 0.25611094
000170 b8 f4 73 bd 60 d3 eb bc 9e 5c e3 bc f1 80 2e be
       -0.059559554 -0.028787315 -0.027754124 -0.17041375
000180 40 1e e9 bd 7c 92 89 3e bc fc 07 be 4a 4c 31 3e
       -0.11382723 0.2686957 -0.13280004 0.17314258
000190 b2 9a de 3c 3f c8 14 be e8 a6 10 3d f6 81 96 be
       0.027173374 -0.14529513 0.035315424 -0.29396027
0001a0 d6 57 cf bd 2f e6 5c be de c7 54 3b 28 a8 b5 bd
       -0.10124175 -0.21572183 0.0032467763 -0.08869964
0001b0 43 00 91 3c 5a 26 9a 3e e4 d2 35 3e a6 bb a8 3e
       0.01770032 0.30107385 0.1775623 0.32955664
0001c0 21 f8 5f 3e de 03 64 be 4d 25 19 3e ba e7 d7 3d
       0.21871997 -0.222671 0.14955635 0.10542245
0001d0 de e1 45 3b 12 b8 c2 3d 0a f7 9b 3d 54 4e ea bc
       0.0030194442 0.09507765 0.07615478 -0.028601803
0001e0 c4 11 56 bd 8a 77 74 bd 75 a9 91 3e 0b 3b 16 3e
       -0.052263036 -0.059684314 0.28449598 0.1467096
0001f0 ac 60 c0 3e bd 0b fe 3d 15 57 d0 3e e2 47 58 be
       0.37573755 0.12404583 0.40691438 -0.21121171
000200 7c b6 0d 3d 48 06 fa bd 48 3d 0d be 6f 38 50 3e
       0.03459786 -0.12208229 -0.13792908 0.20334028
000210 a7 b7 11 bc 6f 0d e7 bd da 83 70 be c2 89 2e bd
       -0.008893884 -0.11281859 -0.23487797 -0.042611845
000220 83 99 bd bd 6a 4e 91 3d 71 1c 8c bc 1d 0a cd bd
       -0.09257796 0.070950344 -0.017103406 -0.100116946
000230 0b 27 d0 3d 61 7e 9c 3d d0 73 ca bd 04 38 e8 3d
       0.10163697 0.07641292 -0.09885371 0.11338809
000240 6f a2 5f 3e 71 61 55 3e 0e 89 08 be d8 da 96 bd
       0.21839307 0.20837952 -0.13333532 -0.0736596
000250 1f f9 1f bd e5 c5 6a 3e ae 11 a2 bd d2 b3 fd bc
       -0.03905594 0.22927053 -0.079135284 -0.030969534
000260 73 29 03 3e f8 f2 bc bd 27 c8 b6 bd 29 c3 a0 bd
       0.1280878 -0.0922603 -0.08924895 -0.07849724
000270 c9 d2 91 3a 83 eb 15 3e 31 00 25 3e 1a 20 ea bd
       0.0011125441 0.14640622 0.16113354 -0.11431904
000280 51 dc 8a bd a9 bb b4 3c 64 25 29 3e ac e3 fb bd
       -0.06780303 0.02206214 0.1651817 -0.12299284
000290 11 2a 69 be 81 34 d6 bd 39 d2 4d 3c 5f 6f 33 be
       -0.22769953 -0.10459233 0.012562328 -0.17522953
0002a0 01 4c 91 3c 3a ac cf 3d c0 55 60 bb b6 6a 9a 3c
       0.017736437 0.101402715 -0.0034230798 0.018849712
0002b0 58 44 c1 bc c3 12 18 3d b6 b6 78 3d 16 bb aa 3d
       -0.02359216 0.037127268 0.06072112 0.08336465
0002c0 1d ca 73 3e 97 a3 b5 bd bf 34 2c bd b4 dd 44 3c
       0.23807569 -0.08869093 -0.04204249 0.012015749
0002d0 26 19 87 bd cc 49 1c bd 32 ad ed 3b 08 2e 14 be
       -0.065965936 -0.038156316 0.0072533125 -0.14470685
0002e0 bf 1a 79 bd f7 80 d3 bd 05 46 e3 bc d2 7f 23 be
       -0.060816523 -0.103273325 -0.027743349 -0.15966728
0002f0 dd e4 b4 bc c3 e2 95 3d dc 2a 71 3e 47 e4 52 bd
       -0.022081787 0.07318642 0.23551506 -0.051487233
000300 d1 bf 10 3e be 23 31 bd 1d c7 fa 3c de e2 62 3d
       0.14135672 -0.043246977 0.030612523 0.05539214
000310 f4 da 83 3d fb f3 87 bc 15 6e de bc 2e 7b 20 bd
       0.06438246 -0.016595831 -0.0271521 -0.039179973
000320 d2 30 76 3e f7 8a 14 bc bd f3 68 be 65 32 65 3e
       0.24042061 -0.009066335 -0.22749229 0.22382505
000330 3c 58 9e be 50 d4 e5 bd e5 e2 15 bd b5 46 9a 3d
       -0.30926692 -0.11222136 -0.036593337 0.075330175
000340 53 a8 01 3d 54 c4 4e 3c d9 65 1b 3e 2b be 79 3e
       0.031654667 0.01262005 0.1517557 0.2438895
000350 ba 04 2d 3e 88 24 db bd 12 d2 a6 3d 00 a7 b0 3d
       0.16896334 -0.10700327 0.081455365 0.08625603
000360 04 c4 80 bd 39 b3 0b 3e fd 88 e2 3d 7b 3c 96 3e
       -0.06287387 0.13642587 0.11061285 0.29343018
000370 1f 0c 15 be 6c ec 38 3b 39 aa fc bd 42 b2 49 3d
       -0.14555405 0.002821709 -0.12337155 0.049242266
000380 1c 24 36 3c 19 eb 97 bc 41 88 4e bd d6 db d1 bd
       0.011117008 -0.01854472 -0.05042291 -0.102470085
000390 b5 ac 4f be d6 d8 11 3d 49 69 b3 bd b3 17 7a be
       -0.20280726 0.03560718 -0.08760316 -0.24423103
0003a0 c7 d1 9f bd 0f 15 bd bd 34 f2 cb 3c 82 5d e6 3d
       -0.07803684 -0.09232532 0.024895765 0.11248304
0003b0 3d 7d fb bd 93 c5 5b be 45 8e 40 be 63 66 58 3e
       -0.12279747 -0.21462087 -0.18804272 0.21132807
0003c0 cb 22 22 bd bf c9 1a 3e bc d7 2c 3e dc ee 0e 3e
       -0.039583962 0.15116023 0.16879171 0.13958305
0003d0 f2 9a a4 bd 6e 32 f1 bd cc 4f 18 be 98 20 0f 3e
       -0.08037366 -0.11777197 -0.1487419 0.13977277
0003e0 06 8c 2a bd c9 a7 16 be 5b 6f 88 3d 8d 9d a9 bd
       -0.041637443 -0.14712442 0.06661864 -0.082820036
0003f0 29 0d 7e bd 30 46 fd 3d d7 53 97 be 9e 2f 8e 3e
       -0.06202427 0.12366903 -0.29556152 0.27770704

conv2.lin_l.weight f4 [128, 64]
000000 9e 22 22 bd 54 6a 0d bc eb e7 45 bd 4c e8 20 bc
       -0.039583795 -0.008631308 -0.048316877 -0.009821009
000010 86 25 e9 3d e3 80 06 3d 8a e7 7c bd 06 df 9c 3d
       0.1138411 0.03283776 -0.06174425 0.07659726
000020 3b 5d e6 bc 06 3d 5c 3d 05 9c a8 3c 00 e2 3f 3e
       -0.028120628 0.053769134 0.020582208 0.18738556
000030 52 d2 f3 bd 58 79 e7 3c a1 b4 be 3d 83 57 5b bd
       -0.1190535 0.028256103 0.09311796 -0.053550255
000040 ca e2 ac bd b1 02 ec bd 27 37 7f bc a3 40 14 bd
       -0.08441694 -0.11523951 -0.015577114 -0.036194455
000050 12 c6 e5 bd 0c 2b 3c bd f5 b8 2f 3c 88 62 ab 3b
       -0.112194195 -0.04593949 0.01072525 0.0052302517
000060 7b be ca bd 45 c4 52 3d 86 3e 27 3d 09 18 2e bd
       -0.098996125 0.05145671 0.04083111 -0.04250339
000070 72 a5 11 be 8d 08 11 3e 23 9f be 3b 9f f5 c7 bd
       -0.14223269 0.14163418 0.0058173104 -0.097636454
000080 8e ac d7 3d a3 29 34 3c e7 81 84 bc 71 a5 3d 3d
       0.10530959 0.010996255 -0.016175224 0.046300355
000090 74 93 3f bc 7c 6f ca 3d 8f 5d 40 3d 25 e8 04 3d
       -0.01169287 0.09884545 0.046964224 0.032447953
0000a0 15 87 81 bb 0f 4a 35 3c 85 28 0c 3d 34 0d 09 be
       -0.0039528706 0.01106502 0.03421833 -0.13383943
0000b0 93 86 5b 3c ec d1 80 bd b0 c7 8c bc 40 a3 a7 3c
       0.013398784 -0.062900394 -0.017185062 0.020463586
0000c0 6e a5 e9 3c 3a 4b c2 3b 6b ff 89 bd 9e 48 c7 3d
       0.028521266 0.005929378 -0.0673817 0.097306475
0000d0 bf 69 9f bd 7a 24 85 3b 37 1e 70 bc cb fd 82 3d
       -0.07783841 0.0040631862 -0.014655641 0.063960634
0000e0 6f c7 e9 bc 7b d9 8a 3d f2 d8 a5 3d 27 93 39 3c
       -0.02853748 0.06779762 0.0809802 0.011326588
0000f0 c8 1d 8a bd df 1b c5 3c 3e 9e e1 3b f5 8c 13 bd
       -0.067439616 0.024061142 0.006885319 -0.0360231
000100 ba c7 5c bd 17 e1 db 3c 9f df 01 bd 8d 1a c3 bd
       -0.05390141 0.02684073 -0.031707402 -0.095265485
000110 9f 92 03 3d 61 11 ca 3d 52 2f 5b 3c a3 04 04 3e
       0.03212225 0.09866596 0.013377981 0.12892394
000120 99 eb 8b 3d 3c e6 01 be 98 34 e0 3c 22 8d b9 3d
       0.06832046 -0.12685484 0.027368829 0.09060122
000130 20 5c 24 be e0 d0 6b bc 20 05 f8 3d a6 04 37 bc
       -0.16050768 -0.014393061 0.121103525 -0.011170542
000140 9b 06 93 3c fe 1d ff bc 22 1c 0d bd 7e 70 57 bd
       0.017947486 -0.031142231 -0.034450658 -0.052597515
000150 92 c7 a6 bd 9a c8 34 bd eb 28 40 3c a0 f9 cf bd
       -0.08143534 -0.04413662 0.011728506 -0.10155034
000160 58 af 1e 3b 5d cc 9f bd 8c 7f e6 3c 54 d4 92 bd
       0.00242134 -0.07802651 0.028136991 -0.071694046
000170 4d 3a 6b bc 04 1d d0 bd 66 ac b4 bb 78 d4 e7 bc
       -0.014357162 -0.10161784 -0.0055137156 -0.028299555
000180 b6 73 c9 bd 4c 5f 25 bd 23 8b e9 3b 4c 4f 4a 3d
       -0.09836523 -0.040374085 0.007127182 0.04939203
000190 23 bd 0c bd 4f cd 44 3d d9 95 b6 3d e3 dd c9 3c
       -0.034360062 0.04804736 0.089153 0.024641937
0001a0 ca 45 35 bd d0 07 1f bd 29 c8 3e 3c db f5 f9 bd
       -0.04425601 -0.03882581 0.011644402 -0.12205096
0001b0 13 fe 71 bd 2b 7c 17 3e 4e 08 68 3c 9e 07 84 3b
       -0.059080195 0.1479346 0.014162136 0.0040292284
0001c0 2a a0 6d 3c e1 e9 17 bd 2b 51 05 be 45 dc 60 3c
       0.014503518 -0.03708828 -0.13019244 0.013724391
0001d0 92 45 65 bd 86 ce 54 bd 58 b3 31 bb 53 84 90 3d
       -0.05597455 -0.05195477 -0.0027114954 0.07056489
0001e0 d4 b3 ce b9 a4 a2 20 3d 03 b4 af 3d bb fb 30 3b
       -0.00039425364 0.039217606 0.085792564 0.0027005512
0001f0 75 ff 27 3b 84 b8 ba 3c 72 51 cb 3b d7 79 be 3c
       0.0025634442 0.022793062 0.0062047774 0.023251457
000200 10 54 65 bc b8 ae bb bc 4a af 89 bd 6b 56 b4 bd
       -0.013997093 -0.02291046 -0.06722887 -0.088055454
000210 a3 67 5d 3d 5f a9 73 3d 4b 50 fd bc 65 65 0a 3e
       0.054053914 0.059487697 -0.030922076 0.13515241
000220 0f f7 69 3d 71 e0 01 be ac d6 de 3c 7f 76 76 3e
       0.05712038 -0.12683274 0.027201973 0.2406864
000230 1e e8 a4 bd c9 d7 45 bd b0 1f da 3d 33 80 e0 bc
       -0.08052085 -0.048301492 0.10650575 -0.02740488
000240 2d fc 9a 3c 56 d4 6e bd d3 a7 79 3d a0 e6 56 bd
       0.018919075 -0.058307968 0.060951065 -0.052466035
000250 7a f6 13 bd 77 75 86 bd fd 93 08 3d 11 4d 2c be
       -0.03612373 -0.065653734 0.033344258 -0.16826274
000260 4e fe 0f 3d d2 56 18 bd bb ae 48 3d 42 00 c7 bd
       0.035154633 -0.037192173 0.04899476 -0.09716846
000270 61 f2 0b be 3e 9f 6c 3d 9f 43 18 bd 10 f4 2b 3d
       -0.13666679 0.057769053 -0.037173864 0.041980803
000280 79 fd 8f bc 10 e5 8c bc 59 14 7e bb 60 27 2d 3d
       -0.01757692 -0.01719907 -0.0038769452 0.04227388
000290 89 a2 c8 bd 96 b5 9c 3d c8 59 3c 3d 77 4e bf 3b
       -0.09796626 0.07651822 0.04598406 0.005838211
0002a0 aa 20 40 3c 95 00 28 bc ae 28 89 3d 70 cf 13 be
       0.011726538 -0.010254045 0.06697212 -0.144346
0002b0 9a 41 49 3c af 76 96 3d 1f 28 9b bc 53 04 8d bc
       0.012283707 0.07346856 -0.01894003 -0.017213976
0002c0 d8 cb 85 3d c7 d4 b0 b9 00 07 93 3b 55 2a a4 3d
       0.06533021 -0.00033727867 0.0044869184 0.08015887
0002d0 1e 2d f9 bc 35 af 9a bb e4 76 5f bc 45 c2 7a 3d
       -0.030417021 -0.0047205933 -0.013639186 0.061220426
0002e0 c8 51 a3 3b 40 20 76 3d e3 5c bc 3d f0 e4 99 bb
       0.0049841143 0.06008935 0.09197404 -0.004696481
0002f0 2a 74 0a 3b 5a ac 39 3e 3f 45 04 bd fb 54 08 bd
       0.0021126368 0.18132153 -0.0322926 -0.03328417
000300 b0 eb 80 bd 29 bb b8 bd 46 8b a3 3d e6 61 b8 bb
       -0.06294954 -0.09020073 0.07985549 -0.005626905
000310 93 f8 3e 3d 20 cc 24 3d 9b 56 eb 3c 3c cb 2f 3e
       0.046623778 0.04023373 0.02872782 0.17167372
000320 c5 df b9 3d fd 75 cb bd 03 b1 59 3d 63 13 03 3e
       0.09075884 -0.09934614 0.053147327 0.12800364
000330 69 a9 a1 bd 41 7d db 3d 63 9c b9 3d 3a 20 1c 3d
       -0.078936405 0.1071725 0.090630315 0.03811667
000340 9e 06 2d 3d 9f 26 00 bc 36 bc 0b 3d fe 05 7c bb
       0.04224264 -0.007821708 0.03411504 -0.003845572
000350 68 42 9d bd 4d 1f 9c 3d ac e8 6f bd 4e 87 b6 3b
       -0.076786816 0.07623158 -0.058571503 0.005570329
000360 57 73 fa bd 58 ea 4e bd 2a 9b 82 bd 18 0a 39 bd
       -0.122290306 -0.050516456 -0.063772514 -0.04517564
000370 e2 0c 9c bb 72 f2 ba 3d 31 1e 3c bd cd fb 8a bd
       -0.004762278 0.09128274 -0.04592723 -0.067863084
000380 46 a1 f8 3b 83 e2 a4 bd 20 d0 7b 3d 80 f6 10 bd
       0.0075875847 -0.08051016 0.06147778 -0.03539133
000390 6c db f9 3c 0b bd 86 3d 7b ec db 3d af 87 8e 3c
       0.030500136 0.06579026 0.107384644 0.017398683
0003a0 cf 94 a5 3d 58 9c 5f 3d a2 8d 96 3d 3a a1 4d 3d
       0.080850236 0.05459246 0.07351233 0.050202586
0003b0 e8 ec f7 3d 6a 9f 0b 3e 7d 68 03 3c 16 e8 72 bd
       0.12105733 0.1363503 0.008020517 -0.059303366
0003c0 25 1f d0 3d 23 70 14 bd b7 ba b1 3c 99 d7 3e 3d
       0.1016219 -0.036239754 0.021695478 0.04659233
0003d0 a2 49 06 be a1 fc 1a bb e8 e6 03 3b 01 b9 f2 3d
       -0.13114026 -0.0023649114 0.0020126645 0.11851693
0003e0 ed c7 9f 3d e2 b2 f0 3d 32 de fd bc 02 eb 9e bd
       0.07801805 0.11752869 -0.03098974 -0.07759668
0003f0 06 fb c3 bb 41 fa c0 3c df c2 f5 3d 7f d0 7a 3d
       -0.005980852 0.02355683 0.12000059 0.061233994

conv2.lin_l.bias f4 [128]
000000 ac b3 cd 3c fd ee 3f be a8 8f 63 be fa a1 a5 bd
       0.025110088 -0.1874351 -0.2222277 -0.08087535
000010 4c 48 01 bd c5 07 25 bd 21 ec 08 be b5 51 33 be
       -0.03156309 -0.040290613 -0.13371326 -0.17511638
000020 b6 df 39 3e bf e0 a1 bd 95 a0 04 3e 7b b7 33 be
       0.18151745 -0.07904195 0.12951882 -0.17550461
000030 4b 71 b9 3d 41 8a 68 bd 29 3a 7d bd 5e b7 08 bd
       0.09054812 -0.056772474 -0.061823044 -0.033377998
000040 13 25 65 3d f4 67 90 3d 34 dc e8 3d 17 56 72 bd
       0.05594356 0.070510775 0.113701254 -0.059164133
000050 db 8c 33 be c2 21 f0 bd 3e 04 fd bd 86 0b 63 bc
       -0.17534201 -0.11725189 -0.12354325 -0.013857728
000060 fe 92 27 be 37 99 3e 3e c8 1a 4d 3e b3 a5 16 be
       -0.16364667 0.18613134 0.20029747 -0.14711647
000070 f1 e9 26 be ef 6c c3 3c ef 4f 7c bd c3 56 72 3e
       -0.16300179 0.023855655 -0.061599668 0.2366591
000080 01 f1 63 be 81 84 63 bd 58 88 4b bd 4c d2 83 3e
       -0.22259904 -0.055546287 -0.049690574 0.2574638
000090 ca 07 fd 3d 9e dc 35 3e 8c ae c0 bd 51 5b 2d 3d
       0.12355001 0.1775994 -0.09408292 0.042323414
0000a0 18 72 f0 3d b9 a0 af 3d 7c d2 33 be a8 c9 41 be
       0.11740512 0.08575577 -0.17560762 -0.18924582
0000b0 9e 62 57 3e d1 c5 8a bc c4 87 27 3e 67 90 88 be
       0.21033713 -0.01694003 0.16360384 -0.2667267
0000c0 35 29 e5 bd ea 2e 5b 3d 78 9d 62 bb 1d d3 30 bd
       -0.111895 0.053511538 -0.0034578722 -0.043170083
0000d0 74 64 9b 3d 1e d3 65 3e 56 10 58 be 8a 3b a1 3c
       0.07587519 0.22443816 -0.21099982 0.01968171
0000e0 da bb 1f 3d fd c3 3d 3d 8f 90 12 bd bc 01 1a 3c
       0.03899751 0.046329487 -0.035782393 0.009399828
0000f0 b4 ee 32 bd 62 47 35 be a2 9c cd 3d d0 60 6a bc
       -0.043684676 -0.17703012 0.10039641 -0.014305308
000100 c8 e3 5e be 0e e5 63 be 1a a6 80 bd f0 62 50 bb
       -0.21766579 -0.22255346 -0.06281681 -0.0031797253
000110 f1 a1 a0 bc 10 30 c8 bd d7 58 9b 3c 66 14 56 bd
       -0.01960847 -0.09774792 0.01896326 -0.052265547
000120 0e d9 a8 3c 6c 3e 8d 3d 84 a0 72 3d 86 54 9e bd
       0.020611312 0.06896672 0.05923511 -0.07730965
000130 bc 7e 17 be 5c ab 4d be e4 5f ea 3d c9 c1 6f bc
       -0.14794439 -0.200849 0.11444071 -0.014633604
000140 51 a3 9f bd 89 bf 22 bd d3 18 47 be 26 7e 36 be
       -0.07794822 -0.039733443 -0.19443063 -0.1782156
000150 1c 5e fe bd e0 f9 93 3d 3d 15 18 3e a3 71 74 bd
       -0.12420294 0.07225394 0.14851852 -0.059678685
000160 2e 41 61 be 65 b2 8b 3d 4d 31 b4 3d 91 e8 a7 bb
       -0.2199752 0.068211354 0.08798466 -0.0051241596
000170 da f2 27 bd d2 ef c1 bd 43 84 e5 3c 55 16 9e be
       -0.041003086 -0.0946957 0.028017169 -0.30876413
000180 83 f6 57 3e 05 be 24 3d 4d f7 31 be aa e4 51 be
       0.2109013 0.04022028 -0.17379494 -0.20497385
000190 0b 43 31 3e 29 2c 8f be 34 8e a0 3e b5 d7 24 be
       0.17310731 -0.2796338 0.31358492 -0.1609791
0001a0 8a d0 b4 bd ad 6b 17 3e eb 5e 38 be 6c 62 33 bc
       -0.08828838 0.14787169 -0.18004958 -0.010948759
0001b0 1c 6c 34 bd f1 a3 f2 bd 64 de 91 3d ff a1 4c be
       -0.044048414 -0.118476756 0.07122496 -0.19983672
0001c0 6b 6d b0 bb c3 b5 ee bd 68 3c 87 bc 06 fb 36 be
       -0.0053841374 -0.11655762 -0.016508296 -0.17869195
0001d0 bc d7 40 be 6e e1 c4 3c 89 23 2a bd f5 5c 06 be
       -0.18832296 0.024033275 -0.041537795 -0.13121398
0001e0 80 4c 77 3d 40 c6 e8 3d 9d e4 b3 bd 5f 5f 03 bc
       0.06037569 0.11365938 -0.08783839 -0.008018344
0001f0 34 18 07 be 12 04 25 3e 42 35 35 be f8 1c 69 3e
       -0.13192827 0.16114834 -0.17696097 0.22764957

conv2.lin_r.weight f4 [128, 64]
000000 dc b5 8b bc e6 81 49 bd d0 77 0b bd 1d 59 23 3d
       -0.01705449 -0.049196146 -0.03404981 0.039879907
000010 9e 29 f6 3d 01 58 0d 3e 3f 03 a9 3d 14 7f d4 3d
       0.120196566 0.13803102 0.08252572 0.10375801
000020 7b df 89 bc d4 dc c9 bc b9 5b c4 3d bc 34 93 bd
       -0.016830197 -0.024641432 0.09587807 -0.07187793
000030 ca 2c 4e bc 74 d3 03 3e 11 7c d6 3d da 42 05 3d
       -0.012583921 0.12873632 0.104728825 0.032534458
000040 34 97 87 bd 33 3e 12 be 6c ed ed bb 6e 0c 1f 3d
       -0.066206366 -0.1428154 -0.007260969 0.038830213
000050 25 cb 11 bd f5 9d c9 bd 54 22 f5 bd e6 3a c0 3c
       -0.035594124 -0.09844581 -0.11969438 0.023465585
000060 00 c3 96 3d 5b b9 4b bd d2 7e 9d bb 4c b6 e5 bd
       0.07361412 -0.049737316 -0.004806378 -0.11216411
000070 7c 5c a8 bc 9f 22 21 be 70 f0 ad bd d2 10 33 be
       -0.020551912 -0.15735863 -0.084931254 -0.17486885
000080 a4 32 b6 3d a7 1e a0 bd 06 7f 56 3c da 04 40 3d
       0.08896378 -0.078183465 0.013091808 0.046879627
000090 8e 99 7d bd 07 d6 a8 3d dc d3 51 be 18 4c 30 bd
       -0.06191402 0.082439475 -0.20490974 -0.04304132
0000a0 a5 86 2d bd dd 49 96 bc ee 52 9a 3d 2c 7b 0a 3c
       -0.042364735 -0.018345768 0.07535349 0.008452218
0000b0 13 97 0a 3e 68 d4 2e be 0e ee ff 3d 99 28 c8 3d
       0.13534193 -0.17073214 0.12496577 0.097733684
0000c0 60 9b fb bc 52 5a e0 bd af 2f 68 bc af 33 02 be
       -0.030713737 -0.10954727 -0.014171525 -0.12715028
0000d0 d7 f2 c5 3b 9d ad 53 bd a4 3a 11 bd 3e c2 02 bd
       0.0060409117 -0.051679242 -0.035456315 -0.031923525
0000e0 1c e1 6b bd 7d b2 08 3e 2d 19 9a 3d b4 17 38 bd
       -0.057587728 0.13349338 0.07524333 -0.04494448
0000f0 45 2d f4 bd 49 b9 01 3d 5e f0 0c bb ca 9f 98 bd
       -0.11922697 0.031670842 -0.0021505575 -0.07452352
000100 ae 92 b3 bd ef 26 f1 bd 5b 0c 8e bd f9 1b 08 bc
       -0.08768211 -0.11775004 -0.0693595 -0.00830745
000110 0e 1b eb 3d 96 c6 69 3e fb ab 83 3d 9b 0c 82 3e
       0.1147977 0.22829661 0.06429287 0.25400242
000120 6e da 38 bd 2d 98 25 be 31 37 85 3e 23 66 7e bd
       -0.045130186 -0.16171332 0.2601867 -0.062109124
000130 cb 89 f1 bd 07 39 11 3e d0 49 1d 3e 65 54 27 3d
       -0.1179386 0.1418191 0.15360188 0.04085197
000140 9c 8e 80 bd 08 d9 df bd 68 44 b0 bd ae ae 12 3e
       -0.062772006 -0.10930067 -0.086067975 0.14324448
000150 44 ce 34 be 41 70 2d be 88 b3 ee bc 7b 6b 2c be
       -0.17656809 -0.16937353 -0.029138342 -0.16837876
000160 d7 fc f0 bd 45 2b ee bd 65 d1 07 3e 4d ec a1 bd
       -0.117669754 -0.11629347 0.13263471 -0.07906399
000170 93 7a 1f 3d 4c d8 a4 bb d3 2d 1e ba 5c 91 0d be
       0.038935255 -0.0050306674 -0.000603405 -0.13824981
000180 8b 75 25 be ac 48 98 3c 6c f0 b4 bc f4 1c f9 3d
       -0.1615812 0.01858934 -0.022087298 0.121637255
000190 15 e0 ba bc d6 ce ba 3d 38 8d 08 be c0 e6 21 ba
       -0.022811929 0.09121482 -0.1333512 -0.0006176047
0001a0 13 9d 73 bd 14 12 99 bd fd 3d 49 3d 82 a1 9a bb
       -0.05947597 -0.07474151 0.049131382 -0.0047189603
0001b0 0e 7b d0 bc 20 03 10 bd 83 e0 f5 3d 97 71 ed bc
       -0.025449302 -0.03515923 0.12005713 -0.028984828
0001c0 c1 45 2a 3e 4a 84 80 3c 0f 6c 41 bc 78 07 4d bd
       0.16628172 0.01568808 -0.011805548 -0.05005595
0001d0 58 86 5f bd 17 34 d4 bd 37 62 57 bd 87 3c 30 3e
       -0.05457148 -0.10361498 -0.0525839 0.1721059
0001e0 f9 1d 30 3b 70 44 82 3e 2b 03 6a 3e 50 3b 93 bd
       0.0026873334 0.2544284 0.22852771 -0.07189047
0001f0 58 f6 aa bc 3f 25 81 3c 7b b8 00 3c 72 6e 03 bd
       -0.020869419 0.01576483 0.007856484 -0.03208775
000200 79 92 65 bd ba e6 04 be 51 3b d1 bc 41 af 8b bc
       -0.05604789 -0.1297864 -0.02554098 -0.017051341
000210 78 9d ee bb ec b0 0c 3e 83 d9 a1 bd f2 70 4a 3e
       -0.0072819553 0.13739365 -0.07902815 0.19769648
000220 47 62 06 be 72 c6 2c be f2 71 7e 3e 36 c1 2b 3d
       -0.13123427 -0.16872576 0.24848154 0.041932307
000230 9e 51 35 3d b9 e5 c9 3d 15 e3 4d 3e e1 47 10 bd
       0.04426729 0.09858269 0.20106156 -0.0352248
000240 ac 6b bd bb 97 af c3 bd 27 42 2e bd 06 56 f0 3d
       -0.0057806578 -0.095549755 -0.042543557 0.11735158
000250 c6 6e 0d be 18 d7 1d bd 47 57 97 3d 26 17 a8 bd
       -0.13811788 -0.038535208 0.07389694 -0.0820754
000260 e3 b2 7e bd 51 ed 44 bd 08 69 05 3e 8b f8 54 bd
       -0.06218232 -0.048077885 0.13028347 -0.05199484
000270 11 5b c9 bd 1a 19 35 be 15 74 0d bc 09 b2 fc bd
       -0.09831823 -0.17685357 -0.008633633 -0.12338645
000280 ac 12 11 be af 72 f5 bd d9 40 b8 bc 84 8b 5f 3e
       -0.14167279 -0.11984765 -0.02249186 0.21830565
000290 1e 60 65 bd a8 c6 13 3d 95 46 25 be ac b0 9c bd
       -0.055999868 0.036078125 -0.16140206 -0.07650885
0002a0 19 49 5e bd d7 72 a1 bd 2e e6 2f 3c ab aa fc bd
       -0.05426893 -0.07883232 0.010736031 -0.1233724
0002b0 af fb 71 3d 90 9e b3 3c f5 50 66 bd 97 43 d2 bd
       0.059077915 0.021926194 -0.05622955 -0.10266798
0002c0 40 65 0f 3e 98 20 43 3d 98 3c b3 b9 b2 14 55 bd
       0.14003468 0.047638506 -0.00034186686 -0.05202169
0002d0 f5 3a b4 3d 73 23 9d bd 60 8a 21 bd ed 7a ce 3d
       0.08800308 -0.07672777 -0.039438605 0.1008204
0002e0 d5 f3 19 bc 2d 07 84 3e ca 40 4c 3e b6 39 24 bc
       -0.009396513 0.25786725 0.1994659 -0.010023525
0002f0 9d 75 c9 3c 3a 86 85 3b a3 b3 72 bd 60 aa 76 bd
       0.024592215 0.004074839 -0.059253346 -0.060221076
000300 09 b3 a5 bd 10 20 46 be 41 90 f1 bd f1 52 26 bd
       -0.08090789 -0.19348168 -0.117950924 -0.040606443
000310 6f 48 cc 3d 0b 38 09 3e 5d f3 bc 3d 67 9a 21 3e
       0.09974753 0.13400285 0.09226105 0.15781556
000320 c7 49 21 bd 7e 02 1b be ec 08 e2 3c 76 5d 0c 3c
       -0.039377 -0.1513767 0.027592145 0.008567205
000330 23 8c a9 bb cb 0b cd bd 2f 7b 88 3d 47 43 6f bc
       -0.0051741763 -0.10012015 0.066641204 -0.0146034425
000340 10 5d e6 bd 1d 11 07 be 06 66 f7 bd 03 5b e5 bd
       -0.11248219 -0.13190122 -0.12080006 -0.11199
000350 6a b9 5d be 0e b3 0e 3e 12 73 28 3e e1 e1 25 be
       -0.21652761 0.13935491 0.16450146 -0.16199447
000360 ac 67 18 3e 7a 5d 16 bd 0a 54 3c be 90 59 bb bd
       0.14883298 -0.03671024 -0.18391433 -0.09147942
000370 8e 06 5d 3c ee 4d b9 3c 98 8a 4e 3d f8 64 29 be
       0.013490332 0.022620168 0.050425142 -0.16542423
000380 ce 34 27 3d 0e 67 b9 bc 61 ee 2e bd 49 e1 4e be
       0.040821843 -0.022632148 -0.042707805 -0.20203127
000390 af 17 17 bd 40 d3 aa 3d 5c b6 c4 3d 12 e2 0d 3d
       -0.03688782 0.08341074 0.09605095 0.034639426
0003a0 7c c8 c6 bd 58 a9 0c be 06 19 ed 3d 05 f1 e7 3d
       -0.09706208 -0.13736475 0.115770385 0.11325268
0003b0 19 b6 00 3e 33 5c 20 bd 0c 5f 2d 3e 7e 80 0f be
       0.12569465 -0.039150428 0.16930789 -0.1401386
0003c0 35 b3 6b 3e 0a 87 53 bd 9d c5 81 bd 38 aa b3 bb
       0.23017581 -0.051642455 -0.0633652 -0.005482938
0003d0 06 62 86 bc f3 d5 a8 bd b9 19 63 bd fb e5 1b 3e
       -0.016404163 -0.082439326 -0.055444453 0.1522445
0003e0 b5 7b a0 3d 2b ce 39 3e a8 47 ca 3b 75 48 83 bd
       0.07836095 0.18145053 0.006173093 -0.064103045
0003f0 ee 8c 12 3d d4 97 17 3d a5 c1 17 3d dd b8 de bc
       0.035778932 0.03701003 0.03704991 -0.027187759

conv3.lin_l.weight f4 [256, 128]
000000 79 4b af bd 8f 3c 32 bd 5e d7 ae bc 3f 5f a8 3c
       -0.08559317 -0.043514784 -0.02134293 0.02055323
000010 ac f8 4f 3c 36 23 62 3c cf 89 45 3c 71 79 9e bc
       0.012693565 0.01380234 0.012056782 -0.019345017
000020 89 1f 1d bd b6 b5 00 bd 07 79 a2 3d 35 51 55 bd
       -0.038360152 -0.031423293 0.079332404 -0.0520794
000030 bc 5e 05 3d 56 1e 65 3c d0 2e 9f 3d 81 60 0b be
       0.03256105 0.013984283 0.07772601 -0.13611032
000040 11 3e 96 bd 17 df 9c 3c c5 39 bf bc 6c 07 73 3d
       -0.07336057 0.019149346 -0.023342976 0.05933325
000050 a4 8d e1 3c 67 05 45 bd 0e d3 82 3d 09 fa db bc
       0.02753336 -0.048100855 0.06387912 -0.026852624
000060 93 ae c2 3d 5d a9 8f bc 1b 80 2b bd ca e7 39 3d
       0.09505954 -0.017536813 -0.041870218 0.045387067
000070 94 ed 9c bd f1 15 31 bc 6e 96 40 bd e9 7b 6d bd
       -0.07662502 -0.010808454 -0.04701846 -0.057979498
000080 00 c0 65 3d 50 9e 6a bd 3f f1 a0 3d 06 7a 1a bd
       0.05609131 -0.057279885 0.07858514 -0.037714027
000090 bc c1 09 be 67 c2 03 bb 93 aa 56 bb 80 de b2 bb
       -0.1345281 -0.0020104886 -0.0032755479 -0.005458653
0000a0 1d 7b 7f bd 50 38 65 bd a4 77 c6 bb fe ef 28 3b
       -0.06237327 -0.055961907 -0.0060567427 0.0025777812
0000b0 6f ec a0 bd 41 38 b2 3c 5c 2b e0 3c 86 f3 9a 3c
       -0.07857596 0.02175534 0.027364425 0.01891495
0000c0 d5 13 7b bc 64 87 26 bd 49 4a 49 bc b0 b9 87 bc
       -0.015324553 -0.040656462 -0.012285777 -0.016568035
0000d0 3b 02 9b bd a9 39 ec bc fc 4b 99 bc 4b 21 87 3d
       -0.07568785 -0.028836088 -0.01871299 0.06598147
0000e0 51 54 1f bd f6 4a e9 3b 2e b2 e7 bb fe 53 80 bc
       -0.03889877 0.0071195317 -0.007070801 -0.01566505
0000f0 82 b9 23 bd 72 c4 30 3d 28 ff d3 3c 5d 26 28 3d
       -0.039971836 0.043156095 0.025878504 0.04105221
000100 0a ff 40 3c 99 75 4e bc 5b da 87 3d a9 85 92 bd
       0.011779556 -0.01260128 0.06633445 -0.071544
000110 10 ad 93 bd 7a df c0 3c 44 61 73 bd d1 fc 1d 3d
       -0.072107434 0.023544062 -0.05941893 0.038571183
000120 2d 33 4d bd f6 81 c8 3b 7f 75 2f 3c e9 84 40 3b
       -0.050097633 0.006119008 0.010709166 0.0029376096
000130 49 a5 c6 3b 64 c1 4d 3d 3a f3 6a 3c a2 dc 1a bd
       0.006062184 0.05023326 0.014340216 -0.037808068
000140 2a 8c 74 bc 6a e6 e7 3b 1a 3a 54 3d eb 53 ab 3d
       -0.014925996 0.007077028 0.051813222 0.083656155
000150 ff a2 22 3d 3e 28 47 3b f7 84 65 bd 6e cb 24 39
       0.039706226 0.0030388976 -0.05603501 0.00015716042
000160 81 d9 82 3c b8 b2 37 3c e6 f4 75 bd 13 27 9c bc
       0.015972855 0.011212043 -0.060048006 -0.0190616
000170 6b 0d 15 bd 66 9a 4d bd 1d 4a bf bc 4a 85 54 bc
       -0.03638975 -0.050196074 -0.02335077 -0.012971232
000180 8d 59 d7 3c a0 aa e6 bc 80 c6 59 3d f7 da 28 3b
       0.026287818 -0.028157532 0.05316782 0.002576528
000190 7a f9 0b bd b1 b9 86 3c c5 f7 e0 bd ab 42 e0 3b
       -0.034173466 0.016445966 -0.10984758 0.006843885
0001a0 5e 93 53 bd ee 7d 3b bd c9 34 a2 3c 38 41 d6 bc
       -0.051654212 -0.045774393 0.01980056 -0.026154146
0001b0 3c d9 43 bd ac 20 00 bd 4a 41 74 bd 60 aa 12 3d
       -0.047814593 -0.03128116 -0.059632577 0.035807014
0001c0 d4 82 58 3b d2 47 db bc a5 46 0f bc 66 65 89 bc
       0.0033036964 -0.026767645 -0.00874487 -0.016771983
0001d0 81 d7 1d 3d f7 f7 31 bc ef c8 54 3d e2 06 f1 3c
       0.0385356 -0.010862342 0.051949438 0.029422227
0001e0 e0 b5 07 bc 0a 40 98 bc b8 5c e2 bb 7a 3c 07 3d
       -0.0082831085 -0.018585224 -0.0069080256 0.03301666
0001f0 c2 eb b6 3c ad 09 bc 3c b8 b8 3b 3d 94 4f 4a bd
       0.022329215 0.022953833 0.04583046 -0.049392298
000200 61 e0 c8 bc 35 a5 8b bb 43 e8 47 bb 36 4f 52 3d
       -0.024521055 -0.0042616376 -0.003050343 0.051345073
000210 0b 68 b3 bc 07 b1 47 3d 09 f8 9a 3c a3 ad 4a 3e
       -0.021900197 0.04875281 0.0189171 0.197928
000220 28 8d d7 3c f6 15 af 3d 9f 0c ba bd 4e 85 2b 3d
       0.026312426 0.085491106 -0.090844385 0.041875176
000230 d3 0f 4f bc ef f5 6b bb 7f f3 e5 3c 6c 98 1f 3c
       -0.01263805 -0.0036004742 0.02807021 0.00974093
000240 20 4f 46 3c 76 61 01 be 71 43 a8 3d 51 c9 fb 3b
       0.012103826 -0.12634835 0.082159884 0.007683911
000250 93 1c 96 3d f1 e6 c1 bc b7 3b 57 3a ae e8 21 3d
       0.07329669 -0.023669692 0.00082104973 0.03952854
000260 b4 0a c2 bb 9f 1e 72 3d 86 4d 04 bd 60 8e f1 bb
       -0.005921686 0.059111234 -0.032300495 -0.0073717088
000270 d0 5b 80 3b c8 4a 2b 3d ed 55 95 3d 34 0d b4 bc
       0.003917195 0.041819364 0.0729178 -0.021978952
000280 ca 5a ab bb c0 f8 0f bd f7 4b 99 3b 35 6a 0d 3d
       -0.0052293288 -0.035149336 0.004678245 0.034525115
000290 51 f4 a3 bd ab c5 a1 bd a4 22 c9 3c 72 fb 7a 3d
       -0.08005584 -0.0789903 0.02455265 0.061274953
0002a0 1f 64 30 3c 1d 20 4f 3d a9 cd 5e 3d ef 67 91 3d
       0.010766058 0.050567735 0.05439535 0.07099902
0002b0 fb cb ac bc 1d ed ee 3c 05 68 6e bc 65 0c 6a 3d
       -0.02109336 0.029165799 -0.014551167 0.057140727
0002c0 cd 0f b5 bc 10 0a a1 bc bd 58 15 bc 03 86 d7 3d
       -0.022102261 -0.019658118 -0.009115395 0.105236076
0002d0 69 7a 6f 3b 7e 74 0c 3e d3 a1 25 3b ab 9b 9d bc
       0.0036541468 0.13716313 0.0025273457 -0.019239267
0002e0 99 91 95 3c 65 67 50 3c 65 e4 18 3a 42 c3 c8 3c
       0.018257903 0.012719964 0.0005832373 0.024507169
0002f0 93 d2 88 3c 6a 80 61 39 66 df ed bc 28 0b 3b 3c
       0.016701972 0.0002150551 -0.029037189 0.011416234
000300 11 29 ec b9 11 ea a4 3d 2d 2c 4a bd 84 11 77 3d
       -0.00045044025 0.08052457 -0.049358536 0.06031944
000310 e9 38 a1 3d bf f5 64 bc f0 9f 01 3d 38 29 8c bc
       0.07872183 -0.013974606 0.03164667 -0.017109498
000320 73 c7 33 3d 0b 57 81 bc ea 63 02 bd 01 c4 22 3b
       0.04389138 -0.015788576 -0.031833567 0.0024836066
000330 73 ca d9 ba 4b af 25 bd 8e ff 1e bd 25 22 de 3d
       -0.0016616121 -0.040450376 -0.038817935 0.10846356
000340 b7 c8 a0 3d 47 b0 56 bc 98 38 de ba 34 12 93 ba
       0.07850783 -0.013103551 -0.0016954122 -0.0011220635
000350 3d 67 09 bd 24 30 93 bb ea 31 a6 3b 22 e2 78 bc
       -0.03354572 -0.004491823 0.005071868 -0.015190633
000360 d3 12 31 bb 0f e7 f6 3c 62 c3 85 3d 67 8c 5a bc
       -0.0027019277 0.030139474 0.06531407 -0.013339139
000370 c7 57 9f 3c d6 f3 10 3d 93 78 31 bc 76 34 22 3d
       0.019451035 0.03538879 -0.01083197 0.039600812
000380 07 71 41 bc 8e e2 30 3d 6d a5 ea 3c f9 7f 29 bc
       -0.011806733 0.04318481 0.028643334 -0.010345452
000390 fa 11 cd bd 1f a0 02 3d ac d9 b0 bb 2e 44 b1 3d
       -0.100131944 0.031890985 -0.0053970423 0.08655582
0003a0 2e 4d 90 3d 78 9c 15 3a a9 d6 0c 3e 01 5a 0f 3d
       0.07045971 0.00057072146 0.13753761 0.034997944
0003b0 91 bc 13 bd d6 a7 63 bd cd e7 bc bc c2 97 77 bc
       -0.036068503 -0.055579983 -0.02305975 -0.0151118655
0003c0 15 41 db 3d c0 16 e1 3d c2 c7 a9 3c 5f c2 03 3e
       0.10705773 0.10990667 0.020725135 0.12867115
0003d0 54 41 8d 3d 54 22 6f bc 82 2b 6a bd 12 da c2 3d
       0.06897226 -0.014595587 -0.0571704 0.0951425
0003e0 05 ef 0c 3d af 84 06 bc e8 70 d8 bb b1 a7 04 3a
       0.034407634 -0.008210345 -0.0066052563 0.00050603884
0003f0 11 48 bf 3c 8f 45 b7 3c c5 8a 9b 3d cb 31 b0 bc
       0.023349794 0.022372035 0.075948276 -0.021508118

conv3.lin_l.bias f4 [256]
000000 26 43 ba bd 1a 90 76 bd f6 dd 9b bd 0f 11 9c 3d
       -0.09094839 -0.06019602 -0.07610695 0.07620441
000010 2e c5 96 3d 53 e3 41 3b 2c b9 3b bd 60 7e 19 bd
       0.07361828 0.0029584959 -0.04583089 -0.037474036
000020 c3 7c f2 bd d7 d0 b9 bd 5a 7a b3 bd 80 a9 99 3e
       -0.11840203 -0.09073036 -0.08763571 0.3001213
000030 8a 54 f6 bc 50 d5 cb 3d f7 01 b4 bd 5a 3e da bd
       -0.030069608 0.099527955 -0.08789437 -0.10656424
000040 80 4a b4 3d 13 91 89 bd 5e ab 78 bd a6 59 cd 3c
       0.08803272 -0.06717124 -0.060710303 0.025067162
000050 eb 4e 56 3e 2f f0 00 be e9 a0 ce bc c7 e1 75 3d
       0.20928542 -0.12591623 -0.025223212 0.06002977
000060 b3 99 10 bd 33 5f 53 bd 64 cd 52 bd ad 18 c2 3d
       -0.03530283 -0.05160446 -0.051465407 0.09477363
000070 17 81 6b 3e 3a f6 73 ba 43 6d 4b bd 36 1f 0e be
       0.22998463 -0.0009306405 -0.049664747 -0.13879094
000080 09 19 d9 bd e9 eb 07 be 84 9d c6 bc 87 ed 76 3c
       -0.10600478 -0.13273586 -0.024245031 0.015071279
000090 9d 8b de bd b7 90 17 bd 7a 62 6f bd a2 e0 d0 bb
       -0.10866473 -0.037003245 -0.058443524 -0.0063744346
0000a0 11 cb d1 bd 72 8e c1 bd 32 55 05 3d a4 ed 3d bd
       -0.1024381 -0.094509974 0.03255195 -0.04636921
0000b0 5c 16 e2 bc 53 22 14 3d 30 c6 a8 bd e6 67 0e 3c
       -0.027598552 0.036165547 -0.08240926 0.0086917635
0000c0 7e ee 8e bc 5d 66 1f bd a1 c0 49 be 2c 26 9d bb
       -0.017447706 -0.03891598 -0.19702388 -0.00479581
0000d0 b3 a1 61 bd 9d 24 00 bc f9 76 bc bc 82 4c 4a 3d
       -0.05508585 -0.007821229 -0.02300595 0.04938937
0000e0 b1 f0 d0 bd 40 0a f6 bc 48 c3 1d be da 1c 33 3d
       -0.10202158 -0.030034184 -0.15406525 0.043728687
0000f0 9d 11 fa bd 04 8b 8d bc 1d 83 ef bd 62 94 41 3e
       -0.12210391 -0.017278202 -0.1169493 0.1890426
000100 d5 0d 02 be 35 cf ac bc 30 98 83 be c3 2b 23 3d
       -0.12700589 -0.021094898 -0.25702047 0.039836656
000110 a1 b8 ea bc ec 18 70 bd 23 a7 a9 3b 94 2b 82 bc
       -0.028652491 -0.058617517 0.005177395 -0.01588992
000120 f2 5a 0b bd 3e 03 65 bd ce 62 23 3d 35 3d f6 3c
       -0.03402228 -0.055911295 0.03988915 0.030058483
000130 e2 04 02 bd 61 c0 fa bd 91 c0 d1 bd 33 ff 8d bd
       -0.031742938 -0.122437246 -0.10241807 -0.06933441
000140 2d 7a be bc 6f 53 74 bd 15 0a f8 bd d8 16 b0 bd
       -0.023251617 -0.05964988 -0.12111298 -0.08598107
000150 1f 3f 9f 3d ed 53 d1 3b e3 19 68 be dc fa 8f bd
       0.07775711 0.0063881786 -0.22666125 -0.070302695
000160 57 84 42 be 14 29 95 bc 68 27 0d be 32 ca fd bd
       -0.18995796 -0.018208064 -0.13784564 -0.12392081
000170 aa 09 14 3e ab 08 b9 39 3a 11 11 be 59 dc 2f 3e
       0.14456812 0.00035292408 -0.14166728 0.171739
000180 ef 0a 25 bd a9 e5 ca bd 23 64 a1 bc e8 b1 07 3e
       -0.04029363 -0.099070854 -0.01970107 0.1325146
000190 69 52 99 bc 4f 32 1e 3e 47 66 9c bc 31 26 da bd
       -0.018716054 0.15448879 -0.019091738 -0.10651816
0001a0 e8 1a 81 bd db 62 ab bd bc c8 4e bd a7 81 33 be
       -0.0630396 -0.083684646 -0.050484404 -0.17529927
0001b0 e3 1b 59 3c 1b c1 15 bd 5a da 9d bc 62 e6 d0 3c
       0.013251278 -0.036561113 -0.019269157 0.02550048
0001c0 89 00 6f 3d a6 4c db bc ad 0e 94 bc 15 71 64 3c
       0.05835012 -0.026769947 -0.018073404 0.0139429765
0001d0 49 e5 59 3c cb d2 69 bd da 55 97 bd d8 38 98 bd
       0.013299295 -0.057085793 -0.07389422 -0.07432717
0001e0 90 1b 95 bc ee 51 56 3d d7 8b 9a bc d0 23 3d bd
       -0.01820162 0.052324228 -0.018865509 -0.04617673
0001f0 db fa 39 bd cb 74 2e bd 58 62 8e bc 55 13 a4 bd
       -0.04540525 -0.04259185 -0.017380878 -0.080115
000200 c1 0f 7d bd 4a 8f 2f be 7a 4a a4 be fd 5b 48 3e
       -0.061782602 -0.17144504 -0.3208807 0.1956634
000210 5b a1 b3 bc fe 5b 1d be c1 c2 52 bd e8 23 47 bd
       -0.021927526 -0.15367123 -0.051455263 -0.048618227
000220 17 f1 e8 bd d3 ac f0 bd ff cc 69 bc 41 f2 5b bc
       -0.11374109 -0.117517136 -0.014270066 -0.013424457
000230 34 60 c3 bd 68 d3 9d bd 4b 67 48 bd ed 69 21 be
       -0.09539834 -0.07706338 -0.048926633 -0.15763064
000240 da e9 ec bb 4a ae af ba 0c b0 a8 3d bf a8 1a be
       -0.0072300257 -0.0013403383 0.08236703 -0.15103434
000250 d6 66 07 3e 78 74 28 be d5 a7 8d bd fa 9c 65 bd
       0.13222823 -0.1645068 -0.06916777 -0.056057908
000260 d6 a6 43 3c 3a 18 1b bd a8 67 67 3d 26 4e 0e bd
       0.011941632 -0.0378649 0.05649534 -0.034742497
000270 06 bf cb 3c 42 66 1f be 72 f6 59 be da f6 73 bd
       0.02487136 -0.15566352 -0.21285418 -0.059561588
000280 4b e5 70 be da 58 0c be 66 6c a6 bd dc 2d e2 bd
       -0.23524968 -0.13705769 -0.08126144 -0.11043903
000290 04 2c 9c 3c c9 1f 70 bd 61 05 b6 bc b4 79 5d 3e
       0.019063957 -0.058624063 -0.022219362 0.21628457
0002a0 ea ae 50 be 5e 16 f4 bd 21 d7 cc bd 6b 6f 08 be
       -0.20379224 -0.11918329 -0.1000197 -0.13323753
0002b0 cc e0 78 bd 69 a3 b0 bd 37 05 3a bb 50 de 3f bd
       -0.060761258 -0.08624918 -0.0028384456 -0.046842873
0002c0 38 2b 96 3d 2d 08 89 bc ff 4a 5a be 54 29 20 be
       0.07332462 -0.016727531 -0.21317671 -0.15640765
0002d0 e9 8a e0 bb 27 bf 34 3e c9 fa aa bd c1 cc 48 be
       -0.006852497 0.17651044 -0.08348615 -0.19609357
0002e0 21 81 56 bd 8a 3b db bd b5 28 cf bd fa e2 94 3d
       -0.05236924 -0.107047155 -0.10115186 0.07269855
0002f0 cf c0 2d be 66 93 cf bc 62 5e 9c bd 8a 22 80 3e
       -0.16968082 -0.02533884 -0.076351896 0.2502635
000300 57 70 3b bd 7d 2b 36 be c0 b8 3a 3d 1f 58 70 bd
       -0.045761432 -0.17790027 0.045586348 -0.05867779
000310 3e c6 39 be bf f4 d6 bd 3a c5 7c 3c bd 48 1e 3e
       -0.1814203 -0.104959 0.015427882 0.15457435
000320 c8 d7 85 3c cd bb 97 be 99 09 00 3e b3 12 15 be
       0.016338244 -0.29635468 0.12503661 -0.14557914
000330 09 94 1c be 46 5d d1 bc b6 50 d1 bd 98 65 af 3d
       -0.15290846 -0.025557172 -0.102204725 0.08564299
000340 94 bc 4a 3a 0a 99 86 bd cc 99 84 be 70 57 e1 bd
       0.0007733789 -0.06572159 -0.25898588 -0.110030055
000350 b2 e2 22 be b4 08 7f bd 08 71 8f 3c e3 bf c0 bd
       -0.1590679 -0.06226416 0.017509952 -0.094115995
000360 79 83 11 be 80 e0 10 bc a7 54 f6 bb 11 d4 69 be
       -0.14210309 -0.0088425875 -0.0075174156 -0.22834803
000370 de 47 0b bd 7a b0 01 be 59 8a 70 3d 2c 92 9f 3d
       -0.034004085 -0.12664977 0.05872569 0.07791552
000380 16 56 8b bd f1 34 5a be 80 58 27 3e fd 63 50 be
       -0.06803529 -0.21309258 0.16342354 -0.20350643
000390 fd 99 18 3d b8 53 73 bd d0 54 83 bd 7f a2 84 be
       0.03725623 -0.059406012 -0.06412661 -0.25905225
0003a0 7e 8c 1d 3d f7 58 0a 3e 53 79 75 be 68 cf f0 bd
       0.038464062 0.135105 -0.23972063 -0.117583096
0003b0 31 96 ab bd 07 ea e6 3c 6f cf 58 3e b4 f7 88 bd
       -0.08378256 0.028187765 0.2117288 -0.066878706
0003c0 bf c9 12 b9 94 9a b6 3d 0e 1d 2a be fb aa e3 3c
       -0.00013998801 0.08916202 -0.16612646 0.02779149
0003d0 4a 7f 83 bd 49 fa f3 3d be 6e 7f bc 84 70 cb bd
       -0.06420763 0.119129725 -0.015590368 -0.0993357
0003e0 5b 07 1b 3d 86 38 71 bc 18 6a 16 bd 80 b2 c1 3d
       0.03784881 -0.014722949 -0.036722273 0.09457874
0003f0 2b 87 c7 bd a0 dc d0 bd ab fd 8c 3c 9e ea f7 3d
       -0.09742578 -0.10198331 0.017210802 0.121052966
