backend/workspace/weight/rt/CNN/best_model-50d.pth (torch, 400391 bytes, 10 tensors)

conv1.weight f4 [64, 1, 3, 3]
0.12604572 -0.051548384 0.50090885 -0.34005347 0.08533435 -0.07634903 0.11270414 -0.29469547
-0.47847036 -0.20055708 -0.28311816 0.1919913 0.42268267 0.53286386 -0.43763882 -0.7845646
-0.43989006 0.26735163 0.18942657 0.2625309 0.18743083 0.3163513 -0.38530886 0.30000263
-0.4091618 -0.21763812 -0.14982992 0.5248552 -0.43079004 0.33664572 -0.086898305 0.35439116
-0.43394047 -0.41566342 -0.6471828 0.31504205 -0.3180689 0.17721371 -0.4230068 -0.19359365
0.33288553 -0.5536754 -0.38879567 0.40383214 -0.65132594 0.5888598 0.3235415 -0.098515585
-0.57623327 -0.086921446 0.6021417 -0.6295248 -0.3825094 -0.50939506 -0.28917614 -0.33077273
0.5025911 -0.3174442 0.13130058 0.6989911 0.43060347 0.08729736 -0.62466794 0.25592816
-0.69775957 0.40654644 -0.19294645 0.30465093 0.2292209 0.14000767 -0.45243442 0.14977847
0.18636861 0.47215128 -0.020969125 -0.28499106 -0.62272406 0.00075548864 -0.43419787 0.27549294
0.11725434 0.32431212 0.117499925 -0.048919953 0.34599984 -0.63365054 0.23454513 -0.42665553
-0.5188151 0.34863997 -0.22492325 -0.17800775 0.100470565 0.10316442 0.14640695 -0.20680808
0.11396949 0.13720167 0.16312145 0.13449012 -0.38447067 0.1747136 0.040757768 0.055232987
-0.080826834 -0.10348764 -0.123425245 0.02792742 0.24190444 -0.5849992 0.05266088 0.26511234
0.20959446 -0.0044879424 -0.49626237 -0.6082017 0.124749266 -1.1699501 -0.25110245 -0.7921748
0.54551643 0.19255479 -0.36980703 -0.14694534 -0.5231943 -0.5172635 -0.46413028 -0.06251324
0.32097706 -0.4156114 0.16091506 -0.41307467 -0.06302249 0.33291376 -0.6224068 -0.17324914
-0.25964564 -0.7349879 0.36088324 -1.1461892 0.0065950523 -0.29986525 0.43839747 0.4013861
0.34838575 -0.5065885 -0.08330373 -0.775638 0.19078748 0.09030973 0.33851108 -0.60500586
0.22831586 -0.4949655 -0.26043725 0.15175815 0.30750087 -0.78384423 0.43882883 -0.065804005
0.24730758 -0.52391917 -0.20285356 0.027686331 -0.037728216 0.21086021 -0.24289909 0.212272
-0.28130338 -0.016635418 -0.15556139 -0.35722116 -0.19973987 -0.12195124 -0.10762179 0.22947486
-0.29397315 -0.21506408 -0.10037154 -0.48826757 -0.26358214 0.33617073 -0.6401753 0.17498086
0.05748231 0.30987516 0.3111287 -0.55289066 0.5443179 0.2438891 0.19649942 -0.15098272
-0.54312736 -0.33802608 -0.27005616 0.13434675 -0.21612735 0.20353352 -0.6896647 -0.5324397
0.46433896 -0.014056201 -0.37671435 -0.36200052 -0.46570942 0.74454415 -0.7744979 -0.2422341
-0.671541 0.44318202 0.07475731 -0.083750844 -0.4941271 0.040041335 0.25913677 -0.49745697
-0.5011111 0.07457535 -0.37491718 -0.24779522 -0.3065157 -0.43040323 0.8266595 -1.0743783
0.5865143 0.43204156 0.18940355 -0.2796396 0.28393707 -0.4180268 -0.07557347 -0.97238904
-0.09563622 0.063083425 -0.41213697 -0.13473552 0.4365773 0.55952734 0.24969418 -0.6790337
-0.14317007 -0.3997916 0.16574141 -0.10158523 0.044478886 -0.48240075 -0.5502846 0.14028807
-0.35551736 0.30538177 -0.68349355 0.39394158 -0.116443366 0.21538821 -0.7005284 -0.5894245
00000000: 2112 013e 6624 53bd 903b 003f 7d1b aebe
00000010: c7c3 ae3d e15c 9cbd 6ed1 e63d 53e2 96be
00000020: 11fa f4be d65e 4dbe ddf4 90be 5e99 443e
00000030: dd69 d83e c469 083f 3212 e0be 3ad9 48bf
00000040: 4539 e1be 50e2 883e 0af9 413e 736a 863e
00000050: deed 3f3e ccf8 a13e 3447 c5be f299 993e
00000060: a87d d1be 87dc 5ebe 046d 19be e95c 063f
00000070: 8390 dcbe d45c ac3e bdf7 b1bd c272 b53e
00000080: 722d debe d6d1 d4be c6ad 25bf 314d a13e
00000090: edd9 a2be 8377 353e 5994 d8be 6a3d 46be
000000a0: f96f aa3e acbd 0dbf 3a10 c7be 16c3 ce3e
000000b0: 4cbd 26bf 84bf 163f 3ba7 a53e 8ac2 c9bd
000000c0: 0684 13bf df03 b2bd f525 1a3f 8a28 21bf
000000d0: 46d8 c3be b767 02bf e50e 94be 0b5b a9be
000000e0: cfa9 003f 0c88 a2be a973 063e 15f1 323f
000000f0: 0f78 dc3e f5c8 b23d 3dea 1fbf 0409 833e
00000100: 5fa0 32bf db26 d03e c193 45be 35fb 9b3e
00000110: e2b8 6a3e 2c5e 0f3e 7ca5 e7be 875f 193e
00000120: 6ad7 3e3e d0bd f13e 71c7 abbc 59ea 91be
00000130: d86a 1fbf fc0b 463a 2f4f debe 690d 8d3e
00000140: 0b23 f03d 3d0c a63e cda3 f03d 4a60 48bd
00000150: e426 b13e ec36 22bf 992c 703e 9872 dabe
00000160: 11d1 04bf f080 b23e 4852 66be aa47 36be
00000170: 83c3 cd3d de47 d33d b4eb 153e 7fc5 53be
00000180: d668 e93d 987e 0c3e 4f09 273e c7b7 093e
00000190: 57d9 c4be 1fe8 323e 9ef1 263d fc3b 623d
000001a0: 8a88 a5bd 54f1 d3bd 60c6 fcbd 0bc8 e43c
000001b0: ccb5 773e 82c2 15bf efb2 573d cebc 873e
000001c0: ee9f 563e 970f 93bb 1a16 febe 1bb3 1bbf
000001d0: 8b7c ff3d edc0 95bf 8090 80be f8cb 4abf
000001e0: f7a6 0b3f 152d 453e 5957 bdbe d778 16be
000001f0: 10f0 05bf 616b 04bf 7ca2 edbe f106 80bd
00000200: 1b57 a43e 04cb d4be ebc6 243e 867e d3be
00000210: ef11 81bd ac73 aa3e 0d56 1fbf 3968 31be
00000220: 46f0 84be 2b28 3cbf b0c5 b83e 54b6 92bf
00000230: 4f1b d83b f087 99be a275 e03e 7b82 cd3e
00000240: 9e5f b23e c9af 01bf 259b aabd 3690 46bf
00000250: cb5d 433e 4ff4 b83d 5351 ad3e aae1 1abf
00000260: a2cb 693e 1e6c fdbe 0858 85be 7d66 1b3e
00000270: c170 9d3e 04aa 48bf 2cae e03e 40c4 86bd
00000280: 333e 7d3e 911f 06bf d8b8 4fbe 72ce e23c
00000290: e788 1abd bdeb 573e 8aba 78be d55d 593e
000002a0: ff06 90be 0047 88bc 7c4b 1fbe b1e5 b6be
000002b0: 9c88 4cbe 92c1 f9bd d068 dcbd 75fb 6a3e
000002c0: a683 96be c239 5cbe 988f cdbd 35fe f9be
000002d0: 3df4 86be 921e ac3e 87e2 23bf 2f2e 333e
000002e0: 9272 6b3d f5a7 9e3e 434c 9f3e 3e8a 0dbf
000002f0: 6b58 0b3f 10be 793e 2537 493e 379b 1abe
00000300: 650a 0bbf c111 adbe cd44 8abe 3292 093e
00000310: 7d50 5dbe 176b 503e de8d 30bf f84d 08bf
00000320: d6bd ed3e fb4b 66bc b4e0 c0be 2258 b9be
00000330: 7771 eebe 729a 3e3f 7f45 46bf 370c 78be
00000340: 1cea 2bbf c1e8 e23e 5c1a 993d 9085 abbd
00000350: 3afe fcbe 6202 243d 93ad 843e aeb2 febe
00000360: d148 00bf f6ba 983d 25f5 bfbe 08be 7dbe
00000370: a0ef 9cbe d05d dcbe f59f 533f 3a85 89bf
00000380: cd25 163f 8d34 dd3e 01f3 413e ec2c 8fbe
00000390: 3360 913e 9c07 d6be 43c6 9abd 7dee 78bf
000003a0: ecdc c3bd e231 813d 9e03 d3be 1cf8 09be
000003b0: 0f87 df3e 2f3d 0f3f d5af 7f3e 27d5 2dbf
000003c0: 2d9b 12be 7cb1 ccbe 1eb8 293e eb0b d0bd
000003d0: 7e2f 363d 3bfd f6be 74df 0cbf ada7 0f3e
000003e0: 5f06 b6be 005b 9c3e 6ff9 2ebf b6b2 c93e
000003f0: dc79 eebd ba8e 5c3e d455 33bf 86e4 16bf

conv1.bias f4 [64]
0.09465321 -0.35689628 -0.47339076 -0.2459958 -0.48218265 0.060175683 -0.26600468 -0.7633807
-0.73907644 -0.47247562 -0.22104697 0.027376596 -0.076585434 -0.38730606 -0.4317819 -0.44524935
-0.76888376 -0.706585 0.0764693 -0.019932356 -0.97546685 -0.2795682 0.11762832 0.07281796
-0.24109553 -0.23999041 -0.3082159 0.16592015 -0.5396842 -0.36105424 -0.33197626 -0.35546905
-0.19432119 -0.6371712 -0.023836913 -0.18818143 -0.52707857 -0.40521008 -0.17640008 -0.46807343
-0.47123617 -0.4363177 0.20301126 -0.4499345 -0.35558122 -0.21879354 -0.09440768 -0.3840431
-0.3708401 0.038055953 0.042227346 -0.14078854 -0.859889 -0.3981918 -0.41726273 -0.44708872
0.23534848 0.108252235 -0.19378556 0.07991765 -0.5074473 -0.49726722 -0.36473444 -0.22575693
00000000: 8bd9 c13d 1cbb b6be 4660 f2be 53e6 7bbe
00000010: a5e0 f6be c77a 763d c431 88be eb6c 43bf
00000020: 1d34 3dbf 53e8 f1be 235a 62be e244 e03c
00000030: d3d8 9cbd fb4c c6be 8412 ddbe b9f7 e3be
00000040: 91d5 44bf c1e2 34bf f09b 9c3d 2e49 a3bc
00000050: 32b8 79bf 9023 8fbe 1ee7 f03d 9521 953d
00000060: bfe1 76be 0cc0 75be 79ce 9dbe f9e6 293e
00000070: be28 0abf 1adc b8be cbf8 a9be 0a00 b6be
00000080: 22fc 46be a71d 23bf a145 c3bc a2b2 40be
00000090: 9fee 06bf b277 cfbe 39a2 34be 52a7 efbe
000000a0: de45 f1be 0965 dfbe 2fe2 4f3e d15d e6be
000000b0: be0e b6be 6a0b 60be d058 c1bd 4ca1 c4be
000000c0: c1de bdbe 8fe0 1b3d 95f6 2c3d df2a 10be
000000d0: af21 5cbf ccdf cbbe 76a3 d5be d0e8 e4be
000000e0: 31ff 703e 59b3 dd3d b96f 46be ddab a33d
000000f0: 11e8 01bf cf99 febe 79be babe d32c 67be

conv2.weight f4 [128, 64, 3, 3]
0.007348959 -0.025297455 -0.031181263 -0.031927038 -0.056525923 -0.04612838 -0.04614356 0.012042715
-0.012504329 -0.03447536 -0.0442162 -0.055040613 0.010029253 -0.029464722 0.013797962 0.016625296
0.017995114 -0.054377202 0.025206486 0.015705474 -0.012489959 -0.032095045 0.029068716 -0.014810664
0.00047851374 0.0061152377 -0.008744286 -0.043976147 -0.015472697 -0.015114807 -0.045259375 0.015862579
-0.02729632 -0.020152362 -0.05502253 -0.036771767 0.016226843 -0.02598189 -0.04653411 0.016459536
-0.0070336172 -0.0053525134 -0.04681077 0.0076695103 -0.047412384 -0.01792015 0.005561055 -0.016308138
6.4557855e-05 -0.0043985485 -0.006903262 0.02190425 -0.0049472796 0.023390297 0.005295532 -0.0138838235
0.020159153 0.0031701124 -0.037011947 -0.0004212964 -0.018264037 -0.0018271897 0.0009845167 -0.0024769444
-0.022573596 0.01090218 -0.016431203 0.02074192 -0.01637065 0.0010414042 -0.010582261 0.011723451
-0.049645778 -0.0509517 0.0035176207 -0.0408959 -0.02810751 0.0028048174 0.029335974 -0.04909592
-0.03135135 -0.003526615 -0.00052656396 -0.031050831 -0.021312542 -0.04324096 -0.009712974 -0.014038399
0.030758766 -0.011362056 0.009042565 -0.034466103 -0.018934192 -0.01903718 0.007493136 -0.008120307
-0.029770738 0.0127224345 0.028135687 -0.009413981 0.025526753 0.005815898 0.01316422 0.00018820887
-0.03501978 -0.026677202 0.013616193 -0.025297152 0.040378418 0.013813395 -0.011827566 -0.020245118
-0.05079507 -0.050408218 -0.013520317 -0.015576951 -0.027842052 0.028833365 -0.011486426 -0.04291718
-0.009541252 -0.04410889 0.016315324 -0.04529349 0.00721165 -0.023925504 0.027938783 0.0033823918
-0.009086479 0.013764411 -0.03281632 0.014978657 -0.0022556623 0.012343028 0.0048561413 -0.026488053
0.036243126 -0.009016575 0.025911923 -0.043390486 -0.011210507 -0.043697312 -0.026098398 0.009966336
-0.030195279 -0.006706959 0.014732165 0.01963269 -0.008878965 -0.017006492 0.0304101 -0.032757863
0.009532361 0.022724006 0.012044392 0.018542584 -0.03513711 -0.047113817 0.015046802 0.01932055
-0.028342936 -1.6257876e-05 -0.009323908 0.003037486 -0.006966094 8.369973e-05 -0.04325213 -0.027841983
-0.038067985 -0.012679351 -0.036411434 -0.0034049677 -0.055113424 -0.010952805 -0.012679743 0.006002961
0.001527458 0.013340562 0.030092478 -0.016177341 0.011857723 -0.010684688 -0.031311315 0.004038583
-0.0062491014 -0.04226954 0.0048035914 0.012895587 0.025763512 -0.022396166 -0.048434645 0.007469672
-9.509284e-05 4.6601348e-05 -0.04192505 0.03206246 0.025796276 -0.017396798 -0.0012615143 -0.044244252
0.005234797 -0.033372696 8.890696e-05 -0.027399318 0.02923807 0.03146638 0.024963528 0.0047079213
-0.0014665227 0.021747988 -0.04472185 -0.047305997 -0.042471234 -0.007954434 0.016058087 0.028644415
0.0035487793 0.03195377 0.026070459 -0.056503344 0.012260049 -0.013343429 0.0048603048 -0.052451182
-0.029174235 -0.032308728 0.025377197 -0.02367233 0.005796499 -0.024470888 0.011970195 -0.014014095
-0.03191613 0.02022676 0.009558493 -0.020841038 0.02542864 -0.039043225 0.002971014 -0.01834841
-0.031942043 0.018173454 -0.010840802 0.00331172 -0.04967755 -0.015421313 -0.026494058 -0.03492309
0.0021155488 -0.021369243 0.030357305 -0.027048618 -0.0037486493 -0.006223315 -0.026211185 -0.05038193
00000000: 89cf f03b 9c3c cfbc d96f ffbc edc5 02bd
00000010: ba87 67bd 1df1 3cbd 0801 3dbd cf4e 453c
00000020: f5de 4cbc 0936 0dbd 0c1c 35bd 4472 61bd
00000030: bc51 243c 0060 f1bc d910 623c c631 883c
00000040: 7d6a 933c a1ba 5ebd d57d ce3c c4a8 803c
00000050: afa2 4cbc 1876 03bd 8421 ee3c 6da8 72bc
00000060: 07e1 fa39 5562 c83b 3244 0fbc 5520 34bd
00000070: 3281 7dbc 18a4 77bc e561 39bd 3df2 813c
00000080: 889c dfbc 9116 a5bc 4e5f 61bd fe9d 16bd
00000090: 28ee 843c f9d7 d4bc 8d9a 3ebd 26d6 863c
000000a0: 427a e6bb 2364 afbb a6bc 3fbd 8450 fb3b
000000b0: 7d33 42bd 47cd 92bc 8339 b63b a598 85bc
000000c0: 3c63 8738 b321 90bb c234 e2bb 8b70 b33c
000000d0: ca1c a2bb 029d bf3c 2486 ad3b fa78 63bc
000000e0: cf24 a53c a9c1 4f3b d799 17bd 72e1 dcb9
000000f0: 769e 95bc 507e efba e60a 813a 3b54 22bb
00000100: 43ec b8bc 0f9f 323c bb9a 86bc f6ea a93c
00000110: be1b 86bc ba7f 883a 3861 2dbc b813 403c
00000120: 5f59 4bbd bbb2 50bd e287 663b 7682 27bd
00000130: b941 e6bc 07d1 373b ff51 f03c ce18 49bd
00000140: 466a 00bd c81e 67bb 1c09 0aba 505e febc
00000150: a497 aebc 6f1d 31bd 2a23 1fbc 5001 66bc
00000160: cff9 fb3c eb27 3abc 4427 143c 542c 0dbd
00000170: e11b 9bbc dcf3 9bbc fb88 f53b 090b 05bc
00000180: c3e1 f3bc c271 503c d07c e63c 193d 1abc
00000190: 7b1d d13c 4a93 be3b beae 573c ef59 4539
000001a0: e770 0fbd 268a dabc 7416 5f3c f93b cfbc
000001b0: d763 253d 9451 623c 68c8 41bc 17d9 a5bc
000001c0: 7e0e 50bd d978 4ebd 5284 5dbc 7836 7fbc
000001d0: 0415 e4bc f333 ec3c 9031 3cbc edc9 2fbd
000001e0: e952 1cbc 86ab 34bd b7a7 853c ab85 39bd
000001f0: b44f ec3b 6bff c3bc e0df e43c 1eab 5d3b
00000200: 75df 14bc 2084 613c 686a 06bd 0a69 753c
00000210: bcd3 13bb 693a 4a3c 4420 9f3b 79fd d8bc
00000220: ac73 143d 42ba 13bc 3e45 d43c 39ba 31bd
00000230: 46ac 37bc f4fb 32bd 4fcc d5bc d849 233c
00000240: 175c f7bc 0dc6 dbbb 2e5f 713c bcd4 a03c
00000250: 1479 11bc 3351 8bbc 9a1e f93c 1c2d 06bd
00000260: 9f2d 1c3c b227 ba3c d755 453c 9ee6 973c
00000270: eeeb 0fbd 6bfa 40bd dd86 763c 2146 9e3c
00000280: 722f e8bc 8661 88b7 4ec3 18bc 8f10 473b
00000290: d543 e4bb f387 af38 2529 31bd df14 e4bc
000002a0: 2ded 1bbd 0dbd 4fbc 2824 15bd e125 5fbb
000002b0: 9dbe 61bd 6573 33bc b2be 4fbc 7db4 c43b
000002c0: fc34 c83a 5f92 5a3c 8084 f63c 5886 84bc
000002d0: e546 423c d40e 2fbc 4b40 00bd 1756 843b
000002e0: 43c5 ccbb d322 2dbd 7267 9d3b 0348 533c
000002f0: 000e d33c 2a78 b7bc 6863 46bd 26c4 f43b
00000300: 946c c7b8 d175 4338 9ab9 2bbd ed53 033d
00000310: b652 d33c bb83 8ebc 6559 a5ba 7639 35bd
00000320: a988 ab3b cfb1 08bd 9073 ba38 8974 e0bc
00000330: ad84 ef3c e4e2 003d 5080 cc3c e844 9a3b
00000340: 5638 c0ba d628 b23c 422e 37bd efc3 41bd
00000350: 51f6 2dbd 5053 02bc 408c 833c b1a7 ea3c
00000360: a392 683b f5e1 023d b791 d53c 0d70 67bd
00000370: 5fde 483c 669e 5abc 3143 9f3b 0dd7 56bd
00000380: cefe eebc 2856 04bd d7e3 cf3c 79ec c1bc
00000390: 8ff0 bd3b 2c77 c8bc a31e 443c 609b 65bc
000003a0: 7dba 02bd 97b2 a53c 3a9b 1c3c d3ba aabc
000003b0: b94f d03c caeb 1fbd 58b5 423b 684f 96bc
000003c0: a9d5 02bd 7fe0 943c 9f9d 31bc 7109 593b
000003d0: b07a 4bbd ada9 7cbc 110a d9bc 840b 0fbd
000003e0: 05a5 0a3b 8d0e afbc e2af f83c 1095 ddbc
000003f0: e6ab 75bb f3ec cbbb d7b8 d6bc 485d 4ebd

conv2.bias f4 [128]
0.017039761 -0.4405718 -0.01694954 -0.072283134 0.26805058 -0.2123205 -0.1465096 -0.03057707
-0.46676257 -0.061700534 -0.013796431 0.0061913286 -0.060859162 -0.03560136 0.057080626 0.09859584
0.48816606 0.03415104 0.056903295 -0.03213539 -0.18696052 0.0240917 0.16555591 -0.0010697182
0.05011619 -0.035664625 0.0035057839 0.015764572 -0.5810253 -0.015953463 -0.060728338 0.057350773
0.038287103 -0.0736721 0.060430348 -0.31311253 -0.34945482 0.015855417 -0.006816494 0.051817488
0.00025127493 -0.035466544 0.0085612815 0.006264885 0.0074885366 0.03130744 -0.034182075 -0.010235716
0.031927496 -0.20941187 -0.3300082 -0.038331263 -0.025855556 -0.023633402 0.03663283 -0.035716906
-0.010106958 0.01298652 -0.26715046 0.0020694302 0.0058074957 0.0061826096 -0.0231376 -0.14013599
-0.018475544 0.0050195702 -0.13677703 -0.022940464 -0.068102226 -0.061656695 -0.040683646 -0.2703823
-0.013961483 0.04438863 -0.045089033 -0.007270934 -0.0002951425 -0.035160042 0.01339428 -0.0059686205
-0.043903563 0.007728578 0.24758579 0.0026963716 -0.031703666 -0.12122134 -0.057455294 -0.0049158945
-0.15521505 -0.07336204 -0.17168844 -0.10174826 -0.05401981 0.016802212 0.15514325 0.039036114
-0.053656332 0.047290534 -0.017463576 -0.14724429 0.21930794 -0.04585176 -0.047210157 -0.053250432
0.35578993 0.00090899924 0.00860689 -0.1123874 -0.13961923 -0.33199692 -0.037579138 0.09635902
-0.008064271 -0.044635184 -0.02156747 0.0075252154 0.0058643534 -0.027274963 -0.7154915 -0.18215258
-0.27009854 0.0150592895 -0.06550683 -0.06401412 -0.022657746 -0.05341264 -0.57005435 0.31265745
00000000: f896 8b3c a192 e1be c3d9 8abc 2e09 94bd
00000010: ed3d 893e 8c6a 59be 9d06 16be c37c fabc
00000020: 81fb eebe b3b9 7cbd 6d0a 62bc a1e0 ca3b
00000030: 7547 79bd bbd2 11bd 60cd 693d 9eec c93d
00000040: e7f0 f93e f6e1 0b3d 6e13 693d 66a0 03bd
00000050: 9472 3fbe f55b c53c 7d87 293e c935 8cba
00000060: a246 4d3d 1215 12bd 4bc1 653b b424 813c
00000070: 13be 14bf d6b0 82bc 47be 78bd a5e8 6a3d
00000080: f0d2 1c3d 66e1 96bd d085 773d 4950 a0be
00000090: beeb b2be 38e3 813c e55c dfbb 933e 543d
000000a0: 8dbd 8339 5e45 11bd 9e44 0c3c aa49 cd3b
000000b0: 6662 f53b 3b3c 003d 8102 0cbd b4b3 27bc
000000c0: 68c6 023d 1170 56be d6f6 a8be 3e01 1dbd
000000d0: 08cf d3bc d69a c1bc 4e0c 163d e44b 12bd
000000e0: a897 25bc 6ac5 543c f2c7 88be 479f 073b
000000f0: ce4c be3b 7d97 ca3b 108b bdbc cf7f 0fbe
00000100: 065a 97bc 357b a43b 470f 0cbe a4ed bbbc
00000110: 2e79 8bbd bb8b 7cbd e5a3 26bd 8c6f 8abe
00000120: b4be 64bc dad0 353d 47af 38bd 0441 eebb
00000130: 5bbd 9ab9 fa03 10bd af73 5b3c 6b94 c3bb
00000140: 39d4 33bd 0340 fd3b 2187 7d3e 9cb5 303b
00000150: b4db 01bd e542 f8bd 3e56 6bbd 8315 a1bb
00000160: b2f0 1ebe d63e 96bd 18cf 2fbe 6461 d0bd
00000170: e043 5dbd cba4 893c dfdd 1e3e 55e4 1f3d
00000180: bec6 5bbd b8b3 413d c60f 8fbc 35c7 16be
00000190: 4392 603e 0ecf 3bbd 705f 41bd 201d 5abd
000001a0: 192a b63e e849 6e3a ea03 0d3c 5d2b e6bd
000001b0: 58f8 0ebe 80fb a9be 95ec 19bd e157 c53d
000001c0: 0120 04bc 62d3 36bd 43ae b0bc 1596 f63b
000001d0: c329 c03b be6f dfbc 732a 37bf 3586 3abe
000001e0: 5b4a 8abe 3dbb 763c 7228 86bd d619 83bd
000001f0: bd9c b9bc 36c7 5abd 15ef 11bf a314 a03e

fc1.weight f4 [128, 128]
-0.059731048 -0.14360783 0.059188772 0.3135097 -0.13270791 0.83648294 0.6433145 -0.08781506
0.15142398 -0.014212533 0.04819984 0.9146749 -0.02171919 0.001386473 -0.04741921 0.26160482
-0.36195412 -0.071278445 -0.009816924 -0.06518432 -0.038389 -0.10208123 0.44650015 0.041664723
-0.2223403 0.07279578 -0.1162529 0.019632252 -0.17055283 -0.08357468 0.0952228 0.2531962
0.05467182 -0.5095804 0.045527536 -0.009294916 0.1821561 0.0028159749 0.03929553 -0.021672921
0.0424874 0.058364432 0.011319676 -0.004535837 0.006950787 0.035394024 0.019472927 0.059978478
-0.020469887 0.81428707 0.1635653 0.072330184 3.478734e-05 -0.033383213 0.2669683 0.02596641
0.05402187 -0.04968593 -0.22626194 0.023343857 -0.056781046 0.04181846 -0.06502419 0.67856055
0.008395799 0.018882958 -0.07426003 0.073180914 0.16118272 -0.080732435 -0.05317734 -0.062370524
0.11039432 -0.0022788004 0.010547715 -0.027357334 -0.040679015 -0.013553423 0.19569147 -0.009590933
0.071315244 -0.06218372 -0.815686 -0.055505306 0.059002426 0.25050676 -0.02281316 0.0737831
0.21774285 -0.11393106 0.521827 0.047414 0.7542041 -0.24014477 0.417726 -0.027093757
-0.0697968 0.016986933 -0.086446 0.9402436 0.54483867 0.025162123 0.048918482 0.10121778
-0.6100951 0.08368665 0.09185907 -0.04158134 0.30289117 -0.14777273 0.054450233 0.27766973
0.04076779 -0.5639557 0.020637458 -0.00077261956 0.009484117 -0.0427322 -0.09755612 0.132718
-0.14728059 -0.015498688 0.026045594 0.021626702 -0.06612977 -0.05185668 -0.19318676 0.85140353
-0.07863922 0.08046069 -0.19420454 -0.2886519 0.04042513 -0.12351709 -0.002602689 0.045994967
0.024938073 -0.020780422 0.038076423 -0.012448467 -0.072790176 0.035101768 0.04125792 -0.03353118
-0.14664316 0.02911237 -0.47252744 -0.006141448 -0.0046838014 0.053716216 0.04496438 -0.00942615
-0.09065634 0.077571295 -0.36140755 -0.06638258 0.07270096 0.017080916 -0.09719937 0.017170481
-0.38503528 0.288008 0.041625 -0.025886055 -0.16391546 0.06882218 -0.079164796 -0.34420297
0.064174704 0.044734195 0.03276907 0.028907117 0.019755613 0.07775955 -0.06944219 -0.032262515
0.011265474 -0.10008691 -0.18030395 -0.04053799 -0.010818985 0.041476957 -0.19281815 0.04616363
0.017292924 0.0071440395 -0.10565877 -0.0375823 -0.12671159 -0.0008065964 -0.08507696 0.061234422
0.037901938 -0.014244113 0.10322716 0.017848216 -0.13724656 0.06762274 -0.01591452 -0.044801213
-0.3343565 -0.021189021 -0.075401165 -0.07857415 0.01217318 0.076143265 -0.004210082 -0.011937484
0.057404384 -0.039306983 -0.101477385 -0.02251073 0.0628431 0.029207014 -0.078507625 0.013355765
0.021786492 -0.020959942 0.011409013 -0.22085008 -0.21925303 -0.22856586 -0.2468803 -0.103126585
-0.08000684 -0.5917598 0.05135331 -0.085091114 0.26049694 -0.04763135 -0.0042035347 0.040120017
-0.15148818 -0.33505413 -0.014288739 -0.30732915 -0.103780665 -0.062572055 -0.043937486 -0.38152486
0.039732818 0.021866966 0.005263304 -0.1047403 0.09478688 -0.07363409 -0.066980556 -0.059096426
-0.0031744267 -0.004765971 0.03128368 -0.06420688 -0.07883289 0.02606101 -0.06655075 0.10777035
00000000: 8ba8 74bd ee0d 13be ed6f 723d 5884 a03e
00000010: 95e4 07be bf23 563f 42b0 243f 62d8 b3bd
00000020: e30e 1b3e afdb 68bc 326d 453d 2228 6a3f
00000030: 71ec b1bc 50ba b53a a53a 42bd 11f1 853e
00000040: 0d52 b9be 6ffa 91bd 2ad7 20bc 5b7f 85bd
00000050: c93d 1dbd f70f d1bd ab9b e43e a1a8 2a3d
00000060: 2dad 63be f415 953d 0016 eebd d1d3 a03c
00000070: 67a5 2ebe 3429 abbd 2c04 c33d efa2 813e
00000080: 8fef 5f3d dc73 02bf 157b 3a3d b449 18bc
00000090: 2187 3a3e 388c 383b 5af4 203d 698b b1bc
000000a0: 4507 2e3d 8b0f 6f3d 2a76 393c 5ca1 94bb
000000b0: 6dc3 e33b 53f9 103d b085 9f3c feab 753d
000000c0: 77b0 a7bc 1e75 503f a97d 273e d921 943d
000000d0: 9fe8 1138 d6bc 08bd 12b0 883e 82b7 d43c
000000e0: 0946 5d3d 7983 4bbd 36b1 67be 9e3b bf3c
000000f0: 3e93 68bd d549 2b3d 672b 85bd 25b6 2d3f
00000100: 898e 093c 6fb0 9a3c a515 98bd e0df 953d
00000110: 150d 253e 0c57 a5bd 7cd0 59bd 3c78 7fbd
00000120: 6b16 e23d ed57 15bb 53d0 2c3c 7d1c e0bc
00000130: 0a9f 26bd 2d0f 5ebc 5863 483e 4a23 1dbc
00000140: ba0d 923d 5bb4 7ebd ccd0 50bf 8859 63bd
00000150: 87ac 713d 6c42 803e aae2 babc 981b 973d
00000160: fbf7 5e3e b054 e9bd 7496 053f 2f35 423d
00000170: 8513 413f 83e8 75be 2fe0 d53e baf3 ddbc
00000180: a0f1 8ebd 2e28 8b3c 9a0a b1bd ceb3 703f
00000190: 8c7a 0b3f cc20 ce3c bf5e 483d 444b cf3d
000001a0: 312f 1cbf e863 ab3d 9c20 bc3d 3251 2abd
000001b0: 8d14 9b3e bc51 17be 3507 5f3d ba2a 8e3e
000001c0: 20fc 263d 675f 10bf e30f a93c 9f89 4aba
000001d0: 4563 1b3c f607 2fbd 81cb c7bd 3ae7 073e
000001e0: b9d0 16be 36ee 7dbc 925d d53c 7b2a b13c
000001f0: 0b6f 87bd ac67 54bd c0d2 45be 95f5 593f
00000200: 990d a1bd 93c8 a43d 8edd 46be 2fca 93be
00000210: d294 253d 87f6 fcbd e091 2abb 3865 3c3d
00000220: ee4a cc3c b43b aabc 06f6 1b3d a8f4 4bbc
00000230: 0413 95bd dfc6 0f3d 11fe 283d fe57 09bd
00000240: a029 16be 117d ee3c 1eef f1be 333e c9bb
00000250: 937a 99bb 8905 5c3d 922c 383d 2370 1abc
00000260: 08aa b9bd b3dd 9e3d 690a b9be 97f3 87bd
00000270: 3ee4 943d 47ed 8b3c 7710 c7bd 1ca9 8c3c
00000280: 5823 c5be c975 933e fa7e 2a3d fe0e d4bc
00000290: 74d9 27be a5f2 8c3d 2721 a2bd 5f3b b0be
000002a0: 076e 833d 343b 373d dc38 063d 9ece ec3c
000002b0: 86d6 a13c 6640 9f3d b537 8ebd b325 04bd
000002c0: d392 383c 5efa ccbd 99a1 38be 2a0b 26bd
000002d0: 1d42 31bc bee3 293d 1f72 45be 1316 3d3d
000002e0: e4a9 8d3c 8c18 ea3b a063 d8bd e6ef 19bd
000002f0: afc0 01be c571 53ba d43c aebd f2d0 7a3d
00000300: 103f 1b3d 2460 69bc c368 d33d 6c36 923c
00000310: 5d8a 0cbe cb7d 8a3d 2b5f 82bc 7a81 37bd
00000320: c630 abbe 9994 adbc ed6b 9abd 7ceb a0bd
00000330: 0472 473c 00f1 9b3d baf4 89bb 7095 43bc
00000340: dc20 6b3d 5c00 21bd 60d3 cfbd 6c68 b8bc
00000350: e2b3 803d 8c43 ef3c 9bc8 a0bd 23d2 5a3c
00000360: 9679 b23c 2fb4 abbc deec 3a3c 8626 62be
00000370: de83 60be 2b0d 6abe 30ce 7cbe 0834 d3bd
00000380: a0da a3bd 927d 17bf d957 523d 4044 aebd
00000390: db5f 853e 1719 43bd cebd 89bb e354 243d
000003a0: b81f 1bbe 378c abbe 511b 6abc 3f5a 9dbe
000003b0: f58a d4bd c725 80bd cbf7 33bd 3a57 c3be
000003c0: e1be 223d 5a22 b33c cb77 ac3b 1582 d6bd
000003d0: a01f c23d 78cd 96bd 1a2d 89bd 180f 72bd
000003e0: 0b0a 50bb dd2b 9cbb 5123 003d e67e 83bd
000003f0: 2373 a1bd e67d d53c c24b 88bd b4b6 dc3d

fc1.bias f4 [128]
-0.015947668 -0.34513655 0.017129641 -0.14583711 -0.018188288 -0.04120212 0.013138343 -0.020605402
-0.41606447 -0.30720705 -0.03474968 0.19169112 0.12706251 -0.039425235 -0.08741052 0.034623947
-0.02487572 -0.15193848 -0.09485676 0.1482637 0.071121 -0.0072226236 -0.18704584 0.11910715
-0.077633575 0.13608868 0.14797774 -0.34718493 -0.012405836 -0.15103066 0.05016113 -0.028507402
-0.107190534 -0.08989126 0.14727856 -0.006790239 0.09856949 0.18927339 -0.069353975 0.21787181
-0.0394292 -0.093570925 0.11996486 -0.045259774 -0.17942587 0.13497874 0.102760606 0.06871093
-0.058823835 -0.06381876 -0.06147167 0.2187557 0.17392786 0.16472813 -0.17872603 0.0902797
0.027498947 0.07943333 0.12855628 0.079289034 0.010146935 -0.052456375 -0.11165639 -0.056312725
-0.088172026 -0.046939567 0.00087656046 0.0873051 -0.03463639 0.010710205 -0.118749484 -0.2034712
0.18904026 -0.1136203 0.1522563 0.12509625 -0.22670472 -0.083067246 -0.16855316 0.0512438
-0.18824485 -0.1518318 -0.07208439 -0.0708432 0.087572575 0.16348886 -0.0031898096 0.19089127
-0.16158351 0.016349886 -0.045281075 -0.21177699 0.028920256 -0.15985957 -0.16815743 0.10335339
-0.0951533 0.20412552 -0.06368298 -0.1940076 -0.116584666 -0.052639678 0.19277434 -0.416926
-0.15133278 -0.024786413 -0.5405443 -0.18557574 0.0004046936 0.15908484 -0.035887048 -0.1380794
-0.0011722277 -0.028503342 -0.17672984 -0.053977553 -0.010115016 0.095956415 -0.105700836 0.0076521756
0.12656476 -0.09549201 0.18320724 0.023845594 0.0021847943 -0.24950479 -0.104727186 -0.031768937
00000000: afa4 82bc bdb5 b0be 7653 8c3c 5356 15be
00000010: 9bff 94bc 8ec3 28bd 3442 573c a9cc a8bc
00000020: 6706 d5be 3e4a 9dbe ae55 0ebd ad4a 443e
00000030: ad1c 023e 5b7c 21bd 4904 b3bd d7d1 0d3d
00000040: 2ac8 cbbc c395 1bbe 4344 c2bd 70d2 173e
00000050: e3a7 913d c2ab ecbb f288 3fbe 73ee f33d
00000060: 5afe 9ebd d55a 0b3e 7a87 173e 39c2 b1be
00000070: d941 4bbc c8a7 1abe c275 4d3d 5b88 e9bc
00000080: b686 dbbd e918 b8bd 31d0 163e a780 debb
00000090: cdde c93d e2d0 413e 7509 8ebd ca19 5f3e
000000a0: 8380 21bd 1da2 bfbd 23b0 f53d 5062 39bd
000000b0: 6abb 37be de37 0a3e 2774 d23d 51b8 8c3d
000000c0: 43f1 70bd 69b3 82bd b8c9 7bbd 7f01 603e
000000d0: 251a 323e 7eae 283e f503 37be 90e4 b83d
000000e0: 7945 e13c f1ad a23d 42a4 033e 4a62 a23d
000000f0: 543f 263c 7fdc 56bd 1bac e4bd 2ca8 66bd
00000100: 8993 b4bd b443 40bd fac8 653a 04cd b23d
00000110: e3de 0dbd db79 2f3c ee32 f3bd c15a 50be
00000120: c593 413e c3b1 e8bd 13e9 1b3e 3b19 003e
00000130: 4825 68be 291f aabd 3399 2cbe 05e5 513d
00000140: 42c3 40be cc79 1bbe fba0 93bd 3d16 91bd
00000150: 4059 b33d a069 273e 200c 51bb 0079 433e
00000160: 2676 25be 32f0 853c a678 39bd 11dc 58be
00000170: 2cea ec3c 3ab2 23be 7631 2cbe f1aa d33d
00000180: bcdf c2bd 4806 513e 396c 82bd eea9 46be
00000190: f1c3 eebd b49c 57bd a366 453e 5377 d5be
000001a0: fbf6 1abe e00c cbbc 1c61 0abf 9107 3ebe
000001b0: 0e2d d439 23e7 223e 4cfe 12bd b064 0dbe
000001c0: 6fa5 99ba d77f e9bc abf8 34be 9117 5dbd
000001d0: 74b9 25bc cc84 c43d ae79 d8bd 1abf fa3b
000001e0: 319a 013e 5191 c3bd ae9a 3b3e d657 c33c
000001f0: c42e 0f3b 2f7e 7fbe 357b d6bd 2520 02bd

fc2.weight f4 [64, 128]
0.6029106 -0.013048997 -0.21339919 0.07655639 -0.24382399 0.56466395 0.7324145 0.4823585
0.43601504 0.029233456 0.2619544 -0.6509959 -0.4451141 0.029043548 0.12049083 0.17285971
-0.12625645 0.38948646 0.043335896 -1.3935897 -0.5488268 -0.1007143 0.023692118 -0.1707827
0.36038777 -0.7317867 -0.34354427 0.32712293 0.5103587 -0.12662455 0.47344717 0.06488055
0.02218863 -0.05456243 -1.2685899 0.12967908 -0.36597204 -0.06334573 -0.026712436 -1.2881624
0.055168506 0.06291174 -1.1207361 0.40508667 0.074383594 -0.18560295 -0.5530147 -0.15711737
-0.039179314 0.32628554 0.27652904 -0.26550856 -1.1705445 -1.556427 0.0740512 0.2129276
-0.27281672 -0.27621958 -0.9582458 0.1782777 0.32070056 -0.2704057 -0.09423713 -0.011191307
0.0062853093 0.56717163 -0.18504691 -0.24844481 0.2823508 0.562993 0.09126049 0.19902723
-1.1251779 -0.08431632 -0.0555247 -0.16744196 -0.05399953 0.1518305 0.18664053 -0.43963248
0.57307523 0.064148545 0.062012993 0.6203611 0.08431876 -0.4599102 0.3120755 -0.38889238
-0.08705079 0.45024085 0.5528872 0.14069974 -0.14188284 0.19574212 0.063015476 -0.4967544
-0.04316488 -1.2704543 0.13516717 0.11818224 0.12420392 0.83198243 -1.3159409 0.14183335
0.18923004 0.406924 -0.10163262 0.023907788 0.34599915 -0.4037607 0.36566824 0.2131005
-0.45230734 0.5678039 0.20570204 -0.08025765 -0.38982555 0.0020395082 0.07621323 0.40137458
-0.12140168 -0.024279917 -1.2351941 0.18950355 -0.056560192 -0.101455554 -0.021825643 0.03619092
0.2818662 -0.07982677 -0.1153159 -0.3195177 -0.09835831 0.11791793 0.42636374 0.4603481
0.6166378 0.3837697 0.3990719 -0.24839528 -0.31763455 -0.11789204 0.55475587 0.13410118
-0.24334534 0.22818796 -0.08732815 -0.9666454 0.06911403 0.030642051 -0.027259067 -0.43867958
0.46152514 -0.5923848 -0.15437411 0.53733796 0.65165716 -0.13303639 0.39493176 0.06420196
0.07497653 -0.017298806 -0.608222 0.16293515 -0.36561218 -0.21860407 -0.048381224 -0.9385038
-0.0038896808 0.026787147 -0.6283114 0.25440446 -0.05855259 -0.34369484 -0.46186128 -0.37056997
0.055174835 0.25373542 0.12937893 -0.47966743 -0.62543315 -0.7728905 0.12196032 0.08956797
-0.38280576 -0.39257234 -0.7584934 0.19958115 0.1301956 0.023065237 -0.02115404 0.029600475
0.011862825 0.6514612 -0.32194486 -0.19157495 0.11038841 0.45920113 -0.0043003303 0.4577136
-0.5824325 0.18733785 -0.04909777 -0.1303603 -0.04770679 0.13497157 -0.21827734 -0.6538066
0.18002707 -0.08032887 0.11040671 0.53609484 -0.12224149 -0.27829713 0.2451538 -0.44965786
0.08472421 0.37615517 0.25715864 -0.127509 0.2749165 0.3504828 0.06799272 -0.6215485
-0.069232464 -0.7363447 0.3819878 0.09226923 0.46339294 0.58297217 -0.83131295 -0.079105735
0.2878098 0.6997902 0.17025504 -0.034190495 0.28569785 -0.7000622 0.06254118 0.34372506
-0.4032279 0.5423551 0.12126482 0.47704807 -0.79620683 -0.02019306 -0.017969836 0.1397074
-0.3255465 -0.035973538 -0.585901 0.049892113 0.08589442 -0.038640168 0.60270125 0.19129056
00000000: 5958 1a3f 76cb 55bc 5185 5abe 99c9 9c3d
00000010: ffac 79be d18d 103f 847f 3b3f b1f7 f63e
00000020: 5d3d df3e 007b ef3c e31e 863e aba7 26bf
00000030: ffe5 e3be bcec ed3c e5c3 f63d 2302 313e
00000040: 5f49 01be c56a c73e fb80 313d 2661 b2bf
00000050: ea7f 0cbf 4d43 cebd f915 c23c a9e1 2ebe
00000060: bf84 b83e 6056 3bbf 09e5 afbe a87c a73e
00000070: dea6 023f dea9 01be ab67 f23e 18e0 843d
00000080: eec4 b53c db7c 5fbd 2761 a2bf 98ca 043e
00000090: b060 bbbe 68bb 81bd 0ad4 dabc 81e2 a4bf
000000a0: 5ff8 613d dfd7 803d 4874 8fbf 8567 cf3e
000000b0: 6d56 983d b30e 3ebe 5f92 0dbf 60e3 20be
000000c0: 7d7a 20bd e60e a73e 3795 8d3e bdf0 87be
000000d0: 67d4 95bf 0039 c7bf 28a8 973d b109 5a3e
000000e0: a2ae 8bbe a76c 8dbe 994f 75bf 6e8e 363e
000000f0: dd32 a43e 9e72 8abe 65ff c0bd be5b 37bc
00000100: fff4 cd3b 2932 113f f07c 3dbe 5168 7ebe
00000110: 4990 903e 4f20 103f c8e6 ba3d cbcd 4b3e
00000120: d405 90bf 09ae acbd de6d 63bd e875 2bbe
00000130: 9c2e 5dbd 7479 1b3e b21e 3f3e 8217 e1be
00000140: 0fb5 123f 5060 833d 5601 7e3d fccf 1e3f
00000150: 50af ac3d 5a79 ebbe 5cc8 9f3e e71c c7be
00000160: af47 b2bd f885 e63e 048a 0d3f 9813 103e
00000170: bc49 11be 9f70 483e 420e 813d 9856 febe
00000180: a8cd 30bd 3f9e a2bf 4369 0a3e 8809 f23d
00000190: a05e fe3d cdfc 543f c070 a8bf c33c 113e
000001a0: 85c5 413e 5858 d03e c324 d0bd 44da c33c
000001b0: cd26 b13e b9b9 cebe de38 bb3e 0437 5a3e
000001c0: d494 e7be 995b 113f 8ea3 523e 1f5e a4bd
000001d0: 3797 c7be 45a9 053b af15 9c3d f880 cd3e
000001e0: 72a1 f8bd ade6 c6bc d71a 9ebf 380d 423e
000001f0: a9ab 67bd eec7 cfbd b1cb b2bc ee3c 143d
00000200: c450 903e 387c a3bd be2a ecbd d397 a3be
00000210: 1570 c9bd f57e f13d 594c da3e bfb2 eb3e
00000220: fadb 1d3f 767d c43e 2753 cc3e 555b 7ebe
00000230: ffa0 a2be 6271 f1bd 7b04 0e3f d251 093e
00000240: 852f 79be 1baa 693e 1ad9 b2bd 1376 77bf
00000250: a88b 8d3d 0a05 fb3c 684e dfbc 9c9a e0be
00000260: 064d ec3e 88a6 17bf 3f14 1ebe fb8e 093f
00000270: 01d3 263f b13a 08be 7f34 ca3e 517c 833d
00000280: 4c8d 993d 3ab6 8dbc 70b4 1bbf 79d8 263e
00000290: 8531 bbbe bfd9 5fbe 642b 46bd c941 70bf
000002a0: 04ea 7ebb b870 db3c 04d9 20bf 4d41 823e
000002b0: d7d4 6fbd c5f8 afbe 1579 ecbe 59bb bdbe
000002c0: 02ff 613d 9ce9 813e e97b 043e f896 f5be
000002d0: 631c 20bf 27dc 45bf 55c6 f93d 696f b73d
000002e0: 1eff c3be 3eff c8be a02c 42bf 005f 4c3e
000002f0: ff51 053e 4ff3 bc3c 3d4b adbc b27c f23c
00000300: 4b5c 423c 29c6 263f f5d5 a4be 392c 44be
00000310: 5213 e23d 691c eb3e c9e9 8cbb 7059 ea3e
00000320: 4c1a 15bf 7ed5 3f3e be1a 49bd 2c7d 05be
00000330: 3268 43bd fd35 0a3e 1884 5fbe df5f 27bf
00000340: 0459 383e 7683 a4bd ea1c e23d 833d 093f
00000350: bf59 fabd f67c 8ebe 9909 7b3e 8e39 e6be
00000360: e383 ad3d 6997 c03e 4caa 833e b891 02be
00000370: dbc1 8c3e 7b72 b33e c43f 8b3d cd1d 1fbf
00000380: c0c9 8dbd 1681 3cbf e893 c33e a6f7 bc3d
00000390: d741 ed3e aa3d 153f edd0 54bf 3002 a2bd
000003a0: ce5b 933e 7325 333f 5657 2e3e 550b 0cbd
000003b0: fd46 923e 4737 33bf 9715 803d bbfc af3e
000003c0: e373 cebe c9d7 0a3f b159 f83d a53f f43e
000003d0: 36d4 4bbf eb6b a5bc 7a35 93bc 750f 0f3e
000003e0: 08ae a6be fd58 13bd 9cfd 15bf ac5b 4c3d
000003f0: 6ae9 af3d 2745 1ebd a14a 1a3f ace1 433e

fc2.bias f4 [64]
0.3057795 0.14375603 0.32357144 0.26332974 0.32288828 0.28037986 0.34578523 0.13869141
0.33662432 -0.1405419 0.2864516 0.15332569 0.07308071 0.0785581 -0.7389044 0.25922787
0.25591114 -0.0014448802 -0.09366937 0.27563652 0.42220008 0.24530412 0.22985569 0.29662317
0.25170323 0.33107528 0.035904307 0.35105455 0.27274933 0.31347376 0.25077745 0.32072008
0.323677 0.32887605 -0.038544774 0.24814036 0.30597055 0.3164239 0.27578425 0.292648
0.32896805 0.25327122 0.29231814 0.23214646 0.044899814 0.29493442 -0.059107564 0.31024897
0.071407296 0.2806774 0.29529822 0.3567333 -0.29083762 0.27569878 0.0021008488 0.3016356
0.34836954 0.4526335 -0.052207608 -0.068941295 0.30694354 0.26471215 0.3151712 -0.02486006
00000000: 218f 9c3e c834 133e 28ab a53e 28d3 863e
00000010: 9d51 a53e f38d 8f3e c30a b13e 1f05 0e3e
00000020: 065a ac3e 37ea 0fbe c9a9 923e 6901 1d3e
00000030: 57ab 953d 12e3 a03d d728 3dbf 84b9 843e
00000040: c906 833e 2262 bdba bad5 bfbd 3b20 8d3e
00000050: 9c2a d83e 0131 7b3e 4a5f 6b3e fede 973e
00000060: 3fdf 803e b382 a93e 6510 133d 6cbd b33e
00000070: cda5 8b3e a27f a03e e765 803e 6c35 a43e
00000080: feb8 a53e 7162 a83e 20e1 1dbd 8218 7e3e
00000090: 2ca8 9c3e 5002 a23e 9833 8d3e f5d5 953e
000000a0: 806e a83e c4ac 813e b9aa 953e cdb7 6d3e
000000b0: dee8 373d a501 973e c61a 72bd f4d8 9e3e
000000c0: fd3d 923d f3b4 8f3e 5431 973e bfa5 b63e
000000d0: abe8 94be 6428 8d3e 65ae 093b fb6f 9a3e
000000e0: 7e5d b23e 94bf e73e a5d7 55bd 1831 8dbd
000000f0: b427 9d3e 5a88 873e 1f5e a13e 53a7 cbbc

classifier.weight f4 [2, 64]
-0.01807033 -0.17721438 0.17695983 0.096764825 0.18898124 0.1177924 0.10731763 -0.11550093
0.101754814 -0.3343922 -0.093943134 -0.10802401 -0.2997459 -0.2144727 0.104000494 -0.106312454
-0.0044676936 -0.33374333 -0.4372507 0.1321788 -0.10028148 -0.02911143 0.058062866 -0.066536434
0.045200936 0.155974 -0.3758014 -0.13445568 -0.055676997 0.14129142 -0.117261164 0.12796035
0.009315712 0.07211595 -0.23097679 0.0748364 0.0138731375 -0.12709318 0.041275345 0.0827129
0.05279995 0.14282247 0.022000765 -0.03859848 -0.09854559 0.07165818 -0.0476346 0.107189976
0.009548371 -0.108493194 0.100173 0.087907605 0.1024463 0.13397779 -0.006772194 0.11249123
0.15761444 -0.27237633 -0.38010973 -0.26801908 0.10190288 -0.03078865 0.24871038 -0.18500791
0.14812338 0.17302823 -0.022940455 -0.11295889 -0.04269583 -0.13981 -0.16248806 0.19183955
-0.06764217 0.2820401 0.024805458 0.11748645 0.10971633 -0.0042336197 -0.07636642 -0.04380596
-0.11147777 0.1455655 0.38317236 -0.20030053 0.1152337 0.19705334 -0.032236498 0.049664035
-0.08139383 0.018182393 0.32060388 0.14572887 0.08964123 -0.02574013 -0.0167192 -0.11013746
-0.21802644 -0.12685196 0.17864017 -0.06952798 -0.15498845 0.08238872 -0.14057289 -0.086456455
-0.2095924 0.014780204 -0.07664216 0.095186494 0.109403595 -0.12644856 -0.064934544 -0.11612283
0.13632172 -0.009537208 -0.03257976 -0.20502175 -0.0026242468 -0.052193493 -0.04004352 -0.09946739
-0.09322453 0.041559104 0.27001512 0.17894566 -0.11984281 0.12742116 -0.056712445 0.12397415
00000000: 3b08 94bc b077 35be f534 353e a32c c63d
00000010: 4c84 413e 243d f13d 58c9 db3d c08b ecbd
00000020: d464 d03d 7435 abbe 4265 c0bd b13b ddbd
00000030: 4b78 99be bb9e 5bbe 36fe d43d 58ba d9bd
00000040: bb65 92bb 68e0 aabe 53df dfbe e159 073e
00000050: 6060 cdbd 187b eebc 54d3 6d3d 4144 88bd
00000060: 9e24 393d a6b7 1f3e 0b69 c0be c0ae 09be
00000070: 900d 64bd b3ae 103e 9f26 f0bd 0a08 033e
00000080: eea0 183c 87b1 933d 2e85 6cbe d443 993d
00000090: 284c 633c b724 02be 5610 293d 6265 a93d
000000a0: c344 583d 0e40 123e f33a b43c 7119 1ebd
000000b0: 45d2 c9bd 86c1 923d 801c 43bd 6b86 db3d
000000c0: c570 1c3c ae31 debd 8027 cd3d e708 b43d
000000d0: 5ecf d13d 7931 093e 48e9 ddbb cd61 e63d
000000e0: ae65 213e e974 8bbe be9d c2be cc39 89be
000000f0: 75b2 d03d 7b38 fcbc efad 7e3e b772 3dbe
00000100: a8ad 173e 502e 313e 9fed bbbc fe56 e7bd
00000110: d3e1 2ebd 5a2a 0fbe 4563 26be 9671 443e
00000120: fa87 8abd 8f67 903e d134 cb3c bc9c f03d
00000130: f5b2 e03d 2dba 8abb ff65 9cbd e16d 33bd
00000140: 754e e4bd 1f0f 153e 2b2f c43e 951b 4dbe
00000150: a5ff eb3d 5ac8 493e 6b0a 04bd 846c 4b3d
00000160: cfb1 a6bd 3ef3 943c 3126 a43e f339 153e
00000170: d295 b73d f7dc d2bc b4f6 88bc c08f e1bd
00000180: 5342 5fbe 7be5 01be 73ed 363e b064 8ebd
00000190: 4bb5 1ebe 6bbb a83d 57f2 0fbe 1510 b1bd
000001a0: 649f 56be ab28 723c 91f6 9cbd 23f1 c23d
000001b0: fe0e e03d bb7b 01be 67fc 84bd ced1 edbd
000001c0: ec97 0b3e f341 1cbc 5b72 05bd 39f1 51be
000001d0: 8efb 2bbb d8c8 55bd ad04 24bd 8fb5 cbbd
000001e0: 81ec bebd e139 2a3d 6c3f 8a3e 883d 373e
000001f0: 2670 f5bd b17a 023e 4f4b 68bd 29e6 fd3d

classifier.bias f4 [2]
0.22652654 -0.2892557
00000000: 93f6 673e 5319 94be
