backend/workspace/weight/r/PU/PU_1.pth (torch, 197051 bytes, 13 tensors)

ggnn.weight f4 [3, 50, 50]
00000000: 0925 bbbd dd9f dfbc 3493 45bd 6cdd b63d
00000010: cd53 f33c 4e44 933d 6e90 cebd 2c30 e7bc
00000020: b1b6 82bc 8e18 2c3e 5a08 5b3d 6fce 0ebe
00000030: 9172 303c e2a2 8abc 99bd 063e 34c5 03bd
00000040: 6931 ca3d 7088 33bd fd6c 4b3d 6fca 76bd
00000050: 8bd4 fc3b e47a af3d 4597 6f3c 33c3 f1bd
00000060: fb21 e23d 02bf 973d 9895 ad3b d4ac 98bd
00000070: 6cee 17be e5bb 3e3d bfaf 393d 433e 96bc
00000080: 1d78 55bd ad39 3d3d 82ad e63d 8832 03be
00000090: 63cf 703a b394 b93d cf0a 9e3d d9ad 93bd
000000a0: 561a cb3d bcf1 b6bd a223 c0bd f64f 403d
000000b0: b48c 7d3d c468 d63d ad8b 263d 03ce 123d
000000c0: aa00 90bc 5d9c e63d 9b16 3cbd a6a8 e53d
000000d0: e289 4d3d 4b11 e83d a623 54bb 7b0f 213d
000000e0: 8a94 7b3d 3842 19be e519 4abd d1a3 11be
000000f0: a53c 51bb f5d5 e43d 0ee2 bb3d 2ec0 383e
00000100: 0a8c ac3d 9bd8 ae3d 11c1 9d3d 0323 26bd
00000110: c85c 113c 5bda d13d 724a 89bd 2710 b9bd
00000120: b9a6 68bd 477b cfbd b154 29bd ed13 193d
00000130: 9d71 ccbc 9d6d 2dbd ecc0 c63c 2d2a f439
00000140: cbc6 f53d 3063 62bd 459a 083e 84c6 38be
00000150: 54cf 893d 067e 4d3d 3082 cf3c 2f6a 84bc
00000160: 36e5 b63b 5a7c efbc 34a9 0c3d b0d2 043d
00000170: f7f9 78bd 9c20 0e3e d028 553c 521e acbd
00000180: c420 08be eb59 9ebd f213 d13d a33c 973b
00000190: e23f e43d bb9b cc3d 2db8 5ebc 312d 063e
000001a0: e9ed eabc 2ed6 dcba c2de 343c a367 b1bd
000001b0: a065 bc3d 146b 063e ffc4 b13c 729a 963d
000001c0: ec70 debd e21c aebd 5be2 20bd 3ca7 46bd
000001d0: 0cec c23d 1cf5 cd3d 3005 d33d adcc df3d
000001e0: 5433 803d b67d a73d 3655 e4bd b8c6 4a3d
000001f0: 2ec8 9f3d 8c59 053e 7975 28be 423a 863d
00000200: 893d a0bd 9901 cbbd 71f1 033d 54b8 f03c
00000210: 9d30 eebd 9d7f 063e 171d 953d 4bc6 8bbd
00000220: a6ec ba3c d341 d8bd bf09 d43d c106 09bd
00000230: 9076 473d 8b48 93bd 430c ea3d 0e4f 84bd
00000240: c058 b8bd d8b7 9ebc 0eb9 b7bd 8f88 24bc
00000250: b737 4ebd 7682 1d3d 7a3c 5c3d 5440 d5bd
00000260: 0a26 ddbb e1cb 84bd 260f 9b3c 0005 ba3d
00000270: 987f 163e 04c0 9dbd 4d1b 1b3e 76b3 fcbd
00000280: 1262 b1bc 4837 223d 2ec9 57bc 4997 973c
00000290: aa1c a53d b408 8d3d 1e3b afbd 8a1d e13d
000002a0: 24f0 af3d 92ac 24bc 8ae9 18bc 9d94 a2bd
000002b0: fde8 b6bd 520c 063b a423 2dbc a8cf bd3d
000002c0: 467e 3f3d c1dc 0ebe b954 593d abcf c53d
000002d0: 1eb5 e73c 2255 eabc 31f1 bf3d ed84 bdbd
000002e0: 2c75 83bd 4945 f63d 5cc5 0a3e 58a0 893d
000002f0: 30aa 733d a517 bb3d 94a8 d2bd 5e29 1b3d
00000300: ad5c 84bd 8344 a63d 4ac3 5f3d 6983 2ebc
00000310: 4d3e b3bc e758 923c 1c50 14be acf9 31bc
00000320: add3 31bd d489 113c 2c5a a7bd 4dc9 953d
00000330: 63b9 abbd db10 6ebd cbaa d33d ec81 d1bd
00000340: fed9 a5bd 36cc ebbd 7b9e 9fbd 8425 8b3c
00000350: 1d22 cabc e9e1 24be 8302 04bd 4aa5 953d
00000360: d51f 003d 6cbe 1bbd 5b36 0dbe 12a8 8b3d
00000370: 5c7d 4b3d 15d7 e43c 46fd 15bd 8295 0cbe
00000380: 7def 903d ac3f a4bc 57ae 4e3e 708c 91bd
00000390: f309 3abd 0e0a 77bd 4375 01be 6a4a 8c3c
000003a0: ffdc 2e3d e47e b2bd 0bf6 0a3e 29a0 c7bd
000003b0: 6408 c63d 03a2 b33c dc0c e5bd afe8 f63d
000003c0: 149e 1c3e 0ec1 193d 92d7 783d 5588 76bc
000003d0: 5777 be3c 9602 113e 1b85 143e 4012 8c3d
000003e0: fa08 383c 787b 623d f53c 61bc ae75 433d
000003f0: 4e15 803c bdc4 dc3c b21f 61bb 8018 d83c
-0.09137923 -0.027297908 -0.048236087 0.089289516 0.029703045 0.071907625 -0.100861415 -0.028221212
-0.015956255 0.16806242 0.05347476 -0.13945936 0.010769502 -0.016923372 0.13158263 -0.03217049
0.098727055 -0.04383129 0.049664486 -0.06025165 0.007715767 0.085683614 0.014623468 -0.118048094
0.110416375 0.07409479 0.005297374 -0.07454839 -0.14837044 0.04656591 0.04533362 -0.018340236
-0.052116502 0.046197582 0.11263563 -0.12812245 0.00091861765 0.09061565 0.07716905 -0.07210893
0.099171326 -0.08932826 -0.093817964 0.046951257 0.061901763 0.10469201 0.04066055 0.035841
-0.017578442 0.11260293 -0.045919996 0.11213808 0.050180323 0.11331423 -0.003236988 0.039321404
0.061420955 -0.14966667 -0.0493411 -0.14222647 -0.0031927016 0.111736216 0.09173976 0.1804206
0.08425148 0.08537408 0.0770284 -0.040560734 0.008872218 0.10246726 -0.067036524 -0.09036284
-0.056799624 -0.10130935 -0.041340534 0.03737252 -0.024956519 -0.042340863 0.024261914 0.0004657073
0.120008074 -0.055270374 0.13340099 -0.18044478 0.06728998 0.050169013 0.025330633 -0.016163914
0.0055815233 -0.0292341 0.034341052 0.03242749 -0.06078526 0.13879627 0.013010219 -0.08404221
-0.13293749 -0.07731994 0.102088824 0.0046153828 0.11144997 0.09990641 -0.013593716 0.13103177
-0.028677898 -0.0016848498 0.011039438 -0.08662345 0.09199071 0.13126785 0.02170038 0.07353677
-0.10861382 -0.08501603 -0.03927837 -0.04849933 0.095176786 0.100565165 0.10303724 0.10927711
0.0625979 0.08178274 -0.11149065 0.04950592 0.07801853 0.1302244 -0.16451062 0.065540805
-0.07824237 -0.09912414 0.03221268 0.02938477 -0.11630366 0.13134618 0.07280939 -0.06824931
0.02281792 -0.1055943 0.103534214 -0.033453707 0.048697054 -0.07191571 0.1142812 -0.06460391
-0.09001303 -0.019374773 -0.08970843 -0.010042324 -0.050346103 0.038454495 0.053768612 -0.1041266
-0.0067489194 -0.06484199 0.018928122 0.09082985 0.1469711 -0.0770264 0.15147133 -0.12338917
-0.021653209 0.0396035 -0.013170524 0.018504756 0.08062108 0.068864256 -0.085561976 0.10991962
0.08590725 -0.01005091 -0.009333024 -0.07938502 -0.08931158 0.002045412 -0.010567579 0.09268123
0.046751283 -0.13951398 0.053059313 0.0965875 0.028284606 -0.028605048 0.093721755 -0.09253869
-0.06418833 0.12024934 0.13551849 0.06720036 0.059488475 0.09135369 -0.1028606 0.037881248
-0.06462989 0.08118536 0.0546296 -0.010651448 -0.021880293 0.017864658 -0.14483684 -0.010862749
-0.04341476 0.008882958 -0.08171496 0.07313786 -0.08384969 -0.058121543 0.103353105 -0.10229859
-0.08098219 -0.115135595 -0.077938996 0.016985662 -0.02467447 -0.16101803 -0.032228958 0.07306917
0.031280357 -0.038023397 -0.13790266 0.06819166 0.0496801 0.02793459 -0.036618493 -0.13728908
0.07076929 -0.020049892 0.20183693 -0.071068645 -0.045419645 -0.060312323 -0.12642388 0.017125327
0.042691227 -0.08715609 0.1357042 -0.09747345 0.09669569 0.02192784 -0.11184093 0.120560996
0.15294677 0.037537627 0.06075246 -0.0150471525 0.023250265 0.14161143 0.145039 0.068394184
0.011232609 0.05529353 -0.013747443 0.04771965 0.015635159 0.02694928 -0.0034351167 0.02637887

ggnn.rnn.weight_ih f4 [150, 50]
00000000: 498f 7abc 5a18 28bc 42af adbb ea23 0cbc
00000010: 0d4c c6bc 063c a63c c343 c0bb c37e 573c
00000020: fbd9 7cbd 30ac e23a d1c1 803a af70 9fbb
00000030: 5b50 6ebc b82e 5fbc e9f2 5bbb 2490 713c
00000040: 40dd 283c c135 553d be95 1d3a 3edc cc3c
00000050: 8300 80bc 77ca f83c 8fae b9bc fe16 33bd
00000060: e440 173d 8ea5 ba39 fb7b cdb9 2ff1 c7bb
00000070: 4770 093c cc08 c9bc 3f36 8bbc 119b 09bd
00000080: bbf0 cbbc f534 833c e0c7 0fbd e5e8 8abc
00000090: 8795 04bd 680f e7bc c714 f739 f698 27bc
000000a0: cb82 0a38 cff3 2c3b 3552 18bd f6ba d9bc
000000b0: 4598 223d 90c0 61bb a9d1 0e3c 3dd5 babc
000000c0: 0108 7e3c 6d8c 67bc 96e3 efbd f72d ac3d
000000d0: 1d66 40bd d705 13bd 0132 edbb 427b c53c
000000e0: 0bfd 85bd 2fe7 b93d af5c d2bd 17b9 ec3c
000000f0: 8205 08bd cfee 233d b31d fb3c 667c 63bd
00000100: c974 72bd 1278 103e 79cc 21bd 35e6 5bbd
00000110: 619f c13d ff9b 50bc adf4 303e 7708 d63b
00000120: ac9b 58bc 4658 4dbd 5cf2 0b3e 7e45 d9bd
00000130: 17f6 3bbd 60d5 8abd 9336 1ebd 9961 8d3d
00000140: 9cb1 33bd 6596 30bd aabb 963d 1b29 66bc
00000150: 314f cbbd 5c92 32bc 39f5 ee3b 4cc8 bfbd
00000160: 2647 abbd 84e0 f93c a50e dcbd 1be9 213c
00000170: fb2d 173a 7ff1 95bd c2c3 423d 4600 103d
00000180: c767 dcbc fa4a 2a3d 4620 853d 7e5f 2e3d
00000190: 7042 73bc 08a5 533c 3b31 e1bc 4937 3cbd
000001a0: 4fb8 0abc bce0 81bd ce72 9fbd 75e9 913d
000001b0: 399c 4cba f301 3a3d 6ecf 6f3b 4b8f 843c
000001c0: 21c3 4d3a 9775 21bd 243e d5bc 886a ca3d
000001d0: 86e3 51bd 227f 0d3d 030c 483c 2d01 013c
000001e0: 52cc 063e a726 80bc 3667 873c 709a 52bd
000001f0: 6678 e83c d1eb 423b 12c1 803c 4aaf 07bd
00000200: b258 e93c 071b b8bd 7296 85bd fafe bcbd
00000210: ab03 b1bc a05d 8cbb 0e41 b83c 64c4 22bd
00000220: 29f6 833d fe0f a9bd 1618 a0bd c5f4 c0bc
00000230: e3b2 453d 5a59 9f3c f8e6 c63d f0a3 8abd
00000240: 829a 92bd e2e3 73bc 96b4 87bd eb85 92bc
00000250: 124e b5bd 724d 693d 608c d7bb cbad b63c
00000260: 179d 7d3a a3c9 5eba caab ddba 9959 b5bc
00000270: 6e5a 383c c541 a03c befb 03bd ed79 b1bc
00000280: 7dab 11bb 4f3e 773c 8e11 fa3c ddd1 8c3c
00000290: d94d b4ba 7461 a03d 4d79 a23c 4953 f8bc
000002a0: 1805 6a3c a81e c73c 26ac 893c 09a6 123c
000002b0: dde9 88bc 771c a5bc dd86 b73c 7eb2 84bc
000002c0: 100c 3c3c 20ab 863c 9780 a7bb 4d92 163d
000002d0: c7a9 06ba 9ae3 15ba 639b 963d 20d8 b5bc
000002e0: 85a9 81bc 7c4b 46bd a96c 8ebc 8ec8 e4bc
000002f0: 2316 53bc 356c 91bb 84c5 05bd ae75 35bb
00000300: 73d0 033d fa00 20bd b40e 873a eb1a b4bc
00000310: 55f2 353c 570e aa3b 9bed 9f3c 1f94 00bc
00000320: 5e2e 2a3c a639 d3ba c14e 803c c9c4 ba3a
00000330: 5bfa a3bc 652c 293c 078e 553b ed83 443c
00000340: 904c 2abc a76c 6d3c d023 b33b 7d9e 393c
00000350: e9d1 8dbb 59a7 563c 64cc 2bbc b078 88bc
00000360: 1d7e 4cbc 74db abbb 10ef 153c c673 943a
00000370: 5b17 163c 351a cd3b 7676 cbbc ecee d63c
00000380: 85d4 13bc 87b5 ad3b 0b3a ecbc 5ab1 593c
00000390: 342c 6e3c 5b02 3cbb 1652 ae3c 2af0 62bc
000003a0: 6e15 e13b eab2 c53b 618d d6bc 3596 89bc
000003b0: cc41 383c 9650 22bc 01b3 35bc 4765 1d3c
000003c0: 3beb acbc eb91 ed3b a9ae c7bc 5f94 a1bc
000003d0: a0b3 05bc ed54 653c 8216 67bb ff4c 313c
000003e0: 0e71 b43b a3e3 9c3c fd6f 6cbc 7f1a 3f3b
000003f0: 028e 313b a323 cabc 122c 9d3c 6c12 f43a
-0.015292951 -0.010259712 -0.0053004334 -0.008553484 -0.024206186 0.020292293 -0.005867453 0.013152781
-0.06173132 0.0017293748 0.0009823387 -0.004865728 -0.014545525 -0.013621978 -0.0033561534 0.014743838
0.010306656 0.052053217 0.0006011388 0.025007363 -0.015625244 0.03036998 -0.022666244 -0.0437231
0.03692712 0.00035600032 -0.0003919302 -0.0061017494 0.008388585 -0.024540327 -0.01699364 -0.03359515
-0.024895063 0.016016463 -0.035102725 -0.016956756 -0.032369163 -0.028205588 0.00047126992 -0.01022934
3.3023574e-05 0.0026390438 -0.037187774 -0.026578408 0.039695997 -0.0034447052 0.008716979 -0.022806758
0.015504838 -0.014132601 -0.117133304 0.084072046 -0.046972383 -0.03589424 -0.007238627 0.024106625
-0.06542405 0.09077298 -0.10271584 0.028896851 -0.033208378 0.040022667 0.03065381 -0.055538557
-0.059193406 0.14108303 -0.03950164 -0.05368634 0.09454227 -0.012732505 0.17280836 0.006531771
-0.013220709 -0.050133012 0.13666672 -0.10608958 -0.045888986 -0.06778979 -0.038626265 0.06903381
-0.043870553 -0.043112177 0.07360013 -0.014047886 -0.09927214 -0.010899153 0.0072924164 -0.093643755
-0.0836318 0.030502565 -0.10744981 0.009882237 0.00057670445 -0.07321452 0.04754997 0.03515651
-0.026904954 0.04157541 0.06500296 0.042571537 -0.014847383 0.0129177645 -0.027489295 -0.04595116
-0.008466794 -0.06341693 -0.07785569 0.071246065 -0.00078052614 0.045412015 0.0036592144 0.016181609
0.0007849206 -0.039418783 -0.026030608 0.098836005 -0.051242374 0.03454507 0.012209895 0.0078738155
0.1316388 -0.01564343 0.016528707 -0.051416814 0.028377723 0.0029742608 0.015717063 -0.033126153
0.028484676 -0.0898953 -0.06522836 -0.092283204 -0.021608194 -0.004283622 0.022491958 -0.039738074
0.06443436 -0.082550034 -0.07817094 -0.023554215 0.048266303 0.019451786 0.097120225 -0.0676955
-0.07158376 -0.014885874 -0.06626241 -0.017886123 -0.08852781 0.056958623 -0.0065780133 0.022299668
0.00096745923 -0.0008498674 -0.0016912159 -0.02213745 0.011252029 0.019562611 -0.032222502 -0.021664584
-0.002222746 0.015090539 0.030525949 0.017189914 -0.001375611 0.07831088 0.019833231 -0.030313151
0.014283441 0.02430661 0.01680572 0.008950719 -0.016713077 -0.020155175 0.022403175 -0.016198393
0.011477485 0.01643902 -0.0051117647 0.036760617 -0.0005136993 -0.0005717814 0.073538564 -0.022197783
-0.015827904 -0.04841183 -0.017385798 -0.027927663 -0.012883696 -0.004437948 -0.03265907 -0.002768855
0.032181215 -0.03906343 0.0010304064 -0.021985492 0.01110514 0.0051896977 0.019522479 -0.007847815
0.010387031 -0.0016115203 0.015662553 0.001424932 -0.02001684 0.010325526 0.0032585876 0.011994344
-0.0103942305 0.014491237 0.0054669157 0.01132929 -0.0043280018 0.013101422 -0.010485742 -0.01665911
-0.01248124 -0.0052446667 0.009151235 0.0011326007 0.009160842 0.0062592276 -0.02483676 0.026236974
-0.009022837 0.0053011808 -0.02883627 0.013286913 0.014536906 -0.0028687927 0.021279376 -0.013851205
0.0068690097 0.006033291 -0.026190462 -0.016795257 0.011246156 -0.0099069085 -0.011090041 0.009606666
-0.02110826 0.007250061 -0.024375277 -0.01972407 -0.008160502 0.013997299 -0.0035261218 0.01082158
0.005506641 0.019151514 -0.014430997 0.002916008 0.00270927 -0.024675196 0.019186053 0.0018621213

ggnn.rnn.weight_hh f4 [150, 50]
00000000: b2c4 753c c788 3d3d 56db 31bb 378a 213d
00000010: 8ea4 53bd 6fe9 10bd 65d4 b13d 10ba f73c
00000020: 5e81 b43c bdce 4d3d 5b79 153c d71a 193d
00000030: a38f 1d3c cc3f 8ebb 3f78 26bd 71bf 75bd
00000040: a5c4 503c 3a33 82bb 19d3 ebbc e514 b03d
00000050: 3d6a 96bd 1e32 7a3c bdaf 0c3c 283a 0dbd
00000060: 2452 43bc 856d 963d 6f21 603d 3571 a5bb
00000070: 1cb0 1cbd 4652 11bd 10f9 0b3d 7a63 18bd
00000080: 9cb7 d13d 7579 863c 9dd7 563d 9354 3e3c
00000090: 13f3 0e3d 4a69 25bd 48af cfbb a9b6 0b3c
000000a0: d82d b53d 46ce ba3a e6d0 f4bc c0fc a5bc
000000b0: 0ab5 e03d 3bdf 58bd 2d5e 473d 3b10 803d
000000c0: 49b8 043b fb3a 95bc 5177 1ebd 199f 98bd
000000d0: 9fb9 d3bc 00a6 4dbd 950f 8f3e 442c 0c3e
000000e0: c696 96bd 8d3c d2bd 5b6e 9dbd 575f e03c
000000f0: 20d2 b93d a91c dd3b 2f81 02bd e850 79bc
00000100: 951a 663d 9cb6 393e c7e4 0b3c bc40 acbd
00000110: 1037 e73d df95 e4bc 78c7 b3bc f229 773d
00000120: d57f 85bd fb89 95bd da03 adbb 36eb 2abd
00000130: 1be0 a1bd ad32 32bc 2ed4 1a3d 9085 7f3d
00000140: 80df 7a3a 02db bb3c 92dc 00be 2577 253d
00000150: 765d 823d ca2e ef3b eede ff3d dfd1 243a
00000160: f9b9 943d 8a75 97bd f68f 17bd da84 793d
00000170: d590 123c ca2e 6e3d b181 703d f985 b43d
00000180: 5607 11bb d26b 3a3d 0ba4 773c dbe6 823d
00000190: 3410 01be 37db 18be 0e16 b1bd 30d0 903c
000001a0: 5bfc 613d 9309 18bd 91da 92bd a3e4 823c
000001b0: 360b d8bc 0ce1 0abd b63c 3a3e e310 473d
000001c0: 18c2 93bb 848c d63d 914d c13c bc12 b73d
000001d0: 70e3 12be 0fe0 36be 84c3 ec3d 64b7 4bba
000001e0: 0039 f53d 6ca4 b23d 1618 b2bd 2af4 f7bd
000001f0: 1a9c cdbc ad66 953d 4b33 e73d 4776 eebd
00000200: 0182 73bd 8e48 65bd 3769 2f3d eeb6 2a3d
00000210: 2af7 dbbd 9527 123e 5097 0dbd 9883 dcbc
00000220: dcfc 1dbd e84c 22be e6dd a5bc cceb b1bd
00000230: 03f1 9e3d fde7 873d fe70 9abd bd67 5cbd
00000240: 7fc2 8d3c 7c17 fa3d 408e 19bd f1ca a93d
00000250: 7e78 58bd 6c40 7fbd c406 fbbd 9d4b 62bd
00000260: b10c e6bc 23d1 b8bd add9 8b3b 8ba1 9b3d
00000270: be3c 453d 8d43 0d3d 2900 dabc ed30 0a3c
00000280: 66a5 d0bb fe56 aa3c 558a a6bb 08a0 183d
00000290: 35b2 55bd de89 d6bc ddc0 0b3d 6757 883b
000002a0: 371f 96b8 fab8 483c 46c2 afbd 88fb 803c
000002b0: 9e7e 93bd 89a3 aabd 0b38 81bd a7c1 873d
000002c0: 98e3 96bb e3fb 333d c4f4 6fbd c42c 6a3c
000002d0: 66b0 42bb 2a7a f9bc 58c3 bc3c 7f66 a23c
000002e0: ab59 27bc 505f c13d ceb0 3c3d 7c46 c6bc
000002f0: 910e 5f3d 913e 823b b20b 82bc d188 b83c
00000300: 8d07 96bd 4cae 62bc 4e6b 593d a62e 3cbd
00000310: 4dfd de3c 7e8f 83bd 9a7a 323d d897 bfbd
00000320: ba1b edbb 7649 e1bd dec1 803c ce3d 37bd
00000330: 657d d93d 032d e53c 17e0 703c 6e11 853d
00000340: edd8 2dbc 4de4 423d 4b3b a83d 77af b3bc
00000350: 7cfb cebc 3a96 883c 37b2 f0bb 4882 153d
00000360: 017b 30bb 8914 8cbd 0eae d0bc 5235 f5bc
00000370: 7581 83bd 9cd8 31bd 0aaf 073c 107e 94bd
00000380: 7fd8 c13c 7ca7 87bd 5edd 18bd df7f dd3c
00000390: 97ef 073d 614a 4abd cc7c 05be aa38 15bd
000003a0: 7202 813c e043 953c 74e1 5a3d f50e 0b3d
000003b0: bbff 9abd 9a57 05bd cbdd cdbc 8224 aebc
000003c0: 0a27 95bc ad21 48bc 6f02 38bc 9e95 533d
000003d0: 125a e63a ce8d 3a3c f028 19bc d69f 89bb
000003e0: 2988 c6bc 8789 cebc 58d9 14bc bd4f 23bd
000003f0: 9d12 473d 807c 823d 16ca ea3c 2390 4e3d
0.015000509 0.04627302 -0.002713879 0.039438453 -0.051670603 -0.03537887 0.08683089 0.030240089
0.022034343 0.05024599 0.009123172 0.037379112 0.009616765 -0.0043411013 -0.04064202 -0.059997026
0.012742196 -0.003973392 -0.028787183 0.08597735 -0.07344482 0.015270738 0.008586821 -0.03447929
-0.011921439 0.07345108 0.054719385 -0.0050488957 -0.03825389 -0.035478853 0.03417307 -0.037204243
0.10240099 0.016415337 0.05245172 0.011616844 0.034899782 -0.040383615 -0.006338034 0.008527436
0.088466346 0.0014252148 -0.029884767 -0.020262122 0.109720305 -0.052947264 0.048673797 0.06253096
0.0020251444 -0.0182166 -0.038688008 -0.074522205 -0.025845347 -0.050207138 0.27941576 0.13688761
-0.073529765 -0.102654554 -0.07687064 0.027389212 0.09073281 0.0067478013 -0.03186148 -0.015217043
0.056177694 0.18136066 0.0085384315 -0.084107846 0.11289799 -0.027903495 -0.0219457 0.060342737
-0.06518523 -0.07301708 -0.00528 -0.04172822 -0.07904073 -0.01087634 0.037800007 0.062383235
0.0009570047 0.02293158 -0.12584141 0.04039683 0.063654825 0.007299279 0.12493692 0.0006287377
0.07262034 -0.07395466 -0.037002526 0.060917713 0.008945663 0.05815009 0.058717433 0.08814616
-0.0022129617 0.04551298 0.0151147945 0.063916884 -0.12603837 -0.14927374 -0.08646785 0.017677397
0.055172306 -0.037118506 -0.071705945 0.015978163 -0.026372533 -0.033906028 0.18187222 0.04860009
-0.0045092218 0.1047602 0.023596557 0.0893912 -0.14344573 -0.17858909 0.11560729 -0.0007771163
0.119737625 0.08722767 -0.08696 -0.121071175 -0.02509885 0.072949745 0.1128908 -0.11643653
-0.059450153 -0.055977397 0.04282495 0.04167836 -0.10740502 0.14272912 -0.03456813 -0.026918218
-0.038571224 -0.1584965 -0.020247411 -0.08687553 0.07760813 0.06636045 -0.07541083 -0.05380987
0.017304657 0.122115105 -0.037489176 0.08290661 -0.052849285 -0.062317297 -0.1225715 -0.05524789
-0.028082224 -0.09024265 0.0042678923 0.07599171 0.04815363 0.03448825 -0.026611404 0.008434516
-0.0063673733 0.020793434 -0.0050824084 0.037261993 -0.052171905 -0.026188787 0.034119476 0.00416081
-7.1583716e-05 0.012251133 -0.085819766 0.01574494 -0.07201885 -0.08331973 -0.063095175 0.06628733
-0.004604768 0.04394139 -0.058583036 0.0142928995 -0.0029707192 -0.03045376 0.023042366 0.019824265
-0.01021425 0.094420075 0.04606705 -0.024203531 0.05445725 0.0039747437 -0.015874717 0.022526177
-0.07325659 -0.013835501 0.05308085 -0.045942925 0.027220393 -0.06423853 0.043573953 -0.09355134
-0.0072359713 -0.1100034 0.015717443 -0.044736676 0.1061962 0.027975565 0.014701865 0.06497465
-0.010610801 0.047581006 0.08214434 -0.021934254 -0.025266401 0.016673196 -0.0073454636 0.0365012
-0.0026928785 -0.06839854 -0.02547362 -0.029932652 -0.06421176 -0.043419465 0.008281479 -0.07250607
0.023662804 -0.06623742 -0.037320487 0.027038513 0.033187475 -0.04938734 -0.13035887 -0.036430992
0.015748236 0.018220842 0.053437665 0.03394981 -0.07568308 -0.032554246 -0.025130173 -0.021257643
-0.018207092 -0.01221506 -0.011231049 0.051656358 0.001757445 0.011386348 -0.009348139 -0.004199962
-0.024234848 -0.025212063 -0.009085022 -0.039870966 0.048601735 0.06371403 0.028660815 0.05043043

ggnn.rnn.bias_ih f4 [150]
00000000: 5a9b bcbd bd5f 873d 830c aaba 85cc 42bd
00000010: d13a 80bd 9b52 97bc 9cbd 233d 5c10 ae3d
00000020: b794 9a3d 980b f9bc 8ee4 e8bd 6ac1 7d3d
00000030: 4135 133e 43a0 e6bc 9092 d1bd 7673 ae3c
00000040: 04a1 89bd 6298 b83d 16bf 79bd f88f c53d
00000050: b2c0 353d e3ff 15be ce13 c23d d5a7 84bd
00000060: 3416 233d 7fb8 c33d 451c 5d3d 703d 5dbc
00000070: f00e 74bd 971c 823c 2196 683c 73b4 123d
00000080: 8538 b0bd feb3 99bc 5e07 2d3d 480c 0c3d
00000090: 7edf 7b3d 72eb bd3d 2afa bbbc ad68 7ebd
000000a0: ceb3 70bd 73e9 8cbd 1cca 2ebd 3c5c aa3d
000000b0: 3c01 c0bd a75c bf3d ea53 893d bcd6 92bd
000000c0: 59c8 45bd 4f54 4cbd 6e72 c9bc d89a 0ebe
000000d0: d480 093e d7cb c2bd fce4 26bd 56d5 96bc
000000e0: 3bca 2ebd 4c80 f0bd 51e5 03be f645 4dbe
000000f0: 3fb5 fe3b c1cd c8bd ca63 8cbc 9937 02be
00000100: a54d f83c b340 28bd 3b7c aabc a125 e83d
00000110: c02e dbba 3a08 8a3d b85d 9ebc 8fdb 31bc
00000120: 09d0 fabd 9790 603d 1c70 ebbd a26a 9ebd
00000130: bef9 afbd 09cd fcbd 9f18 d83a 90b8 17be
00000140: 61fa abbd 3aa7 88bd ac2b d73d 9de9 8eba
00000150: 9281 bbbd 49ad a5bd cf97 54bd 307e a9bc
00000160: 251a 78bd 990a 16be 49a9 e93c 62ae 08be
00000170: 8c28 debd 2cf7 203d 1b09 34bd 6cae 08be
00000180: b26a f0bc 1ea9 61bd 1540 cbbd 7e50 c43c
00000190: 54ea 19be 752b d8bd 1401 a5bd 93d6 e5bd
000001a0: cca6 1c3d 7b05 9e3d ed05 15bd 655a 963c
000001b0: e15d 613d 382d 0f3e 5e23 bb3d 1684 0ebd
000001c0: f43e 6eba 25ed 973d b728 f6bd 2e17 873c
000001d0: 44fd b9bd 48f2 5dbd 4bd2 183e ebac f3bb
000001e0: d7dd 80bd d933 8f3d 2d33 cd3d 5d67 bebc
000001f0: 3517 643d 5e33 343c f20f 1ebd e0ff ab3c
00000200: 11da a7bb 004a c1bc b056 aabd aac4 d2bd
00000210: f9d3 a13b e7f0 113e 5ea0 dd3d 437f 943d
00000220: 85b6 f6bd 7522 203d 79a1 c33c 906d d63c
00000230: 915f 633d b1e5 77bd f072 fcbc e19e 143d
00000240: ce4d 87bd 18cb d03d 3b4b 0abd 7059 963d
00000250: 4d70 e1bd 1d4e 553c
-0.092093185 0.066100575 -0.00129737 -0.047558326 -0.06261218 -0.018472007 0.039975747 0.08499214
0.07547896 -0.030401036 -0.11371718 0.061952032 0.14375784 -0.02815259 -0.10233033 0.02129529
-0.067201644 0.0901344 -0.06097325 0.096466005 0.04437322 -0.14648394 0.09476434 -0.06477324
0.039816096 0.09556674 0.053982038 -0.013503417 -0.059584558 0.015882773 0.01419595 0.03581662
-0.0860453 -0.018762585 0.042243354 0.0341914 0.061492436 0.09273423 -0.022946436 -0.062111545
-0.058765225 -0.068804644 -0.042673215 0.083183736 -0.093752354 0.09343844 0.067054585 -0.071698636
-0.04828677 -0.04988509 -0.024590697 -0.13926256 0.1342805 -0.095115356 -0.04074572 -0.018412273
-0.04267333 -0.11743221 -0.12880446 -0.20046219 0.007773071 -0.098048694 -0.017137427 -0.12716521
0.030310461 -0.041077327 -0.02081119 0.11335302 -0.0016722307 0.0673985 -0.019331798 -0.0108555695
-0.12246711 0.05482539 -0.114959925 -0.07735182 -0.085925564 -0.12343795 0.001648683 -0.14816499
-0.08397365 -0.06672521 0.105063766 -0.0010903362 -0.09155573 -0.08089692 -0.05190259 -0.020690054
-0.06057181 -0.1465248 0.028523104 -0.13347772 -0.108475775 0.03929822 -0.043953996 -0.13347787
-0.029347751 -0.055092923 -0.09924332 0.023964163 -0.15030795 -0.10555164 -0.08056846 -0.112225674
0.038245007 0.07715889 -0.036382604 0.01835365 0.05502117 0.13982093 0.09137605 -0.034793936
-0.000908836 0.074182786 -0.120194845 0.016490545 -0.0908151 -0.054186136 0.1492397 -0.007436385
-0.062923126 0.06992311 0.10019527 -0.023242647 0.055686194 0.010998575 -0.038589425 0.020996034
-0.005122431 -0.023594856 -0.083173156 -0.10291417 0.004938599 0.14252053 0.10821603 0.07250836
-0.120465316 0.03909536 0.023880707 0.02617529 0.05551106 -0.060521785 -0.030816525 0.03628433
-0.06606637 0.10194987 -0.03376315 0.073412776 -0.11007748 0.013019112

ggnn.rnn.bias_hh f4 [150]
00000000: a202 83bd 02fc 5c3d becc 8dbd 32a1 eebc
00000010: 475a b8bc 3fde b4bd bce7 b6bc cab9 99bd
00000020: 2378 04bc a7ac 983c 60e6 0dbe 554f 83bd
00000030: 39c9 4c3d 7417 14bd fd59 debd 8cdd ff3b
00000040: 4c7c 2ebd 2517 adbd 4c90 7bbd a688 01bc
00000050: 2756 703c e556 09be 349b cebc b5e4 3d3d
00000060: d4cd 96bd 7a42 97bd 0417 aa3c 88ec 15bc
00000070: b44d b33d 310a 8a3d c815 14bd 9946 c03d
00000080: e21a e6bd b8c8 843d cb0a c3bd c396 8a3c
00000090: fd60 123d b871 d43d 9dc0 103c 0620 df3d
000000a0: e441 763d 6d31 b13d bcf6 be3c d615 d7bb
000000b0: 315d 5abd 1fc6 19bd 540a a43d baa0 e83c
000000c0: 0ade ed3d b7da 183d 00d2 03be f18b d2bd
000000d0: b013 f6bd 6fff 5bbd f1f1 f63c 510d 1ebe
000000e0: ba4e 45be 4a54 b3bd fd88 8d3d a1b8 2e3c
000000f0: 3d41 abbc 7309 debc 7423 e23d ac98 07be
00000100: 53ac d5bd 8624 04bd 274b 323d 2637 b5bd
00000110: c61b 84bd 86b5 b4bd c44c 573d bab3 ec3a
00000120: b9d2 dc3a 6abd 00be f25c 1dbe d385 b7bc
00000130: 5801 4cbd 272f 01bc e3ae 02be 2cfc 78bd
00000140: 23b4 7e3a dbc7 193d bbef 8dbd bd14 0e3d
00000150: bee4 82bd 9324 3fbd abf9 af3d 84bc ff3c
00000160: 65ee 363d 2426 85bc 206f 1ebe 5b04 05be
00000170: cd45 a7bd 6408 fbbc a5b4 b2bc 323b 91bd
00000180: 89bf 783b c6da 08be d6dc 4cbd ae4b 35bd
00000190: 43cb c23d 3bd2 5abd 2f33 5fbd f48b 983b
000001a0: 4557 693d d662 2c3c ab5e 633d 1d3b cfbd
000001b0: 929d 8abc 6691 a8bc 7044 2f3e 65b2 343d
000001c0: 0a38 02be 9415 c53d 92cd 02bd 603b f13d
000001d0: fe4f 063d 2587 90bd 8af7 c63d f98a 9abb
000001e0: 352c 36bd f12c 16bd dbb2 28bd 3f89 903c
000001f0: d696 9fbb 51c1 1cbe 7de0 293b 190a 723c
00000200: 0580 85bd d97d 0c3d e228 7b3d 6f5e 6a3d
00000210: 78ca a7bd e079 87bd 60c1 f8bd dc9e 883c
00000220: 260e ce3d 6e80 8fbc 8ee3 d13c 8238 68bd
00000230: 0196 6ebd 2e6b 933d be21 763d 8b28 9bbc
00000240: ab4c 1f3e cb71 f3bd 6e97 2cbc 8d8c c03d
00000250: 6e43 09be 9be7 0dbe
-0.063969865 0.05395127 -0.06923817 -0.029129598 -0.022503985 -0.088314526 -0.022327296 -0.075061396
-0.008085283 0.018637015 -0.13857412 -0.06411616 0.04999659 -0.03615518 -0.10857008 0.007808393
-0.042599007 -0.0845168 -0.06141691 -0.007906115 0.014668978 -0.13412054 -0.025220491 0.04636069
-0.07363477 -0.07385726 0.020762928 -0.009150632 0.08755055 0.06740225 -0.036153585 0.093884654
-0.11235596 0.064835966 -0.09523543 0.016917592 0.035737026 0.10373253 0.008834985 0.1089478
0.060121432 0.08652005 0.023311011 -0.0065638823 -0.05331153 -0.03754246 0.080097824 0.028396953
0.11614616 0.037317958 -0.12873077 -0.10280598 -0.12015474 -0.053710397 0.030144664 -0.15434767
-0.19268313 -0.08756311 0.06910894 0.010664136 -0.020905131 -0.027104115 0.110419184 -0.13241833
-0.10433259 -0.032261394 0.043528702 -0.08848409 -0.0645061 -0.08823685 0.052563444 0.0018058934
0.0016847468 -0.12572256 -0.15367487 -0.02240268 -0.04980597 -0.007884777 -0.12762026 -0.060787365
0.00097161735 0.037544113 -0.069304906 0.034687746 -0.06391285 -0.04666574 0.08592542 0.031217821
0.044660944 -0.016253538 -0.15472078 -0.12989943 -0.0816761 -0.03064365 -0.021814654 -0.07091369
0.003795596 -0.13364705 -0.050015293 -0.044261627 0.09511425 -0.053423148 -0.05449217 0.0046553556
0.056967992 0.010521611 0.055510204 -0.10118697 -0.016920839 -0.020577144 0.1711595 0.044115443
-0.1271669 0.09623256 -0.03193433 0.11778903 0.03279113 -0.07057027 0.09715183 -0.004716274
-0.044475753 -0.036663953 -0.041186195 0.017643569 -0.004870276 -0.1530812 0.002592116 0.014772915
-0.065185584 0.034299705 0.061318286 0.057218965 -0.08192915 -0.06615043 -0.12146258 0.016677313
0.10061292 -0.017517295 0.025621202 -0.056694515 -0.058248524 0.07198177 0.060090773 -0.01894023
0.1555659 -0.11886939 -0.0105341505 0.09401808 -0.13404629 -0.13857882

soft_attention.gate_nn.weight f4 [1, 50]
00000000: 3d6f 25be 857b b23d 77be 3cbe cbc1 39bd
00000010: a6d3 01bd a115 26bd b298 f53d 22c5 003e
00000020: 8fe9 2dbd 5e33 c63c 9925 5fbd eb2f d23d
00000030: 8363 50be cbbb cbbd a123 3fbe 9eda 0bbe
00000040: ea61 4cbb 05ec 4d3d 3ade 1dbd 3125 a6bd
00000050: fff7 a6bd 98aa c43d 825b 01bd 4211 6c3c
00000060: 755c c2bd 2738 413d 4eed 9cbd 9c43 71bd
00000070: a846 f3bd 9280 7bbd 50bd d1bc 82e4 df3c
00000080: a984 6ebd 4c10 b9bc 0925 9c3d fa85 a1bd
00000090: 6908 a3bd b7ef 153d 8275 3f3e 2607 523d
000000a0: eb00 e33d 6e45 52bd 6769 66bc 6342 8cbd
000000b0: 68ed c7bd 70ca 893d e218 853d 9d4f 8e3d
000000c0: 8127 18bd 9da3 1abe
-0.16155715 0.08714966 -0.18432032 -0.04535083 -0.031695984 -0.04054797 0.11992015 0.125752
-0.042459067 0.024194416 -0.054479215 0.10263046 -0.2035046 -0.09947928 -0.18665935 -0.13657615
-0.003118629 0.050273914 -0.03854201 -0.081125624 -0.0815277 0.09602851 -0.03158141 0.014408411
-0.09490291 0.04717269 -0.0766245 -0.058902368 -0.11878711 -0.06140191 -0.025602967 0.02733064
-0.058231983 -0.022590779 0.076242514 -0.07886882 -0.079605885 0.036605563 0.1869717 0.05127635
0.110841595 -0.051335745 -0.014063216 -0.068486 -0.097620785 0.06728065 0.06498887 0.06948779
-0.03714705 -0.15101476

ggnn_2.weight f4 [3, 50, 50]
00000000: aeb1 07be c6e0 bfbd dc37 5cbd a279 9ebd
00000010: c95f 003e bc35 d53d f78b aabd 0075 c3bb
00000020: 8a13 9bbd 8fad 99bd b851 c63c 1a75 dcbd
00000030: 6cc0 2c3d ac8a 783d 0a42 da3d 6df6 84bd
00000040: a023 09bd dc96 0ebe 3074 b43d e8d3 873d
00000050: 205d 633d 40f3 36bb a60f e63d 143a a6bc
00000060: 9a5e df3d 483e 02bd 372f 05be caa1 68bd
00000070: ea65 0cbe 8864 01be ea4f eabd 12a5 02be
00000080: fe82 a53d 0674 fc3d b47a 1b3d 148d c93d
00000090: adda 94bd a22e e23d 7336 08be bf31 05be
000000a0: beee f63d 9a42 c3bd 9742 073e 41ce 093e
000000b0: 103f 483c 9e2e 813d 3283 05be 1093 d53c
000000c0: c1a5 9abd 0ff6 05be 46f4 45bd 07a5 0b3e
000000d0: 544d 6c3d 620e fa3d b7a7 8ebd fed4 acbd
000000e0: e8e5 fcbd f47d b7bc 7e68 a43d e540 003e
000000f0: e3c1 003e a823 82bd 7ec8 f8bd 3422 a6bd
00000100: a60a e93d 20f6 64bc 1005 5dbd 96e4 1ebd
00000110: 80d2 9fbb 50fc 04bc b039 64bc 00ae c83a
00000120: 94a9 08bd c1b5 95bd 79d4 063e 74ba 013d
00000130: 3021 873d 9a46 a7bd fa88 f43d 440d 89bc
00000140: 66ed ec3d a8b1 92bd b8ba dc3d da5c a3bd
00000150: 3a6b e73d 8031 cebb bab4 de3d f45b c13d
00000160: 30df 3d3c f08e 5e3c d8b9 2d3d a052 903b
00000170: eccb ccbd acae f1bd f4c1 433d 9249 883d
00000180: 7c6d ecbc c2f7 bbbd 58fa b7bd f282 84bd
00000190: 80dc c8bd 1839 a63c c100 ebbd ae4f 0cbd
000001a0: 3a8c eb3d 3095 19bd 7aa0 adbd b274 953d
000001b0: 7424 353d b080 29bc 0469 203d 689e 9cbc
000001c0: 6c65 613d 405d 9d3b 3939 f9bd a2ac a43d
000001d0: 603e f7bc 644c 6c3d e268 0fbd e638 f43d
000001e0: 5004 cb3d 5a63 e53d e827 36bd 40ee 24bc
000001f0: 24d8 863d 8855 ab3c 2dfa 81bd 348f be3d
00000200: 2eb8 39bd 6c27 75bd ca9b 9c3d c845 c03c
00000210: 264d 5bbd bb79 9fbd 7e3e e2bd fa29 62bd
00000220: c0e0 6c3c f56c 8dbd 5458 9d3d 8027 1ebb
00000230: f2f7 ad3d f0cc 98bc c5e0 093e 34c2 b5bd
00000240: eb34 f9bd f4f2 bf3d 8a1f da3d a668 ae3d
00000250: 1e57 e93d 3a12 e43d f918 87bd 1e4b f63d
00000260: b293 fc3d acba 1ebd 28cb 05be 4440 3abd
00000270: 1e8c f13d 4138 013e c08b 5fbb e5ac fabd
00000280: 2095 cd3c 148b d8bd 3bba e9bd c041 983b
00000290: e089 a1bc 2ce9 893d 2219 65bd e0f2 9e3c
000002a0: 03f1 b4bd 8414 01be abae 0f3e 26ee d73d
000002b0: 88b2 ac3c 66b1 ea3d 3869 56bd fffc 93bd
000002c0: f81f 6b3d 20f0 c5bb 40f4 cdbd b490 573d
000002d0: b8a6 febc 07b0 f6bd 3a96 da3d 9be5 0d3e
000002e0: 40e7 99bd 5652 fd3d 3032 153c 00a0 8838
000002f0: 1a1b d93d 8ea7 9abd a617 74bd de88 ea3d
00000300: b8d1 87bc 4e35 9b3d 00b6 483b 6668 863d
00000310: ce92 24bd e387 dabd 0e53 e53d 5041 013d
00000320: 14b8 5cbd d198 93bd f0e3 22bc d095 1b3c
00000330: 6534 c6bd f97f 0b3e 2bc5 e4bd b076 a13d
00000340: cdbb 88bd 8061 bcbd e8ae 50bd 40eb 3bbb
00000350: 5ce7 88bd f0f2 20bd 000b cbbb d828 96bc
00000360: feb6 78bd fb22 ddbd 8055 e63c c69d 06be
00000370: b775 0abe 2d67 0d3e a112 0a3e de07 fb3d
00000380: c6bf 07be 6e82 0abe 80d2 ebbb 7693 b93d
00000390: a203 34bd b8f6 813d 122d 833d 3d5c 00be
000003a0: b00b f4bd 04ef f1bd 40ce dbbd a010 ff3b
000003b0: ec14 b8bc 2013 f73c 00cf 00bb f8dd 7abd
000003c0: 4346 01be 0042 d73c b010 4ebc 3f3c 093e
000003d0: 6cc4 103d 6724 9bbd 7646 9d3d 8907 eabd
000003e0: b8e6 b3bc a288 f93d 2ec3 c13d ba4b 5abd
000003f0: 7097 103c f9a7 06be 10e5 793c 8075 813b
-0.13251373 -0.09369044 -0.05376421 -0.07738043 0.12536539 0.1041064 -0.083274774 -0.005964875
-0.07572086 -0.07503807 0.024208888 -0.10764523 0.042175695 0.060679123 0.10657127 -0.064923145
-0.03348124 -0.13924736 0.088112235 0.06632215 0.055508733 -0.0027915984 0.112334535 -0.020291366
0.10906716 -0.031797677 -0.13006292 -0.05679492 -0.13710752 -0.12636006 -0.11441024 -0.12758282
0.080816254 0.12326817 0.037958816 0.09841362 -0.072682716 0.11044051 -0.1330202 -0.13007258
0.12057255 -0.095341876 0.13208996 0.13457586 0.0122220665 0.0630772 -0.13038328 0.026071101
-0.07551146 -0.13082145 -0.04832866 0.13637172 0.057690933 0.122097746 -0.06965583 -0.084390625
-0.12348539 -0.022398926 0.08027743 0.12524755 0.12573962 -0.06354457 -0.12147616 -0.081119925
0.11378984 -0.013974696 -0.053959906 -0.038792215 -0.0048773885 -0.008116797 -0.013929769 0.0015310645
-0.033364847 -0.073100574 0.1316699 0.031671956 0.06598127 -0.08167763 0.11940189 -0.016729958
0.11568718 -0.071627915 0.10777801 -0.079766944 0.11299749 -0.006292522 0.108743146 0.09441367
0.011588857 0.013583884 0.042413563 0.004404381 -0.099998325 -0.11800894 0.04779239 0.066546574
-0.0288608 -0.091781154 -0.08983296 -0.06470288 -0.09807682 0.020290896 -0.11474753 -0.034255676
0.115013555 -0.037495792 -0.08477874 0.072976485 0.044224218 -0.010345623 0.03916265 -0.019118503
0.055028364 0.004802376 -0.121691175 0.080407396 -0.03018111 0.05769004 -0.035012133 0.11924915
0.09912932 0.112005904 -0.04447165 -0.010066569 0.06584194 0.020914808 -0.06346545 0.093046576
-0.045341663 -0.05985205 0.07646902 0.023470774 -0.05354037 -0.0778689 -0.11047076 -0.055215813
0.014457881 -0.069055475 0.07682863 -0.002413243 0.084945574 -0.01865241 0.13464649 -0.08874932
-0.121682964 0.093725115 0.10650547 0.08516054 0.113935694 0.11136289 -0.0659656 0.12026046
0.12332858 -0.038752243 -0.13065779 -0.045471445 0.11794303 0.12619115 -0.0034110397 -0.12240008
0.025095522 -0.10573402 -0.11412474 0.00464651 -0.019719064 0.06733927 -0.05593217 0.019402921
-0.08835032 -0.12605482 0.14031474 0.1054347 0.021081224 0.11459617 -0.05234644 -0.072259896
0.057403535 -0.006040588 -0.100563526 0.052628234 -0.031085357 -0.12045293 0.10673185 0.13857119
-0.075148106 0.1236922 0.009106204 6.514788e-05 0.10600872 -0.0755149 -0.059592865 0.114518866
-0.016579494 0.075785264 0.0030626059 0.06562881 -0.040179066 -0.106704496 0.11197482 0.031556427
-0.053886488 -0.07206882 -0.00994204 0.009496167 -0.09677962 0.13623036 -0.11170419 0.07883966
-0.06676445 -0.09198284 -0.050948054 -0.0028674155 -0.06684753 -0.039294183 -0.0061963797 -0.018330023
-0.06072139 -0.107976876 0.028116941 -0.13146123 -0.13521467 0.1380889 0.13483669 0.1225736
-0.1325675 -0.13526317 -0.0071967244 0.09061329 -0.043948777 0.06345886 0.06405081 -0.12535186
-0.11916292 -0.11813167 -0.107326984 0.0077839643 -0.022470914 0.030160487 -0.0019654632 -0.061246842
-0.12624459 0.026276588 -0.012577221 0.13401888 0.035343572 -0.075753026 0.07679455 -0.114272185
-0.021960601 0.12184264 0.09461056 -0.053294875 0.008825168 -0.13150014 0.015252367 0.0039507747

ggnn_2.rnn.weight_ih f4 [150, 50]
00000000: 04d0 0cbe 501f 133c 34ff 05bd fcda 01bd
00000010: deb7 e33d f811 04be 222d d73d 00e9 893d
00000020: 73df 95bd 0098 e639 9222 81bd 00a3 35bc
00000030: 94a8 63bd 0010 88b9 6889 c5bd 5c3b 42bd
00000040: 589f ca3c 32ac 4abd b789 d1bd 5c69 3d3d
00000050: 807e d33b 0c7b 363d f2c2 0cbe d086 c0bd
00000060: 3459 be3d c020 d03b 007d 2bba c0d0 fdbd
00000070: a45a 0fbe c04b cbbd 66c6 c53d d4f4 883d
00000080: abe7 08be c2d5 5abd 9c23 063d e0c4 6f3c
00000090: f60c 803d a595 05be e6cb 94bd d1bf 93bd
000000a0: c7aa 0bbe 1443 733d 300e aebc 5ee0 c3bd
000000b0: eeea e33d ec56 a9bd ea06 1bbd dc33 d8bc
000000c0: 3871 3abd 2cb1 a3bd 1646 ef3d 90dc b53c
000000d0: 4d29 f3bd 9647 60bd a063 663d 2cbb 63bd
000000e0: 064a 8dbd ee57 873d 4489 53bd 62dc ef3d
000000f0: 00b4 5abc 42f8 05be 6e1f f43d d6e6 5abd
00000100: 379a d4bd fc9e 943d ce75 5abd f0b1 4b3c
00000110: 38f7 af3d 8ccd e6bd a5d0 e9bd a48f 273d
00000120: 74c6 12bd 8800 c3bc 3333 0dbe 64f9 793d
00000130: 91ea 02be 41cf 98bd 22e6 da3d 5ee4 a13d
00000140: 6c05 aebc 2cf5 dabd c81c 483d 6674 833d
00000150: a628 c3bd ee0b e03d a027 90bb b0f0 2bbc
00000160: 8067 89bb 679e edbd 5045 2fbc 5c46 aa3d
00000170: 6953 fbbd 71d8 06be 602c bbbb 4668 e83d
00000180: ab01 d1bd 2062 683c da1a 6cbd f71a 08be
00000190: 207f 33bd c0c0 d8bc 8aab 48bd d022 6b3d
000001a0: f0a8 f13c adda 96bd 6831 8d3d 603f 6ebd
000001b0: 30b0 16bc 240c 243d 5991 083e d97c 043e
000001c0: 200a abbd b49b d0bd ce21 da3d b0b0 70bd
000001d0: ce52 0ebe 86cc 933d 28e3 233d d2d6 23bd
000001e0: accb 19bd 5dd4 80bd 1611 b33d 403b 123d
000001f0: 2e7b c93d 1c40 fcbc dce0 08be a096 2e3d
00000200: 0011 483a 5c66 853d 8084 cfbb 589d 0dbe
00000210: d474 693d ce7b 85bd 4ada 833d f435 d83d
00000220: d027 433c 24ad d83d 5d61 debd b0b4 bd3c
00000230: d877 cc3c 14ec b83d 431a 0b3e 701e db3d
00000240: c0d8 2ebc 0a43 f83d b4e7 a1bc b0f2 e5bd
00000250: e82b 813c 1a29 08be 620b 1abd b110 debd
00000260: a4e2 efbc a2c5 84bd 2e84 803d ac8f a43d
00000270: 9a63 e03d b5f1 d9bd 0984 f8bd 2879 a3bc
00000280: d012 013c fcf4 c3bc e0bf 2a3d fc40 703d
00000290: 3c28 2a3d 8b5b b9bd 58c0 e83c 68a9 743d
000002a0: 8e69 5fbd eef3 d43d 0ca9 b6bd f413 003d
000002b0: 5ac3 c8bd 589c a7bc c046 c43d 600c 383c
000002c0: 6c98 45bd 2297 983d 146b 4c3d 32c2 cebd
000002d0: 9820 e4bc 4a0a f23d 880d 863d 00bb 6b3b
000002e0: 9c4b aabc e0f3 903d f051 1dbd 1c00 463d
000002f0: b1f3 85bd 38b2 0dbe e811 25bd 8201 88bd
00000300: fe08 b13d 587a 953c 89f6 0dbe cd70 83bd
00000310: 16a3 f53d 307d 343d c0c3 b4bc 4e3f aa3d
00000320: 4a7c 48bd 64c6 cbbd 4072 3c3c 981b c4bd
00000330: 68cf d5bd 5d4e 83bd e053 8cbb 8072 a9bd
00000340: b6fa 09be e875 fe3c 601f 72bc 3c59 edbc
00000350: 4245 b9bd 10ea 3a3c d602 bb3d 40f8 973c
00000360: 1811 bbbd cec9 b63d c181 08be c4cb bfbc
00000370: 743b 403d 002d c63c 92e7 ea3d b484 383d
00000380: e7a6 053e 3a9e 8a3d f42a 783d 5c44 bc3d
00000390: 3c91 abbc 4550 0c3e 4a0d 11bd 84de 423d
000003a0: 34d8 da3d 38ab 13bd 24f9 a43d da63 833d
000003b0: 26ed 03be aea9 b43d 7e48 1cbd b403 afbd
000003c0: 683b 5ebd 3a1f c73d 90f7 2f3c 1084 0c3c
000003d0: ded2 d63d aa8e bf3d 34cc 29bd 8a3f d23d
000003e0: 6a06 823d b0d2 133c ca1b d93d cc29 b33d
000003f0: a033 b33d 58a0 363d e43d 133d 0019 4cbc
-0.13751227 0.008979633 -0.032714084 -0.03170298 0.11119054 -0.1289748 0.10506655 0.06733894
-0.0731801 0.00043982267 -0.06305422 -0.0110862255 -0.05558069 -0.00025951862 -0.09645349 -0.04741989
0.024734184 -0.049480624 -0.10231345 0.046243057 0.006454289 0.04455094 -0.1374624 -0.094007134
0.09294358 0.0063515604 -0.0006541759 -0.123933315 -0.1399942 -0.099265575 0.09656982 0.06687322
-0.13369624 -0.05342651 0.032748803 0.014634341 0.06252472 -0.13045366 -0.07265453 -0.072143205
-0.13639365 0.059390143 -0.021247 -0.09564279 0.11128794 -0.08268532 -0.03784839 -0.026391916
-0.04551813 -0.07992777 0.1168329 0.022199899 -0.11873112 -0.05475577 0.056247354 -0.055598423
-0.068988845 0.06608568 -0.05164458 0.117119566 -0.013348579 -0.13082984 0.11920057 -0.0534428
-0.10380977 0.07256886 -0.053335004 0.01243256 0.08592075 -0.11269674 -0.11416749 0.04090847
-0.03583379 -0.023803964 -0.13789062 0.061028853 -0.12784792 -0.074614055 0.106884256 0.07904886
-0.02124282 -0.10691294 0.048855573 0.064186856 -0.095292374 0.109397754 -0.004399255 -0.010494396
-0.0041932464 -0.116024785 -0.010697678 0.08314201 -0.122717686 -0.13168503 -0.005712077 0.113480136
-0.10205396 0.014183551 -0.057642795 -0.13291536 -0.043822408 -0.026459098 -0.048991717 0.057406247
0.029499501 -0.07365928 0.06894189 -0.058165908 -0.00919728 0.04005064 0.13336696 0.1293825
-0.083515406 -0.10185948 0.10650979 -0.058762252 -0.13898775 0.07216744 0.040011555 -0.03999979
-0.037547752 -0.06290505 0.08743493 0.035701036 0.09837948 -0.030792288 -0.13367027 0.042624116
0.0007631928 0.06513664 -0.006332934 -0.13829553 0.05699618 -0.065177545 0.0643812 0.10557166
0.0119113475 0.10579899 -0.10858414 0.023157448 0.02495949 0.09029403 0.13584237 0.10699165
-0.010671794 0.12122162 -0.019763805 -0.112279296 0.015768006 -0.13296929 -0.03760851 -0.108430274
-0.029282875 -0.06483008 0.06275211 0.08035216 0.109564975 -0.10641805 -0.12134559 -0.019955233
0.00787802 -0.023920529 0.041686893 0.058655724 0.041542277 -0.090506636 0.02841203 0.05973187
-0.054544024 0.103980884 -0.08918962 0.03126903 -0.09802885 -0.020460293 0.09583807 0.011233419
-0.048241064 0.07450701 0.049906805 -0.100956336 -0.027847573 0.11818369 0.0654555 0.0035969615
-0.020788006 0.070777655 -0.03840822 0.048339948 -0.06540621 -0.13837516 -0.04030028 -0.066409126
0.08644293 0.018246815 -0.13863577 -0.064179994 0.11993997 0.0440647 -0.022065997 0.08312856
-0.048946656 -0.099499494 0.011501849 -0.095755756 -0.1043995 -0.06411431 -0.0042824596 -0.08273792
-0.13474545 0.031062081 -0.014777988 -0.028973214 -0.09046413 0.011408344 0.091314 0.018550992
-0.0913412 0.0892521 -0.13330747 -0.023412593 0.0469317 0.02419138 0.1146995 0.04504843
0.1305195 0.067684606 0.06058784 0.09192726 -0.020943277 0.13702495 -0.035413064 0.04757549
0.10685769 -0.03605196 0.08055332 0.064155295 -0.12883434 0.08821426 -0.03815507 -0.08545628
-0.054255873 0.09722753 0.010740176 0.008576408 0.104894385 0.09353383 -0.04145451 0.10266025
0.0634888 0.0090224 0.106010035 0.087482065 0.08750081 0.04458651 0.035947695 -0.012457132

ggnn_2.rnn.weight_hh f4 [150, 50]
00000000: 1c70 83bd c861 aabc 7857 30bd f60f e93d
00000010: bc86 88bd f8e0 8c3d 0266 08be 583a ddbc
00000020: 661b f33d ea07 6dbd c266 c63d 922f 61bd
00000030: 30c2 a93d d281 3dbd 9dbb c3bd ffa3 0abe
00000040: b042 adbd 424d cebd e158 07be d8ab 94bc
00000050: cff4 0ebe 9005 d5bc 100f 433c 60dd 3a3c
00000060: 8838 f2bc 10e2 b33d b407 23bd ca51 ff3d
00000070: c425 333d ec39 d63d 9950 f1bd 9849 dd3d
00000080: 0010 c03a a8fc cf3c 703c 2c3c 4468 683d
00000090: fba2 ecbd 457a d7bd 0679 963d c841 f23c
000000a0: 5ce9 cf3d f0fc 3b3c ace4 9e3d 023f 68bd
000000b0: c8fd 54bd f861 733d d4cb d93d 00a6 19ba
000000c0: 9848 843c a89b 373d e809 6f3d 625d cc3d
000000d0: 0642 b13d 378e cfbd 14a7 90bc b80f ad3c
000000e0: 5093 79bc 326f 3cbd 2f00 01be e84f a7bc
000000f0: 7462 873d c6a1 f93d c460 bf3d 6abd 2ebd
00000100: 4417 a93d 4d68 88bd 3927 063e 5839 e6bd
00000110: b416 59bd 0017 95ba 6f11 b3bd f5dc f4bd
00000120: 1ce4 323d 4a50 0bbe 4522 0a3e ccf4 0abd
00000130: a9e3 0e3e d6e6 fa3d 6b74 063e 8e96 e73d
00000140: 3c46 f8bd f4b7 c2bd f861 923c 0038 48bb
00000150: a892 943d 308d 353c c885 b1bd 20ee c4bd
00000160: 3aad 12bd 0c90 203d fe8b 94bd a045 b73c
00000170: 3112 103e e2e6 fdbd fc53 b73d dad4 963d
00000180: eef1 c43d 9e86 1dbd 801f 90bd 4343 8ebd
00000190: e428 8fbc 44fa a63d 562c 02be daea 63bd
000001a0: b44a dd3d ca20 f53d a8b2 97bc 141a 3b3d
000001b0: b125 80bd a01c 653d 0c4f a43d 4826 91bc
000001c0: fe44 eb3d 1cb1 643d 6042 e53c 42f8 b4bd
000001d0: 50d0 40bc 2ae7 9d3d be85 05be 9726 0ebe
000001e0: 8a3e b23d 6a05 f53d 0095 ea3a 901f 18bc
000001f0: e653 02bd b053 9fbc 21a0 0ebe e683 88bd
00000200: 6086 cabb e8a3 e53c 1387 023e b07c 7d3d
00000210: fe01 f23d ac08 0d3d 997c 0abe e2bc 42bd
00000220: 789f c43c 1088 34bc f08f ac3d 60a9 313d
00000230: 1043 06bd 50af ca3d 8325 96bd 739a 063e
00000240: 54f7 523d d897 41bd 36b9 d83d 5a97 e43d
00000250: 2ca4 7dbd 68ef 39bd 5255 a43d 34bd 563d
00000260: c419 2f3d 0e58 bfbd 86d5 eb3d d0f3 c9bd
00000270: 6497 06be 6a42 08be 85ed 073e 5cac a3bc
00000280: f33a ebbd 404d f8bd fcee f7bd 808a 663d
00000290: 4ea2 933d 2a06 e63d 2e83 e23d 12eb ae3d
000002a0: 1eb6 c3bd 4098 fe3c 4795 073e 888d fbbc
000002b0: 74ef 473d d098 5fbc 7030 db3d 63dc 043e
000002c0: 8432 f4bd 32bf 08be bcbc dcbd 32bb 6fbd
000002d0: c259 96bd 25f6 c1bd 18f7 953d be60 c0bd
000002e0: e837 76bd 1420 673d 3a66 04be 3ab6 f93d
000002f0: 802e d5bc c410 9cbc 98bd a4bd 7087 d7bd
00000300: 04a7 8ebd fa7f dabd 90d4 a83c 5a5c e1bd
00000310: a44f c93d 5ad4 cd3d 6a5b 963d b480 e2bd
00000320: 186e b9bd e8b8 cfbd a0b7 053d 8f91 003e
00000330: a295 bfbd 84d9 d4bd d061 f03c 58b6 ae3d
00000340: 3087 edbc f258 a0bd c0ff 67bc 40f5 34bc
00000350: f400 8cbc 60f5 b43d 888e fcbc d1f4 84bd
00000360: aa22 b9bd a022 5c3d 92b8 fe3d f213 a33d
00000370: e157 9cbd ea53 27bd c12f a6bd 4954 c6bd
00000380: 7029 45bc 20a8 ac3b c02e d33b 402e be3c
00000390: f087 84bc a0b5 06bc 18f2 e43c e049 6a3c
000003a0: 1668 bb3d dc24 fabc 9054 463c 98fa 303d
000003b0: 9585 0ebe c395 083e 5408 d2bc 70ec b13c
000003c0: 4e29 9f3d 98c4 c03d c00e 45bb 2ca4 7d3d
000003d0: 9879 be3d d544 03be 7498 a43d 6064 e43c
000003e0: 1c82 9f3d 9ec0 e53d 7b93 033e c670 03be
000003f0: 00a3 d13d a08f 913d 2aa4 a3bd a0a5 1fbd
-0.064178675 -0.020798579 -0.043052167 0.113799974 -0.066663235 0.06878847 -0.13320163 -0.02700536
0.1187046 -0.057868876 0.09687568 -0.054977007 0.082889915 -0.046266384 -0.09557269 -0.13539122
-0.08459985 -0.100733295 -0.13217498 -0.018148348 -0.13960575 -0.026003629 0.011905447 0.011405319
-0.029567972 0.087833524 -0.03980227 0.12466772 0.043737188 0.104602665 -0.11782951 0.108050525
0.0014653206 0.02538903 0.010512456 0.05674006 -0.115545236 -0.10521368 0.07347302 0.029572383
0.10151932 0.011473879 0.077584594 -0.056700714 -0.051999837 0.059419602 0.1063458 -0.0005861223
0.016147897 0.04482618 0.058359057 0.09978749 0.08655171 -0.10134547 -0.017657794 0.02112566
-0.015232876 -0.04600448 -0.12597726 -0.020423844 0.06610575 0.12189059 0.093446285 -0.042661108
0.08256391 -0.06660519 0.131009 -0.11241406 -0.053000167 -0.0011374652 -0.087435596 -0.11956207
0.043674573 -0.13604847 0.13489635 -0.033924863 0.13954033 0.1225106 0.13130347 0.11308013
-0.12122771 -0.095077425 0.01786898 -0.0030550957 0.07254535 0.011081025 -0.08668095 -0.09615731
-0.035809733 0.039199874 -0.07253264 0.022372067 0.1406944 -0.12397553 0.089515656 0.07364817
0.09616457 -0.03845846 -0.07037258 -0.06946423 -0.017475553 0.08153203 -0.12712225 -0.055643894
0.10805264 0.11969145 -0.018517807 0.045679167 -0.06257189 0.055935502 0.080228895 -0.01771845
0.114877686 0.055832967 0.027985752 -0.08836414 -0.011768416 0.07710107 -0.130393 -0.13881908
0.08703335 0.11963923 0.0017897189 -0.009284869 -0.031818293 -0.019449085 -0.13928272 -0.06665783
-0.0061805695 0.028032258 0.12746839 0.06188649 0.11816786 0.0344321 -0.13524093 -0.047543414
0.024001822 -0.011018768 0.084258914 0.04337442 -0.0327788 0.098967195 -0.073313735 0.13144855
0.0515054 -0.04726395 0.10582201 0.111616805 -0.061924145 -0.04539433 0.08024086 0.052426532
0.04274918 -0.09342967 0.11515336 -0.09860957 -0.13143688 -0.13306585 0.132742 -0.019979648
-0.11485853 -0.12124109 -0.121061295 0.056284428 0.072086915 0.112316445 0.11060177 0.0854093
-0.095562205 0.031078458 0.13240539 -0.030707136 0.048812345 -0.013647273 0.10702598 0.12974696
-0.119236976 -0.13354185 -0.10778186 -0.058528133 -0.07341339 -0.094707765 0.0732252 -0.09393452
-0.06011191 0.056427076 -0.12929621 0.1219296 -0.02602315 -0.019050963 -0.08043975 -0.105238795
-0.069654495 -0.10668941 0.02060917 -0.11003943 0.09829643 0.100502685 0.073416546 -0.110597044
-0.09054202 -0.1014269 0.03264582 0.12555526 -0.09354712 -0.1039305 0.029343516 0.08530873
-0.028995126 -0.07829465 -0.014160097 -0.0110448 -0.017090298 0.08835864 -0.030829683 -0.064920075
-0.09039815 0.05374396 0.12437548 0.07962789 -0.07633949 -0.04085151 -0.08114577 -0.09684045
-0.012033805 0.0052690655 0.006444782 0.023215413 -0.016178101 -0.008222014 0.02794747 0.01429984
0.09150712 -0.030535154 0.012105122 0.043207735 -0.13918145 0.1333838 -0.025638737 0.021719187
0.0777155 0.09412497 -0.0030068606 0.061924145 0.09300536 -0.12819226 0.080368906 0.027879894
0.07788488 0.112183794 0.12849228 -0.12835988 0.10236168 0.071074724 -0.07990296 -0.03897631

ggnn_2.rnn.bias_ih f4 [150]
00000000: d862 e6bd 8056 1cbc d893 bb3c fac2 b83d
00000010: 9853 f0bc 43bb 8abd 50c0 893c 9cbe c4bd
00000020: 0009 80bd 130f 0c3e b434 593d 0a13 e13d
00000030: c685 b1bd 6425 583d 5eb8 f2bd b84b e43c
00000040: e862 fcbd f24e df3d 70c3 923c 95a1 013e
00000050: 3403 b23d 0ceb 443d c09d 2fbc 3a10 ef3d
00000060: b42f 2fbd 44ee 5a3d b8f2 303d a193 0a3e
00000070: 78ac a4bd 882b 24bd 187b da3c 106e 463d
00000080: ea06 f23d 0a0c 4dbd 88b9 e43c 6022 b0bb
00000090: 9e68 6abd 43f6 ffbd 7a2a 903d 4cd6 eabc
000000a0: b06c a23c 98cd 583d d01a 5b3c 7bcb 0e3e
000000b0: 54f3 803d c4b9 063d 10af 7b3d 4a05 d3bd
000000c0: fb5f 063e a07b 8abb 2099 003c 64ec 9b3d
000000d0: ea8d fc3d 78f4 66bd 932e 89bd 9404 d83d
000000e0: 5070 033d d90c 87bd fc73 d1bc 4cb5 b0bc
000000f0: 5673 d2bd 1090 bd3d e013 ad3c 2e4f b7bd
00000100: 4b15 103e 0cfb bdbc 9469 a13d 866f cc3d
00000110: 86ea d73d da3a b43d c308 c0bd f78a 95bd
00000120: d0fe 6abd 0c54 e5bd 9c40 00be bf3c 033e
00000130: 502d 38bc a089 94bd 343a fabd 6a96 06bd
00000140: 915e 06be 06d3 14bd 7ce6 6f3d b6da b5bd
00000150: 46ec e93d 125c 8d3d 8494 193d 5802 8abc
00000160: 5200 a7bd 4bdd 003e 7037 603d a41d 6c3d
00000170: ca7a fc3d b866 d3bd e008 813b 90a8 1abc
00000180: 7f31 063e 1635 fe3d 5480 9ebc 20e7 4b3c
00000190: 4898 5a3d e0fe a6bd 4b02 07be 75d0 0a3e
000001a0: 8881 f1bc 40eb b5bd f041 79bd ee19 d0bd
000001b0: c08f eabd 7a40 43bd 881b e4bc 80ac 943b
000001c0: 91e6 0f3e 20fe eabb 5cc1 10be b016 2bbc
000001d0: 4c35 143d a8a8 b7bc 1002 0abe c66f afbd
000001e0: 204e 81bc 4041 673c 32c9 fdbd bc9a 2abd
000001f0: 14db 413d 7294 9abd 9065 3b3c 5b55 073e
00000200: 30d8 3fbc f9b4 05be 167a 913d c29a eb3d
00000210: 409d 53bc 1877 973c 34e7 923d 102a 6cbc
00000220: 916e 94bd 527b fa3d 6887 a63d f0e5 653c
00000230: 0e02 ba3d e21b 14bd deea cd3d 1c4c e8bd
00000240: 661d 18bd 7049 21bd db07 99bd d8d4 a63d
00000250: 8c18 cc3d c831 e23c
-0.11249322 -0.009542108 0.022897646 0.09021564 -0.029336736 -0.067739986 0.016815335 -0.09606668
-0.062517166 0.13677625 0.053028777 0.109899595 -0.086680934 0.052770033 -0.118515715 0.027868137
-0.12323552 0.109037295 0.017915457 0.12659295 0.08692017 0.04807572 -0.010718763 0.11673017
-0.042770103 0.053449884 0.043200225 0.13532878 -0.08040708 -0.040080577 0.026670024 0.048444808
0.11817725 -0.05006031 0.0279205 -0.0053751916 -0.057228677 -0.124981426 0.07039352 -0.028666638
0.019827217 0.052930444 0.013373092 0.13944809 0.06296411 0.032892004 0.06144625 -0.10303743
0.13122551 -0.004226163 0.007849008 0.07613447 0.123317555 -0.056385487 -0.066983365 0.10547748
0.03208953 -0.06594247 -0.025568001 -0.021570824 -0.10275905 0.09255993 0.021127641 -0.08950649
0.14070623 -0.023190998 0.078814656 0.09982209 0.10542779 0.088002875 -0.09376671 -0.07301896
-0.057371914 -0.11197671 -0.12524647 0.12816142 -0.011241272 -0.072528124 -0.122181326 -0.03285829
-0.13122012 -0.03633406 0.058569416 -0.088796064 0.11422019 0.06902327 0.03749515 -0.01684682
-0.08154358 0.12584417 0.05474037 0.057645455 0.12328108 -0.103223264 0.0039378256 -0.0094396025
0.13104819 0.12412469 -0.019348301 0.012445241 0.053367883 -0.08154082 -0.13184468 0.13556083
-0.02948071 -0.08882761 -0.0608539 -0.10161196 -0.114531994 -0.04766891 -0.02784516 0.004537165
0.14052798 -0.0071714073 -0.14136261 -0.010442421 0.03618364 -0.022419289 -0.1347735 -0.08566241
-0.015784323 0.014114678 -0.123918906 -0.041651472 0.04732807 -0.07547845 0.011437789 0.13216154
-0.011709258 -0.13057317 0.07103364 0.11504127 -0.012915909 0.018489406 0.07173005 -0.014414325
-0.07247651 0.12230553 0.081312954 0.014031872 0.09082423 -0.036159404 0.10054563 -0.11342642
-0.03713741 -0.039376676 -0.074722014 0.081460655 0.099656194 0.027611628
