backend/workspace/weight/r/PU/PU_2-SAGE.pth (torch, 326904 bytes, 14 tensors)

conv1.lin_l.weight f4 [50, 50]
00000000: 8af4 073d d5d9 113e 1c60 28bd a94e 933d
00000010: 7b69 193e 4025 1cbc 3bb9 833d 2693 003e
00000020: d0ee 053e c42f e43d c7b2 4abd d654 9b3d
00000030: e9b8 c1bc ada5 7fbd 1e87 2e3e f146 523e
00000040: 6741 a13d 1fcd 06be ca2f 20bd ab9b 2d3e
00000050: d58b c43c f98b 93bd 0b5c fe3d 9ef6 a43d
00000060: 0c74 573d d792 243e 2ee2 383e 9c7e b93d
00000070: 5460 543d b371 c03d c617 0abe 269a 0fbe
00000080: dc43 513d c82b e1bd 3a20 1abd acc1 883d
00000090: ae2d f33d 2a96 15be 4514 81bd 810f 843d
000000a0: 9d2d 9e3d 4109 bc3d 77f2 0cbe 7584 4ebd
000000b0: 448a 80bd 56d5 433d dabc 20bd efb6 0e3e
000000c0: 3610 0c3d 1d26 25be 7d7b 33be 8fb3 833d
000000d0: 21d1 9bbd 8502 493e 4e54 7ebb 43bd 64be
000000e0: 82ac 2cbe 8e94 64be 3ec3 83bb 2412 c6bd
000000f0: 6e1a 193e 436b 0f3e fdeb 473c ffbd 55be
00000100: 48a2 b73c 97fc 373e bc48 8a3d 20f5 263e
00000110: d1bc 0dbe b20d 40be 9487 a5bd 3330 70bd
00000120: a237 093e 6f35 cd3d 600d 733d 9146 34be
00000130: 6ee7 9ebd 87ab 2cbd f295 d73d 4ae2 37be
00000140: 32a5 1b3d cfce d13c 8094 5d3d 0999 12be
00000150: c5f4 81bc c918 ae3c 3634 2b3d d1c7 0abe
00000160: 3c72 713d be21 383d 5eec ea3d 449c 80bd
00000170: c4ee 683e 756d 463c 881a a9bd eca9 923d
00000180: 8f24 e2bc 9bd6 2ebe 0c8b adbd 3c98 6cbd
00000190: 291f e23d 04b9 39bb 6d45 aabd 12da e9bd
000001a0: 66d9 6ebe 1c3d 833d ecc6 b0bd cf03 063d
000001b0: 1911 2abd c8a9 f2bd d916 0cbe 359c 033e
000001c0: 5bac c03d 550b 3e3e 9129 3f3e be2e 903d
000001d0: 0779 c5bd 7e76 a1bd f2d3 1a3b 7c44 de3d
000001e0: 199f 313e 1485 86bd 2ff9 af3c cdc0 a7b9
000001f0: 5bcc 83bb 1d8e f4bd 1cfc d23a 525a e83d
00000200: 3008 2ebe 5081 ba3d 49e1 1fbe b60a 0fbe
00000210: 1750 903d c940 8a3d 8cb5 f63d 4d28 8abd
00000220: fa12 15be 61e5 043e 68ab 72bd 420c dc3c
00000230: ccbb 59be cba3 b63c c79e 3a3c 6d7b 113d
00000240: bc85 2abd 6f51 55be 962a 1d3e 4dd5 a13d
00000250: 984f 5a3e 3f20 f93d 0f14 2bbd 7e28 d6ba
00000260: f0fc 4e3d f63a d03d e0e7 8e3d c10b 5cbe
00000270: 3817 ba3c 83e7 bc3d 2944 5bbc 5615 43be
00000280: 6b38 283e 5648 bcbd 822c 323d 8897 8bbd
00000290: e9fe bcbd b84c a13d 744d 7a3d 7a34 0b3e
000002a0: 1d38 033d 42df d63c cc1a dabd 63b3 973d
000002b0: 94e6 84bd d2a1 6b3a 43b6 06be 0b99 adbd
000002c0: e300 933d c900 09bd 04e2 2e3d e3db 0fbe
000002d0: 3bab 233d 1551 fa3d 5c59 e6bd eb58 b5bd
000002e0: c2ea 12be a094 17bc 7e69 05bd 7386 b5bd
000002f0: 4ac9 653b e49d b73d 02d5 f4bc 674f a83d
00000300: 415a 2ebe b31c 2ebe 9330 b13d 8e7b 8a3d
00000310: 834d c9bc 83d1 6a3d 9fb4 0f3d 8be2 d63d
00000320: acfe d3bd 56ba fdbd 96f0 9a3d 30a1 963d
00000330: a31b 35be c3eb 983d 526c 29bd 1556 f5bc
00000340: 87f8 5f3d c226 023d 67b9 28bd 1aad e53d
00000350: bf9a 8ebe 8892 1b3e 20c9 9fbd 0af1 b4bc
00000360: 7738 e7bd 93af 9c3d 9abc b93d 2260 fa3d
00000370: 0f9d 09be 9799 0c3e d20f 813d 0a1a ccbc
00000380: 1023 c03d 8cec 3fbd 5d01 4c3d 6cda 9fbd
00000390: f017 d2bc b596 aebc eb62 babd f301 0ebe
000003a0: 5be7 5fbd fb8f a5bc 7293 e13d ed74 673d
000003b0: 8a71 423d d650 67bd dcc1 10be 1dcf ad3c
000003c0: 6ee2 aebd 143a 303e cb0d 953d 581c 63be
000003d0: 35b0 94bd efb8 3d3d a128 a53d 79b3 0dbe
000003e0: b07f a33d 96c3 f0bd b2d7 3a3d 2b64 133d
000003f0: b5d0 60bd b2cb 6fbc 314e 6cbb d072 15be
0.033192195 0.14243253 -0.041107282 0.071927376 0.14981644 -0.0095303655 0.06431814 0.12556133
0.13079381 0.11141923 -0.0494869 0.075845405 -0.023647742 -0.06241386 0.1704373 0.20534874
0.07873803 -0.13164185 -0.039108075 0.16953914 0.023992458 -0.07204432 0.124198996 0.08054851
0.052600905 0.1607164 0.1805503 0.09057352 0.05184968 0.093966864 -0.13485631 -0.14023647
0.051090106 -0.10994679 -0.03762839 0.06677565 0.11873947 -0.14608064 -0.06302694 0.0644827
0.07723544 0.091814525 -0.13764368 -0.05041929 -0.06276372 0.047810875 -0.039242603 0.13936971
0.034195147 -0.1612782 -0.17527576 0.064307325 -0.076082475 0.19629867 -0.0038807574 -0.22337823
-0.16862682 -0.22322294 -0.0040210774 -0.09671429 0.14951488 0.14005761 0.01220226 -0.20873259
0.022416249 0.17967449 0.06752154 0.16304445 -0.13841559 -0.18755224 -0.080825 -0.058639716
0.13400128 0.10019957 0.059338927 -0.17605044 -0.077589855 -0.04215577 0.10526647 -0.17957416
0.03799934 0.02561131 0.0540967 -0.14316191 -0.015863786 0.021252053 0.04179784 -0.13552786
0.058946833 0.044954054 0.11470865 -0.06279805 0.22747332 0.0121110575 -0.082570136 0.07161316
-0.027605323 -0.17074053 -0.08473787 -0.05776237 0.110410996 -0.0028339038 -0.08314023 -0.11418547
-0.23325118 0.0640814 -0.08631691 0.032718476 -0.04152021 -0.118487895 -0.1368059 0.12852557
0.09407874 0.1855901 0.186682 0.07040165 -0.09642225 -0.07883929 0.0023624864 0.10852906
0.17345847 -0.065683514 0.021481125 -0.0003199637 -0.004022164 -0.119411685 0.0016096863 0.11345352
-0.16995311 0.09106696 -0.15613283 -0.1396893 0.07046526 0.06750638 0.12046346 -0.06745968
-0.1455802 0.12978126 -0.059245497 0.026861314 -0.21263045 0.0222949 0.0113903945 0.0355181
-0.041631445 -0.20831846 0.15348276 0.07902012 0.21319425 0.121643536 -0.041767176 -0.0016338972
0.05053419 0.10167496 0.069778204 -0.21488859 0.02271615 0.09223845 -0.01338295 -0.19051108
0.16427772 -0.091934845 0.043499477 -0.06816012 -0.09228308 0.07875961 0.06110902 0.13594237
0.032035936 0.026229504 -0.10649642 0.07407262 -0.06489292 0.00089886517 -0.13155465 -0.08476456
0.071779035 -0.033448014 0.042696014 -0.14048724 0.03995822 0.122224964 -0.11247513 -0.088548504
-0.14347365 -0.009251744 -0.03257131 -0.08863535 0.0035062605 0.08965662 -0.029886726 0.0821827
-0.17026617 -0.17003135 0.08651843 0.067618474 -0.024573093 0.057328712 0.035084363 0.104924284
-0.10351309 -0.123890564 0.075654194 0.07354963 -0.17686324 0.07466843 -0.041363068 -0.029948274
0.054680374 0.031775244 -0.04119244 0.11214657 -0.27852437 0.15192616 -0.078020334 -0.022087593
-0.11290067 0.076506756 0.09069176 0.12225367 -0.1343882 0.13730465 0.063018456 -0.02491476
0.09381688 -0.046856448 0.049805988 -0.078053325 -0.02564618 -0.021312097 -0.09100898 -0.13867931
-0.054663997 -0.020210257 0.11014451 0.056507993 0.04747156 -0.056473576 -0.14136451 0.021216923
-0.08539282 0.17209655 0.072780214 -0.22178781 -0.07260171 0.046318945 0.0806439 -0.13837995
0.07983339 -0.11756055 0.04561586 0.0359842 -0.05488654 -0.014635967 -0.0036057348 -0.14594579

conv1.lin_l.bias f4 [50]
00000000: 7e6c 21be 6f56 143d 707a a2bd 5cfb 8dbc
00000010: dc4d 88bd 8829 083d efa6 29bc bf3b 623c
00000020: c047 fbbd a506 033e 0db7 a93d 4deb c2bd
00000030: 7093 a83d 1f79 23be d4f3 e1bd b634 cfbd
00000040: 04f3 833a 5358 fabd 32e4 873d 9bf9 e93d
00000050: ab07 7b3c 22c5 19be 0729 8f3d 4e9c 97bc
00000060: 1f2c b0bd 10c0 39be 4ffe 983d 83c9 e2bc
00000070: 8620 00be 0fa3 e53b a2bd b1bd ec28 433d
00000080: 916d 99bd 0f41 923d 4531 30be a1cb 21be
00000090: 0e90 bf3d 9f40 823d 35f2 c2bd 1b62 963d
000000a0: 38c4 88bc 892b f6bd b8c5 aebd 9ae6 923d
000000b0: 6b3e 003c 6e61 0b3e d704 27be 554b d6bd
000000c0: e16c 84bd cb13 183c
-0.15764043 0.036215242 -0.07933509 -0.017331772 -0.066554755 0.033242732 -0.0103547415 0.01380819
-0.122695446 0.12795503 0.08286867 -0.09517536 0.082312465 -0.15964173 -0.11032835 -0.10117476
0.0010066931 -0.12223878 0.06635322 0.114245616 0.015321652 -0.15016606 0.06990247 -0.01850715
-0.086021654 -0.18139672 0.074703805 -0.027683979 -0.12512407 0.0070079635 -0.08678748 0.047646448
-0.07491601 0.07141315 -0.17206295 -0.15800335 0.09353648 0.06359982 -0.095188536 0.07342931
-0.016695127 -0.120200224 -0.085338056 0.0717289 0.007827382 0.13611385 -0.1631044 -0.10463587
-0.064660795 0.009282063

conv1.lin_r.weight f4 [50, 50]
00000000: 6499 fe3d 5851 c33d 16a0 8e3d 144c 923d
00000010: 009d a13d d042 1a3e 69fb 803d 9949 a6bd
00000020: bed7 0b3d 2473 d93d c161 1a3e f2b5 15bd
00000030: 1a17 933e a2ab 8abe 1151 c0bb b3de 9ebd
00000040: f179 5ebc 9202 08be 4038 93bc a68b 183e
00000050: 6056 17be 0007 d2ba bcb4 8e3e aa3b 9bbc
00000060: 6d55 8bbb 9e6a 4ebc 2deb 2d3e ca8b f2bc
00000070: 49ab 43be d2bd 9dbc 969b c0bd 4ea4 5cbb
00000080: 60ac bfbd d8d3 51be f14c 883c 625e 23be
00000090: 8eb7 05bd 2b33 ecbd a7f4 c2bc 3f30 0a3e
000000a0: 7a6c 073c 1f4c 28be 6018 eb3c a704 ab3d
000000b0: daa7 a63a beea 4c3e f9f5 723d 9c09 253d
000000c0: a056 fb3d 968a 2d3d fc5b 5dbc ea5b c33d
000000d0: c889 e53d 5a97 bcbc c2be 173d c2a2 ff3b
000000e0: e380 853d 67dd bbbd 5d9b 7cbd 3cf8 39bd
000000f0: a5b9 a03d 032c 543d 3b25 913d ce57 ebbc
00000100: 47e0 4f3d 5f7f 493e fb25 2b3e 2cfc 6c3e
00000110: 795a 3cbd c957 16be 5d57 06be c098 1ebd
00000120: 2bde 863d c473 1e3d 9ab2 d7bd 04d7 ce3d
00000130: 8948 89be 861e 8e3d a2da a83d 8e8e bb3d
00000140: 95f0 e9bd 7693 a33e 070e 823c 92db 64bd
00000150: 714b e73d b8c3 88bc 022f 2fbe 9ff9 a93a
00000160: 13fc c93c 0eb3 e33c 351b 59bd 2cc5 71bd
00000170: e374 523d c878 8abd 34e7 1c3e 4de7 463e
00000180: b9d1 1abd fc8c 60be b514 29be 40df e9bc
00000190: f55e 963d 8367 c13c 8d12 4fbe 85a6 e0bd
000001a0: 60fe 36be e1fd 3b3d 8838 64bd 09c7 0b3d
000001b0: 1f50 583d 5dc0 c63c 5822 cabe 949d 013b
000001c0: 3ea0 9cbd 512a a53d 3b33 8dbc 2c36 afbd
000001d0: 3915 b93c 3939 67be 1ad1 c1ba 0c88 283e
000001e0: d035 03be 7bd1 c9bd 7e17 933e ab0d 7ebe
000001f0: 29ed 833e 889f d5bc c2d4 26bd c788 c8bd
00000200: 5975 d03c 0fc2 103e fb13 8b3d ef2e 24be
00000210: 944e bfbd ae1f 98bd c85b 63be 9b31 23be
00000220: 257d 783d 18e3 bcbc aa9f 413c 7292 33bd
00000230: 2c0a 1ebe 1ce8 683c 7148 e1bd 605e e0bd
00000240: fccb 333c 3d21 273e d1ee 8fbc cff4 3b3e
00000250: 475e ce3c 2bcb 24bd baac a6bd be0c 2abe
00000260: dbb3 923d 660f 783d bd36 c83d 5c85 88bc
00000270: 0f0e 023d 25ab 78bd 3d6e 1bbe 540c c53d
00000280: 8843 6fbd 163b a7bd 397e 2bbd 1e62 af3c
00000290: 7529 3eba d447 02be ce74 bfbc d377 d23d
000002a0: 384c 203c 86d4 35be b4f2 62bd b424 66bd
000002b0: 7b03 debd 7280 383c d7c7 253d 3086 e73d
000002c0: 35bf dfbd d61a 093e 264d 523d dc5c 00bd
000002d0: 65bb bf3d a8aa 143e 1f9b 963d e87e f03d
000002e0: 986f c63d f3d6 193e ee63 18be c28b b7bd
000002f0: 2f50 e33d 2a2b 8abd f0d0 b93c d2db 923d
00000300: 787a 28be c0b9 b63c 5747 3cbd 181a 633d
00000310: f32d 84bd 9950 85bd 7a61 b6bd 0344 03bc
00000320: 5c0e 92bd 0267 d53d 6c7b 52be 638b a23d
00000330: 8f65 24bc 5e0b debc c3a3 4e3b fd16 a73d
00000340: 84eb 953c fdd3 063e 6693 673d e293 e13a
00000350: ba2e 3d3d 8771 4b3d 56a0 bfbd 7a6a 143c
00000360: 86ee ba3d 5282 5f3e 3963 963b 13a5 3f3e
00000370: b7b3 513d 03de 1e3e 3696 bbbd db12 0d3e
00000380: 7a76 95bd 92f7 87bc 8d29 1dbd 5286 acbc
00000390: b9fd 18be 9586 75bd 2a0a 6abd c158 a1bd
000003a0: 1728 58bd a94d 353d cff4 92bd 7a4d 6cbd
000003b0: b6a5 e4bd c546 84bd d951 673c c5f7 d0bd
000003c0: 23b8 41be 3b50 623c f253 213e 427c 2ebe
000003d0: d8ca 903d c623 c33c a8d9 32bd 2a7f 11bc
000003e0: 4175 b7bb 9a16 61be 04d3 0cbe 6243 b5bc
000003f0: b72f 4b3d bae4 a2bd 54cc b33d 9500 9fbd
0.12431601 0.095369995 0.06964128 0.07143417 0.078912735 0.1506455 0.06297953 -0.081195064
0.034141295 0.106176645 0.15076353 -0.03655047 0.28728563 -0.2708407 -0.005869039 -0.0775732
-0.013578878 -0.1328223 -0.017971158 0.14897022 -0.14779043 -0.0016023815 0.27872264 -0.018949348
-0.004252127 -0.012598662 0.16984244 -0.029607672 -0.19108309 -0.019255552 -0.09404676 -0.003366727
-0.0935905 -0.20490968 0.016638251 -0.15953973 -0.032645755 -0.11533197 -0.0237983 0.13494967
0.008265609 -0.16435288 0.028698146 0.08350497 0.0012714819 0.20011422 0.05931661 0.040292367
0.12272382 0.042368494 -0.0135107 0.095390156 0.1120792 -0.023021389 0.037047155 0.0078013847
0.06518724 -0.091730885 -0.061671603 -0.04540275 0.07847909 0.051799785 0.07087179 -0.028728392
0.050750997 0.19677494 0.16713707 0.23143071 -0.04598472 -0.14681925 -0.13119264 -0.038719893
0.06585344 0.03868462 -0.105321124 0.10099605 -0.26813152 0.06939416 0.08244826 0.091580495
-0.114228405 0.3194844 0.01587583 -0.05587346 0.11293686 -0.016694888 -0.17107776 0.001296807
0.024656331 0.02779534 -0.053004462 -0.05902593 0.051381003 -0.067613184 0.15322572 0.19424172
-0.037797663 -0.21928781 -0.16511805 -0.028548837 0.0734233 0.023608929 -0.2022192 -0.10969261
-0.17870474 0.045896415 -0.055717975 0.03412536 0.052810784 0.024261648 -0.39479327 0.0019777762
-0.07647751 0.08064712 -0.017236343 -0.08555254 0.022593128 -0.22580422 -0.0014787049 0.16458148
-0.12813497 -0.09854408 0.2872886 -0.24809901 0.25766876 -0.026077047 -0.040730245 -0.09791713
0.02544658 0.14136527 0.0679092 -0.16033529 -0.093411595 -0.074279174 -0.2220298 -0.15936892
0.060666222 -0.023057505 0.011817852 -0.043840833 -0.15433568 0.014215495 -0.11000145 -0.109555006
0.010973927 0.16321273 -0.017569931 0.18355106 0.02519144 -0.04023282 -0.08138414 -0.16606423
0.07163211 0.06056156 0.097760655 -0.016665153 0.03175169 -0.06071009 -0.15178771 0.09621492
-0.058414012 -0.081655666 -0.041868422 0.02140909 -0.00072541024 -0.12722713 -0.023371127 0.10276761
0.009783797 -0.17756853 -0.05540724 -0.056187347 -0.108405076 0.0112610925 0.040473785 0.11304891
-0.10925142 0.13389143 0.051343106 -0.031338558 0.093619145 0.14518225 0.07353806 0.117429554
0.096892536 0.15023403 -0.1488187 -0.089622036 0.11099278 -0.06746514 0.022682637 0.07170834
-0.16452968 0.02230537 -0.045966472 0.055444807 -0.064540766 -0.065095134 -0.08905311 -0.008011821
-0.07131645 0.10420038 -0.20554894 0.07936742 -0.010033979 -0.02710503 0.0031530715 0.081586815
0.01830078 0.13166805 0.056537054 0.001721021 0.04618714 0.049668815 -0.093567535 0.009058589
0.09127526 0.21827057 0.004589465 0.18715315 0.05119678 0.15514378 -0.0915951 0.13776724
-0.07297988 -0.016597543 -0.038369704 -0.021060143 -0.14940538 -0.0599428 -0.0571386 -0.078782566
-0.052772608 0.044263516 -0.071756 -0.057691075 -0.11164419 -0.06458811 0.014118635 -0.10203508
-0.18917899 0.013813074 0.15754679 -0.17039588 0.070699394 0.023820769 -0.043664604 -0.008880416
-0.0055986946 -0.21981278 -0.13752371 -0.022126857 0.04960605 -0.079537824 0.08779207 -0.07763783

conv2.lin_l.weight f4 [100, 50]
00000000: 4cb6 61bd 1eb2 97bd d3cd 3b3e 2d44 17be
00000010: 18ed c5bd 637b 553d e89d 8ebb 0f2b 143b
00000020: bf5d c7bc c776 03be 0a97 c6bd 433b ef3d
00000030: 6144 05be 31cb 053e b789 353d 92cb 133e
00000040: a15d e2bb 16a3 183d db70 093c bd48 99bd
00000050: a786 d5bd 3483 e4bd 84e5 44be 9a10 423e
00000060: b64d 71bb 5e31 25be beb0 e63d 77a6 d13d
00000070: da7a 3fbd 3b75 febc e382 11be 8f89 963d
00000080: 988e 62bc 4fd6 29bd fc83 21be 8c76 55be
00000090: b196 7cbd 473d 823d ea48 bd3c ad7a 193e
000000a0: 44d7 913d 8121 173c f642 44be 186b 0abe
000000b0: f190 bebc 0daf b8bd f4de 7c3d 4c38 523d
000000c0: e82d dd3d b903 a13d 554b 033e dbb5 f0bc
000000d0: 5781 44bb 02c2 24bd 8c8c e13d 7dbd 213e
000000e0: 239e 1abe 4354 153e e372 aabc 0c4e c3bd
000000f0: 2a8b 4d3b 64fa ddbb bfab 3e3d 9c53 b7bd
00000100: 958b 79be 714c 11bd e38a 26be 055b 1cbd
00000110: 6e4c 99bc 4f66 943c 0726 df3d 9cac b13d
00000120: 4fe6 c8bd ef8c 073e c30f eb3a d01f 12be
00000130: 872d 21bd 1cf2 1f3d 0d45 fcbd fd8c 563e
00000140: b904 6dbd b751 ac3d 61a5 88bc 1f38 0e3d
00000150: 4846 f4bd 49fc fbbd 548f 5dbd 78da bc3d
00000160: 09d4 45bc e0aa 4a3e 6842 01be 712f 543d
00000170: 41de 893c 936f 24be fdb0 cdbc ac11 0abe
00000180: 4c20 9ebc a963 da3d ffe9 cebd 88bc 3b3d
00000190: 4714 e9bb cd64 38be 3ebb 143e 564e 19be
000001a0: b55f 07be a720 f93c b8be 98bc 2b2c 0fbd
000001b0: 2bb3 a0bc 5356 0e3e b0e4 04be d8bf 3dbe
000001c0: 539a 49be ebba 7bbc ccbb 37bc e4ae b93e
000001d0: 4f4c f2bc 0ddf aaba ea67 4ebe 2ae7 313c
000001e0: eabc f3bc 4f00 43bd 071e 80bd 5917 b23d
000001f0: 9381 a1bd 0dcd dd3d 167a 91bd ba2a dd3d
00000200: ac24 94bd 59e8 92bd 2e3c 51bc 80c0 e5bd
00000210: bde5 c83c 6718 d2bd bc06 ab3d 7095 0dbe
00000220: 2c70 36be 780a 033e 2023 c9bd 8db5 a23b
00000230: 3b75 b53d 37a8 dabc a8ed a1bd f594 e93c
00000240: 945e 92be 0373 83bd b97e 07be 2e9d 33bd
00000250: 2e7d bf3d f007 d5bd d20c b4bb 9e27 d7bd
00000260: 332f d33d a846 ecbd 49e9 c0bb 9d35 41bd
00000270: 14dd d5bc ff4d 213e b2e1 133e 5a07 a9bd
00000280: 320e f63d c465 cf3b 5c63 22bc 4656 3ebd
00000290: 90d5 a7bd 5d9c d2bd ede7 4c3e dbf9 76bc
000002a0: 5365 a1bd 8801 b93d 1d38 363d 8c94 abbc
000002b0: abb2 dd3d 03cb 3d3e 0194 17bd fd6f abbd
000002c0: e972 70bd 0dda 93bc 2794 2bbe 95f2 323e
000002d0: 99dd 34bd 6ceb 01be ffe5 913d 51bd a5bd
000002e0: baed 3cbe 9b3b 91bd 4a5d d5bd e4ce 6d3b
000002f0: d6d0 1cbe 4c8d 56bc 7768 763d 727d c73d
00000300: 9b8a 53bd 78e0 57bd 9b9e 153d 28af 083e
00000310: df4e 753e 6f6c 1d3d 8530 ca3d 232d 91bd
00000320: 5cf9 aa3d f8b8 d6bd d1e3 a53c 77cd 213e
00000330: cb4d 3f3d de2a b9bc 163c e33d d159 06be
00000340: 5b52 8c3c 7bdd 193e 7cf0 4d3c f9d1 8fbe
00000350: 0c61 89bd 6d1b 09be 0dfd 18be 85d3 68bc
00000360: bb5a 84bd 5363 9bbd 4cf5 203e cc09 693e
00000370: 8dcc 2abe fa99 2ebd 6ef8 6f3e 325e 0dbe
00000380: efd4 0abe 223e 283c bc74 a9bd 118d 87bd
00000390: a446 1f3e c087 5a3d 24ab debd 67c2 e3bd
000003a0: d30d 8dbd 3e10 07be 058f 4b3d 34a6 57be
000003b0: d4d6 04bc da9a f0bd 4b1f 243d 8843 e63d
000003c0: 0fda a0bd 02a9 edbd d48b a33d 3f96 cebd
000003d0: c320 01bc 8a22 a8bc 7beb 68bc a703 fd3d
000003e0: c220 923d 585e a73d da3c 063e 7270 27be
000003f0: 126d 963c 9b39 66be 7334 3a3d 7bdd 0ebd
-0.055105492 -0.0740702 0.18340234 -0.14772101 -0.09664363 0.052119624 -0.00435232 0.0022608673
-0.024336694 -0.12838279 -0.09696777 0.11681225 -0.13014366 0.13065793 0.04432079 0.14433125
-0.006908134 0.037264906 0.008388723 -0.07484577 -0.104260735 -0.111578375 -0.19228178 0.18951645
-0.003682 -0.16132113 0.1126418 0.10236829 -0.04674802 -0.03106176 -0.14210086 0.07350456
-0.013827942 -0.041464146 -0.15773004 -0.20846003 -0.061667148 0.06359344 0.023106057 0.14988203
0.07121137 0.009224297 -0.19166169 -0.13517416 -0.023262473 -0.09017763 0.061736062 0.05132322
0.107997715 0.07862038 0.12821706 -0.02938359 -0.002998432 -0.040224083 0.11013135 0.1579494
-0.15099387 0.14582925 -0.020806735 -0.09536371 0.0031363466 -0.0067742337 0.04655051 -0.08951494
-0.24369653 -0.03547329 -0.16263919 -0.03817274 -0.018713202 0.01811519 0.10895925 0.08675501
-0.09809553 0.13237356 0.0017933775 -0.14269948 -0.03935006 0.039049253 -0.12317858 0.2095222
-0.057865832 0.08414023 -0.016680421 0.03472149 -0.119274676 -0.12303979 -0.054091766 0.09221357
-0.012074479 0.19791746 -0.12622988 0.051803056 0.016829612 -0.16058187 -0.025108809 -0.13483304
-0.01930251 0.1066354 -0.10103225 0.045834094 -0.007113013 -0.18007202 0.14524552 -0.14971289
-0.13220103 0.030411078 -0.01864563 -0.03495423 -0.019616684 0.13900118 -0.12977862 -0.18530214
-0.19687776 -0.015364389 -0.011214208 0.36266243 -0.029577402 -0.0013036445 -0.20156828 0.010858336
-0.029753167 -0.047607716 -0.06255727 0.086958595 -0.078860424 0.10830126 -0.07103364 0.10799165
-0.07233557 -0.07173223 -0.012770696 -0.11218357 0.02452361 -0.10258561 0.08350894 -0.13826537
-0.17816228 0.12796962 -0.09821153 0.00496549 0.088602506 -0.02669154 -0.079066575 0.028513411
-0.28587782 -0.06418421 -0.13231935 -0.04385107 0.09350048 -0.104019046 -0.0054946924 -0.10505603
0.10311737 -0.11536914 -0.0058871848 -0.04717027 -0.026106395 0.1575241 0.14441565 -0.08253355
0.12014426 0.00632927 -0.009911384 -0.046468996 -0.08195031 -0.1028373 0.20010348 -0.015074219
-0.07880654 0.09033495 0.044487108 -0.020944856 0.10825094 0.18534474 -0.037006382 -0.083709694
-0.058703337 -0.01804831 -0.16755734 0.1747535 -0.044156644 -0.12687463 0.071239464 -0.0809275
-0.1845006 -0.07091447 -0.10418184 0.0036286647 -0.1531404 -0.013095211 0.06015822 0.09740724
-0.051645856 -0.052704304 0.03652821 0.13348067 0.23955868 0.03843349 0.098725356 -0.07088687
0.08348343 -0.10484499 0.020250233 0.15801035 0.04670505 -0.022603448 0.11095445 -0.131202
0.017129114 0.15025894 0.012569543 -0.28089884 -0.06707963 -0.13389368 -0.14940281 -0.014210586
-0.06462618 -0.07587304 0.15718573 0.22757643 -0.16679592 -0.042627312 0.23434612 -0.13805464
-0.1355779 0.01026872 -0.082742184 -0.06618703 0.15554291 0.053352118 -0.10872486 -0.11121064
-0.068874024 -0.1318979 0.04969694 -0.21059495 -0.00810786 -0.117482856 0.040068906 0.11243349
-0.078540914 -0.11604501 0.079856545 -0.10087251 -0.007881346 -0.020524282 -0.014216299 0.12354212
0.07135154 0.081722915 0.1310915 -0.16351488 0.018362556 -0.22482912 0.045460176 -0.03487919

conv2.lin_l.bias f4 [100]
00000000: 0dde 5e3d 5f45 953b f9cf edbd 5c26 febd
00000010: 2dc7 89bc e179 413d 1746 93bd a666 743d
00000020: 398e 16bd 6734 1cbc 82ce f7bd fe99 6cbd
00000030: 6f76 8f3d f3ca b7bd 02c1 efbc 5960 f9bd
00000040: 93f9 86bd 993e 9bbd 6a69 0abe 2b73 ae3c
00000050: a4ff 853c fa01 033e 16ca 043d 3f55 a73d
00000060: 2bfa dabc 95b4 41bc 7ae6 f5bb d948 abbd
00000070: bef5 163d 2d2f 153d 932f 0bbe 8b4b 64bd
00000080: c992 a6bd fa51 ca3b c6ca d8bd 5c29 d4bd
00000090: d4c8 ddbd 2296 063e d71c f3bd c6ab babd
000000a0: f286 b03d 526c 1ebd 170e 663d e6f7 80bd
000000b0: faa6 38bd fe35 103d e7b1 a8bc be6a 7b3d
000000c0: 598f 9d3d d789 d83a d5a2 16be 9ab3 27bd
000000d0: eedd dd3d b79e 2fbe 0faf e9bd 3d5e abbd
000000e0: d719 2bbd c5ff 24be 2bfd ea3d 7cd4 263b
000000f0: 00d3 39be 87cc 743d 7595 10be cd23 a7bc
00000100: 679f 643d 2ea6 013c 8133 263d d0a9 063e
00000110: b73b 2ebd 9a24 b83d 2b85 c3bd e933 a43c
00000120: ea08 16be fd51 22bd bc66 613d dfbb 443d
00000130: bbfd f3bc 1300 e8bc c5c1 23be 6ac5 fa3b
00000140: a10a febd bf7b 0e3d 2a37 793d 9565 033e
00000150: 8cfc 723c 2dfd 5dbe 94e5 5ebb c511 9c3d
00000160: f00f c83d 3c09 b5bd cf38 8b3d 2674 d3bd
00000170: 2583 0bbe 5c6f a4bd 478d d13d 5677 1ebe
00000180: a670 7abb 8214 b53d de92 713d b422 6abd
0.054410983 0.004555389 -0.11611933 -0.1240966 -0.016818607 0.047235373 -0.07191103 0.059668206
-0.036756728 -0.009533978 -0.12099935 -0.057764046 0.07005011 -0.08974256 -0.029266838 -0.1217658
-0.06590571 -0.07580299 -0.13516775 0.02129515 0.01635725 0.12793723 0.032419287 0.08170556
-0.026730618 -0.011822839 -0.0075042816 -0.08363504 0.03685545 0.036421943 -0.13592367 -0.055736106
-0.08133466 0.006174323 -0.10585551 -0.10359451 -0.108293205 0.13143209 -0.11870735 -0.091147944
0.08619489 -0.03867752 0.05616578 -0.06297283 -0.045081116 0.03520774 -0.020592643 0.061381094
0.07693357 0.0016520572 -0.14710553 -0.040942766 0.10833345 -0.17150389 -0.11410343 -0.08367584
-0.04177269 -0.16113193 0.11474069 0.002545624 -0.18146896 0.059765365 -0.14119513 -0.020402813
0.05581608 0.0079131555 0.04057646 0.13150716 -0.042537417 0.08991356 -0.09546884 0.020044284
-0.14651838 -0.03962897 0.055029616 0.04803073 -0.029784074 -0.028320348 -0.15991886 0.007652928
-0.12404371 0.034785982 0.060843624 0.12831719 0.01483072 -0.2167861 -0.003401135 0.07620577
0.09768665 -0.08839652 0.06797945 -0.10324888 -0.13624246 -0.080290526 0.10232025 -0.1547521
-0.0038214116 0.08841802 0.058977954 -0.057162

conv2.lin_r.weight f4 [100, 50]
00000000: e30e b13d a9e0 f9bd b94f 0a3e 77a7 f53c
00000010: 04c1 69bd f260 96bd f729 873d c56d ddbd
00000020: 3a8c e4bd d4b9 b8bd 49bf b7bd f9bf f13d
00000030: 5af3 6d3d 0146 8b3d 47f0 8c3c ebdc 543d
00000040: c4a4 813d d489 be3d f132 c9bd 585b 44be
00000050: 01ce cd3d bb23 7fbd 91dc 183e 96d4 fb3c
00000060: 1e3e a4bd c9b6 2f3d 8b3c 143e e942 8dbc
00000070: b8ab a2bd bc22 5ebd b6a6 d8bd 9b26 4a3d
00000080: 74bd 153d ea3c a9bc 730a 013d 419d 333e
00000090: c281 0bbd 8f6f c03d b572 ff3c c15b 88bc
000000a0: 9e76 a8bd 620b 0fbe 418a 753d 7df2 b53d
000000b0: c142 1ebc 9054 8f3d bdf8 7e3d 6afc 14be
000000c0: 5bc2 4f3e dda2 2f3e 4051 fd3d 0efe dfbd
000000d0: 21e4 eb3c c1ab e6bd 1d81 0e3d 5a89 e23d
000000e0: 95d9 a33c 26d7 13bd f63d b03d ae3d e23d
000000f0: 7993 09ba 420e 2fbe 52cf 93bd 3dcc efba
00000100: 96d1 80bd d516 87be 3f52 8a3c e11a 07be
00000110: a986 f83c 32ef cebd cdc0 873d d556 7c3c
00000120: a34d 373e 659b bb3a 2dc2 0abd aa91 8b3d
00000130: 68a3 213e 9ffb c83d 1b6b ce3d c0fa 893d
00000140: 6ebc 093d 8129 ccbc b14e e0bd a47c be3d
00000150: 6839 47bd 08bc 1c3e e678 0dbe 9a0f 183d
00000160: d31e b63d e7e2 0ebe cba0 7abd 6d94 923c
00000170: 5351 7bbe b760 a1bd 971e b13d cbb4 413d
00000180: e6bf 4e3e c1c4 9c3d d666 723c 92d0 003d
00000190: a5e4 5e3d 07f8 bbbd a73c 613e 3306 80bd
000001a0: 771a 293e c668 e7bd b668 9abd 9740 1fbe
000001b0: 6602 27bd 53c6 62be 1408 15be dd49 04be
000001c0: 288d c73d b3c9 39be 2196 873d b180 2a3e
000001d0: 6cc3 06bd ede7 d0bc b2e0 babb 55f1 6abd
000001e0: f994 2e3e 88c8 10be ef41 3abd 26b5 103e
000001f0: 5225 dcbd 2ae6 383b dce5 0c3c 0b71 3bbe
00000200: 9326 eb3d ac9a 1e3d e39b 17be 79eb 8ebd
00000210: 1227 d1bd a4f3 e4bd 2ac4 acbc 0f77 643c
00000220: fefd 48bd b616 a23d 7752 993b 2ea4 1bbe
00000230: 5adc b1bd 355c c2bd b93e df3d c0e8 08bd
00000240: 8004 13bd acad e2bb 5def 0fbd 8158 aebd
00000250: 4448 cf3d c99b 21bd 7fad 8abd 29cb 9cb8
00000260: 6961 b13c 95ad 30bd 35a5 7b3d 4cae 78bd
00000270: 8d77 3cbe 1c93 893d 3929 8dbc b653 91bd
00000280: 6a2e 8ebd d472 fd3c 9163 c4bd 66de 873d
00000290: 8064 c2bc 729a d6bd 317c 903d d688 f3bd
000002a0: 8566 10be e567 14bd e50e 07be d483 a7bc
000002b0: 4f30 a83d 3a03 8f3d 8070 8d3d d5ea 6dbb
000002c0: e179 fa3d a5a2 d5bd 22d9 d73b 5d2a 8dbc
000002d0: bdb0 28be 74ad eebd 789d 07be 8ba2 ccbd
000002e0: 3c65 c83d e6e7 813e c7d7 ebbc b0ba 87be
000002f0: 8590 e83d 82c2 a2bd a435 5e3e 2172 b53d
00000300: 186f d3bd fa9d febd e8da b2bd dfeb 603d
00000310: 0391 563d ea5f b3bd bbe5 e3bd 682a 8e3c
00000320: cfd0 f2bd 18b3 abbc 73ea 0bbe 33bd cf3c
00000330: da2e 673c e9fd b8bd bde2 d63d b2b8 0dbe
00000340: 67bd f3bc f5c6 0cbd cf50 eebd 2823 75bd
00000350: 56c5 9d3b 1789 2dbd 9179 00bc 9d94 693d
00000360: f599 a7bd 65e8 24bd dfdc 083d beb2 cbbd
00000370: f964 8abd afae 86bd 481e b53d 35fe edbd
00000380: 323b cbbd bed3 a3bd 9232 89be cde4 e9bd
00000390: 8c9c 8fbd 43cf 71be 6e5d 79bc 43d9 913d
000003a0: 85dd e13c f130 6c3c 7fac 9c3d 690e 32be
000003b0: d1d8 9a3d f5ab aabd d90f a2bd a19f 963d
000003c0: 6f71 15be 3c39 edbc 4e4a bf3d 68f8 34bd
000003d0: 80a2 bebd 5d20 813d cec8 413d f0c1 8ebd
000003e0: 98a3 09be e496 86bd 4e88 463d 6af9 d6bd
000003f0: 2371 6dbd cacb ef3d b0fe 53bd 236a b33d
0.086454175 -0.12201054 0.13506974 0.02998708 -0.05706884 -0.073427096 0.06599801 -0.108119525
-0.111595586 -0.09019819 -0.089720316 0.11804194 0.058093406 0.068004616 0.017204417 0.051968496
0.06330255 0.093036324 -0.098241694 -0.1917547 0.10049058 -0.062289935 0.1492789 0.030741017
-0.080196604 0.042898927 0.1447622 -0.01724382 -0.07942909 -0.054232344 -0.105786726 0.049353223
0.03655763 -0.020658929 0.031504106 0.17540456 -0.034059294 0.09396278 0.031182626 -0.016645314
-0.082257494 -0.13969186 0.059946302 0.088841416 -0.00965947 0.06998551 0.062248934 -0.14549413
0.20288984 0.17151971 0.12369013 -0.10937129 0.028795304 -0.11263228 0.0347911 0.11061354
0.020001212 -0.036093853 0.08605568 0.11046921 -0.00052481104 -0.17095283 -0.072172776 -0.0018295121
-0.06289975 -0.26384607 0.016884921 -0.13193847 0.030337648 -0.10104217 0.06628571 0.015401562
0.1790071 0.0014313279 -0.033876587 0.068148926 0.15784991 0.09813618 0.100790225 0.0673728
0.033626966 -0.024922134 -0.10952509 0.09301117 -0.04863873 0.15306103 -0.1381565 0.037124254
0.08892598 -0.13953744 -0.0611885 0.01789304 -0.24542741 -0.07879775 0.08648413 0.04729156
0.20190391 0.07654715 0.014795026 0.03144891 0.05441727 -0.09178167 0.21995793 -0.062511824
0.16514002 -0.11299281 -0.07539503 -0.15551983 -0.04077377 -0.22145967 -0.14553863 -0.12918802
0.0974372 -0.18143348 0.06620432 0.16650654 -0.032901213 -0.025501216 -0.0057030553 -0.05735906
0.17049016 -0.14138997 -0.045473035 0.14131603 -0.10749306 0.002821336 0.008599725 -0.18304841
0.11481967 0.038721725 -0.1480556 -0.069785066 -0.1021253 -0.11179283 -0.021089632 0.013944401
-0.04907035 0.07914488 0.00467902 -0.15199348 -0.08684607 -0.09490243 0.10900635 -0.033425093
-0.035892963 -0.006917676 -0.035140384 -0.085129745 0.101212054 -0.03945521 -0.06771373 -7.476501e-05
0.021652894 -0.04313429 0.06143685 -0.060713097 -0.1840498 0.06717512 -0.01723157 -0.07096045
-0.069424465 0.030938543 -0.09589303 0.06634216 -0.023729563 -0.10478677 0.07054938 -0.11891334
-0.14101608 -0.036231894 -0.13189276 -0.020448603 0.08212339 0.06983037 0.06906223 -0.00363033
0.12230278 -0.104314126 0.0065871635 -0.017232114 -0.1647367 -0.11654177 -0.13243663 -0.0999194
0.09784934 0.25372237 -0.028789414 -0.2650962 0.1135569 -0.07947256 0.2170015 0.08859659
-0.10323924 -0.124324754 -0.08733159 0.054912444 0.052384388 -0.087585285 -0.11127802 0.017354205
-0.11856233 -0.020959422 -0.13663654 0.025358772 0.014110291 -0.090328045 0.10492466 -0.13839987
-0.0297534 -0.034369428 -0.11636507 -0.05984798 0.004814784 -0.042367067 -0.007841484 0.057026494
-0.08183662 -0.04026069 0.033413764 -0.09946202 -0.0675754 -0.06576287 0.08843666 -0.11620752
-0.099234 -0.07999371 -0.26796395 -0.114205934 -0.07012281 -0.2361422 -0.015220029 0.071215175
0.027571449 0.014415965 0.076500885 -0.1738831 0.07560886 -0.083335795 -0.07913179 0.073546655
-0.14594053 -0.028957956 0.09340344 -0.04418221 -0.09308338 0.06305001 0.047310643 -0.069705844
-0.13441312 -0.06571749 0.048469834 -0.10496791 -0.057969224 0.117087916 -0.05175656 0.08760478

conv3.lin_l.weight f4 [200, 100]
00000000: 53c6 96bd 6190 50bc 004a 83bc 1569 56bd
00000010: 2683 413d 7582 9a3c 2874 69bd 0903 85bb
00000020: 0737 61bd d5c0 4f3a cea5 87bd b27d eabc
00000030: d88b 2dbc e801 673c e812 94bd a7e2 37bd
00000040: 1633 19bd 8247 fdbd 8e57 8ebd 29d7 16bd
00000050: 487a cdbc 4c0c 6bbc f5ab 063c da1a 31bc
00000060: 70cb 0b3d 79d7 a73d ed11 0ebd d041 d0bd
00000070: fbd6 d4bd 0e11 d7bc 67c7 13be 6718 59bd
00000080: 80ea 56bd 9434 d1bd 6f05 23be 79bd 473d
00000090: f54f 823c e104 5dbd 4a74 8cbc f166 e4bb
000000a0: 5a8d 663d 8212 6ebd 5474 a8bd f989 23bb
000000b0: 4dd9 b1bc 2f9d babc 9b34 aebb d333 163d
000000c0: 0f7c afbd 192c acbc 5be3 91bd ef08 7e3d
000000d0: ffe7 08bc d1bf 633c 6126 b3bd a688 a93d
000000e0: f548 123d f698 8cbc fcb0 8d3d 4375 2b3c
000000f0: 3951 edbd d442 f8bd 1b56 583d 805a 25bd
00000100: 6b1f 66bd ab92 cfbd d3ac 303d b3b5 3e3d
00000110: 5ddc 0dbe 6335 a53c 0b85 80bd 904e fc3c
00000120: ed10 a93d b84e e8bc 9fc4 adbd 0c09 a5bd
00000130: bdda 333d a8e7 5cbd 328e a8bd 445e 0fbd
00000140: 8a31 78bd 74a3 88bd 7c51 58bd 53e5 ad3d
00000150: 6a33 d7bd b14c fcbc f3ce 6b3d 2153 c13c
00000160: df7a 683c 434d 203d d6a4 b9bd f270 9ebd
00000170: 6f29 54bd aae6 bcbd a164 4a3d 9afb e1bc
00000180: 5db6 febd de3c 8d3d 19c3 1dbe 1528 ac3d
00000190: 99f6 5e3d 8e44 aa3c 78bd a2bc 0a25 313c
000001a0: c4d1 cfbd 0030 9e3d 1cc6 903d 81bc 04bd
000001b0: 61da 423d 268a 51bc ed13 b23d 516d b33d
000001c0: 494f a33c 39c4 c1bd 4b6d 863c ff2d c2bd
000001d0: 4573 073d 564b a03d feb0 ebbc ff41 33bc
000001e0: 640b 47bb b577 4ebd 519d e83d c5c6 b0bc
000001f0: a5b8 003e 3812 93bd ca76 e03d 4066 9f3d
00000200: 3319 ed3d 6199 84bc 36d8 eb3d 12b3 29bd
00000210: 4078 5abd 2c0d bfbd 4374 e8bc 6875 173d
00000220: 3412 d4bc 763c b13c 9403 34bd 231a b1bc
00000230: 5910 8e3b 088a 223e c52e b2bc 3bc3 b83d
00000240: 584b 953d 6fdb 3b3b 61be d93b adaf f53d
00000250: 166d 56bd 6f18 853c 5dd1 063d 9d57 11bb
00000260: 7b9a 02bd d79c 803d d571 333c ecd8 2b3e
00000270: 76b5 063e cfa5 373d c640 d03b ae18 fb3d
00000280: 04c8 36bc 6f11 92bc da06 b53b a091 2c3e
00000290: 67ea 60bc 95cc 183d 6659 80bd a52b a5bc
000002a0: 1d41 b9bb 33f7 003e 90c3 79bc 1b06 e93d
000002b0: d0b6 93bd 7167 2c3d 042a f13d 30d8 cc3c
000002c0: 7604 193d 9ebd 023c 34d8 90bd cc67 b33d
000002d0: 4f62 8cbd 67b9 8d3d a6a5 bb3d 4169 623d
000002e0: db57 5abd 8fa0 143e 8590 ea3d 8833 b23c
000002f0: a733 2a3c 84b0 fcbb 4628 40bd 9d35 f63c
00000300: 6fd0 9f3d 41a0 913d f381 bc3d 94da 0f3d
00000310: b5a5 693d e246 973d 5382 8ebc e875 603d
00000320: 8222 9abd fec2 fd3b a789 20bd 11a3 a6bc
00000330: 95c2 3e3d 7a5a d33d 9fa3 84bd a487 1b3d
00000340: fa95 9bbd 307d e73d a528 793d 76da 38bd
00000350: adcf bf3b 5c2d 0e3d 148d d8bd 4f5a a3bd
00000360: 6b94 4d3d 8dbd 87bd 2cb9 84bd dc94 e93d
00000370: a9bd 863d 44db 033e d5a1 943b e744 30bd
00000380: 09f2 07be fd73 083d 9674 3ebd 76d3 e33b
00000390: 6372 6b3d 9082 fd3c 1005 3abc a256 a5bd
000003a0: 2b56 073e b0c5 cebc 054b ecbd e06f 33bd
000003b0: 9e33 91bd abf0 ff3d 538b b13d db3b 61bd
000003c0: 7c22 cbbd e846 403d 9b58 d5bd faf3 62bc
000003d0: 90df e3bc e2fc 98bd 9851 d6bc cb83 3ebc
000003e0: 1107 b13c 48e5 04be 826f bbbc 1ab6 af3d
000003f0: a807 9fbd be07 d83d 2964 52bd 1361 ddbc
-0.07362046 -0.012729735 -0.016026497 -0.052346308 0.047244214 0.018861035 -0.05699554 -0.0040591997
-0.05498412 0.00079251576 -0.066234216 -0.02862439 -0.010592423 0.014099576 -0.072301686 -0.044893887
-0.037402235 -0.12367155 -0.069502935 -0.036826286 -0.025082722 -0.0143461935 0.008219709 -0.010809625
0.03412956 0.08195395 -0.034685064 -0.10168803 -0.10392567 -0.02625325 -0.14431535 -0.053001788
-0.05246973 -0.102151066 -0.15920042 0.04876468 0.015907267 -0.05395973 -0.017145295 -0.0069702794
0.056287147 -0.05812312 -0.08225313 -0.0024954064 -0.021710062 -0.02278003 -0.0053163297 0.036670517
-0.08568584 -0.021017121 -0.07123443 0.06202024 -0.008356093 0.013900713 -0.087475546 0.08278017
0.03571411 -0.017162781 0.06918523 0.010464969 -0.115877576 -0.121221215 0.05281649 -0.04036951
-0.056182306 -0.101353966 0.043133568 0.04656 -0.13853593 0.020167058 -0.06275376 0.03079918
0.082551815 -0.028357849 -0.08484768 -0.08058366 0.043909777 -0.053931862 -0.082302466 -0.035002008
-0.06059412 -0.06671801 -0.052812085 0.08491006 -0.10507853 -0.030798288 0.05757041 0.02359921
0.014189451 0.039136183 -0.09064643 -0.07736386 -0.051797327 -0.09223683 0.049412373 -0.027585793
-0.12437127 0.06896375 -0.15406455 0.084060825 0.054434393 0.020784643 -0.019865736 0.010812053
-0.101474315 0.07723999 0.07069036 -0.032406334 0.047571544 -0.012789285 0.08695207 0.08761085
0.019935267 -0.094612546 0.016409537 -0.09481429 0.033068914 0.07826869 -0.02877092 -0.010941028
-0.003037178 -0.05040713 0.11358131 -0.021579156 0.12570436 -0.07181209 0.10960157 0.077831745
0.11577072 -0.016186418 0.11515848 -0.04143054 -0.053337336 -0.09328684 -0.02837575 0.0369772
-0.025887586 0.021635275 -0.043948725 -0.021618908 0.004335445 0.15872967 -0.021750817 0.09021612
0.07289761 0.0028664728 0.0066450094 0.11996398 -0.052350126 0.016247002 0.032914508 -0.0022177466
-0.031885605 0.06279915 0.010952433 0.16781968 0.1315516 0.04483586 0.006355378 0.12260567
-0.011156086 -0.017830579 0.0055244984 0.16852427 -0.013727761 0.03730448 -0.062670514 -0.020162413
-0.005653514 0.12594299 -0.01524438 0.11378118 -0.07212603 0.042090837 0.11775592 0.02500543
0.03735777 0.007979779 -0.070724875 0.08760032 -0.068546884 0.06920128 0.09162454 0.05527616
-0.05330644 0.14514373 0.11453346 0.021753088 0.010388291 -0.007711472 -0.046913408 0.030054862
0.078034274 0.07110644 0.09204473 0.03512056 0.057042796 0.07386567 -0.017396128 0.054799944
-0.07526113 0.007744192 -0.039193776 -0.020341428 0.046572287 0.103199914 -0.06476521 0.037971154
-0.07596965 0.113031745 0.060829777 -0.045130216 0.0058536143 0.034711227 -0.105737835 -0.07976209
0.05019037 -0.06627951 -0.06480631 0.11405346 0.065791436 0.12876612 0.0045358934 -0.04303446
-0.13275923 0.03331374 -0.046497904 0.0069526983 0.057482135 0.030946046 -0.011353746 -0.080731645
0.13216464 -0.02524075 -0.11537746 -0.043807864 -0.07089923 0.12497076 0.08669152 -0.054988723
-0.09918687 0.04694262 -0.10417291 -0.013852114 -0.027816564 -0.074701086 -0.026161954 -0.011628102
0.021609815 -0.12978089 -0.02288032 0.08579655 -0.07765132 0.10548352 -0.05136505 -0.027023828

conv3.lin_l.bias f4 [200]
00000000: 9fc6 953b 63eb 80bd e42a b9bd b8e6 0bbe
00000010: 9c04 13bd 3f8c dbbc 6b14 f9bc d3d3 953c
00000020: aec3 483e dbf3 42bd a17b 9d3d 7238 943c
00000030: 6809 88bd 7903 703d f06f 0fbe 53fc ca3c
00000040: 1257 95bd 6d79 6c3d b711 383e e544 113d
00000050: dd51 63bc 8384 423d 861b b6bd bf0c ff3c
00000060: b4cb 23bd 8eaa 183c 3ee5 b1bc 1809 9dbd
00000070: e549 83bd f742 f6bd d3ab 35bc 2a49 d7bd
00000080: 96e5 3abe 865c 083d 4c79 91bc 782d 11bd
00000090: ad20 7dbc d220 11be 3958 e2bd 1fe3 003e
000000a0: 8581 c3bd 777d 06bd e9e3 4f3d cdcb 1b3a
000000b0: 26d3 623d 94f3 a33c a7c8 02bd a031 44bd
000000c0: c875 c83c cd04 b7bd eb67 043e 1e02 9ebd
000000d0: 3c96 993d f085 bbbd ee06 d1bc 6192 80bd
000000e0: 02da 68bd 1396 9ebd b244 fcbd 2bbc ae3d
000000f0: 9859 7f3d 71f7 86bd d21e 1dbd 1863 1b3e
00000100: 3bdf fe3d 3987 d53d d737 c2bd 5f4c e43c
00000110: f22c b23d a41c c0bd a4d5 b6bd 9b2a 973c
00000120: 1bfd 02be 55d2 a5bd e818 a9bd 624e c2bd
00000130: 7fa5 593d 7332 14be 4ab6 223d e87e 94bd
00000140: 08f6 90bc 689f 67bd 4784 97bd 01ce d53c
00000150: 76e9 4fba a889 433c 0526 a53b e502 54bd
00000160: 060e 1dbd 3144 14bc 6d45 f8bd f5f4 863c
00000170: 8097 2dbd 2642 5fbd 4156 b7bb 2660 d13c
00000180: 77d6 8b3c 848c 02bd da38 08bc 462c 00be
00000190: 56c2 3abc 9f88 823c 05bb a5bc 03d9 48bd
000001a0: c2ae 313c c9e6 033d 7c11 793d f553 7fbd
000001b0: 69fa 20be f90f 233d 1868 b8bc 61ba 663d
000001c0: 4bab 423d dc07 973d b9b0 713d e0a7 0138
000001d0: d4df 3c3c 37c0 053e 782f b2bd ebc5 2bbd
000001e0: 8683 6f3d 6ac8 a5bd e704 37bd 249c 6ebc
000001f0: e98f 373d bd9b d8bc 9e6c 4dbe 91e0 2cbd
00000200: 7881 013b 3fff 9fbd e095 bebd d12d b2bd
00000210: 9a0f 013e 89f5 cfbc 3edc 663e e31c c2bd
00000220: 8eb1 02be 0ffa 9d3b 9aa9 39bd ce10 4cbd
00000230: 9f38 5cbd f736 e3ba b329 a03d bed9 14bd
00000240: d62d 69ba c5e0 533d e427 ffbd 569e b0bd
00000250: cb8a 58bd c0b3 2fbc e1f7 0ebe 1895 42bd
00000260: 7c47 16be 090e d3bd cef3 723d 1626 433d
00000270: 7b0a d43d 7752 213d 3668 f9bd f13b 11be
00000280: e047 95bd cb3d 9bbc 2e74 e63c 2f9b 03be
00000290: 1b75 5ebd 04e2 d33c 3f83 d3bd c562 b9bd
000002a0: 7d57 8cbc 6ceb 96ba d5be aebc c5a4 2c3c
000002b0: f47f 68bd 7488 1fbd b15a c9bd 928a 72bc
000002c0: 377e 9bbd a4fe b4bd 012c 50bc b915 f63c
000002d0: 8982 72bd f30f dcbd e895 b7bd af7d 19bd
000002e0: aa4a f5bd d32a f2bc 6b46 e23c caff e0bc
000002f0: 0974 01be 862b 1bbd c225 9a3d 1c2a c5bd
00000300: b99b 863d 9cbb 9bbc 3988 81bd 40fc f3bd
00000310: dafe 44bd da77 90bd 089f f83d 7dc4 823b
0.0045707966 -0.062948965 -0.09041384 -0.13662231 -0.035893068 -0.026800273 -0.030405244 0.018289482
0.19605896 -0.04759584 0.07689596 0.018093321 -0.06642419 0.05859706 -0.14007545 0.02477852
-0.07291998 0.05773299 0.17975508 0.035466094 -0.013874498 0.047489654 -0.088919684 0.031134007
-0.03998919 0.009318007 -0.021715757 -0.0766775 -0.06410579 -0.12024491 -0.011088329 -0.10512002
-0.18251643 0.033291362 -0.017758034 -0.035443753 -0.015449685 -0.14172676 -0.110519834 0.1258664
-0.09546188 -0.032834496 0.05075446 0.00059431494 0.055377148 0.020013608 -0.03192964 -0.04789889
0.024470225 -0.089364626 0.12930267 -0.077152476 0.07499358 -0.09156406 -0.025516 -0.062779196
-0.056848533 -0.07743468 -0.1231779 0.08531984 0.062341303 -0.065901645 -0.03835947 0.1517452
0.124449216 0.10426182 -0.09483307 0.027868448 0.08699979 -0.09380463 -0.089274675 0.018452933
-0.12791865 -0.08096758 -0.082567036 -0.094876066 0.053136345 -0.1447237 0.039724626 -0.07250768
-0.017695442 -0.056548506 -0.07398277 0.026099207 -0.0007931212 0.011934675 0.0050399327 -0.051760573
-0.038343452 -0.009049461 -0.12122617 0.016474226 -0.04238081 -0.054506443 -0.005594999 0.025558542
0.017070038 -0.031872287 -0.008314336 -0.12516889 -0.011398872 0.015934287 -0.02023078 -0.049035084
0.010844888 0.032202516 0.06080769 -0.062335927 -0.15720524 0.039810155 -0.022510573 0.05633009
0.04752664 0.07374546 0.059006426 3.0912342e-05 0.011527974 0.13061605 -0.0870046 -0.041936796
0.05847504 -0.080948666 -0.04468241 -0.014563594 0.044814978 -0.02644145 -0.20060965 -0.04220635
0.0019761007 -0.07812356 -0.0930593 -0.08700145 0.12603608 -0.025385635 0.22544953 -0.09478166
-0.12763044 0.004821069 -0.04532776 -0.049820714 -0.053764936 -0.0017335106 0.078204535 -0.036340468
-0.0008895075 0.05172803 -0.124587804 -0.0862395 -0.05286674 -0.010724008 -0.13961746 -0.047505468
-0.14675707 -0.10305411 0.05931454 0.047643743 0.103535615 0.039385285 -0.1217808 -0.14183022
-0.072891 -0.018950364 0.02813157 -0.12852167 -0.0543109 0.025864609 -0.103277676 -0.09052042
-0.017131561 -0.0011514253 -0.02133123 0.010537331 -0.05676265 -0.03894849 -0.09831751 -0.014803546
-0.07592433 -0.08837631 -0.012705804 0.030039655 -0.05920652 -0.107452296 -0.08964139 -0.037473377
-0.11977132 -0.029561436 0.027621469 -0.02746572 -0.1264192 -0.037883304 0.07526733 -0.09627172
0.065726705 -0.019010358 -0.063248105 -0.11913347 -0.048094608 -0.0705411 0.12139708 0.0039907084

conv3.lin_r.weight f4 [200, 100]
00000000: 0274 c73d f8c6 2fbe 935f 363e 695a adbc
00000010: e7de 32bd ac23 ebbc 962f 833d 64c2 02be
00000020: 11c0 b0bc 7018 5fbc b644 80bb 0d4e d9bd
00000030: 6e19 33bd 339c ec3b c296 7c3d fa1f 103d
00000040: 3bd2 7a3d d427 24be f7e5 a83d 4387 6f3d
00000050: 2d3f 9f3d f1aa bc3d ed85 d4bc da0c acbd
00000060: 8f87 64bd 1b6f 043d 19a7 25be dfac 50bd
00000070: 21d3 8bbd 07d3 5ebd c0da a03d 5bf9 58bd
00000080: 3404 02bd cc2f 9439 0dee 02be 3355 95bc
00000090: 12d4 d9bb cfc7 ca3d 6c68 093e 872a 8e3c
000000a0: a9e8 b43d bec6 dd3d 7b79 a33d 8ff1 093d
000000b0: a0ad e53d 4536 d63d c2f8 23b9 c46b 733d
000000c0: 39ad 0cbd f798 6d3c aaf5 843d 21d1 3f3d
000000d0: 4d03 49bc 7af4 83bd bdad 703c 2424 373d
000000e0: a28d 8d3c 4a87 1f3c ba4e dbbd c542 b1bb
000000f0: cccf 2fbd 0727 fbba f1f7 5d3b dc02 043d
00000100: 532c 973d 82c4 f63d 2865 0b3d b3bb 2dbe
00000110: 1f87 f93d a810 5f3d 9d70 ee3b 4b44 723d
00000120: 3b56 89bd b710 b53d 795f 16be 2bef e7bc
00000130: ea96 be3d 46e4 4ebc 6d71 cc3d be9e fe3c
00000140: 4c85 233e 9360 063e a6d3 46bc 478e 353e
00000150: 8efe 013e 2dd8 debc 5180 25bd 35f6 fa3c
00000160: 4ddb 3d3d f9eb 50bd d701 11be f6ad 0d3e
00000170: 315a 0ebd f002 a13c ea1c c73d b4fa 2b3d
00000180: 42a0 62bd 6ad4 bfbd a7fb bfbc 0ec3 a53d
00000190: 4a87 d93c 05cb b1bd 5f86 b83c f5d3 64bc
000001a0: b050 a8bd b83c 853c 4c1a e2bc c1f2 6f3d
000001b0: d5b4 20bd 3e51 863c 218f 00bd 94df 87bc
000001c0: 210f b1bd f232 dc3d 9ef5 f5bc 319d eebd
000001d0: b87a 9d3d 5c6f 03bc fd0e 153d 1b83 d23d
000001e0: ccce c23c 5da1 5bbd 129a 663b 1574 a53d
000001f0: 368f cdbc d19b e1bd abd9 0e3c 882e 13bd
00000200: d69c 963d 4bc8 b43d b874 87bd e337 2bbb
00000210: 8583 313d 51a5 8f3d bc8c db3c 1dab 27bd
00000220: b20c bf3c 6d49 38bd da11 44bd 3425 6cbd
00000230: 7fde 953d bb06 143c 604b 9ebd 097d 9f3b
00000240: 4b28 ac3c 41f1 883c f53b f93d 31fb 713d
00000250: 8a3f c7bd c7df a73b c2c3 833c 6faa 80bd
00000260: ad05 ff3b d439 3e3d abde 4338 21aa 07bd
00000270: 199d aabd cef1 c93c e787 04be b9f2 0bbd
00000280: c3ed 8fba 8b01 58bc ad7e 01bd bbaa c43c
00000290: da68 fdbd c7b1 74bd 8ddb 103d 0963 bb3c
000002a0: b306 60bd 512d e0bd 4110 c63c 7d13 a73c
000002b0: ac3a 093b ce38 afbc 844c 8fbd 0a55 0d3e
000002c0: 1118 babc 5171 0a3d d8e6 efbd 473d 953c
000002d0: b646 2cbd 908c f7bd 46bb d8bb 960d 96bd
000002e0: 7305 8dbd 1f09 a33d c522 a03d 5b6c 683d
000002f0: 005e 583d 7e0e b23c ca8d a83d 1f79 7fbd
00000300: de89 b2bd 5f78 fabb 285e 093d 5397 43bd
00000310: 9868 c03d 1697 ab3c e6d4 50bc 4c8c 9abd
00000320: 3fbd 34bc 14a7 26bd fd53 9b3d 0381 a9bd
00000330: 423c b2bd 01b7 aebd 0322 f73c eec9 613d
00000340: dfaa af3d 9bac a7bc f321 633d e3c3 d73d
00000350: 3dd6 b53c d6bf 51bd bcdf 70bd 1db7 d83d
00000360: ec60 c8b9 2e6a 26bd cc30 e1bd d9f7 bdbd
00000370: 3b9f 8f3c c709 583d 20ff a2bc e0a9 c7bc
00000380: af6f c2bd 4460 f23c b63f dabd 2543 0fbe
00000390: 04db 9bbc 7e69 0ebd a7a1 4d3c 54d1 2cbe
000003a0: 9e49 863d ab47 c5bd deb9 c1bc 439c b13d
000003b0: e95b 87bd 9931 983d e187 5c3d b2bd da3d
000003c0: 03f6 96bd f92e 093e ed57 babd 1fbe 033e
000003d0: ae62 2a3e 723b 0e3e e1e6 fb3c 0535 fe3c
000003e0: 7c81 b7bc a347 2f3d 7dc1 cd3d 353c 0c3e
000003f0: bdb6 e33d b995 ac3c eb3d 84bd 17e3 9e3d
0.097389236 -0.17165744 0.17809896 -0.021161275 -0.043669607 -0.028703533 0.06405561 -0.12769467
-0.02157596 -0.013616666 -0.003914441 -0.1061059 -0.043725424 0.007220769 0.06166721 0.035186745
0.061235648 -0.16030818 0.08246987 0.058478605 0.07775722 0.09212292 -0.025942767 -0.08400889
-0.05579334 0.03233252 -0.16177024 -0.050946113 -0.06827379 -0.05440047 0.07854223 -0.05297218
-0.03174229 0.0002826437 -0.12786122 -0.018229103 -0.006647595 0.09901392 0.1341874 0.017354263
0.08833439 0.10828923 0.07982155 0.033677634 0.11214757 0.1045957 -0.00015637561 0.059428945
-0.034344885 0.014501802 0.06492169 0.0468303 -0.012268853 -0.064431146 0.01468986 0.0447122
0.01727945 0.009736845 -0.10708375 -0.005409571 -0.04292278 -0.0019161411 0.0033869708 0.03222929
0.07381501 0.120492 0.034032017 -0.16966133 0.121839754 0.054459244 0.007276608 0.05914716
-0.067059 0.08841079 -0.14684857 -0.028312286 0.09306128 -0.012627667 0.09982572 0.031081554
0.15968817 0.13122778 -0.012135422 0.17730056 0.12694761 -0.02720269 -0.040405575 0.030634979
0.04635172 -0.05100629 -0.14160858 0.13835892 -0.034753982 0.019654721 0.09722312 0.041987136
-0.055328615 -0.09366687 -0.023435427 0.08093844 0.026553769 -0.08681301 0.02252501 -0.01396655
-0.08218515 0.016264305 -0.02760043 0.058581118 -0.039234955 0.016396161 -0.0313865 -0.016586103
-0.08645464 0.107519045 -0.030024346 -0.11651076 0.07689422 -0.008022156 0.036391247 0.10278913
0.023780249 -0.053620685 0.0035187048 0.080787815 -0.025092702 -0.11016048 0.008718888 -0.035933048
0.07354133 0.08827265 -0.06614059 -0.002612584 0.043338317 0.070139535 0.026800506 -0.04093467
0.023321483 -0.0449919 -0.047868587 -0.057652667 0.073178284 0.009034808 -0.077292204 0.0048672003
0.021015307 0.016716601 0.12169639 0.059077445 -0.09728916 0.005123112 0.016084556 -0.06282508
0.007782659 0.046441868 4.6699e-05 -0.033121232 -0.08330745 0.024651434 -0.12942468 -0.034167025
-0.0010980893 -0.013183962 -0.031614948 0.024007192 -0.123735145 -0.059739854 0.03536563 0.022874372
-0.05469389 -0.109461434 0.024177672 0.020395035 0.0020939512 -0.021389391 -0.06997016 0.13801971
-0.022716554 0.033799473 -0.11713952 0.018217696 -0.042059623 -0.12087357 -0.0066141216 -0.0732681
-0.06885805 0.07960724 0.07819132 0.05674396 0.05282402 0.021735426 0.08230169 -0.06237137
-0.08717702 -0.007643744 0.03353706 -0.047751736 0.0939495 0.020946067 -0.012746071 -0.07546291
-0.011031448 -0.040686682 0.07584379 -0.0827656 -0.087028995 -0.08530999 0.030167585 0.055124216
0.08577513 -0.020468047 0.0554523 0.10535409 0.022196883 -0.05120834 -0.05880712 0.10581801
-0.00038219185 -0.040628605 -0.109956354 -0.09275789 0.017531982 0.0527437 -0.019897044 -0.024372995
-0.09493958 0.029586919 -0.10656683 -0.13990457 -0.019025333 -0.034768574 0.012550748 -0.16876727
0.0655701 -0.0963281 -0.023648199 0.08672383 -0.06609327 0.07431335 0.05384052 0.10680713
-0.07371142 0.13396825 -0.09098802 0.12865494 0.16639206 0.13889864 0.03074974 0.031031141
-0.02240061 0.042792927 0.100466706 0.13694842 0.11118839 0.021067487 -0.064571224 0.07758158
