backend/workspace/weight/rtd/DTL/best_model.pth (torch, 201339 bytes, 13 tensors)

weight f4 [3, 50, 50]
000000 54 e2 49 3b cd ea 23 3c 66 80 52 3d cd 1d 19 bb
       0.0030805068 0.010004711 0.05139198 -0.002336371
000010 3f b6 6a 3d de 0b 4b 3c f1 79 01 3c d7 df 87 bb
       0.05730271 0.012392966 0.007902608 -0.004146557
000020 79 81 09 bc 2d fb 17 3c dd 32 9f 3c 63 40 2d 3b
       -0.008392685 0.009276194 0.019433433 0.0026436083
000030 c6 bd 47 3b 97 c0 4f 3c 0c ab 74 3b 85 05 03 bd
       0.0030478104 0.012680194 0.0037333397 -0.031987686
000040 8c 25 5c 3d ce 23 c5 3c 10 66 1d 3c 79 1d 76 3c
       0.053746745 0.024064925 0.009606853 0.015021675
000050 39 32 0a bc 86 bf 3f 3d 5e 2c 1c bc c2 07 30 bb
       -0.008434826 0.04681351 -0.009532062 -0.0026860093
000060 2d d5 96 3c 37 3b 85 bb 68 32 2c bd 06 f6 8f 3c
       0.018412197 -0.004065897 -0.04204026 0.017573368
000070 e9 48 d6 bc 55 1d d6 3b 35 fa 49 3c a2 09 02 3d
       -0.026157813 0.0065342584 0.01232772 0.031747468
000080 5c 36 7c 3b ad cf 07 bd 7b b7 8d 3d c6 e9 05 3c
       0.003848455 -0.03315704 0.06919762 0.008173412
000090 0c 56 f5 3c 97 c6 85 3c 4c 6f 85 3c 21 76 f8 bb
       0.029948257 0.016330047 0.016288422 -0.0075824414
0000a0 84 89 2d 3c 55 d9 bd 3b 85 a8 d0 bc 6b f3 31 ba
       0.010591868 0.0057937303 -0.025470981 -0.0006788286
0000b0 f0 2a da 39 a5 fa 6a 3a 03 63 55 bc a4 f4 71 bb
       0.0004161219 0.00089637405 -0.0130240945 -0.0036919499
0000c0 e2 54 0f 3c 32 1a da bc f1 cd 04 3c 4b ec 5f bc
       0.008748265 -0.026623819 0.008105741 -0.0136671765
0000d0 ab 78 4c bd e4 ed b1 3c 81 62 2b bd 3e b6 5f 3c
       -0.049919765 0.02171988 -0.041841988 0.01365429
0000e0 8f ed b8 bc 13 d7 83 bc 7e ae ba 3c a2 3b 26 3a
       -0.022574214 -0.016093766 0.022788282 0.00063412834
0000f0 5c e6 f6 3b 9b c6 ba 3b 68 71 b5 bc 00 74 c9 3c
       0.007534785 0.005699945 -0.022148803 0.024591446
000100 ac 3b a1 bc 45 4d 68 3d 0d a5 24 bd 11 ca c7 bd
       -0.019681774 0.056714315 -0.040196467 -0.09755338
000110 17 15 12 bd 97 56 fd 3c 98 c6 e0 3b d0 cc 3a 3d
       -0.035664644 0.030925078 0.0068596117 0.04560548
000120 4e cc 18 bb 7b 9d bb 3c a1 f6 27 bc e3 e9 05 bb
       -0.0023315134 0.022902241 -0.010251672 -0.0020433597
000130 67 26 d1 3c 1f 9a ff bc 24 f5 c9 3c 19 d1 09 b9
       0.025531007 -0.03120142 0.024653025 -0.00013143233
000140 3d ca 51 bc 5c e0 a0 bc 03 0b 44 3c cd 2f d9 bd
       -0.012804565 -0.019638233 0.011965516 -0.106048204
000150 81 ca fa 3c 86 da 4d 3c 46 4e 1e 3b b7 53 9c 3d
       0.03061414 0.012564307 0.0024155541 0.07633155
000160 f5 4c f4 3d 58 b7 6a 3c 03 a4 13 3c cd f9 51 bc
       0.11928741 0.014325939 0.009011271 -0.012815905
000170 32 f9 41 bd 95 d3 5d 3c 89 63 21 bd 71 f7 06 3d
       -0.04735679 0.013539215 -0.039401565 0.032950822
000180 b4 68 fd bc 1e 15 05 bd 93 42 b4 ba ab d1 8c 3c
       -0.030933715 -0.032490842 -0.0013752751 0.017189821
000190 50 b3 06 3d dc 24 00 3c 81 cd cd bc 1b a1 2e 3c
       0.03288585 0.007821288 -0.025122406 0.010658528
0001a0 00 38 bf 3c 53 13 c8 3c af ce 64 bd 1a b4 1d bd
       0.023342133 0.024423277 -0.05586117 -0.038501836
0001b0 b9 5c f5 3a af d5 c1 bb ce f6 a6 bc dc 34 fa b9
       0.001871965 -0.0059153656 -0.020381358 -0.000477231
0001c0 e0 28 51 bc 8b a6 6c 3c ab 0a 54 bc a8 0a 2a 3c
       -0.012766093 0.014444004 -0.012941997 0.010378517
0001d0 2d e6 6c 3d d0 d0 e0 bc ab 3f 06 3d 94 8d 05 bd
       0.0578367 -0.02744332 0.032775562 -0.032605723
0001e0 65 c5 2b 3c 37 96 b9 3c 6e 07 88 ba ee 51 fa bb
       0.010484074 0.022654636 -0.0010378191 -0.0076391613
0001f0 47 7e 12 bd 25 c2 c8 3c e8 0b ba bd 75 78 be 3c
       -0.03576496 0.024506638 -0.09084302 0.023250798
000200 75 05 18 3c 68 f9 66 b8 dd e1 e5 bb 94 fd ff 3b
       0.009278645 -5.506855e-05 -0.0070154504 0.0078122113
000210 64 d2 96 bb 1b ac 5d 3d 76 d3 94 3c 1c 01 5b 3d
       -0.0046027172 0.05411921 0.018167239 0.053467855
000220 c6 6e 6e 3d 6d f9 04 3d cf 21 c9 bb 45 16 0e 3d
       0.05821111 0.032464433 -0.0061380635 0.034689207
000230 c3 19 9d 3c 09 4f 3a bc 44 76 6c bd e9 0c 81 3c
       0.019177323 -0.0113713825 -0.057729974 0.015753226
000240 9e 11 21 bd e7 42 c7 bc 01 6f 09 3c 9d 41 17 bd
       -0.03932344 -0.024323894 0.008388282 -0.036927808
000250 3e f0 d9 bb 8b 68 d3 39 bd 11 8f bb fb c2 58 3c
       -0.0066509536 0.00040322947 -0.0043661282 0.013230081
000260 08 8e 05 bd d9 0b b5 3b e4 d0 01 3c 66 67 e3 3b
       -0.032606155 0.005525094 0.007923339 0.0069398163
000270 53 35 8f bc 69 a0 a0 3a 27 79 89 3b 80 e8 f5 ba
       -0.017481482 0.0012254837 0.0041953507 -0.0018761307
000280 87 ac 58 bc b1 24 8c 3a 37 95 44 bb 63 f9 62 3a
       -0.0132247275 0.0010692087 -0.0029996166 0.00086583773
000290 18 75 d0 bb 7b 12 f5 3c 1c be 28 3d d7 3d 54 bd
       -0.006361615 0.029916039 0.041196927 -0.051816788
0002a0 08 14 91 bb cd bb a6 bc e4 c9 04 bb 88 4e 8e bc
       -0.0044274367 -0.020353222 -0.0020261938 -0.017371431
0002b0 db 44 1c 3c 54 22 c6 3b a0 a6 d4 bb 2e 20 20 bb
       0.009537901 0.0060465727 -0.00648959 -0.0024433243
0002c0 d8 05 24 bc 0a 8c 9e bb d2 36 09 3d 8c 6a ab 3b
       -0.010011159 -0.0048384713 0.033499546 0.0052312072
0002d0 0b 97 74 bc 1d 50 85 bc 3d f3 fc ba 10 a9 a8 bc
       -0.01492859 -0.016273553 -0.0019298565 -0.020588428
0002e0 ff a6 5d bd 8c d4 b4 3a c3 2d 0d bd f3 2e e7 bc
       -0.054114338 0.0013796254 -0.03446747 -0.02822063
0002f0 ee 90 f1 3c a4 32 9b 3b aa ce 91 ba c9 3b c1 bb
       0.029488053 0.0047362614 -0.0011124213 -0.0058970195
000300 f0 f7 1d bc b2 5b cc 3b de a2 fc 3b bc 84 ef 3b
       -0.009641632 0.006236517 0.007709845 0.0073095243
000310 2d 80 65 3d 54 c0 fc bb 81 69 ae bb c2 95 15 3d
       0.05603044 -0.007713357 -0.0053226356 0.036519773
000320 40 ac e2 3c fc 1a 4c bc 0f 68 db 3d 1c 80 3d ba
       0.027670026 -0.012457605 0.10713207 -0.00072288676
000330 26 08 9c 3c fb df 7e 3c a7 20 aa 3c aa 8a 03 bd
       0.019046854 0.015556331 0.020767523 -0.032114662
000340 ae 02 84 bb 3c 41 4e 3c b6 de 2c bc 46 b4 b1 3b
       -0.0040286398 0.012588795 -0.010551145 0.0054231016
000350 84 8e c8 bb 4f 12 8b 3a da 51 2f bc 38 73 e7 bc
       -0.006120505 0.0010610315 -0.010700667 -0.028253183
000360 84 3b d7 bc 20 00 99 3c 62 35 f2 b9 4c cb ad 3c
       -0.026273496 0.018676817 -0.0004619761 0.021215104
000370 10 fe 8a bc da ce 94 3d a1 4e 27 bc e6 86 52 3c
       -0.01696685 0.07266016 -0.010211618 0.012849545
000380 57 3a d4 3c 27 29 5e bb 9c 53 41 b9 4b 6f 9d 3c
       0.025906725 -0.003389904 -0.00018437061 0.019218108
000390 48 98 23 bc 68 d4 12 bb b7 36 bc bc 34 a1 a9 3c
       -0.009985037 -0.0022404436 -0.022975309 0.02070675
0003a0 8e f4 f0 3c a9 b8 5f 3a a3 cf 2a 3d fe 4b a7 3c
       0.029413488 0.00085342914 0.041701924 0.020421978
0003b0 03 d7 a4 3c 26 0f 15 bd 86 d4 46 bd 51 0c ae bb
       0.020122057 -0.0363914 -0.048542522 -0.005311527
0003c0 18 30 6e 3c 9b f4 c7 3c 75 98 1a bc b9 78 6d 3c
       0.014537834 0.02440863 -0.009435763 0.014494115
0003d0 47 02 0f bc 70 64 41 bc ce de dd bc 97 63 9d 3c
       -0.00872857 -0.011803731 -0.02708378 0.019212527
0003e0 58 3a b7 3b 1f 7e f9 3b 7f b0 25 3b 28 b4 82 3c
       0.005591672 0.0076139118 0.0025282202 0.015955046
0003f0 ef 56 8d bd b2 ee d5 3b e3 6b d9 3c b5 6d d5 3b
       -0.06901347 0.006528699 0.026540702 0.0065133222

weight_ih f4 [150, 50]
000000 33 ad 5d 3c c9 a8 63 bc fc 72 d8 ba f0 1f 59 bb
       0.013530063 -0.013895222 -0.001651376 -0.0033130608
000010 02 03 66 3a 06 96 ee bb f4 d6 cf 3b 07 3b 52 39
       0.0008774252 -0.007281068 0.006342763 0.0002004915
000020 11 2f e7 3a 6d 2f 01 bc 05 6a c1 bb 4c 3d bd bc
       0.0017637928 -0.007884842 -0.005902531 -0.023100518
000030 06 a5 e5 b9 7a c6 0f bc 40 07 80 3a d3 99 cc 3b
       -0.00043801236 -0.008775348 0.0009767786 0.006243923
000040 dd 06 96 ba 66 60 97 3b 4d 34 b9 3b 3e 0b db bb
       -0.0011446137 0.004619646 0.0056519867 -0.00668469
000050 f6 70 e9 3a 74 d6 3c bc dd ef 3a 3b 8c 8d a1 3a
       0.0017810154 -0.011525739 0.0028524317 0.001232551
000060 b5 46 91 3c aa 0b 9b 3b 1e e3 8b ba 93 4e 85 bc
       0.017733911 0.004731615 -0.0010672545 -0.016272819
000070 17 be f0 3b a8 69 d2 bb a6 6b e6 ba 7b bd 77 bb
       0.007346879 -0.0064212866 -0.0017579689 -0.0037802148
000080 c6 ca a7 3b 5c af 56 3b 51 25 c6 bb 53 66 20 ba
       0.005120608 0.003275833 -0.006046929 -0.0006118763
000090 d4 40 14 3a b6 34 cd ba e6 e7 59 bc 00 d9 6b bb
       0.0005655412 -0.0015655968 -0.013299918 -0.0035987496
0000a0 49 6f a0 bb dc 91 41 3c c6 ce a1 3b 97 e0 46 bb
       -0.0048960787 0.011814561 0.0049379794 -0.0030346268
0000b0 ca 91 97 bc 40 b8 38 bb 85 e1 04 bc 95 a4 e2 b8
       -0.018502135 -0.0028185993 -0.008110409 -0.000108071756
0000c0 fe 29 63 bb 25 f0 bc 3a 5a 1b 5a 3b b2 03 bf bc
       -0.003466248 0.001441483 0.0033280463 -0.023317192
0000d0 ed 1e 5e 3c 1d e3 20 bc c4 6f a9 b9 3a 1b 2c bc
       0.013557178 -0.009819773 -0.00032317464 -0.010504538
0000e0 2b 96 84 bc 9e 61 9f 3c 83 e2 ea bb 0d 6c 41 bc
       -0.016184887 0.019455727 -0.0071681156 -0.0118055465
0000f0 9f e8 36 bc 8a da a7 3c 2f a0 e3 3b c2 a4 0e bb
       -0.01116386 0.02048995 0.0069465856 -0.0021765684
000100 b1 a9 87 3b 93 95 15 ba 23 e5 06 bc 86 03 21 bc
       0.004140102 -0.0005706187 -0.008233341 -0.0098275
000110 b9 5c 46 3b 5d 79 1b bc 9f 3b 35 bc aa e1 36 3c
       0.003026767 -0.0094893845 -0.011061578 0.011162201
000120 ed e7 46 3c f9 f1 05 bc f3 9a c5 39 cb b2 97 bb
       0.012140256 -0.008175367 0.00037690214 -0.004629468
000130 52 d0 21 bb d4 08 bd bb f8 79 16 ba b9 90 23 3c
       -0.002469082 -0.0057688747 -0.00057402207 0.009983235
000140 30 77 24 3a 47 50 93 bc 7e a4 b6 b9 4a cc 31 bc
       0.0006273864 -0.017982615 -0.000348363 -0.010851929
000150 51 27 28 3b d3 2e 87 3c 79 b2 8a 3c dc 38 15 3c
       0.00256582 0.01650182 0.016930806 0.009107795
000160 28 eb bd bb 69 37 0d bc b9 4d 49 3c 1e f4 c8 ba
       -0.005795855 -0.008619168 0.012286597 -0.0015331542
000170 c0 1c 88 ba 3e d9 d8 bb 83 2d e5 bb c1 b2 3b 3c
       -0.0010384545 -0.006617694 -0.006993951 0.0114561925
000180 f7 49 b5 bc 24 03 52 bc ea 3c f9 3a a6 45 79 bc
       -0.022129996 -0.012818132 0.0019015346 -0.015214359
000190 aa a7 0c bb 20 3d e2 3b 38 df 0d 3d 5b 84 72 ba
       -0.002146224 0.0069042593 0.034636706 -0.000925129
0001a0 db c3 a5 bb 21 82 3f bb df 87 ff bc a5 c2 ed 3b
       -0.005058748 -0.002922185 -0.031192718 0.0072558695
0001b0 08 5c 8c 3b 13 21 76 3b c8 d2 44 3b 05 9e e0 3c
       0.004283432 0.0037556335 0.0030032862 0.0274191
0001c0 24 45 76 bb 7e 5f d1 b8 68 e4 b6 3b 8c 61 93 bc
       -0.0037577832 -9.9836834e-05 0.0055814274 -0.01799085
0001d0 d4 5f 12 bc 3b af b7 bc 3b de 16 bc 1a ec 10 3c
       -0.00893398 -0.022422424 -0.009208257 0.0088453535
0001e0 5c 7a ed 3b 54 60 2e 3c b0 c6 a9 bb ef bb 5d 3b
       0.0072472524 0.010643084 -0.005181156 0.003383394
0001f0 cc b5 c5 ba c2 f9 ef ba ea 09 cf 3b c7 e9 63 bb
       -0.0015084087 -0.0018308687 0.0063183205 -0.0034776793
000200 5c a1 e5 bc 93 68 87 bb 74 56 d9 bb af b5 dc 3a
       -0.028031044 -0.0041323393 -0.0066326205 0.0016838814
000210 8f 5c 52 b9 7f ef 17 bc 22 71 6d 3b 8a 18 5c bb
       -0.00020061641 -0.009273409 0.0036230762 -0.0033583962
000220 7e d4 a1 bb f7 2b b5 3c e2 9c 06 b9 fa 2f e9 38
       -0.004938661 0.02211569 -0.00012837679 0.00011119242
000230 cf 70 02 bc fe e7 95 bb 84 e5 32 bb 58 4d ad 3b
       -0.007961466 -0.0045747748 -0.0027297447 0.005288761
000240 43 d9 63 3c f9 b3 cb bb 26 a7 9c bb 68 af 1d 3b
       0.01390678 -0.006216523 -0.004780668 0.002406085
000250 20 d3 97 3b ca 53 27 bb 79 f5 30 3c 93 fa 07 bc
       0.0046333224 -0.002553212 0.010800713 -0.008299488
000260 c4 4d d3 3b 9d dd 68 bb dd cd 5e bb ad 31 06 bc
       0.0064484794 -0.0035532482 -0.0033997216 -0.008190555
000270 7a 1a 3d bc f7 e8 17 3c fd da 28 b9 4a 12 47 bc
       -0.011541957 0.009271852 -0.00016103308 -0.012150357
000280 db 91 44 bc 05 8d 23 3c c1 9e 2c 3a 32 a1 58 ba
       -0.011997665 0.009982352 0.00065849355 -0.0008263766
000290 9d 9b 2a bb 53 67 f1 3b 91 8f 05 39 c2 f7 68 3b
       -0.0026032694 0.0073670535 0.00012737351 0.0035548066
0002a0 1b 75 35 3b 58 e6 09 bc 26 04 0c bb 69 da f3 3a
       0.0027688209 -0.008416735 -0.0021364777 0.001860452
0002b0 3c 52 b3 ba ac 87 c4 bb 88 f6 50 bb 1c e9 d2 3b
       -0.0013681124 -0.0059976187 -0.0031885225 0.00643648
0002c0 f9 95 9e ba 75 42 a8 3b 60 cc b1 3c a0 57 c7 bb
       -0.0012099139 0.0051348754 0.021703899 -0.0060834438
0002d0 47 30 b5 3a e1 32 43 bc 38 ef 06 bb a2 f6 66 39
       0.0013823592 -0.011913986 -0.0020589363 0.00022026387
0002e0 d2 3f ed bb 1a d1 12 3c ec fd ee 3b fd 06 06 3b
       -0.007240274 0.0089609865 0.0072934534 0.0020450943
0002f0 9e 6c e6 bb 5c bf 9a 3a d0 d6 3c bb d7 52 a4 3b
       -0.007031991 0.0011806297 -0.0028814562 0.005014758
000300 a7 33 2e 3c 41 a8 03 bc c2 e9 1e 3a 25 ad 1d 3c
       0.010632432 -0.00803572 0.00060620543 0.0096238
000310 3a 6e 4e bc f6 f7 08 bc 4b 27 5a bc f2 ef fa bb
       -0.012599522 -0.0083599 -0.013315032 -0.0076579982
000320 87 c0 ee ba ec fd f0 3b cb c6 e9 bb d2 ea 85 bc
       -0.0018215337 0.0073544886 -0.0071342937 -0.016347323
000330 d3 9b 88 3c 53 1e 18 bc 34 e9 55 3c 8f 4c a0 3c
       0.016675865 -0.009284574 0.013056088 0.019567756
000340 9e a0 45 bc c7 77 d3 bb af 28 b1 3b ac 75 1a bc
       -0.01206222 -0.0064534876 0.005406461 -0.009427469
000350 f9 c0 64 3c be 73 8f bc a4 63 8a 3c 56 ef 81 bb
       0.013962024 -0.017511245 0.016893215 -0.0039652986
000360 24 a2 1c bb c3 f4 8d 3c 42 f2 33 bc be fe a2 bc
       -0.0023900354 0.017328626 -0.010983052 -0.019896861
000370 e3 9e 1b bc 9b 31 1b 3c 40 6c 63 3c fd 34 97 bc
       -0.009498331 0.009472276 0.013880789 -0.018457884
000380 af 80 ad 3a 04 c2 53 bc e3 12 cb bb 18 f3 51 bb
       0.0013237203 -0.012924675 -0.00619732 -0.0032035764
000390 a2 45 fa bc f0 7a 2f 3c 13 ec 9c bb 41 5c a4 bc
       -0.030550782 0.010710463 -0.0047888844 -0.020063521
0003a0 ab 5a 2a bb e4 62 b8 3c c1 23 57 bb fa 42 63 3b
       -0.0025993984 0.022508092 -0.0032827707 0.0034677372
0003b0 64 64 d3 bc af 1c a4 bc df dd 6a 3b 61 fd 9d bc
       -0.025804706 -0.020033209 0.0035837812 -0.01928586
0003c0 56 67 88 3c 26 5a 0f bc 8f e4 36 bb 78 a0 37 bc
       0.016650837 -0.00874952 -0.0027907228 -0.011207692
0003d0 46 3d 09 bb e3 e5 31 bb c1 1a a2 3c 74 b7 ad 3c
       -0.0020941063 -0.002714508 0.019788148 0.021205641
0003e0 a3 38 3e 3c ec a2 e7 3b f0 e9 04 bc 86 50 10 bb
       0.011610183 0.0070689823 -0.008112416 -0.0022020652
0003f0 bf b7 03 3c 46 bb 9b 39 ec 6a a9 b9 8b 1e 02 bc
       0.008039414 0.00029703433 -0.00032313855 -0.007941852

weight_hh f4 [150, 50]
000000 31 20 2e bc 64 43 8d bc 70 f3 76 bd 45 5a bd bc
       -0.010627792 -0.017244048 -0.060290754 -0.023114333
000010 33 14 3f bc b4 b7 c4 3b b1 b2 42 bc 70 05 8b 3c
       -0.011662531 0.0060033444 -0.011883424 0.016970366
000020 23 e8 b0 bc 76 66 b4 3c 7f 23 6a bc ff f9 d6 bc
       -0.021595066 0.022021513 -0.0142906895 -0.026242254
000030 91 d0 0c 3c 83 ec 1d 3c 79 8e 06 3b 91 8c f8 3a
       0.008594648 0.009638908 0.0020531698 0.001896279
000040 d2 c2 80 3d b3 5f 52 bb 4a 5d f9 39 09 01 ce bc
       0.06287159 -0.0032100498 0.00047562487 -0.025146978
000050 eb 6b 04 bc d9 3b 08 3d a4 c3 3b ba 7c 0b 0f bd
       -0.00808237 0.0332602 -0.00071626366 -0.03492306
000060 49 5f b2 3a a3 29 06 3c 6e 90 2c bb e2 10 e4 3c
       0.001360872 0.008188638 -0.0026331204 0.027840082
000070 a2 0e 1a bd e2 bc 68 3c 64 45 f9 bc bf 65 13 3d
       -0.03761161 0.014205189 -0.030428596 0.035985705
000080 d5 14 0e 3c be f5 10 3c b1 53 f6 bc 52 6f 0d 3c
       0.008671959 0.008847652 -0.030069204 0.008632498
000090 a2 30 36 bd 8c be 86 3c 1f dc 88 3c f4 f1 69 bc
       -0.044479974 0.016448282 0.016706524 -0.0142788775
0000a0 c6 82 09 bd 10 aa af 3c 39 5c 99 bb fc 5f b1 bc
       -0.03357198 0.021443397 -0.0046801833 -0.021652214
0000b0 d3 4d c6 3c 77 02 66 3c 03 00 b3 bc f8 e3 05 bc
       0.024207031 0.014038674 -0.021850592 -0.008172028
0000c0 72 e6 d2 bc 50 1f c8 bc bd bd 27 3d ff 38 bc bc
       -0.02574465 -0.024428993 0.040952433 -0.022976397
0000d0 40 a2 8b 3d d5 7e 73 bc 7c e3 15 bd c2 d0 14 bd
       0.06818056 -0.014861782 -0.0365939 -0.0363319
0000e0 35 7e a0 bc 53 fd e5 3b 0a 03 13 3d dc 59 90 3c
       -0.01959143 0.007018724 0.03589157 0.017620973
0000f0 1c 00 cc bc 64 f4 66 3d 98 e9 3e 3c fc ca 0b bc
       -0.024902396 0.056385413 0.011652373 -0.008532282
000100 1d ac a2 3c 10 bf 7c bb 90 33 0b bd 35 a7 86 3c
       0.01985746 -0.003856603 -0.03398472 0.016437152
000110 3a 83 1f 3c 17 81 41 bd 30 60 25 3d f9 b6 05 bc
       0.009735877 -0.04724225 0.040374935 -0.0081613
000120 dd 96 a7 3c a1 ed b7 3c 78 65 68 3c 79 b0 bb bd
       0.02045768 0.022452177 0.014184348 -0.09164519
000130 4d 29 d0 ba f8 30 8f bc b1 95 28 3c 35 2b 82 bd
       -0.0015881449 -0.017479405 0.010289595 -0.06355897
000140 c6 84 f7 37 7c 06 eb 3c 42 e2 e5 bc f1 97 81 3c
       2.9506522e-05 0.028689615 -0.02806199 0.015819522
000150 c7 ac 4d bc b2 79 bf 3b 3d 66 11 bb 3c 36 09 bb
       -0.0125534 0.0058433646 -0.0022186183 -0.0020936867
000160 b0 76 36 bc 4c 66 a7 3b e6 ec 8a 3c 7f ad 05 3d
       -0.011136696 0.0051086303 0.016958665 0.032636162
000170 f5 4c a1 3c b4 e1 d9 3b 6a 83 89 bc e9 c5 b9 bc
       0.019690016 0.0066492204 -0.016786296 -0.022677379
000180 03 9d 13 3c 9a 37 5d 3d 2c 68 e0 3c 1d 8b 51 3d
       0.0090096025 0.054008104 0.027393423 0.05115806
000190 31 c1 80 3d 4f c7 98 3c b7 cd 90 3d 8b a3 7a 3c
       0.06286848 0.018649725 0.07070487 0.015297781
0001a0 c2 23 b2 3c 0c 86 f6 3c b6 3d 65 bd 00 ec 1a bd
       0.021745566 0.030093215 -0.055967055 -0.037822723
0001b0 75 d5 ba 3c 36 e4 a3 bc 0f 0f 3c 3c fe b1 58 3c
       0.022806862 -0.02000628 0.0114782 0.01322603
0001c0 b5 8f f7 bc 72 68 05 bd 4a ef 62 3d 83 dc 66 3d
       -0.030219892 -0.03257031 0.055403985 0.05636264
0001d0 43 93 0e bd 7d f7 9f bc fa 59 30 bd 0e 74 b6 bc
       -0.03480841 -0.019527191 -0.04305456 -0.022272136
0001e0 46 18 84 3d 8f 2b b5 bc 73 b7 6c bc e6 fd 20 bd
       0.06449942 -0.022115497 -0.014448035 -0.039304636
0001f0 71 0f 0b 3c f8 33 c2 bb 7d c5 75 3b 6c e3 27 bd
       0.008487568 -0.0059266053 0.0037501745 -0.04098837
000200 3a 9f 4f 3d 26 b8 19 bd 36 de d1 3b f4 ec 32 3d
       0.05068896 -0.037529133 0.0064046634 0.043683007
000210 1e b9 91 bd 38 76 d0 bc 08 c1 fb 3c 30 88 32 bd
       -0.071153864 -0.025446996 0.030731693 -0.04358691
000220 14 04 17 bc de d5 5f 3a cd e4 3b 3c 05 d7 78 3b
       -0.009217281 0.00085386436 0.011468125 0.0037969959
000230 08 e5 d8 3c a8 1b 01 3c c4 c9 0e 3d dd 9b 1e bc
       0.026476398 0.007880129 0.034860387 -0.009680715
000240 7d e8 b5 bc ed 38 8c 3b 3e 80 4a 3d 77 33 e4 3c
       -0.022205586 0.004279247 0.049438708 0.027856572
000250 00 d9 92 3c d2 6e 89 3d 55 42 0a 3c 36 46 52 bd
       0.01792574 0.067105904 0.008438666 -0.05133649
000260 09 e7 bb 3c fa c4 29 3c 75 ab 5e 3c 6d 2e e3 3b
       0.022937315 0.010361904 0.013590683 0.0069330246
000270 b0 7d 68 3c bf 65 15 3a 17 4f 3d bb 99 69 8f 3c
       0.0141901225 0.000569906 -0.0028886253 0.017506408
000280 19 ca 06 bc bc c1 08 3d 9a ac 09 3b 54 8c b1 bb
       -0.008226895 0.033387884 0.002100742 -0.0054183397
000290 35 82 a7 3c 78 c0 0b bc 01 99 0d 3c 21 9e e9 3a
       0.02044783 -0.008529775 0.008642436 0.0017823615
0002a0 d2 46 9e 3c 94 b2 18 bd ee 75 77 3c 89 ef b1 bb
       0.01932088 -0.03727968 0.0151038 -0.005430166
0002b0 64 b8 29 3c f3 e2 a3 ba 7b 43 35 3c 3a ad f8 bc
       0.010358904 -0.0012503549 0.011063452 -0.030356038
0002c0 c7 be e2 3c 7b 3e 10 bd ba f9 a0 3c f9 09 67 ba
       0.02767886 -0.035215836 0.019650329 -0.0008813437
0002d0 63 af 6d 3d ce 51 0f 3d 13 34 07 bd 67 95 1d 3c
       0.05802859 0.034990124 -0.033008646 0.00961814
0002e0 97 2c da ba cb 4f 89 3c 58 83 c4 3b 28 b9 9f bc
       -0.0016645369 0.016761681 0.0059971027 -0.019497469
0002f0 a9 c5 2f bc cd 12 c2 bc 68 0c ef 3c 2f 62 c2 3c
       -0.010728278 -0.023690606 0.02918072 0.023728458
000300 00 48 d9 3b 85 59 09 3d 6c fa da bb 06 f5 2a 3d
       0.0066308975 0.033532638 -0.0066826846 0.04173758
000310 c2 70 c6 3b 04 4d cc 3c ca 0a a2 3b 50 cd f7 3c
       0.0060559222 0.024939068 0.004945134 0.030249268
000320 5f 8f 9e bc 46 5e e8 bc 58 87 92 3c 3e 61 2c bc
       -0.019355474 -0.028365266 0.017886803 -0.010521231
000330 97 78 fe bc 99 49 26 bc 4f 37 51 bd 14 cb de b8
       -0.031063361 -0.010149383 -0.051078137 -0.00010623611
000340 d2 ea 53 3d 2d 7b 04 3d 21 78 8d bc ba b3 28 3c
       0.051737614 0.032344032 -0.017269196 0.010296756
000350 9e 32 fd 3c 87 46 80 bb 74 3f 89 3c b4 46 92 bc
       0.030907925 -0.0039146575 0.01675389 -0.01785598
000360 f3 19 76 bb c3 0e 83 3c 03 a8 9a 3c 28 d0 3e bb
       -0.0037552088 0.01599825 0.018878942 -0.002911577
000370 b3 8d a9 3b ed 8e 0e 3c a1 fe 73 3d 90 64 18 bc
       0.0051743626 0.008701068 0.059569005 -0.00930132
000380 f4 ac 92 3b ec 29 e1 3c 11 b4 46 bd 3c 5e a8 3b
       0.004476184 0.02748581 -0.04851157 0.0051381867
000390 1c e4 06 bd d0 0b 4b bb 5b a2 5f bd f6 2e 9f 3c
       -0.032932386 -0.0030982383 -0.054598194 0.019431572
0003a0 1c 4b 31 3c 02 51 3a 3d 50 27 46 bd 77 e3 24 3c
       0.01082113 0.04548741 -0.048377335 0.0100639975
0003b0 3a 37 6b bd 88 c3 c4 3c e6 85 8f 3c f1 bc d2 bb
       -0.057425715 0.024019018 0.017519902 -0.006431215
0003c0 0e cd c1 bc a7 04 0e 3d 0b 44 db 3b db e6 56 ba
       -0.023657348 0.034672406 0.006691461 -0.00081978523
0003d0 3c 6a 1e 3d 18 59 0d 3d 10 be 24 bd 64 43 ca 3c
       0.03867553 0.034508795 -0.04022032 0.024690337
0003e0 b7 70 c8 3b e2 de dc 3b 84 65 c5 3c d3 65 af bc
       0.0061169523 0.006740437 0.024096258 -0.021410858
0003f0 2a 52 65 3c 26 5e bf bc 76 2e c9 3b 9b 15 0c bd
       0.01399664 -0.023360323 0.006139572 -0.034200292

bias_ih f4 [150]
000000 52 90 ba bc 9d ae eb 3c c9 e0 3a bc ac 42 cd 3c
       -0.022773895 0.028769786 -0.011406132 0.025056206
000010 68 d2 17 3c a2 0d 76 3d 51 6a dc 3a 8f 73 c0 3c
       0.009266473 0.060071595 0.0016816353 0.023492603
000020 f8 5b 0a 3c 4c 2a d9 bc f8 61 46 3d 4d d6 34 3c
       0.008444779 -0.026509427 0.048433274 0.011037421
000030 8f b8 fd ba 7e 9b 2d 3c d2 a9 7d 3b 8c 1d e6 3c
       -0.0019357371 0.010596154 0.0038705957 0.02809026
000040 0f a4 31 3c af de 35 3d 6c 72 05 bc 4c f2 45 3d
       0.010842337 0.04440182 -0.008144956 0.048326775
000050 15 8b 04 ba 67 43 00 bc 53 37 98 3c b5 d8 05 bc
       -0.0005056125 -0.00782857 0.018581068 -0.008169343
000060 50 d8 24 3c bd bf 20 3d f1 e6 9c 3a cb 6b a3 3c
       0.010061339 0.039245356 0.0011970681 0.01994886
000070 52 34 2e 3d 9b 72 5a bc 43 1f 03 3d 11 12 ce bc
       0.042530365 -0.013332988 0.032012235 -0.0251551
000080 25 85 ea 3b 4f 04 4e 3c 84 70 f1 3c ae 3a e3 3c
       0.0071569853 0.012574269 0.029472597 0.027737942
000090 35 bb 0a 3b 08 41 0b 3c c1 9a 9b bb 0d 46 08 ba
       0.0021168713 0.008499391 -0.0047486727 -0.00051984267
0000a0 21 da 5d 3c 4f 8b 89 3a 08 59 29 3c 89 f5 7a 3c
       0.0135407755 0.0010493788 0.010336168 0.015317329
0000b0 19 f5 be 3c 36 8c d4 3c ed 9e cf 3c 15 15 f6 3a
       0.023310231 0.025945764 0.025344336 0.0018774593
0000c0 d0 4a b5 3b 4a ff e3 bc ea a4 90 bd 4c 6f 93 bd
       0.0055326 -0.027831692 -0.07062705 -0.071989626
0000d0 35 f5 8b 3c d7 ca c8 bc 0c 17 95 39 76 95 91 bd
       0.017084697 -0.024510784 0.00028436666 -0.071085855
0000e0 37 42 f8 bd 21 9a 98 bd 6c 15 bf bb 65 23 64 bd
       -0.121220045 -0.07451273 -0.005831411 -0.055697817
0000f0 c4 fa 44 bd cb 03 f6 bd ae 95 c7 bd 5e b7 64 bd
       -0.04809071 -0.12012442 -0.09745346 -0.055838935
000100 52 13 cf bd 85 37 da bd 52 5f 76 bd f3 66 0f 3a
       -0.10111107 -0.10655121 -0.0601495 0.0005470358
000110 e3 48 9c bd d9 85 eb bc 0b 2e 0b be ee 45 09 be
       -0.076310895 -0.028750347 -0.13591783 -0.13405582
000120 8c 6c c9 bd b3 d9 bb bd 4b c1 9a bd 6f de 4f bd
       -0.09835157 -0.09172382 -0.07556399 -0.05074924
000130 bb 3c b4 3c 94 e7 f9 bd cd 41 e5 bd 72 de 28 3b
       0.022001615 -0.12202373 -0.11194191 0.0025767353
000140 56 4d ea bd 72 8b 10 be 00 9c 15 bb f0 4e a5 bd
       -0.11440532 -0.14115694 -0.002282858 -0.08071697
000150 ff 3a 95 bd 4f d2 f5 bd 04 fa ac bd cd 3c ce bd
       -0.07286643 -0.12003004 -0.08446124 -0.100701906
000160 87 94 a4 3d 7a 80 a5 bd 4a 28 56 bd c8 ec be 3d
       0.08036142 -0.080811456 -0.052284516 0.09322506
000170 86 db 7c bd 24 61 db bd 0d d8 86 bd 76 02 d9 bc
       -0.06173279 -0.107118875 -0.06584177 -0.026490431
000180 d1 d8 47 bd 75 43 12 bd 5c bc c3 bd 12 3e 23 bd
       -0.048790757 -0.035708863 -0.09557411 -0.039854117
000190 ea 52 a9 3d 79 07 c3 3d 4d 76 e9 3c fa 24 0c be
       0.08267768 0.0952291 0.028498793 -0.1368598
0001a0 96 c2 10 be e2 7b c7 3d b8 4a 8b bd ba 45 c4 3d
       -0.14136729 0.09740426 -0.06801361 0.09583612
0001b0 53 de a0 3c 10 1f ad 3d 2b 29 cb bd eb d7 f9 bc
       0.019637262 0.0845319 -0.099199615 -0.030498466
0001c0 b3 da 97 3d 86 c6 9b bd 2d 7a d0 3b 36 23 54 3d
       0.074147604 -0.07606225 0.0063622207 0.051791392
0001d0 e2 c0 9d bd bb 9d 91 bd 6c 6b 94 bd 59 bd ce bc
       -0.07702805 -0.07110163 -0.072470516 -0.025236772
0001e0 03 9e d5 bc 54 73 65 bd 5b a0 13 3d c7 b8 f4 3c
       -0.026076322 -0.05601819 0.0360416 0.029873265
0001f0 21 30 8e 3c 30 ff cc 3d e0 94 63 3d c1 ea 92 3d
       0.017356934 0.10009611 0.0555619 0.07173682
000200 bf e1 80 3d ee ca 30 3d 22 e6 d5 bc f7 59 0d be
       0.06293058 0.04316228 -0.026110712 -0.1380385
000210 78 e6 91 bb 72 21 0d bd cd ab 57 3d 8f 9f 78 bd
       -0.004452523 -0.034455724 0.052654076 -0.060699042
000220 e5 2f 02 bd 3d 3e be 3c 7c 86 31 3d 6e 49 bc 3d
       -0.031783957 0.023223037 0.043341145 0.09193693
000230 f6 a7 2a bd cd d1 b4 3d 25 67 f3 bd 90 55 52 3d
       -0.041664086 0.08829079 -0.11884908 0.05135113
000240 99 42 a1 bc 7b 91 ca bd 71 69 0a 3d c3 c2 91 bd
       -0.019685077 -0.098910294 0.033791963 -0.07117226
000250 07 86 de 3c 71 5c f9 3c
       0.027163519 0.030439587

bias_hh f4 [150]
000000 83 ad be bc 9d 1f db 3c fd 98 82 3c b2 f7 12 3c
       -0.023276096 0.026748473 0.015942091 0.008970188
000010 d4 89 fa bc f6 ae 75 3d 6a 1a e0 3a 77 3d c0 3c
       -0.0305833 0.05998131 0.0017097716 0.023466809
000020 25 44 b0 3b 23 29 d4 bc 24 79 4f 3d 4a 10 bb bb
       0.005379217 -0.025898522 0.050652638 -0.005708729
000030 a8 20 75 bb 79 af 45 3c 64 1c df 3b ad b1 e5 3c
       -0.0037403498 0.012065762 0.0068088043 0.028038824
000040 75 8f 21 3c 2a 41 37 3d 09 e4 05 bc e9 3b 47 3d
       0.009860863 0.04473988 -0.008172044 0.04864112
000050 e4 11 fd b9 37 40 08 bc d5 18 96 3c b0 eb 04 bc
       -0.0004826925 -0.008316091 0.018322388 -0.008112833
000060 c0 5d 7e 3b f8 da 30 3d aa b2 57 3b d0 d2 e7 3b
       0.0038813204 0.043177575 0.0032912889 0.0070746914
000070 55 1d 28 3d f0 dc 59 bc 48 b3 04 3d 4c 06 d7 bc
       0.0410436 -0.0132973045 0.03239754 -0.02624812
000080 c0 97 f2 3b 11 e4 70 3c 85 38 1a 3d 6e df e2 3c
       0.007403344 0.014702813 0.037651557 0.02769443
000090 6a 28 e2 3a 0f e6 15 3c 40 21 77 bb 11 95 89 b9
       0.0017254476 0.0091490885 -0.0037709028 -0.0002624174
0000a0 27 17 97 3c 60 7f d7 3a 7f 83 30 3c e6 f4 af 3c
       0.018443657 0.0016441159 0.010773539 0.021479081
0000b0 39 b6 f9 3c 5c b6 dc 3c 20 39 d5 3c 14 dc fd 3a
       0.030482398 0.026942424 0.026028216 0.0019367957
0000c0 1b 77 92 3b 3a c8 dd bc f7 0d 93 bd e2 d4 f6 bc
       0.004469765 -0.027073015 -0.07180398 -0.030130807
0000d0 ec 78 e9 bc f5 a9 15 bc 01 b2 11 bc af 66 55 bd
       -0.028500043 -0.009134759 -0.008892537 -0.05209988
0000e0 79 0d b8 bd 69 90 c9 bd a6 1c b7 bd 41 c8 a2 bc
       -0.08986945 -0.09841997 -0.08941011 -0.01987088
0000f0 de c3 a1 bd 12 fd 9b bd 19 b1 a0 bd b5 ed a7 bd
       -0.07898687 -0.07616629 -0.07846279 -0.08199636
000100 f7 bb ce bd d7 d9 d4 bd a2 ea 8b bd a3 d8 26 bd
       -0.10094445 -0.10393112 -0.06831862 -0.040733945
000110 9d 28 9d bd 9a 41 82 bc 9a 3f c0 bd 6f 5b fc bd
       -0.07673762 -0.015900422 -0.09387131 -0.12322127
000120 ea 02 e1 bd 45 a4 e6 bd 52 96 87 bd ac 5a cf bd
       -0.10986884 -0.11261801 -0.06620468 -0.10124716
000130 09 f0 9f bd 35 67 b9 bd be f8 52 3d 73 aa 85 3d
       -0.07809455 -0.09052888 0.05150675 0.06526651
000140 b3 e3 c5 bd ce 00 69 3d ae c1 27 bd 81 85 a6 bd
       -0.09662571 0.056885533 -0.04095619 -0.081309326
000150 4b a3 86 bd 29 1a f7 bd ed 90 dd bd eb 7f cb bd
       -0.065741144 -0.120655365 -0.10818658 -0.09936508
000160 b6 08 14 3e 27 a9 60 bd b2 0b 1b bd 77 61 ba 3d
       0.14456448 -0.054848816 -0.03785295 0.09100621
000170 0d 49 64 bd 65 59 f5 bd 02 67 ad bd 09 7c bc bc
       -0.05573373 -0.11979941 -0.08466913 -0.023008363
000180 ed 57 16 bd 54 ff 21 bd bd 32 a5 bd b8 f7 3b bd
       -0.036704946 -0.03955014 -0.08066318 -0.04589054
000190 20 3a 96 bc cd 6a 26 bd 3b 80 54 bd 92 41 c9 3d
       -0.018338263 -0.040629197 -0.051880103 0.0982696
0001a0 23 ac c3 3d e9 46 6c bc 6c 49 1c 3c ac 82 2c bd
       0.09554317 -0.014421203 0.0095389895 -0.042116806
0001b0 aa 19 22 bd 70 1b 24 bd 59 0c cc bc 4a 90 c8 3d
       -0.039575256 -0.04006523 -0.024908232 0.09793146
0001c0 d0 56 77 3d 50 b2 de 3d c2 3b f0 3d 4c 85 b6 3d
       0.060385525 0.10873854 0.11730148 0.08912143
0001d0 2b 9b 50 3b a0 f6 a9 bd cb ea 6c b9 bb c3 22 ba
       0.0031830769 -0.08298993 -0.00022594181 -0.00062089757
0001e0 fe ac 86 3d 54 ec 0e 3e ba c8 ab 3d 24 28 b0 3b
       0.065759644 0.1395734 0.08387895 0.005375879
0001f0 f9 5a 91 3d 87 d3 88 3c 00 41 2b 3d 38 67 13 bc
       0.0709743 0.016702427 0.041810036 -0.008996777
000200 e0 28 bc bd 1a 5b 61 bd 69 f9 05 bd 73 4e 7f 3d
       -0.09187484 -0.05501852 -0.03270856 0.062330674
000210 c7 cb ea bc e3 16 93 3d 50 9e 19 be 45 e8 c2 3b
       -0.028661622 0.071821 -0.15001798 0.005948099
000220 bb 5b 33 bd 0d e1 ef 3d c9 44 23 3c 8f 02 84 bb
       -0.043788653 0.11712847 0.00996513 -0.0040286253
000230 0b b2 07 bd c3 f8 be bd b5 de e3 3d 60 8e 97 bd
       -0.03312878 -0.09324791 0.11126462 -0.07400203
000240 21 ef 46 3d ec e4 9e bc 21 9f df 3d 63 e2 b3 bc
       0.048567895 -0.019396268 0.10919023 -0.021958536
000250 fa 76 8d 3d d5 f4 e5 bd
       0.069074586 -0.11228339

weight f4 [1, 50]
000000 58 11 be bd d2 36 f0 3d 31 ab 38 3e 2f d0 03 be
       -0.09280652 0.11729206 0.18034054 -0.12872384
000010 43 b7 aa bd 13 6a 42 bd 50 a0 28 bd bd 43 ec 3d
       -0.08335736 -0.04746444 -0.04116851 0.115363576
000020 c7 88 4f 3d d6 cb 1b 3d 33 dd bf bd 46 52 4d 3d
       0.05066755 0.03803619 -0.09368362 0.05012729
000030 5c aa e9 3d 29 19 ef 3c b9 fb 82 bc 34 d5 5d 3e
       0.114094466 0.029186802 -0.015989171 0.21663362
000040 03 58 e9 3d fc 24 3c be 83 e9 6c 3c 72 50 e7 bc
       0.1139374 -0.18373483 0.01445997 -0.028236602
000050 84 db 4d be 05 a9 53 bc a3 42 c8 3d fe f3 11 3d
       -0.2010327 -0.012918715 0.09778335 0.03563308
000060 27 2f 9f bd 32 36 a5 bb 8b 67 93 bd ff fc a5 bd
       -0.077726655 -0.005041861 -0.07197484 -0.08104896
000070 08 e3 07 be 85 2f 53 bc 4f 51 82 bd 1b 7c 51 bd
       -0.132702 -0.0128897475 -0.06363165 -0.051143747
000080 3f 2d 18 3e a8 7a 21 be cd 3d be bd 13 01 7f 3d
       0.1486101 -0.15769446 -0.09289131 0.062256884
000090 0b e6 00 3d 58 12 65 3e 8c 54 05 bd cf 8b 08 be
       0.031469386 0.22370279 -0.032551333 -0.13334583
0000a0 52 2c 67 3d c3 95 63 bd bc 2e 21 3d 62 94 23 3e
       0.05643875 -0.055562746 0.03935121 0.15974572
0000b0 75 d5 47 3d f7 f6 83 bd 89 22 7d 3e 79 27 98 3c
       0.048787553 -0.06443589 0.24720205 0.01857351
0000c0 1c 81 27 3d 85 0d e6 3c
       0.040894613 0.028082618

weight f4 [3, 50, 50]
000000 46 e4 e7 3d 48 e5 1a 3d 56 cf 3b bd 00 32 2d ba
       0.113228366 0.037816316 -0.045852028 -0.0006606877
000010 aa 71 cb 3d 2e 93 b4 bd 44 19 d2 3d 08 2e 26 3d
       0.09933789 -0.08817135 0.10258725 0.040571243
000020 61 ff e4 bd 96 b1 f1 bd 1a 49 ee 3d 28 bb b2 bd
       -0.11181522 -0.1180145 0.11635037 -0.087271035
000030 5e a1 77 bd fa 65 bc 3d 80 f0 f0 bc c0 8a dc bd
       -0.060456626 0.09199138 -0.029411554 -0.10768652
000040 b0 bc f8 3c b8 b9 04 be 00 3f c6 bb 50 64 03 bd
       0.03036341 -0.12961471 -0.0060499907 -0.032078087
000050 9d 15 04 be a0 c1 d5 bb ec 70 99 3d 62 c1 dc 3d
       -0.1289887 -0.006523326 0.07492241 0.10779072
000060 18 c2 d9 3d a4 d5 d9 3d 14 dc 6d 3d c2 b8 ae 3d
       0.106327236 0.10636452 0.05807121 0.085313335
000070 b2 14 f2 bd 6e 1b ee 3d 00 44 da 3a c6 5c ab bd
       -0.118203536 0.116263255 0.0016652346 -0.083673045
000080 38 39 de bc 62 42 09 bd d0 12 4c bc ee 69 b4 bd
       -0.027126893 -0.033510573 -0.012455657 -0.08809267
000090 20 0a 02 3d 30 f8 7b 3d 52 dc 28 bd d0 b9 cf 3c
       0.031747937 0.061515987 -0.04122574 0.025357157
0000a0 d0 7d 0b bd f2 34 fb 3d 08 ba 9b 3d a0 60 68 3d
       -0.03405553 0.12265958 0.07603842 0.056732774
0000b0 d8 bc 42 3d 84 2b a7 3d 6d 97 af bd 86 21 fa 3d
       0.047543377 0.08162597 -0.08573804 0.12213425
0000c0 e8 d7 ed 3c cc c7 49 bd 50 10 54 3c 14 b4 8a bc
       0.029033616 -0.049262807 0.012943342 -0.016931571
0000d0 48 0e 77 3d 40 e2 8e 3c de 16 ed 3d 98 89 b5 3c
       0.060316354 0.017441869 0.11576627 0.022160336
0000e0 9a bc 2c bd 6e 43 91 bd 2c fc 48 3d 34 1e 74 3d
       -0.042172052 -0.07092939 0.049068615 0.059599116
0000f0 44 da 40 3d c0 85 02 bd 9e 7a b4 bd 58 7a e0 bd
       0.047083154 -0.031865835 -0.0881245 -0.10960835
000100 a6 f7 04 bd f0 71 99 bc 40 9b 1c bc 38 8b 78 3d
       -0.03246274 -0.018731087 -0.009558499 0.060679644
000110 80 2c b8 3c be cb f5 3d e4 1d 6c 3d 13 e4 f2 bd
       0.022482157 0.12001751 0.057645693 -0.11859908
000120 6d 97 0c be ec 77 2e bd 00 54 a8 3d d6 67 ef bd
       -0.1372964 -0.042594835 0.08219147 -0.11689727
000130 44 20 66 3d bc c8 03 3d c2 04 c1 3d c6 21 cf bd
       0.056183115 0.032173857 0.094247356 -0.10113864
000140 1a 7c 9e bd ae b8 e4 bd 61 28 08 be 5e ca a3 bd
       -0.07738514 -0.11168037 -0.13296653 -0.07997583
000150 74 64 dc 3d 40 23 6c bd 00 1d 97 bd a8 b0 c8 3d
       0.107613474 -0.057650805 -0.07378578 0.097993195
000160 98 68 fd bc 00 4c b1 bd 8b 2c 07 3e 1c 3d 46 bd
       -0.030933663 -0.08657074 0.13200586 -0.048398122
000170 a9 44 ce bd 14 a5 dd bc 3e f6 82 3d 98 d5 78 3d
       -0.1007169 -0.027056254 0.06394623 0.060750574
000180 a8 ef e8 3c b6 f0 46 bd 79 02 84 bd e0 8c a0 3c
       0.02843459 -0.048569404 -0.06445784 0.019598424
000190 2a f9 34 bd 64 fc 39 3d 36 d3 ae bd 25 4e 01 3e
       -0.044182934 0.045406714 -0.08536379 0.12627466
0001a0 0a ce e7 3d 9c f1 aa bd 2c 10 0f 3d 4b 21 f0 bd
       0.11318596 -0.083468646 0.034927532 -0.117251
0001b0 94 71 15 3d 00 b8 c6 ba 58 e5 ca 3c 30 94 14 bc
       0.03648527 -0.0015161037 0.024767563 -0.009068534
0001c0 94 30 06 bd aa 80 99 bd f0 2c d9 bc 04 4e da 3d
       -0.03276117 -0.07495244 -0.026510686 0.106594115
0001d0 0c 52 41 3d 50 55 a5 bd 38 14 b6 3c b0 58 50 3c
       0.047197387 -0.08072913 0.022226438 0.012716457
0001e0 22 5a b3 bd 8c ca b0 bc 18 a4 48 bd cc 4c ea bc
       -0.08757426 -0.021580957 -0.048984617 -0.028601073
0001f0 2a 8e 93 3d 84 d3 cc bd c8 6a 4e 3d 5e 9f 73 bd
       0.0720485 -0.10001281 0.050394803 -0.059478156
000200 40 3d b7 3d e8 4e a2 bc 84 84 e2 bc a4 2f 70 bd
       0.089472294 -0.019813016 -0.027651079 -0.058639184
000210 28 52 68 3d 29 20 07 3e 14 4b 53 3d 1e 5f f7 3d
       0.056718975 0.13195862 0.051585272 0.12078689
000220 d0 ed c5 3c 02 0c fe 3d f6 3e cc bd 8c f2 6b bd
       0.02416125 0.12404634 -0.09972946 -0.057604358
000230 0c 6d 8b 3d 99 cf c4 bd a0 6b 28 3c b0 c1 88 bd
       0.068079084 -0.096099086 0.010279566 -0.06677568
000240 00 bf 07 3b 32 64 7d bd 22 62 bb 3d 22 4c ff 3d
       0.002071321 -0.06186313 0.09149577 0.12465693
000250 79 f1 e9 bd a8 2e 8b 3d c8 13 30 3d ca 75 cb bd
       -0.114230104 0.06796008 0.042987615 -0.09934576
000260 fe da ab 3d 1c f9 a6 bd 10 94 e5 bc da 99 f7 3d
       0.08391379 -0.081529826 -0.028024703 0.12089892
000270 45 c1 ee bd 7c be 47 3d f0 37 79 3d 72 c2 f9 3d
       -0.11657957 0.048765644 0.06084436 0.121952906
000280 12 46 e3 3d 24 e9 57 bd f2 78 0f bd 44 73 e5 bd
       0.11097349 -0.052712575 -0.03502745 -0.11203626
000290 06 49 0e be 20 f4 54 3d 80 0e 9d 3b 34 97 13 3d
       -0.13895044 0.05199063 0.0047929883 0.03603287
0002a0 f8 cc df bc 08 b4 90 3c 88 da a0 3d a5 90 99 bd
       -0.027319416 0.01766397 0.078541815 -0.07498292
0002b0 74 05 09 3d d2 61 ce 3d 0c b9 7f bd 0c 56 8b 3d
       0.033452466 0.100772515 -0.062432334 0.068035215
0002c0 57 84 bd bd 5d 7a 08 3e 9f 64 a1 bd 00 5e 22 bc
       -0.092537574 0.13327928 -0.0788052 -0.009910107
0002d0 94 86 49 3d 50 21 1f 3d 70 07 1b bc e0 78 bd bc
       0.04920061 0.03885013 -0.009462222 -0.023128927
0002e0 9f 59 e8 bd 68 a6 a8 3c 72 5d f1 3d 90 fa 02 3c
       -0.11345219 0.020587161 0.117854014 0.007994309
0002f0 ee 33 88 3d d8 d7 c0 bd fc 6e 93 3d 6a 14 36 bd
       0.0665053 -0.09416169 0.07198903 -0.044453062
000300 9f b0 b3 bd a8 b2 f0 bd 78 74 ef 3c b4 e6 7f bd
       -0.08773922 -0.11752826 0.029230341 -0.062475875
000310 4d 1f 0e be fb 99 0c 3e b4 93 b9 bd 10 5d 4f 3c
       -0.13879128 0.13730614 -0.09061375 0.012656465
000320 20 01 d2 bc 80 c4 1c 3d 5e 12 d9 bd 90 f4 71 bd
       -0.025635302 0.038273335 -0.105992064 -0.059071124
000330 94 43 9e bd e0 1a 4f bc 01 80 c2 bd e0 86 ef 3c
       -0.07727733 -0.012640685 -0.09497071 0.029239118
000340 d4 93 75 3d 8a 0c f9 3d 00 50 da 3c a2 6d 8b 3d
       0.059955433 0.12160595 0.026649475 0.0680802
000350 60 57 13 3d ee 99 b7 3d e0 cb 61 bc 88 0d 5d bd
       0.035972 0.08964907 -0.013781518 -0.053967983
000360 62 5d b4 bd 12 e9 b7 3d 52 82 f2 3d 26 31 ac 3d
       -0.08806874 0.089800015 0.11841263 0.08407812
000370 9a 16 f3 3d 54 75 8b bd 00 fc 0b 3a b4 3a c0 3d
       0.11869545 -0.06809488 0.000533998 0.09386197
000380 9e bf 78 bd 82 84 b0 bd ac 38 c2 3d fe a9 fc 3d
       -0.060729615 -0.08619024 0.094834656 0.12337111
000390 3c c3 69 3d 28 d9 5b bd 5e 17 9f 3d 84 eb 0a bd
       0.057070956 -0.053673893 0.07768129 -0.03391601
0003a0 36 b6 3e bd 14 e0 a4 3d f6 a0 e2 3d 88 63 89 3d
       -0.04656049 0.08050552 0.11065857 0.06708437
0003b0 9e 91 a1 3d b6 c0 7a bd 20 95 d0 3c 9e b6 d9 bd
       0.078891024 -0.06121894 0.025461733 -0.106305346
0003c0 80 c9 8b 3d 7f 89 0b 3e f0 ed d0 bd c8 21 e2 bd
       0.068255424 0.1362667 -0.10201633 -0.110415995
0003d0 e8 0a f9 bd 6a 07 ea 3d 3a 57 80 3d 61 1c 99 bd
       -0.12160283 0.11427195 0.06266637 -0.07476116
0003e0 6c 18 59 bd d8 9b 2f 3d b4 0c 07 be 66 3c 2b bd
       -0.053001806 0.042873234 -0.1318844 -0.041805647
0003f0 38 0b b4 bd 52 af 9f bd 6a fc 8c 3d 80 07 3a bd
       -0.08791202 -0.077971116 0.06884082 -0.04541731

weight_ih f4 [150, 50]
000000 11 90 0c be 00 7b 78 3b e0 43 d1 3c 92 aa dc bd
       -0.13726832 0.003791511 0.02554506 -0.10774721
000010 f0 84 4a 3d de 5f 96 bd 6f 34 02 3e 3a c1 e0 bd
       0.049443185 -0.07342504 0.12715314 -0.10974355
000020 92 0c 37 bd bc 5f 34 3d 20 0c 36 3c 10 03 c5 3c
       -0.044689722 0.044036612 0.011111289 0.024049312
000030 1c e0 b9 bd cf 1d d3 bd ac 77 08 bd b4 d1 3a 3d
       -0.090759486 -0.1030842 -0.033317253 0.045610145
000040 e8 41 86 bd 40 ed b6 bb 89 d1 97 bd fc 1a 43 3d
       -0.06555539 -0.0055824816 -0.074130125 0.047633156
000050 dc dc 7d 3d d7 4b 05 3e 67 37 03 be ee 63 94 3d
       0.061978206 0.13017212 -0.12814103 0.072456226
000060 24 8d b3 bd e8 6b 6e bd 38 5b 09 be 51 23 01 3e
       -0.08767155 -0.058208376 -0.13413703 0.12611128
000070 70 f5 e4 3c be a7 fb 3d 00 22 72 3b b0 1b b3 3d
       0.027949065 0.12287854 0.0036946535 0.08745515
000080 21 42 85 bd 18 98 41 bd ea 69 b9 bd 5a 02 f4 3d
       -0.06506754 -0.04726419 -0.09053405 0.11914511
000090 61 c8 01 be df ea 02 3e d2 bd 03 be 29 42 06 be
       -0.12674095 0.12784909 -0.1286538 -0.13111176
0000a0 be 17 44 bd 06 09 98 3d 09 c1 0a be e3 99 05 3e
       -0.047874205 0.07423596 -0.135502 0.13046984
0000b0 c3 1c 0e 3e ee 64 0a be 36 58 fd 3d 8d 96 05 be
       0.13878159 -0.13515064 0.123703405 -0.13045712
0000c0 8a 71 30 bd 6a b4 11 bd b0 31 71 3c 08 01 59 bd
       -0.04307703 -0.035572447 0.014721319 -0.0529795
0000d0 7d 0a e9 bd 14 df 7c 3d 14 d6 e1 bd be 78 f0 3d
       -0.113789536 0.06173618 -0.1102716 0.1174178
0000e0 9c 59 1c 3d 53 ff b2 bd bc 2e 24 3d 80 8f cc bd
       0.038171396 -0.087401055 0.040083632 -0.09988308
0000f0 8a 6c a6 bd 4a 48 9e 3d 68 30 c0 bd 05 07 a0 bd
       -0.08126171 0.07728632 -0.09384233 -0.07813839
000100 1c 69 92 3d 96 c6 d2 3d f4 b3 95 bd fe 78 a8 bd
       0.07148954 0.102917835 -0.07309714 -0.082262024
000110 20 ad f4 bb 74 13 c2 bc 08 23 c7 3d 40 c6 c9 3c
       -0.007466927 -0.023690917 0.097234786 0.024630666
000120 c2 7f 89 3d 8a 01 b3 3d 08 ca 86 3c 88 51 e0 bd
       0.06713821 0.08740528 0.016453758 -0.10953051
000130 ba 8e c2 3d 44 f1 58 3d 80 99 14 bb d4 45 12 3d
       0.09499879 0.052964464 -0.00226745 0.035711125
000140 90 72 d9 3d 20 d4 4f bc 8c 2f ab bc 14 68 26 bd
       0.10617554 -0.012684852 -0.020896696 -0.0406266
000150 5a d6 ee bd 12 33 81 3d 7a 85 b0 3d a8 1c da 3c
       -0.11661978 0.06308569 0.08619209 0.026624992
000160 aa 63 f1 3d b4 bd 94 bd b0 cc 53 bc aa 1d c4 bd
       0.117865875 -0.072627455 -0.012927219 -0.095759705
000170 11 29 d7 bd 08 1b 90 bc 44 69 03 3d e0 46 31 bc
       -0.1050588 -0.017591015 0.03208281 -0.010820121
000180 02 50 ec 3d 68 5e 97 3d b0 77 4b 3c 60 fa 46 3c
       0.11538698 0.073910534 0.012418672 0.012144655
000190 cc 7b 97 3d 36 4c ec 3d cc 4f c5 bd f2 f2 ad 3d
       0.07396659 0.115379736 -0.09634361 0.08493604
0001a0 80 89 9b 3a 9c 29 08 bd 30 2d 3d 3c 00 b0 8b 3a
       0.001186654 -0.033242807 0.011546418 0.001065731
0001b0 d0 6d 2f bc 34 03 79 3d 8e c5 68 bd 50 eb d9 3c
       -0.010707334 0.06079407 -0.056829028 0.026601464
0001c0 aa 67 97 bd 73 43 8e bd 50 0e ea bd 0a b0 3a bd
       -0.07392819 -0.06946459 -0.11428511 -0.04557804
0001d0 98 36 ce 3d 11 30 07 be 38 f5 17 bd f7 87 04 3e
       0.10069007 -0.1320193 -0.037099093 0.12942491
0001e0 0c 45 0b be 68 60 95 3d 78 75 81 3d f6 d6 e5 3d
       -0.13600558 0.07293779 0.063212335 0.11222641
0001f0 70 c7 75 3c 56 71 ec 3d 1e 53 89 3d 76 83 0f be
       0.015001163 0.115450546 0.067053065 -0.14014992
000200 88 4d 92 3c 90 29 7b 3d 20 3f cb 3c 2a bb 5b bd
       0.017859235 0.061318934 0.024810374 -0.05364529
000210 e8 88 b2 bc 80 58 0b 3c 2e 88 ee bd 46 c9 3f bd
       -0.021793798 0.008504987 -0.11647068 -0.04682281
000220 20 da a7 3b 7a 26 d5 3d d8 5c c6 3c 00 b0 91 3c
       0.005122438 0.104077294 0.024214193 0.017784119
000230 95 fb 03 3e 46 ea 34 bd 9e ab fc 3d 52 07 e0 bd
       0.1288894 -0.044168733 0.12337421 -0.10938896
000240 05 95 bc bd 60 4b b7 3c 78 1b d4 3d 18 ea ca 3d
       -0.09208111 0.022374809 0.10356802 0.09907931
000250 ff 3e d6 bd 10 6a 3d bc 51 bf 84 bd b0 98 05 3c
       -0.10461234 -0.011560932 -0.06481803 0.008154079
000260 19 13 0c 3e 0c 15 3f bd 20 70 14 3c 35 47 02 3e
       0.1367916 -0.04665093 0.009059936 0.12722476
000270 d4 fb c5 3d 3e 50 14 bd 95 41 04 be c0 1e a2 bc
       0.09667173 -0.036209337 -0.12915643 -0.019790053
000280 36 b8 d0 bd 00 6b 77 ba 14 3f 5d 3d 9c de d2 bd
       -0.101913854 -0.00094382465 0.054015234 -0.102963656
000290 00 a8 50 bd fc a2 19 3d 7c 4d 5d 3d d2 75 9a bd
       -0.050941467 0.03750895 0.054028973 -0.07542004
0002a0 63 e1 01 be ff 8b 05 be 6a 50 ba 3d 98 0d 13 3d
       -0.12683634 -0.13041686 0.09097369 0.035901636
0002b0 aa ef a1 3d 02 76 ff 3d 00 7a ce bd c8 7f a1 3d
       0.079070404 0.1247368 -0.100818634 0.078857005
0002c0 90 01 28 bc 20 ae ab 3b 66 14 9d 3d 28 86 98 bc
       -0.010254279 0.005239263 0.07669906 -0.018618658
0002d0 4e 19 ea 3d 77 b4 d5 bd 64 de 03 bd 78 56 80 3d
       0.11430608 -0.104348116 -0.03219451 0.062664926
0002e0 4e e7 6b bd f6 19 0c bd a5 aa 00 3e f0 79 29 3d
       -0.057593636 -0.034204446 0.12565096 0.041376054
0002f0 f8 c6 cd bd 89 e1 0c 3e 82 cc b4 bd 9d 3d 08 3e
       -0.10047716 0.1375791 -0.08828069 0.13304754
000300 2c 37 01 be fc 0a 49 3d 42 9a a2 3d cc 69 4d 3d
       -0.12618703 0.04908274 0.079395786 0.050149724
000310 80 1f 30 bb d8 8c d3 bd f0 de 25 bc d6 fe e8 3d
       -0.0026874244 -0.10329598 -0.010123953 0.11376731
000320 a6 d0 fc 3d ac e9 84 bd 98 6b c8 3d 00 80 cb 37
       0.12344484 -0.06489882 0.09786147 2.425909e-05
000330 ec 00 9e 3d c5 ec c9 bd 06 67 a6 3d 68 3f a2 3d
       0.077150196 -0.09859613 0.08125119 0.0792225
000340 9e c3 79 bd 10 7a 6b 3d 14 d8 5c 3d 00 01 37 ba
       -0.06097757 0.057489455 0.053917006 -0.0006981045
000350 2c ec 26 3d c0 5b 0c 3d 26 a2 d7 3d 46 55 88 bd
       0.040752575 0.034267187 0.10528974 -0.066568896
000360 12 bf e3 3d bc 0b 7d 3d 02 fa f0 3d f8 34 11 3d
       0.11120428 0.06177877 0.11766435 0.035450906
000370 62 a3 24 bd 67 e7 01 3e a7 e9 9a bd 26 0f 9a bd
       -0.040194876 0.12685929 -0.07564097 -0.075224206
000380 83 30 07 be 2e f4 f4 3d 00 5c e9 3a 70 7e 7b 3c
       -0.132021 0.11960636 0.0017803907 0.015349969
000390 ec 98 d5 bd 3c fc d0 bd 20 ac 69 3c 30 c7 6e 3d
       -0.10429558 -0.1020436 0.014262229 0.05829543
0003a0 28 77 19 3d fa d6 82 bd fe df bb bd ce d4 7b bd
       0.037467152 -0.0638866 -0.091735825 -0.061482243
0003b0 9c 3a 8c bd f0 91 76 bc 1a 76 df bd 78 31 ce bd
       -0.06847116 -0.015049443 -0.10911198 -0.10068029
0003c0 71 f1 0e be fa dc a3 3d 00 6f a0 3a e0 f5 f0 bd
       -0.1395929 0.08001132 0.0012240112 -0.11765647
0003d0 7c 30 a5 bc 0c 2e 09 3d 86 6f cb bd 88 4a c1 3c
       -0.02016472 0.03349118 -0.09933381 0.02359511
0003e0 60 b5 be 3d c2 91 ea 3d 3c 4e 6f 3d 92 4c cd bd
       0.09311938 0.11453582 0.05842422 -0.1002437
0003f0 4c 73 a0 bd 06 70 c2 bd c0 73 7d 3b 40 a5 20 3b
       -0.07834491 -0.09494023 0.0038673729 0.002451256
