backend/workspace/weight/r/classify/best_model-50d.pth (torch, 528056 bytes, 15 tensors)

conv1.lin_l.weight f4 [64, 50]
0	0xbe0b329c	-0.13593525
1	0xbdebfcfa	-0.11522861
2	0xbda49c79	-0.08037657
3	0x3c22df63	0.009940955
4	0xbd03a693	-0.03214128
5	0xbda22ac7	-0.079183154
6	0x3d18e544	0.03732802
7	0x3e5d84a7	0.21632634
8	0xbda35558	-0.079752624
9	0x3c5c8e2b	0.01346163
10	0x3cc45238	0.023964986
11	0x3d112f96	0.035445772
12	0x3d72c107	0.059266116
13	0xbc042dac	-0.00806753
14	0x3e14b6d2	0.14522865
15	0x3dee1ae2	0.11626221
16	0xbe27bc30	-0.16380382
17	0xbe2f45f0	-0.17116523
18	0x3e776ec9	0.24163355
19	0xbc4403c2	-0.011963787
20	0x3dcf85b4	0.10132924
21	0xbd038497	-0.03210887
22	0xbe70f5f8	-0.2353133
23	0xbd960f3d	-0.07327125
24	0xbd2e3919	-0.04253492
25	0xbc8420d5	-0.016128937
26	0x3d8b5174	0.06802645
27	0xbd920e95	-0.071316876
28	0x3b066293	0.0020505532
29	0x3e270df0	0.1631391
30	0xbe18fb27	-0.14939557
31	0x3cce1a3d	0.025158996
32	0x3cf99ab2	0.030469272
33	0x3cf66570	0.030077666
34	0xbd31df78	-0.043426007
35	0xbdecc465	-0.11560897
36	0xbac40863	-0.0014956113
37	0xbe2d517d	-0.16925617
38	0xbe47fcb6	-0.19529995
39	0xbe49e9c1	-0.19718076
40	0xbde96c60	-0.11397624
41	0xbd18f559	-0.037343357
42	0xbc86dd6d	-0.016463006
43	0xb8c8161f	-9.5408635e-05
44	0x3d3c2b19	0.04593954
45	0xbd537964	-0.05162944
46	0xbd86d05e	-0.06582712
47	0x3e1e03c8	0.1543113
48	0xbd4e5c29	-0.05038086
49	0x3d5aa3c7	0.053378846
50	0x3ddcaa11	0.10774625
51	0x3d009b76	0.03139826
52	0x3d0a63b6	0.033786498
53	0x3de16e7f	0.110074036
54	0xbd90a767	-0.070631795
55	0x3d745885	0.05965473
56	0xbdce92e7	-0.10086613
57	0xbb0683a3	-0.002052524
58	0xbe900350	-0.28127527
59	0x3e24b0ac	0.1608302
60	0x3cfe7d79	0.03106569
61	0x3d8b4f0f	0.068021886
62	0x3e7691b2	0.24079016
63	0xbe659bfd	-0.22422786
64	0x3e55555f	0.20833348
65	0x3e6e08b6	0.2324551
66	0x3e69f9a7	0.22849141
67	0x3e17b435	0.14814837
68	0xbdcf4f6e	-0.10122572
69	0xbdc8aa3a	-0.09798093
70	0xbc46c878	-0.012132756
71	0x3ce3a44c	0.027788304
72	0x3e25ea16	0.16202578
73	0x3dfd6eca	0.12374647
74	0x3d9e94b3	0.07743206
75	0xbc85a816	-0.016315501
76	0x3dabc3c2	0.08386947
77	0xbe5ae21d	-0.21375318
78	0xbe1769f0	-0.14786506
79	0xbe8b6fb6	-0.27233666
80	0x3bee6c5b	0.0072761006
81	0xbdc5c7b2	-0.096572295
82	0xbd80815e	-0.06274675
83	0x3db70897	0.08937185
84	0xbe1c85de	-0.15285441
85	0xbde51fd8	-0.11187714
86	0xbe402497	-0.18763958
87	0xbe548cef	-0.20756887
88	0x3e485432	0.19563368
89	0xbe2319b0	-0.15927768
90	0x3e672dc6	0.22576055
91	0x3e1233d3	0.14277582
92	0x3e432712	0.19057873
93	0xbdd4c065	-0.10388259
94	0x3da37005	0.079803504
95	0x3e28471b	0.16433375
96	0xbdc0faa6	-0.094228074
97	0xbe2b6a1c	-0.16739696
98	0xbe8f77fa	-0.28021222
99	0xbe3891bf	-0.18024348
100	0x3dee35c8	0.11631352
101	0x3c77edac	0.015132349
102	0xbc390f97	-0.011295221
103	0x3e993b84	0.2992822
104	0xbd7046db	-0.058661323
105	0x3e3ddb23	0.18540625
106	0x3ce7d4d4	0.028299727
107	0x3d4320d2	0.04763872
108	0x3e5bb3f1	0.21455361
109	0xbe048125	-0.1293989
110	0xbe2b055f	-0.16701268
111	0xbe26c572	-0.16286257
112	0xbe8ca8be	-0.2747249
113	0xbcbe6ec3	-0.023246175
114	0xbe4c1737	-0.19930731
115	0x3cfd4792	0.030917916
116	0x3e4f931d	0.20270963
117	0x3d81d825	0.063400544
118	0x3e9bcbd2	0.3042894
119	0xbdfe116e	-0.12405668
120	0x378cff73	1.6808253e-05
121	0x3a569dd6	0.00081869715
122	0x3d4c688d	0.049904395
123	0x3df59d13	0.1199285
124	0x3c99dcd4	0.018782057
125	0x3d55880d	0.0521317
126	0x3cd10386	0.025514375
127	0xbd42307a	-0.047409512
128	0x3d83bb61	0.06432224
129	0x3c833950	0.01601854
130	0xbd900d14	-0.070337445
131	0x3e1198fd	0.14218517
132	0xbd209e76	-0.03921362
133	0xbec617a4	-0.3868991
134	0xbde695ca	-0.11259039
135	0x3ae68787	0.0017587998
136	0xbdc15373	-0.09439745
137	0x3e97a83d	0.29620543
138	0xbe24494b	-0.16043584
139	0x3d042185	0.03225853
140	0x3bba485a	0.0056848945
141	0xbe4d9335	-0.20075686
142	0x3c11c722	0.008897575
143	0x3d3fedef	0.04685777
144	0xbd3fa367	-0.046786692
145	0x3ebefed5	0.37303796
146	0x3d5492f0	0.051897943
147	0xbe48a985	-0.19595917
148	0xbe0bff80	-0.13671684
149	0x3e01c698	0.12673414
150	0x3d412e87	0.047163513
151	0x3da077c4	0.078353435
152	0xbcd09bb4	-0.02546487
153	0xbd20f495	-0.03929575
154	0x3e777ec2	0.24169448
155	0xbd515d4b	-0.05111436
156	0x3d181dae	0.03713768
157	0xbd786b1f	-0.060649034
158	0x3d07c43c	0.033146128
159	0x3c1be796	0.009515664
160	0xbe68c0e3	-0.2272983
161	0xbdabe21e	-0.08392738
162	0xbeb0977a	-0.34490567
163	0xbe21c7bf	-0.15798853
164	0xbba089f3	-0.0048992573
165	0x3e3d108c	0.18463343
166	0x3ddf243a	0.108955815
167	0xbe853249	-0.26014927
168	0x3e190d3c	0.14946455
169	0x3d2fbb0c	0.04290299
170	0x3bcb9c9e	0.0062137386
171	0x3e523869	0.20529331
172	0x3c8b4411	0.01700023
173	0xbeca6d02	-0.3953629
174	0x3bfe7f0c	0.00776661
175	0xbd922fe8	-0.07138044
176	0xbe833464	-0.25625908
177	0x3cce1254	0.025155224
178	0x3e0edf8c	0.13952464
179	0xbe119ccd	-0.14219971
180	0x3d815b97	0.063162975
181	0x3e145946	0.1448718
182	0xbe073ba6	-0.13206348
183	0xbe3d6605	-0.18495949
184	0xbcbb051d	-0.022829587
185	0x3db2ef3b	0.08737036
186	0xbdfbef89	-0.12301547
187	0x3d2f4373	0.042788934
188	0xbd8ebb0a	-0.069692686
189	0xbdd95c86	-0.106133506
190	0xbe50d8b9	-0.20395173
191	0xbd8f3b87	-0.06993776
192	0x3eb17fb7	0.3466775
193	0x3cfb8d88	0.030707136
194	0x3d9882df	0.07446837
195	0xbd532290	-0.051546633
196	0xbc0ea9ff	-0.008707522
197	0x3e026db5	0.12737162
198	0xbbfaad4e	-0.007650054
199	0xbd98677f	-0.07441615
200	0xbe2e2b80	-0.17008781
201	0x3d12943d	0.035785902
202	0x3de89663	0.11356809
203	0xbe2e7db9	-0.17040147
204	0x3dfa09b2	0.122088805
205	0x3dcec6de	0.10096525
206	0x3e67f8c2	0.22653487
207	0xbe74412b	-0.23852985
208	0x3e2ff154	0.17181903
209	0x3d8bcd85	0.06826309
210	0x3d5b1724	0.053488865
211	0xbd8331cc	-0.064059824
212	0x3d97cb85	0.07411865
213	0x3ca87bdc	0.020566873
214	0x3e44e991	0.19229724
215	0xbd922635	-0.07136194
216	0xbd851db2	-0.064998046
217	0x3e6abefb	0.22924416
218	0xbe369a3c	-0.17832273
219	0x3d776d67	0.06040707
220	0xbe11916b	-0.14215629
221	0x3e0e71fc	0.13910669
222	0x3e826ab5	0.25472036
223	0x3e50a38a	0.20374885
224	0x3d0085cb	0.031377595
225	0x3e2438cd	0.16037293
226	0xbd96cc5f	-0.073631994
227	0x3d99e937	0.07515185
228	0x3ea5ad7d	0.32358924
229	0x3d7f8ceb	0.06239025
230	0x3cb25409	0.021768587
231	0xbde6c94d	-0.11268864
232	0x3dbe446b	0.092903934
233	0x3e3d36d5	0.18477948
234	0x3db7db51	0.08977378
235	0x3bab6948	0.0052310564
236	0x3e82ce43	0.2554799
237	0xbcb36dc7	-0.021902932
238	0x3e2549f9	0.161415
239	0x3e294a60	0.16532278
240	0x3dd71f06	0.10503964
241	0xbeb60d78	-0.3555715
242	0x3e710f54	0.23541003
243	0x3e52c6ff	0.20583723
244	0xbdd9f156	-0.10641734
245	0x3df25751	0.118330605
246	0x3e12ea97	0.14347301
247	0xbdd9d1b4	-0.10635701
248	0x3e12a607	0.14321147
249	0x3e1b0f65	0.15142591
250	0xbd19092d	-0.037362266
251	0x3e2def56	0.1698583
252	0xbd8d58fc	-0.06901738
253	0x3e5e9d7f	0.21739767
254	0x3b8b18ac	0.0042448845
255	0x3ebe6b8d	0.3719143

conv1.lin_l.bias f4 [64]
0	0x3e8ebf36	0.27880257
1	0xbba8e227	-0.0051539126
2	0xbd1d2173	-0.038361978
3	0xbd9b46f6	-0.07581894
4	0xbdc3a0f2	-0.09552182
5	0xbdf51893	-0.11967578
6	0xbe907d2c	-0.282205
7	0xbe30f472	-0.17280748
8	0xbdbf0e27	-0.09328871
9	0xbd99de56	-0.0751311
10	0xbd9413f1	-0.07230366
11	0xbe190be4	-0.14945942
12	0xbe5903e6	-0.21192893
13	0xbe02b88c	-0.12765712
14	0xbde649bd	-0.11244533
15	0x3e4ed044	0.20196635
16	0xbe477f4b	-0.19482152
17	0xbe55c45e	-0.2087569
18	0x3d93fbeb	0.07225784
19	0x3d3548fc	0.044259056
20	0xbe9401aa	-0.2890752
21	0x3d59b059	0.053146694
22	0xbe643bf1	-0.22288491
23	0xbe4e5f0c	-0.20153445
24	0x3d8c5caf	0.068536155
25	0xbe7cfe4c	-0.24706382
26	0xbdee4e66	-0.11636047
27	0xbed2f2d2	-0.41200882
28	0xbdaa6919	-0.08320827
29	0xbe32594a	-0.17416874
30	0xbe09047b	-0.13380615
31	0xbd09ac1d	-0.033611406
32	0x3d5dde33	0.054166984
33	0xbd8a4063	-0.06750562
34	0xbe058cb7	-0.1304196
35	0x3da79810	0.081833005
36	0xbe68b694	-0.22725898
37	0xbe0bbfb4	-0.13647348
38	0x3d217d4d	0.039426137
39	0x3df81ece	0.121152505
40	0x3e30e978	0.17276561
41	0xbe7bcc50	-0.24589658
42	0x3d044df2	0.032300897
43	0xbe97a455	-0.29617563
44	0x3db72630	0.089428306
45	0xbe6b46f8	-0.22976291
46	0xbd9fa152	-0.07794441
47	0xbe669c1e	-0.22520491
48	0xbe7e977a	-0.24862471
49	0xbd03d927	-0.032189514
50	0x3e2e342a	0.17012087
51	0xbddc5868	-0.1075905
52	0xbe737177	-0.23773752
53	0xbd497a91	-0.049189154
54	0xbd37532d	-0.044757057
55	0xbd234564	-0.039861098
56	0xbe241850	-0.160249
57	0x3dd7d0fa	0.10537906
58	0xbe74ce2d	-0.23906775
59	0xbe9e48b6	-0.3091485
60	0x3c9148b8	0.01773487
61	0x3ce20578	0.027590498
62	0xbe40c1a0	-0.18823862
63	0xbccee6ad	-0.02525648

conv1.lin_r.weight f4 [64, 50]
0	0xbd9a5153	-0.075350426
1	0xbda74b3b	-0.08168646
2	0x3e245516	0.16048083
3	0x3e267684	0.16256148
4	0xbdea4d29	-0.114404984
5	0xbc59cdd4	-0.013293702
6	0x3e24c52b	0.16090839
7	0x3e602bbb	0.21891682
8	0x3d5c9115	0.0538493
9	0x3c67d9e9	0.014151075
10	0xbd4ec199	-0.050477598
11	0x3d96fb76	0.07372181
12	0x3e93ea9a	0.28889924
13	0xbd8bce57	-0.068264656
14	0x3e2864c1	0.16444685
15	0xbde91054	-0.113800675
16	0xbe1fd66a	-0.15609136
17	0xbe1e2999	-0.15445556
18	0x3e186434	0.14881974
19	0xbd22eb6f	-0.03977531
20	0x3decbc00	0.11559296
21	0xbe877def	-0.26463267
22	0xbe3f7389	-0.18696417
23	0xbe796353	-0.24354295
24	0x3b422d30	0.0029628985
25	0x3ddb6b89	0.1071387
26	0x3e5786ba	0.21047488
27	0xbe318654	-0.17336398
28	0xbdac6823	-0.084183
29	0x3e7d5e9b	0.2474312
30	0xbe1b0421	-0.15138294
31	0xbdfd6e95	-0.123746075
32	0x3e397f52	0.18114975
33	0x3e92cb42	0.28670698
34	0xbca8addd	-0.020590717
35	0xbe4776ba	-0.19478884
36	0xbc884217	-0.016633077
37	0xbdd1fc6e	-0.10253225
38	0xbdd6cddc	-0.10488483
39	0x3d2a2a49	0.041544233
40	0x3da9498d	0.08265982
41	0x3dc96265	0.098332204
42	0x3c129d67	0.00894866
43	0xbbe2cc49	-0.0069213253
44	0x3ca3d39f	0.01999837
45	0xbe2f35f9	-0.17110433
46	0xbd93fbd5	-0.072257675
47	0x3e22407f	0.15844916
48	0x3d071be4	0.032985583
49	0x3ddc625d	0.10760949
50	0x3e0be217	0.13660465
51	0x3d94cdfc	0.07265851
52	0x3d4c1bf7	0.049831357
53	0x3e24e3fa	0.16102591
54	0xbe0ab32a	-0.13544908
55	0x3db770f5	0.08957092
56	0x3e60e5c2	0.21962646
57	0x3e027512	0.12739971
58	0xbe9d5b53	-0.30733737
59	0xbc68751b	-0.014188076
60	0xbd1ab43b	-0.037769537
61	0x3d6f4805	0.058418293
62	0xbe9f5941	-0.31122783
63	0xbe992405	-0.29910293
64	0x3d1cf65e	0.03832089
65	0x3d0baf52	0.034102745
66	0x3d3d1b55	0.046168644
67	0xbd9073f2	-0.07053365
68	0x3a10e51d	0.00055273046
69	0x3d8039a6	0.062609956
70	0xbde43c43	-0.111443065
71	0x3e300091	0.17187716
72	0xbdb595e4	-0.0886648
73	0xbda4c266	-0.08044891
74	0xbe9cdf5e	-0.30639166
75	0xbe05c449	-0.13063158
76	0x3db05ab6	0.08611052
77	0xbd990bfe	-0.074729905
78	0x3d0e58dc	0.03475271
79	0xbbb70c98	-0.005586218
80	0xbcdea474	-0.027178027
81	0xbe381144	-0.17975336
82	0xbe21892d	-0.15774985
83	0xbe4cca32	-0.19999006
84	0xbd9d505c	-0.07681343
85	0xbdb54599	-0.08851165
86	0xbe4bf860	-0.19918966
87	0xbeaca3c0	-0.3371868
88	0xbda1c646	-0.07899146
89	0x3dbb39d4	0.09141889
90	0x3e665784	0.22494322
91	0x3e9af9c7	0.3026869
92	0x3e86b0e7	0.2630684
93	0xbea8b45c	-0.32950103
94	0x3e7e8ff1	0.24859597
95	0xbc319c97	-0.010840557
96	0xbe0f0824	-0.13967949
97	0x3e59a321	0.21253635
98	0xbd3f4514	-0.046696737
99	0xbeb0841e	-0.34475797
100	0x3d940fec	0.07229599
101	0xbd1d8c62	-0.038463958
102	0xbbcc5849	-0.0062361103
103	0xbd28ad03	-0.04118062
104	0xbea31970	-0.31855345
105	0x3e611d62	0.21983865
106	0x3e12dafd	0.1434135
107	0x3e0fe8f1	0.14053704
108	0x3e8571f7	0.2606351
109	0xbcd8a784	-0.026447065
110	0xbeab2957	-0.33429977
111	0xbdc4d26d	-0.09610448
112	0xbe93e136	-0.2888276
113	0x3cf05776	0.02933858
114	0xbe66d0b2	-0.22540548
115	0xbd67baca	-0.05657462
116	0x3e0bc8f4	0.13650876
117	0xbdde1eaa	-0.108456925
118	0x3e91ea4c	0.28499067
119	0xbc732925	-0.014841353
120	0xbd297e2d	-0.041380096
121	0x3da95a50	0.08269179
122	0xbdd783ad	-0.10523162
123	0xbe003b8c	-0.12522715
124	0x3d6aa3c4	0.057285085
125	0xbd9a9cf6	-0.07549469
126	0x3dac044c	0.08399257
127	0x3d85c8a9	0.065324135
128	0x3c33194a	0.010931322
129	0x3e4def61	0.20110847
130	0x3d166459	0.036716793
131	0x3cbf6403	0.023363119
132	0x3d95d8c1	0.07316733
133	0xbe683e3c	-0.2267999
134	0xbdedf50f	-0.11619007
135	0xbcbe940b	-0.023263952
136	0x3d0bf57d	0.034169663
137	0x3e292c9e	0.16520926
138	0xbd8d165c	-0.0688903
139	0xbe1d9bbc	-0.15391439
140	0xbe202aba	-0.15641299
141	0xbe2be033	-0.16784744
142	0xbd176852	-0.036964722
143	0xbe34bd1e	-0.17650267
144	0xbdb95176	-0.090487406
145	0x3e590312	0.21192577
146	0xbd98fe9b	-0.07470437
147	0xbe5b6aa7	-0.21427403
148	0xbe58ee12	-0.21184567
149	0x3e8e8fce	0.2784409
150	0xba6787a9	-0.00088321656
151	0x3e6d9bf6	0.23204026
152	0xbe19f447	-0.1503459
153	0x3e5c9337	0.21540533
154	0xbb484e05	-0.0030564081
155	0x3da14e95	0.078763165
156	0xbcf224db	-0.02955859
157	0xbdca6d41	-0.0988412
158	0xbe11b214	-0.14228088
159	0xbcb505af	-0.022097437
160	0xbe2c2d56	-0.1681417
161	0x3d8d1110	0.0688802
162	0xbe5a4065	-0.21313627
163	0x3d279e4f	0.04092246
164	0xbe266c3d	-0.16252227
165	0x3e248350	0.16065717
166	0x3e11e8fa	0.1424903
167	0xbe21c369	-0.157972
168	0x3e92b89a	0.28656465
169	0x3d015e1e	0.031583898
170	0xbde10dbb	-0.10988947
171	0x3e251c34	0.1612404
172	0x3d9218a1	0.07133604
173	0xbddf8710	-0.10914433
174	0xbe8d5931	-0.2760711
175	0xbc91b0c8	-0.017784491
176	0xbed46728	-0.41484952
177	0x3cd503e9	0.026002841
178	0xbd460adb	-0.048350196
179	0xbdf39760	-0.11894107
180	0xbddb63de	-0.107124075
181	0x3d2b2d84	0.041791454
182	0x3da6113e	0.081087574
183	0xbddcd3f6	-0.10782616
184	0xbe89a4e5	-0.26883617
185	0x3e48422e	0.19556496
186	0xbdcf5dff	-0.1012535
187	0xbce451a6	-0.027870964
188	0xbd8fba28	-0.07017928
189	0xbdb198b5	-0.08671705
190	0xba4c3925	-0.00077904976
191	0xbdbd5388	-0.09244448
192	0x3e354e02	0.17705539
193	0xbd833b14	-0.06407753
194	0x3cefb3aa	0.029260475
195	0x3d599e71	0.053129617
196	0xbeb30ec8	-0.34972215
197	0x3e14f7dd	0.14547677
198	0xbd7399a1	-0.059472684
199	0xbde4da3b	-0.11174437
200	0xbe551c61	-0.20811607
201	0xbe367f90	-0.17822099
202	0x3d641c0e	0.055690818
203	0x3cbc345a	0.022974182
204	0x3d0cc95c	0.03437172
205	0x3dc213fd	0.09476469
206	0x3ea5ef7f	0.32409284
207	0xbda90454	-0.08252779
208	0x3e1c4123	0.15259223
209	0x3dc7241e	0.09723686
210	0x3da0ff69	0.078612156
211	0x3e1c64b1	0.15272786
212	0x3e4e34a2	0.20137265
213	0x3ea3ceec	0.31993806
214	0xbc9cde7f	-0.019149063
215	0x3de28a73	0.11061563
216	0xbe20f5ba	-0.15718737
217	0x3e990b89	0.29891613
218	0xbc8c40e1	-0.01712078
219	0x3d123397	0.03569373
220	0x3b8dd8d8	0.0043288283
221	0xbd207fa8	-0.039184242
222	0x3e677e9a	0.22606888
223	0x3df0b80a	0.11753853
224	0x3e740bc4	0.23832613
225	0x3df21a9d	0.11821482
226	0xbddffe41	-0.10937167
227	0xbc555a13	-0.013021964
228	0x3e66f4d3	0.2255433
229	0x3da59e3e	0.08086823
230	0xbdf891df	-0.12137198
231	0xbe493924	-0.19650704
232	0x3e0f66ac	0.1400401
233	0x3eafa518	0.34305644
234	0xbcd4ddff	-0.025984762
235	0x3d6b55e4	0.05745496
236	0x3d806049	0.06268365
237	0x3da961ea	0.08270629
238	0x3e6aee9d	0.22942586
239	0x3e0580e4	0.13037449
240	0xbd0ad94f	-0.033898648
241	0xbe912821	-0.28350928
242	0x3e160e3f	0.14653872
243	0x3d28481b	0.04108439
244	0x3e0fc6ff	0.14040755
245	0x3e407b32	0.18796995
246	0x3ce07ae2	0.027402345
247	0x3ca59cc5	0.020216355
248	0x3d4ab2ca	0.049486913
249	0x3dbc34a3	0.09189727
250	0x3d8a5cdb	0.06755992
251	0xbe1400e4	-0.14453465
252	0xbc93fd12	-0.01806501
253	0x3e204fb1	0.156554
254	0xbebec7bd	-0.37261763
255	0x3ecaa7b5	0.39581075

conv2.lin_l.weight f4 [128, 64]
0	0x3c58641c	0.013207462
1	0xbd8ad4ef	-0.06778895
2	0xba051279	-0.00050763
3	0xbd1d5b69	-0.038417254
4	0x3c2b6394	0.010460753
5	0x3ca6e90b	0.020374795
6	0xbd11c619	-0.03558931
7	0x3edc9671	0.43083528
8	0xbda6fedc	-0.08154079
9	0xbdc915fc	-0.09818646
10	0xbd5fe288	-0.054659396
11	0xbc8be4fd	-0.017076964
12	0x3d861647	0.06547218
13	0x3d8b5485	0.0680323
14	0x3e93a916	0.2883994
15	0xbdc542f4	-0.09631911
16	0xbdfeb47d	-0.12436769
17	0x3d8cbead	0.06872306
18	0x3ddaeecb	0.106900774
19	0x3d5d5637	0.0540373
20	0x3cf8e553	0.030382788
21	0xbc5f7af9	-0.013640159
22	0xbd5765c6	-0.052587293
23	0x3e050a03	0.129921
24	0xbdafc2bb	-0.08582064
25	0xbd9f9ef9	-0.077939935
26	0xbe391d93	-0.18077688
27	0x3ebdde8c	0.37083852
28	0xbdad467a	-0.08460708
29	0x3e82b751	0.25530484
30	0x3e68e889	0.22744955
31	0xbe166c77	-0.14689814
32	0x3c3f517b	0.011677141
33	0xbcd0401c	-0.025421195
34	0xbdd04d40	-0.10170984
35	0x3d89a920	0.06721711
36	0x3e50f815	0.20407136
37	0x3d230d2f	0.039807495
38	0xbda8caff	-0.082418434
39	0xbc89ffd0	-0.016845614
40	0x3cfae166	0.030625056
41	0xbd611cbd	-0.054959048
42	0x3e23d39d	0.15998693
43	0x3c265099	0.010151052
44	0x3e31814d	0.1733448
45	0x3c4e7ef1	0.012603507
46	0xbd69092f	-0.056893524
47	0x3caab162	0.020836536
48	0x3dcb1a78	0.09917158
49	0xbc48e930	-0.0122626275
50	0xbd136267	-0.035982516
51	0xbe233b89	-0.1594068
52	0x3e1b5280	0.1516819
53	0x3e0ff69d	0.14058919
54	0xbdcd2dc1	-0.100184925
55	0x3c5fdf9c	0.0136641525
56	0xbcb76e1f	-0.022391377
57	0xbe069095	-0.13141091
58	0x3e6c6ff7	0.23089586
59	0xbc80f241	-0.015740516
60	0xbc87a786	-0.016559374
61	0xbe38c3a8	-0.18043387
62	0x3e813270	0.25233793
63	0x3d78507c	0.06062363
64	0xbc4b85d8	-0.012422048
65	0x3db97380	0.09055233
66	0x3d248678	0.040167302
67	0x3dac530e	0.08414279
68	0xbe1d1e94	-0.15343696
69	0xbd1f49d5	-0.03888877
70	0xbc8f1595	-0.017466346
71	0x3c9a26eb	0.018817386
72	0xbe0a1bb7	-0.13487135
73	0x3e054fcd	0.13018723
74	0xbdb039be	-0.086047634
75	0x3e66cc17	0.22538792
76	0x3d16eb18	0.036845297
77	0xbc17799d	-0.009245303
78	0x3ce0f6f9	0.027461516
79	0x3df8f161	0.121554144
80	0xbe0ccc9f	-0.13749932
81	0x3e6af2f5	0.22944243
82	0xbdc5268f	-0.09626495
83	0xbca89b11	-0.020581754
84	0x3d3a3121	0.04545701
85	0xbd3184f4	-0.043339685
86	0x3d4e0cee	0.0503053
87	0xbbd1d80c	-0.0064039286
88	0x3d804978	0.06264013
89	0x3e2c48c1	0.16824628
90	0x3bcbe614	0.006222496
91	0x3c5e27f0	0.0135593265
92	0x3e487cb0	0.19578815
93	0xbdaddd21	-0.084894426
94	0xbdb46922	-0.08809115
95	0xbd18a170	-0.037263334
96	0x3cb884e7	0.02252431
97	0x3d5ceca3	0.05393661
98	0xbd3b7251	-0.045763317
99	0x3dabc69d	0.08387492
100	0xbc578cca	-0.013156125
101	0x3d9727e7	0.07380658
102	0x3c809fdc	0.015701227
103	0x3d0c8ef0	0.034316003
104	0xbc40d0a2	-0.011768492
105	0x3dd8ff64	0.10595587
106	0xbe08afd8	-0.13348329
107	0x3d436a87	0.047709014
108	0x3d3b73ca	0.045764722
109	0xbd143f36	-0.036193095
110	0xbe0f09ab	-0.13968532
111	0x3d87c531	0.06629408
112	0xbe002055	-0.12512334
113	0x3db3be02	0.087764755
114	0xbd55dab7	-0.052210536
115	0x3d51dc2c	0.051235363
116	0xbd758f01	-0.059950832
117	0x3d5443ec	0.051822588
118	0x3cb753db	0.022378853
119	0xbe6de445	-0.23231609
120	0x3b255677	0.002522854
121	0x3de77984	0.11302474
122	0xbd9eb6c0	-0.077497005
123	0x3bec8ed7	0.0072191763
124	0xbe00125c	-0.12507004
125	0xbeb4e519	-0.35331038
126	0xbc37ffcd	-0.011230421
127	0x3e50e421	0.20399524
128	0xbcc5dbbb	-0.024152627
129	0x3d571be1	0.05251682
130	0xbd4ab0f4	-0.049485162
131	0xbe3313f7	-0.17488085
132	0xbdc88aa2	-0.09792067
133	0x3d837659	0.064190574
134	0xbc9d7410	-0.019220382
135	0x3ea283d1	0.31741193
136	0xbdb19c4b	-0.08672389
137	0x3d822e25	0.063564576
138	0xbc62056b	-0.013795237
139	0xbd9c1e26	-0.07622938
140	0xbdc05eda	-0.093930915
141	0x3dca6f34	0.098844916
142	0x3d4f73a0	0.050647378
143	0x3bed6bb7	0.0072455066
144	0xbe31124a	-0.17292133
145	0x3e099d04	0.13438803
146	0xbcbac13f	-0.022797225
147	0x3d8fe17f	0.07025432
148	0x3de62e75	0.1123933
149	0xbd61431c	-0.05499564
150	0x3cbb86ec	0.022891484
151	0x3c59c6c0	0.013292015
152	0x3e4f989f	0.20273064
153	0xbc1a3793	-0.009412664
154	0xbe4a8cda	-0.19780293
155	0x3e91bf0d	0.28466073
156	0xbe1603d9	-0.14649905
157	0x3e754c6c	0.23954934
158	0x3e3a12b3	0.18171196
159	0xbdf5f323	-0.12009265
160	0x3dadb141	0.08481074
161	0xbcd9a26f	-0.026566712
162	0xbd14f497	-0.03636607
163	0xbaa0c195	-0.0012264723
164	0x3ea2aef5	0.31774107
165	0xbd0ee70d	-0.034888316
166	0xbddcb20a	-0.10776146
167	0xbdc58d68	-0.09646112
168	0x3d53476c	0.051581785
169	0x3d9d03ba	0.076667264
170	0x3e7c8a66	0.2466217
171	0xbd34a236	-0.04410001
172	0x3e065839	0.13119592
173	0x3dc4d2d9	0.096105285
174	0xbd2504e1	-0.040287856
175	0xbd3a1505	-0.045430202
176	0x3db32cb0	0.08748758
177	0xbd1c98a3	-0.038231503
178	0xbda60a63	-0.0810745
179	0xbd42ea4a	-0.047586717
180	0x3d76f040	0.060287714
181	0x3d96107d	0.07327364
182	0xbdb3f37c	-0.08786675
183	0x3d55febd	0.05224489
184	0xbdd9860d	-0.10621271
185	0x3b04f8de	0.0020289938
186	0x3e8fed8c	0.2811092
187	0x3d768184	0.06018211
188	0xbd9d32a9	-0.07675678
189	0x3c8b506e	0.017006125
190	0x3ece2b8e	0.40267605
191	0xbd026d37	-0.031842437
192	0xbcd5e4c2	-0.026110057
193	0xbcedc3c6	-0.029024016
194	0xbd3b9ace	-0.04580193
195	0xbc5aca03	-0.013353827
196	0xbd4d4f20	-0.050124288
197	0xbd52bba8	-0.051448494
198	0x3cbd99ce	0.023144629
199	0x3d333531	0.0437519
200	0xbd9b1ad1	-0.07573474
201	0xbb7738f3	-0.0037723153
202	0xbd81b1b9	-0.06332726
203	0xbd80a00c	-0.062805265
204	0xbc2e0b32	-0.010622786
205	0xbd693a75	-0.056940515
206	0xbd34e52d	-0.04416387
207	0xbbda1214	-0.006654987
208	0x3c5a6166	0.013328886
209	0x3cf1f560	0.02953595
210	0xbcb83e04	-0.022490509
211	0x3b16331c	0.0022918647
212	0xbd312307	-0.043246295
213	0xbc47569c	-0.012166645
214	0xbd1f57e8	-0.038902193
215	0x3cb54692	0.022128377
216	0xbdb80a9c	-0.089863986
217	0xbdfd6591	-0.12372888
218	0xbd35ab64	-0.044352904
219	0xbca5caf4	-0.020238377
220	0xbd2d80bb	-0.042359095
221	0xbd0bc9cf	-0.034128007
222	0x3cff190c	0.031139873
223	0xbcc2af74	-0.023765303
224	0xbd990eb8	-0.074735105
225	0xbe206026	-0.15661678
226	0xbc214383	-0.009842756
227	0x3c773b7e	0.015089868
228	0xbbab575c	-0.00522892
229	0xbd47b749	-0.04875878
230	0x3c330491	0.010926382
231	0xbc9e8a0b	-0.019352933
232	0xbdce4710	-0.10072148
233	0x3de47a8c	0.111561865
234	0xbdbca346	-0.092108294
235	0xbce83539	-0.028345691
236	0xbb264428	-0.0025370214
237	0xbbea6699	-0.007153344
238	0xbbade499	-0.005306792
239	0x3c8d284f	0.017231135
240	0xba37f56b	-0.0007017466
241	0xbc9cb9fd	-0.019131655
242	0xbe5fb83c	-0.21847624
243	0xbcca0ff0	-0.024665803
244	0xbc75b1df	-0.014996021
245	0xbdae6483	-0.08515265
246	0xbc688485	-0.014191751
247	0xbca3b67f	-0.019984482
248	0xbcd9e5d1	-0.026598843
249	0x3c590269	0.0132452035
250	0xbd7cfd99	-0.061765287
251	0xbda11a12	-0.07866301
252	0xbd4dbc87	-0.05022862
253	0xbdf89adf	-0.12138914
254	0xbdc7f141	-0.097628124
255	0x3c4a9ff7	0.01236724

conv2.lin_l.bias f4 [128]
0	0xbe97859d	-0.29594126
1	0x3da4e6cf	0.08051836
2	0xbe03280a	-0.12808242
3	0xbe157e54	-0.14598972
4	0xbe61ed04	-0.2206307
5	0x3d1d2a6d	0.03837054
6	0xbe371bfd	-0.1788177
7	0x3ce1b881	0.027553799
8	0xbe2338f0	-0.15939689
9	0xbe353b44	-0.1769839
10	0xbdcb760e	-0.099346265
11	0xbd252060	-0.04031408
12	0xbddfbaa1	-0.109242685
13	0x3da99851	0.08281005
14	0x3d203efa	0.03912256
15	0x3c205ed1	0.009788231
16	0x3d51a3f8	0.051181763
17	0x3c15a9c6	0.009134715
18	0x3d8f79d5	0.070056595
19	0x3d9928e3	0.07478502
20	0xbdec5086	-0.11538796
21	0xbdde8c45	-0.10866598
22	0x3e0a5845	0.13510235
23	0xbd2747dd	-0.04084002
24	0xbe4afd1f	-0.1982312
25	0xbc2879cd	-0.010282946
26	0xba3813bb	-0.0007021983
27	0x3da9cedf	0.08291411
28	0xbea5198e	-0.3224606
29	0xbe01118c	-0.1260435
30	0xbdf6babc	-0.120473355
31	0xbe57e7cf	-0.21084522
32	0x3dd71861	0.10502697
33	0x3db1af2f	0.08675992
34	0xbd677a9a	-0.056513406
35	0x3ddbd508	0.10733992
36	0x3d7cfb81	0.06176329
37	0x3dc076b3	0.0939764
38	0x3e282864	0.16421658
39	0xbd60d173	-0.054887246
40	0xbdd2394d	-0.102648355
41	0xbdb044e5	-0.086068906
42	0x3e0d4544	0.13795954
43	0xbc05407b	-0.008133049
44	0x3d1d8dd9	0.038465355
45	0xbd6694a0	-0.056294084
46	0xbcf42949	-0.029804843
47	0x3ce0d51b	0.027445367
48	0xbe0fb6ab	-0.14034526
49	0x3d2576a1	0.040396336
50	0xbdfbafb3	-0.12289371
51	0xbe440673	-0.19143085
52	0xba48070a	-0.00076304434
53	0xbd9f874a	-0.07789476
54	0xbe2f4a3d	-0.17118163
55	0xbda97a8e	-0.082753286
56	0xbd3be2e5	-0.04587068
57	0x3cbe598b	0.023236057
58	0xbe5f1657	-0.21785866
59	0x3db7fe81	0.0898409
60	0xbe9fdf08	-0.31224847
61	0x3d9d9e96	0.076962635
62	0xbdd9dffd	-0.106384255
63	0xbe4a3b42	-0.19749168
64	0x3cc83071	0.024437161
65	0xbc61a72a	-0.013772765
66	0xbe02c37a	-0.12769881
67	0x3dc5cad7	0.09657829
68	0xbc870557	-0.016482038
69	0xbdbcb276	-0.09213726
70	0x3e061f51	0.13097884
71	0xbdeab438	-0.11460155
72	0xbc0b9577	-0.008519522
73	0xbe1e6b46	-0.15470609
74	0x3da28e36	0.07937281
75	0xbe070157	-0.13184105
76	0x3cc27097	0.023735328
77	0x3bc6ecbc	0.0060707014
78	0xbdb2143c	-0.08695266
79	0x3ddf870d	0.10914431
80	0x3c7bc766	0.0153673645
81	0x3d510d7a	0.051038243
82	0x3cb708d1	0.022343071
83	0xbd3c8fab	-0.04603545
84	0xbdcd1ec8	-0.10015637
85	0x3dd853a1	0.10562826
86	0xbdb75ad9	-0.08952875
87	0x3ca9b4bd	0.020716066
88	0xbe6c22cd	-0.2306015
89	0xbc5796d3	-0.013158518
90	0xbdee2ecb	-0.11630019
91	0xbdc8d633	-0.0980648
92	0x3c87a484	0.01655794
93	0xbdcb64a9	-0.09931309
94	0xbcdd6505	-0.027025709
95	0xbd00db89	-0.031459365
96	0x3e58da29	0.21176971
97	0xbe117301	-0.14204027
98	0xbca87bf7	-0.020566924
99	0xbd234081	-0.039856438
100	0xbe856608	-0.26054406
101	0x3c5540f6	0.013015976
102	0xbdf59946	-0.11992125
103	0xba1e6c82	-0.00060433906
104	0xbe09b745	-0.13448818
105	0x3e0d429c	0.1379494
106	0xbda13412	-0.0787126
107	0xbd0e78dc	-0.03478323
108	0xbe18e3f3	-0.14930706
109	0xbc07bf81	-0.008285404
110	0xbe941d99	-0.2892883
111	0xbb2d5092	-0.0026445729
112	0xbe85bc2f	-0.26120135
113	0x3d8a9f22	0.067686334
114	0x3dac3a97	0.084096126
115	0x3d05b890	0.032646716
116	0xbd58fa60	-0.05297315
117	0x3d8e0a92	0.0693561
118	0xbe9f47d1	-0.3110948
119	0x3da55453	0.08072724
120	0x3d62ba7f	0.055353638
121	0x3d6a3363	0.057177912
122	0xbd61491d	-0.055001367
123	0x3ca6b019	0.020347642
124	0xbd6203b7	-0.055179324
125	0xbe1764aa	-0.14784494
126	0xbe02cbb5	-0.1277302
127	0xbe2c9f7d	-0.16857715

conv2.lin_r.weight f4 [128, 64]
0	0xbd7729d6	-0.060342632
1	0x3dd65f88	0.1046744
2	0xbe08b934	-0.133519
3	0xbdcb6b82	-0.09932615
4	0xbdbbbfde	-0.09167455
5	0x3dcf2fe9	0.1011656
6	0x3db1b369	0.08676798
7	0x3eb22002	0.34790045
8	0xbdddb091	-0.10824693
9	0xbe2b5375	-0.16731055
10	0xbd8b8efd	-0.06814382
11	0xbd1d45a4	-0.038396493
12	0x3d9d18b8	0.0767073
13	0xbd09cac9	-0.033640657
14	0x3e766bbb	0.24064533
15	0xbdb9b69d	-0.09068034
16	0xbdbb5631	-0.09147299
17	0x3da1c050	0.07898009
18	0xbda94a1f	-0.082660906
19	0xbd31a3b8	-0.043369025
20	0xbd510dec	-0.051038668
21	0xbdb66db8	-0.08907646
22	0x3e1d3e77	0.1535586
23	0x3e4bf7e9	0.19918789
24	0xbdb275b9	-0.0871386
25	0xbdbeb5fa	-0.09312053
26	0x3d310c65	0.04322471
27	0x3eb7dad1	0.3590913
28	0x3c4ccdf9	0.01250028
29	0x3d567ee9	0.052367125
30	0x3e560c67	0.20903169
31	0xbe15c56c	-0.14626092
32	0xbd71bcd1	-0.05901796
33	0x3c43049f	0.011902957
34	0xbd6ccafa	-0.05781076
35	0xbdcbee59	-0.099575706
36	0x3e47c4cb	0.19508664
37	0x3d965935	0.07341234
38	0xbd8fe2e4	-0.07025698
39	0x3cc1636d	0.02360698
40	0x3d9a32bd	0.07529209
41	0x3d82bd10	0.06383717
42	0xb9b2ac91	-0.00034079378
43	0x3dc97126	0.098360345
44	0x3e31d480	0.17366219
45	0x3d0ff150	0.035142243
46	0xbc704b83	-0.014666441
47	0xbc4487aa	-0.011995235
48	0x3e85af95	0.2611052
49	0xbdceeb77	-0.10103505
50	0xbdcaf0f2	-0.09909238
51	0xbdba5ccf	-0.09099733
52	0x3dff825d	0.12476037
53	0x3dbf66d3	0.09345784
54	0xbd1777dc	-0.03697954
55	0xbd119622	-0.03554357
56	0xbd0532cc	-0.032519147
57	0xbe0c4773	-0.1369913
58	0x3a2d602b	0.00066137564
59	0xbd980e00	-0.07424545
60	0x3d6b75b5	0.0574853
61	0xbe3a6822	-0.18203786
62	0x3e5d3090	0.21600556
63	0xbd87394d	-0.06602726
64	0xbbb67a81	-0.005568803
65	0x3de83e39	0.11339993
66	0xbdad735f	-0.08469271
67	0x3db3b1ec	0.0877417
68	0xbe303aa3	-0.17209868
69	0xbd916ca2	-0.07100798
70	0xbd869e9b	-0.0657322
71	0x3cd35a75	0.02579997
72	0xbe3efbdd	-0.18650766
73	0xbd149da9	-0.03628317
74	0xbe0ec69a	-0.13942948
75	0x3e3832aa	0.17988077
76	0xbc377132	-0.011196421
77	0xbd6f86eb	-0.058478277
78	0x3e6ae5db	0.22939245
79	0xbdb9ea56	-0.09077899
80	0xbd1ecae9	-0.03876773
81	0x3dce31b4	0.10068074
82	0xbd87926e	-0.06619726
83	0x3d1ba9e2	0.03800381
84	0x3daaca9c	0.08339426
85	0x3ce9e3fb	0.028551092
86	0xbe2051a4	-0.15656143
87	0xbd2ce49d	-0.04221021
88	0x3ce0fff9	0.027465807
89	0x3dd8bbc8	0.105826914
90	0x3d158464	0.03650321
91	0xbe3cb74c	-0.18429297
92	0x3cb57411	0.022150071
93	0xbe658474	-0.22413808
94	0xbe12665c	-0.1429686
95	0x393cc15e	0.00018001112
96	0xbd87303f	-0.06600999
97	0x3cc13aaa	0.023587544
98	0xbe112991	-0.14176013
99	0x3e3a3df1	0.18187691
100	0xbd82761d	-0.063701846
101	0x3c322c93	0.010874885
102	0x3d3a6fec	0.045516893
103	0x3da0fa74	0.0786027
104	0xbcf2e1a4	-0.02964861
105	0x3d773fb4	0.060363486
106	0xbdcc194e	-0.09965764
107	0x3df9bc8f	0.12194168
108	0x3ce71e7b	0.028212776
109	0xbde3dcf2	-0.11126126
110	0xbe9f5f7a	-0.3112753
111	0xbc0f5387	-0.008747942
112	0xbe457d08	-0.19285977
113	0xbcaefe76	-0.02136157
114	0xbe4c896d	-0.19974299
115	0xbca185cd	-0.019717121
116	0xbcf4a4a3	-0.029863661
117	0x3dc5bf45	0.096556224
118	0x3d31a600	0.0433712
119	0xbe900678	-0.28129935
120	0xbe3d5170	-0.18488097
121	0x3d86d9fa	0.065845445
122	0xbe2f0da8	-0.17095053
123	0x3e20e837	0.15713583
124	0xbe10d6b1	-0.14144398
125	0xbea4e20a	-0.32203704
126	0xbde1d938	-0.11027759
127	0x3d9d90aa	0.07693608
128	0x3bdef171	0.0068036844
129	0x3d805f51	0.0626818
130	0xbd891f0c	-0.06695375
131	0xbdde998f	-0.10869133
132	0xbd757b8b	-0.059932273
133	0xbc79ce0b	-0.015246878
134	0x3c691c77	0.014227978
135	0x3e32e958	0.17471826
136	0xbe43fb71	-0.19138886
137	0xbda31834	-0.07963601
138	0xbdb15663	-0.08659055
139	0xbde1d809	-0.110275336
140	0xbe0337b0	-0.12814212
141	0x3d60a0a9	0.054840717
142	0x3df51c45	0.119682826
143	0xbd4c7c84	-0.049923435
144	0xbe079db6	-0.13243756
145	0x3dab204c	0.083557695
146	0x3d138eb2	0.036024757
147	0x3d102d21	0.03519929
148	0x3d24a451	0.040195767
149	0xbda1fe47	-0.07909828
150	0xbd9c4af4	-0.07631484
151	0xbd82465f	-0.063610785
152	0x3dbf7a03	0.09349444
153	0x3ccc18dd	0.0249142
154	0xbe858926	-0.26081198
155	0x3eabad8a	0.33530837
156	0xbddfdd56	-0.10930888
157	0x3e85f8de	0.26166433
158	0xbcb512db	-0.022103718
159	0xbdccd6a7	-0.10001879
160	0x3e0a45e1	0.13503219
161	0xbcb87a1d	-0.022519166
162	0x3cb3ac55	0.02193276
163	0xbdd04879	-0.10170073
164	0x3e14a5f6	0.14516434
165	0x3d0b3f88	0.033996135
166	0xbd657d61	-0.056027774
167	0x3c172210	0.00922443
168	0x3e0d5eee	0.13805744
169	0xbd090fee	-0.033462457
170	0x3d967274	0.07346049
171	0xbe215c16	-0.15757784
172	0x3d5a14c1	0.05324245
173	0x3e10c851	0.14138915
174	0xbabfcade	-0.0014632603
175	0xbde12ba0	-0.10994649
176	0x3dd5044e	0.10401212
177	0xbde124c6	-0.10993342
178	0xbe073f3d	-0.13207717
179	0xbe1a9e94	-0.15099555
180	0x3dcf55f4	0.10123816
181	0xbd7cf14c	-0.061753556
182	0xbdb814a8	-0.08988315
183	0xbdfdd831	-0.12394751
184	0xbc87753c	-0.016535394
185	0xbdca7a97	-0.098866634
186	0x3e0ef4bc	0.13960546
187	0xbba82aee	-0.0051320707
188	0x3d8f0f49	0.06985337
189	0x3d96a62c	0.073559135
190	0x3e9127aa	0.28350574
191	0xbd4a012b	-0.04931752
192	0xbd8a6202	-0.06756975
193	0x3de616fa	0.11234851
194	0x3c84975e	0.016185459
195	0xbdccb81b	-0.09996053
196	0xbd3f6759	-0.04672942
197	0xbdd95d5b	-0.10613509
198	0x3d0310ef	0.03199857
199	0x3dc879c2	0.097888485
200	0xbd0cec7a	-0.03440521
201	0xbad6e6a2	-0.0016395638
202	0xbcaa35ca	-0.020777602
203	0xbdd64260	-0.10461879
204	0xbdb61f08	-0.088926375
205	0x3e2170c9	0.1576568
206	0xba3501e2	-0.00069048826
207	0xbd7fc920	-0.062447667
208	0xbc925cc4	-0.0178665
209	0xbca5163e	-0.020152207
210	0xbda586f8	-0.08082384
211	0x3c24c9f9	0.01005792
212	0x3d91fb53	0.071280144
213	0x3e359e9f	0.1773629
214	0x3d3f5cd2	0.04671938
215	0x3dc6c7b3	0.09706058
216	0xbdbd04d1	-0.09229434
217	0x3ded38d8	0.11583108
218	0xbdb1c8ab	-0.086808525
219	0x3e6293a3	0.22126631
220	0xbdcdd781	-0.1005087
221	0xbd8af405	-0.06784824
222	0x3e89ae32	0.26890713
223	0x3d0108c2	0.031502493
224	0xbe317fe9	-0.1733395
225	0x3dd4705d	0.10372994
226	0x3dc633b9	0.09677834
227	0xbc52246d	-0.012826067
228	0x3e41acc0	0.18913555
229	0x3d8e4c5c	0.06948158
230	0xbe55810a	-0.20850006
231	0x3dadef70	0.08492935
232	0xbdcfb999	-0.10142822
233	0x3dff9d5f	0.12481188
234	0x3db57ced	0.08861718
235	0x3df6ee66	0.1205719
236	0xbccedfb7	-0.02525316
237	0x3e51c31b	0.20484583
238	0x3c7dd6d4	0.015493114
239	0xbd59513d	-0.05305599
240	0x3db03b70	0.08605087
241	0xbd4046ed	-0.04694264
242	0x3ca788cb	0.02045097
243	0x3b24f641	0.0025171193
244	0xbcc079c4	-0.023495562
245	0xbd9fa254	-0.077946335
246	0x3d85b0b6	0.065278456
247	0x3e41cae2	0.1892505
248	0xbe176465	-0.14784391
249	0xbbab9922	-0.0052367607
250	0xbdff62a3	-0.12469985
251	0x3d9a4a6f	0.07533728
252	0x3e05b342	0.13056663
253	0x3ce760d5	0.028244415
254	0xbd9050d2	-0.07046665
255	0xbd7c8962	-0.061654456

conv3.lin_l.weight f4 [256, 128]
0	0x3d998fd4	0.07498136
1	0xbd197a09	-0.037469897
2	0x3d5da92d	0.054116417
3	0x3d23e7a6	0.04001584
4	0x3d98a307	0.0745297
5	0xbd77033c	-0.06030582
6	0xbd0555f5	-0.03255268
7	0x3d47fee7	0.04882708
8	0x3c604053	0.013687211
9	0x3d63f8ec	0.055657312
10	0x3ba36502	0.0049864063
11	0x3d9d2ff3	0.07675161
12	0x3d57add4	0.05265601
13	0xbd031bc5	-0.032008905
14	0xbc7caa01	-0.015421391
15	0xbd427198	-0.047471613
16	0xbcd8d749	-0.026469843
17	0x3d08ba11	0.03338057
18	0xbdc94917	-0.09828394
19	0xbc96c038	-0.018402204
20	0xbbebb821	-0.0071935807
21	0x3ca5b962	0.020229999
22	0xbd4362d3	-0.047701668
23	0x3e1f9385	0.15583618
24	0x3ccc7a06	0.024960529
25	0x3cd82414	0.02638439
26	0x3d46dc00	0.048549652
27	0xbd3d34b9	-0.04619286
28	0x3dea4e5a	0.114407256
29	0x3dc5936e	0.096472606
30	0x3dd5ded7	0.10442894
31	0x3cad8d24	0.021185465
32	0x3d7d9628	0.06191078
33	0x3c958ee8	0.01825662
34	0xbcf0c27d	-0.029389614
35	0x3c38b895	0.011274477
36	0xbb9153f0	-0.004435055
37	0x3cde2e40	0.027121663
38	0xbd363f97	-0.044494238
39	0xbdb88d4b	-0.090113245
40	0x3d6b254a	0.05740861
41	0x3dde892e	0.10866009
42	0x3ad45c8b	0.0016201896
43	0xbdcea7df	-0.100906126
44	0xbc9423b2	-0.018083427
45	0x3d11ceff	0.035597797
46	0xbe0a4c4b	-0.13505666
47	0x3d86d54b	0.06583651
48	0x3d7bfe29	0.061521683
49	0xbc2a52c5	-0.01039571
50	0x3e40a5de	0.18813273
51	0x3db94a67	0.09047394
52	0x3c6e8059	0.014556968
53	0x3c96f878	0.018429026
54	0x3de8ed1b	0.11373349
55	0x3cf79b91	0.030225547
56	0x3d8df616	0.06931703
57	0x3b9131e4	0.0044309963
58	0x3db5b227	0.088718705
59	0x3d941b80	0.07231808
60	0x3df47c15	0.11937729
61	0x3daa2d22	0.0830939
62	0xbcda0686	-0.026614439
63	0x3d13d2dd	0.036089767
64	0x3d4f9f6f	0.050689157
65	0x3e18b182	0.14911464
66	0x3d9487e2	0.0725248
67	0x3e022ebc	0.1271314
68	0x3df395d2	0.1189381
69	0x3bf1d0b7	0.007379617
70	0x3dbced0c	0.092249006
71	0x3c98a8e0	0.018635213
72	0xbc9113f3	-0.017709708
73	0x3d114e24	0.03547491
74	0x3c3d7b11	0.011564986
75	0x3e0c860e	0.13723013
76	0x3e180ee5	0.14849432
77	0x3d50c46e	0.05096858
78	0x3d9998d1	0.074998505
79	0x3bd17cf3	0.006393069
80	0xbe25d83e	-0.16195771
81	0x3e1ca82a	0.15298524
82	0xbdb1d478	-0.08683103
83	0x3dc30063	0.09521558
84	0x3c2dd9b1	0.010610984
85	0x3d262e0c	0.040571257
86	0x3d6d520e	0.05793958
87	0x3c6b0a64	0.014345739
88	0x3d0996dc	0.033591136
89	0xbcf23fd8	-0.029571459
90	0x3d63176a	0.05544225
91	0xbb0941e7	-0.0020943822
92	0x3d3456cb	0.044028085
93	0x3ce49f77	0.02790807
94	0x3bdc8c02	0.0067305574
95	0x3e5c80ea	0.21533552
96	0x3d98b924	0.07457188
97	0x3daf9bf8	0.085746706
98	0x3ddb8837	0.1071934
99	0xbd5a42c2	-0.05328632
100	0x3cdfc615	0.027316133
101	0x3d63c318	0.055605978
102	0x3d30899d	0.04309999
103	0x3dd03a55	0.10167376
104	0xbb8eb05b	-0.0043545193
105	0x3cf12f06	0.029441368
106	0x3c9f8fa3	0.019477671
107	0x3d993cc5	0.07482294
108	0x3e0ccce1	0.1375003
109	0x3dcf1882	0.10112096
110	0xbcf3fdad	-0.029784048
111	0x3dc6e46e	0.09711538
112	0x3cfde382	0.030992273
113	0xbd802f45	-0.06259016
114	0x3cf7953b	0.030222526
115	0x3d613648	0.054983407
116	0xbcf354e5	-0.029703567
117	0x3d447770	0.047965467
118	0x3d69ee60	0.057112098
119	0x3e1a4191	0.15064074
120	0xbd46ed5f	-0.04856622
121	0x3dc69c7d	0.096978165
122	0xbd46d867	-0.04854622
123	0x3cc1b552	0.02364603
124	0x3ab017fb	0.0013434881
125	0x3c6964ed	0.014245254
126	0x3d25b228	0.040453106
127	0x3d9c6475	0.07636348
128	0xbd88fac6	-0.06688456
129	0x3de98b16	0.11403482
130	0xbe37a422	-0.17933705
131	0x3e0a3051	0.13494994
132	0x3e07b2e1	0.1325183
133	0xbd5f2967	-0.054482844
134	0xbd816813	-0.06318679
135	0xbb929093	-0.004472801
136	0x3df6094e	0.120134935
137	0xbe1dd057	-0.15411507
138	0xbc155943	-0.00911552
139	0xbd60171b	-0.054709535
140	0x3d231a7a	0.039820172
141	0x3cd9487e	0.026523825
142	0x3c0d6fd8	0.008632623
143	0xbdaa85df	-0.08326315
144	0x3c261922	0.010137828
145	0x3ba7cd67	0.0051209214
146	0x3d27bb84	0.040950313
147	0x3c87c5ef	0.016573874
148	0x3caaa8fc	0.020832531
149	0x3debd230	0.115146995
150	0xbd4e2c39	-0.050335143
151	0x3e28bc50	0.16478086
152	0xbd22437b	-0.039615136
153	0xbb6955a6	-0.003560403
154	0xbdeb19e0	-0.11479545
155	0xbc576978	-0.013147704
156	0x3dd1fd71	0.10253418
157	0x3d8f8f13	0.07009711
158	0xbd936ce5	-0.07198504
159	0x3dc13ed5	0.094358124
160	0xbbc56faf	-0.0060252766
161	0xbd73ea76	-0.05954977
162	0x3d454651	0.048162762
163	0x3d81b916	0.063341305
164	0x3d379ea9	0.044829044
165	0x3d82a9b5	0.06380025
166	0x3c7a4c34	0.015276957
167	0xbc1cc650	-0.009568766
168	0x3df8121d	0.1211283
169	0xbda833aa	-0.08212979
170	0xbb906431	-0.004406475
171	0x3ddf7a81	0.10912038
172	0xbd91ef6b	-0.071257435
173	0xbc116631	-0.008874462
174	0x3d197e25	0.037473816
175	0xbdc2bc19	-0.09508533
176	0xbe3d93f3	-0.1851347
177	0xbda55cd3	-0.080743454
178	0xbe44d7a8	-0.19222891
179	0x3c2ed9e3	0.010672065
180	0xbd78b6e4	-0.060721293
181	0xbd21a685	-0.039465446
182	0x3db752d0	0.08951342
183	0xbcf273fe	-0.029596325
184	0xbd82ea87	-0.06392389
185	0x3cd83158	0.026390716
186	0x3ddd2930	0.107988715
187	0x3bd1e492	0.0064054215
188	0x3d02896f	0.03186935
189	0x3d85106b	0.06497272
190	0x3e0bc559	0.13649501
191	0xbbb3f859	-0.005492252
192	0xbcfc00cb	-0.030762097
193	0xbddf6140	-0.10907221
194	0xbd31791a	-0.043328382
195	0xbc290071	-0.010315047
196	0x3d35ef47	0.044417646
197	0xbd5b2a46	-0.053507112
198	0xbe52ea8e	-0.20597288
199	0xbd4724f8	-0.04861924
200	0xbe4e96ca	-0.20174709
201	0x3c013540	0.007886231
202	0x3df74e7f	0.12075519
203	0xbcea5fae	-0.028610077
204	0xbd4caf71	-0.049972
205	0x3d253cbf	0.040341135
206	0xbc86a758	-0.016437218
207	0xbaa16e3a	-0.0012316175
208	0xbd836228	-0.06415206
209	0x3cc74c38	0.024328336
210	0xbd3364cc	-0.0437973
211	0xbd96b45d	-0.0735862
212	0x3c923c41	0.017850997
213	0x3d90790c	0.07054338
214	0xbb9aab2a	-0.0047201114
215	0xbe5b43b3	-0.21412544
216	0xbb2c61e9	-0.0026303476
217	0xbd50d46b	-0.050983828
218	0xbd51c1d1	-0.05121023
219	0x3de18f21	0.11013628
220	0xbdab3bba	-0.08361001
221	0xbc8497d0	-0.016185671
222	0x3d37dcca	0.044888295
223	0xbd87ed16	-0.066370174
224	0xbdf19800	-0.1179657
225	0x3da24248	0.079227984
226	0xbe2c18ef	-0.16806386
227	0x3c8c26b8	0.017108306
228	0xbcd90d0f	-0.026495485
229	0x3ca234d9	0.01980059
230	0xb6c41c4b	-5.844549e-06
231	0xbe09c340	-0.13453388
232	0xbad2d0b5	-0.0016083928
233	0xbd9c747f	-0.07639407
234	0x3d036ad9	0.03208432
235	0xbc4536ab	-0.01203696
236	0xbb75337d	-0.0037414723
237	0xbe5c691b	-0.2152447
238	0x3aa97736	0.0012929204
239	0xbdffabdb	-0.12483951
240	0xbbf1f668	-0.0073841102
241	0xbcac7fb5	-0.02105699
242	0xbd603bb6	-0.054744445
243	0xbd3a573c	-0.04549335
244	0x3d5d6818	0.05405435
245	0xbd68fa70	-0.05687946
246	0xbd8137d8	-0.063094795
247	0xbd10a24f	-0.03531104
248	0xbcb57155	-0.022148767
249	0xbd9efe9e	-0.07763408
250	0x3b8b6f04	0.0042551775
251	0x3d977449	0.073952265
252	0xbd2aeef3	-0.041731786
253	0xbc534f47	-0.012897319
254	0xbd06721d	-0.03282367
255	0x3e1e80bc	0.15478796

conv3.lin_l.bias f4 [256]
0	0xbb2cd5dc	-0.0026372587
1	0xbe3eaec5	-0.18621357
2	0xbdb5a250	-0.08868849
3	0x3c035658	0.008016191
4	0xbde9044b	-0.11377772
5	0xbd1f40f5	-0.038880307
6	0x3c28cd20	0.010302812
7	0x3c4e63db	0.01259705
8	0x3c43056a	0.011903146
9	0xbd6de5ac	-0.05808036
10	0xbcbc1684	-0.022959955
11	0xbd6c03d9	-0.057620857
12	0xbdc15b8c	-0.09441289
13	0xbd6f5a50	-0.058435738
14	0xbe52fe5e	-0.20604846
15	0xbe40e13a	-0.18835917
16	0xbdf22b78	-0.11824697
17	0xbc1d903b	-0.009616907
18	0xbd2e464c	-0.04254751
19	0xbab1c1ea	-0.0013561819
20	0xbd8871a6	-0.06662302
21	0xbcaf7520	-0.021418154
22	0xbd7a9409	-0.061176334
23	0xbd758b1d	-0.059947122
24	0xbe042766	-0.12905654
25	0xbd8cf5f1	-0.06882847
26	0xbd848423	-0.064705156
27	0x3cfa3c1b	0.030546239
28	0xbd8d042a	-0.0688556
29	0xbd2297b3	-0.039695453
30	0xbd914977	-0.070940904
31	0x3c8b0557	0.01697032
32	0xbd1f848e	-0.038944773
33	0x3d6fbcca	0.058529653
34	0x3e4738b1	0.1945522
35	0x3d56fb1b	0.052485567
36	0x3c1e9d43	0.009681049
37	0x3e0710be	0.1318998
38	0x3d12c149	0.035828862
39	0x3cc54c8f	0.024084358
40	0xbe3c38a3	-0.1838098
41	0xbd3c821d	-0.046022523
42	0xbba38562	-0.0049902657
43	0xbcdf9bc1	-0.027295949
44	0x3e07eb2b	0.13273303
45	0xbdcc33c3	-0.0997081
46	0xbe4a8ae7	-0.1977955
47	0xbe6d7136	-0.23187718
48	0xbe384976	-0.17996773
49	0x3c69db90	0.014273539
50	0xbe30bc94	-0.17259437
51	0x3d90ddb8	0.070735395
52	0xbe38cd3b	-0.18047039
53	0xbe65c8cf	-0.22439884
54	0x3d432043	0.04763819
55	0xbc1fe0a1	-0.009758146
56	0xbdbf5c30	-0.09343755
57	0xbbffb1b1	-0.007803165
58	0xbdbe9c84	-0.09307197
59	0xbc3c1136	-0.011478713
60	0xbd3ba7d4	-0.04581435
61	0xbe6a38c9	-0.22873224
62	0xbda549ce	-0.08070718
63	0xbddfc637	-0.10926478
64	0xbc2db97a	-0.010603303
65	0x3dbb8cc9	0.09157712
66	0xbd9caf93	-0.076506756
67	0xbe0c6c86	-0.13713273
68	0xbd9061e7	-0.070499234
69	0xbd8bf7de	-0.06834386
70	0x3d4ddd1f	0.050259706
71	0x3d98f9da	0.074695304
72	0x3d22492c	0.039620563
73	0x3dc32022	0.09527613
74	0xbd03de23	-0.032194268
75	0xbe0fc3ba	-0.14039508
76	0xbdcfc828	-0.10145599
77	0xbcf84d8e	-0.030310418
78	0xbddbf13a	-0.1073937
79	0x3e220812	0.15823391
80	0x3de80da0	0.11330724
81	0xbd8b9120	-0.0681479
82	0xbe882697	-0.26591942
83	0xbd8003ed	-0.06250749
84	0xbde18344	-0.11011365
85	0xbd222cf6	-0.03959366
86	0xbde84d46	-0.11342864
87	0xbdc9ad7d	-0.098475434
88	0x3db05ce7	0.0861147
89	0xbdc41ed2	-0.09576191
90	0xbd206f3c	-0.03916858
91	0xbde7676d	-0.11299024
92	0xb3e0f665	-1.0475632e-07
93	0x3e551f26	0.20812663
94	0x3d4c08e8	0.04981318
95	0xbdd0d563	-0.1019695
96	0xbe2484a3	-0.16066222
97	0xbe1192ed	-0.14216204
98	0x3b54b0c3	0.003245399
99	0xbdc0526d	-0.093907215
100	0xbc04ab7f	-0.0080975285
101	0xbda700e7	-0.08154469
102	0x3e070945	0.1318713
103	0xbe094c13	-0.13407926
104	0x3e3cbce4	0.18431431
105	0x3e572733	0.21011047
106	0x3cbb64bd	0.022875184
107	0xbda5151f	-0.08060669
108	0xbdf67dcc	-0.120357126
109	0x3c0812d5	0.008305271
110	0xbd81cb29	-0.06337578
111	0x3ca97e56	0.020690124
112	0x3db00b95	0.08595959
113	0x3d9ea86c	0.07746968
114	0xbc899762	-0.016795818
115	0xbd84ff89	-0.06494052
116	0xbde56d99	-0.11202545
117	0xbe377fa2	-0.17919782
118	0xbcedb1df	-0.02901548
119	0xbd96db3d	-0.07366035
120	0x3dcd26f9	0.10017199
121	0x3e14cee2	0.14532045
122	0x3c3005be	0.010743557
123	0xbcff9453	-0.031198656
124	0xbe77510f	-0.24152015
125	0xbd801ba2	-0.062552705
126	0xbcde291e	-0.027119216
127	0xbd1a5563	-0.037679087
128	0xbd9c0373	-0.076178454
129	0xba339203	-0.00068500655
130	0xbdb06e96	-0.086148426
131	0xbc895867	-0.016765786
132	0xbcf84bdc	-0.03030961
133	0x3d95dfcd	0.07318077
134	0xbc82ce17	-0.015967412
135	0xbdb86ecf	-0.0900551
136	0xbe20b0ae	-0.15692398
137	0xbc2e0742	-0.010621848
138	0xbd449ea7	-0.048002865
139	0x3e3d02c5	0.18458088
140	0x3e7e474d	0.24831887
141	0x3d9710de	0.07376264
142	0xbd8ca7cc	-0.06867942
143	0xbd42ff1c	-0.047606573
144	0xbd486527	-0.04892459
145	0x3d6b936a	0.057513632
146	0xbe83d004	-0.2574464
147	0xbced6206	-0.028977405
148	0xb6ce26b0	-6.1437822e-06
149	0xbde18d3f	-0.11013269
150	0xbe12a794	-0.14321738
151	0xbe4c88ea	-0.19974104
152	0xbdd75347	-0.10513931
153	0xbe2c24aa	-0.16810861
154	0x3e2a7304	0.16645437
155	0xbe095321	-0.13410617
156	0xbc06c5eb	-0.008225898
157	0x3e5edd1a	0.21764031
158	0xbc277de6	-0.010222888
159	0xbd84861d	-0.064708926
160	0xbd7a74fa	-0.061146714
161	0xbc3cb7ed	-0.011518461
162	0x3df4c55e	0.11951707
163	0xbd2a4377	-0.041568246
164	0xbe2617a6	-0.16219959
165	0x3c950801	0.018192293
166	0x3dda9740	0.1067338
167	0xbda5a398	-0.08087844
168	0xbe5047ab	-0.20339839
169	0xbcf1cf34	-0.029517747
170	0xbd1ab268	-0.037767798
171	0xbe319157	-0.17340599
172	0xbe3501de	-0.17676494
173	0xbd83387a	-0.064072564
174	0xbe3b810a	-0.18310943
175	0xb943e1b1	-0.00018680726
176	0xbca53d09	-0.020170705
177	0xbd3db65d	-0.046316493
178	0xbdc9d534	-0.098551184
179	0x3d128ecb	0.03578071
180	0x3d8414f9	0.06449313
181	0x3d8282a0	0.06372571
182	0x3d20605c	0.039154395
183	0xbd6dea7f	-0.05808496
184	0xbd2a091b	-0.04151259
185	0xbe431b98	-0.19053495
186	0xbe3417e4	-0.17587239
187	0x3e4a4879	0.19754209
188	0x3e13b52b	0.14424579
189	0x9760d7a2	-7.265047e-25
190	0xbe26e1e1	-0.16297103
191	0xbd852140	-0.065004826
192	0xbd4020d3	-0.046906304
193	0xbd16ae78	-0.03678748
194	0xbe5af506	-0.21382532
195	0x3ceb166c	0.028697215
196	0xbda5fcfc	-0.081048936
197	0xbdab1ea3	-0.08355453
198	0xbdf31dbf	-0.11870908
199	0xbd86f49c	-0.06589624
200	0xbd26f4c7	-0.04076078
201	0xbd31bed2	-0.04339487
202	0xbc661888	-0.014043935
203	0xbdeb3c1c	-0.11486074
204	0xbde838b9	-0.11338944
205	0xbd034f1f	-0.032057878
206	0xbd619eff	-0.05508327
207	0x3e0943cf	0.13404773
208	0xbde8555c	-0.11344406
209	0xbe470367	-0.19434892
210	0xbd51ba5f	-0.051203128
211	0xbd6798e7	-0.056542303
212	0xbe0c1bc5	-0.13682468
213	0xbdabef58	-0.083952606
214	0xbe2443ba	-0.1604146
215	0xbe1e29a6	-0.15445575
216	0xbd5842e6	-0.052798174
217	0xbe339216	-0.17536196
218	0x3ca7551a	0.020426322
219	0x3e2ee070	0.17077804
220	0x3bc913e9	0.0061364067
221	0xbde98841	-0.114029415
222	0xbe5b83da	-0.21437016
223	0xbd6d85d0	-0.05798894
224	0xb780947a	-1.5327929e-05
225	0xba840493	-0.0010072164
226	0xbe56eae1	-0.20988037
227	0xbdb3b71f	-0.08775162
228	0xbe08721d	-0.13324781
229	0xbe38c385	-0.18043335
230	0xbe2a841d	-0.1665196
231	0xbe4f7aa9	-0.20261635
232	0xbe278612	-0.16359738
233	0xbdd35531	-0.10318983
234	0xbdab1c13	-0.08354964
235	0xbdd0bcf8	-0.10192293
236	0xbc8e0e4d	-0.017340804
237	0xbda8ceb7	-0.08242553
238	0xbd2245bf	-0.039617296
239	0xbbd715e9	-0.006563891
240	0xbdde0232	-0.108402625
241	0xbe572aa4	-0.2101236
242	0xbd0fee48	-0.035139352
243	0xbd04591b	-0.03231154
244	0xbe56973b	-0.20956127
245	0xbdb7995d	-0.089647986
246	0x3d1775d8	0.03697762
247	0xbd475087	-0.04866078
248	0xba84112a	-0.0010075916
249	0xbcce6522	-0.025194708
250	0xbccfdec7	-0.025374783
251	0xbd49b9c9	-0.049249444
252	0x3cd42f04	0.025901325
253	0x3de22587	0.11042314
254	0xbd0a47ba	-0.03375981
255	0xbdd6d6a2	-0.10490157
